formal/realworld/mutag/model_weights/GIN_mutag.pth (torch, 14468 bytes, 14 tensors)

mlp1.weight f4 [32, 14]
0	0xbd130f96	-0.035903536
1	0x3de44029	0.1114505
2	0xbe84ad78	-0.25913596
3	0xbe7c6688	-0.24648488
4	0x3e3ce788	0.18447697
5	0x3e739723	0.23788123
6	0x3e83ed1f	0.25766847
7	0x3e6241e2	0.22095445
8	0xbdd81d53	-0.10552468
9	0x3dae78a0	0.08519101
10	0x3caa6ee3	0.020804828
11	0x3ca587a0	0.020206273
12	0x8b7c3439	-4.8572723e-32
13	0x800017c2	-8.523e-42
14	0xbcabb9e3	-0.020962661
15	0x3e186fa4	0.14886338
16	0x3e226ef6	0.1586264
17	0x3c0c5418	0.008564971
18	0x3e63fe4b	0.22264974
19	0x3e68c00c	0.2272951
20	0x3d1607d7	0.03662857
21	0x3d9007fa	0.070327714
22	0x3daaba22	0.08336283
23	0x1c7e168f	8.4070707e-22
24	0x0000071e	2.553e-42
25	0x1da4a783	4.358364e-21
26	0x8da0b54e	-9.904409e-31
27	0x0a0b1188	6.695904e-33
28	0xbeb001cb	-0.34376368
29	0xbe75fda7	-0.24022542
30	0x3e8def23	0.2772151
31	0x3bd3ee13	0.0064675896
32	0x3e5de4e0	0.2166934
33	0xbc9ca49d	-0.019121462
34	0xbca78154	-0.02044741
35	0xbe4e9156	-0.20172629
36	0xbe4eacea	-0.20183149
37	0x3e76ed7e	0.24114034
38	0x3e943409	0.2894595
39	0x3e8b70c5	0.27234474
40	0x800035ef	-1.9348e-41
41	0x9e2bab45	-9.088082e-21
42	0xbd84e96f	-0.064898364
43	0xbc8d015f	-0.017212568
44	0x3e7a5259	0.24445476
45	0xbd1949fc	-0.037424073
46	0x3d3b0031	0.04565448
47	0x3e4c38af	0.19943498
48	0x3e37c27b	0.17945282
49	0x3e4a1b57	0.19736992
50	0xbe27e957	-0.16397606
51	0x8aba48c7	-1.7938524e-32
52	0x967c0537	-2.0358043e-25
53	0x80008d4f	-5.0692e-41
54	0x000037c9	2.0012e-41
55	0x92ab38c8	-1.0805615e-27
56	0xbe0b7f11	-0.1362269
57	0x3d6c421c	0.057680234
58	0x3ec340e2	0.3813544
59	0x3e15f140	0.14642811
60	0xbca7152b	-0.020395836
61	0x3e9e8c5d	0.30966464
62	0x3e8d6439	0.27615526
63	0xbe366936	-0.17813572
64	0x3e6c2b56	0.23063406
65	0x3913c92e	0.00014093958
66	0x80cd0fd9	-1.8831962e-38
67	0xa08a15b7	-2.339248e-19
68	0x00cb840e	1.8689978e-38
69	0x00001155	6.218e-42
70	0xbde03a3c	-0.10948607
71	0x3c80a3dd	0.015703136
72	0x3e96141b	0.29312214
73	0x3ec0f647	0.37687895
74	0x3e038cda	0.128467
75	0x3d42737d	0.04747342
76	0x3df5a70d	0.11994753
77	0x3e9d779b	0.30755314
78	0xbe56f928	-0.20993483
79	0xb4e6e8fe	-4.3010363e-07
80	0x00002c7b	1.5957e-41
81	0x0885b3b7	8.046897e-34
82	0x870a0565	-1.0383551e-34
83	0x000015a0	7.758e-42
84	0xbe66cb18	-0.22538412
85	0xbcef321c	-0.029198699
86	0x3dc0d320	0.09415269
87	0x3e78765a	0.24263898
88	0x3e0e47a4	0.13894516
89	0xbbd1c90c	-0.0064021405
90	0xbc0fc0fb	-0.0087740375
91	0xbe7f3140	-0.24921131
92	0xbdb8604f	-0.090027444
93	0xb5f49bf7	-1.8224808e-06
94	0x3d608009	0.054809604
95	0x3d78b049	0.060714994
96	0x800019d1	-9.261e-42
97	0x80000168	-5.04e-43
98	0x3e84b443	0.2591878
99	0xbd94cfe9	-0.07266218
100	0xbf1ce314	-0.61283994
101	0x3ca4e26b	0.020127496
102	0xbdae66e1	-0.08515716
103	0xbe48152d	-0.19539328
104	0xbe4b2b13	-0.1984065
105	0x3e48cb6f	0.19608854
106	0x3e9941c9	0.29933003
107	0xbb8c80e5	-0.0042878264
108	0x3cb9f9ce	0.022702124
109	0x3ce1c5e5	0.027560184
110	0x00001e1c	1.0801e-41
111	0x1460ca3a	1.1348992e-26
112	0xbe4f3f03	-0.20238881
113	0x3e88a47e	0.26687998
114	0xbe854b01	-0.26033786
115	0x3d1b00b6	0.037842475
116	0x3e7c4a85	0.24637802
117	0x8cc2f5a2	-3.0038268e-31
118	0x1c240f29	5.428264e-22
119	0xbca4654d	-0.020067835
120	0xbc18c1d7	-0.009323559
121	0x054a4971	9.5114834e-36
122	0x3e276c5f	0.16349934
123	0x3dd82c12	0.10555281
124	0x00001146	6.197e-42
125	0x00002c0b	1.58e-41
126	0x3e698476	0.22804436
127	0x3990fc6b	0.00027653886
128	0xbecc1a12	-0.3986364
129	0x3e61aff3	0.22039776
130	0xbe5635ef	-0.20919012
131	0xbda00913	-0.07814231
132	0xbe1291c3	-0.14313416
133	0x3e62351e	0.22090575
134	0x3e742adf	0.23844479
135	0x3dba7e24	0.09106091
136	0x065a49b7	4.10554e-35
137	0x800013f2	-7.155e-42
138	0x1c043759	4.374667e-22
139	0x00001a71	9.485e-42
140	0xbe213de6	-0.15746269
141	0x3eea43ae	0.4575476
142	0xbdcbd9cd	-0.099536516
143	0xbe4fa94a	-0.20279422
144	0xbe285118	-0.16437185
145	0x941c25d6	-7.883449e-27
146	0xbb8e5b79	-0.0043444005
147	0x3d9d293c	0.076738805
148	0xbd6c4d29	-0.057690773
149	0x800053dc	-3.0083e-41
150	0x3df78424	0.12085751
151	0x3da3923a	0.07986875
152	0x9038e6dc	-3.646545e-29
153	0x943eec3f	-9.63914e-27
154	0x3da6e369	0.08148844
155	0xbe3b11db	-0.1826853
156	0x3f0d53e6	0.55206144
157	0xbde8d23b	-0.11368223
158	0xbe54c43b	-0.20777981
159	0x3f1b6d03	0.60713214
160	0x3e463942	0.1935778
161	0xbe5bb7f5	-0.21456893
162	0xbd1a0a8b	-0.03760771
163	0x3e3d97bc	0.18514913
164	0x3c47b439	0.0121889645
165	0x3d15e6f4	0.036597207
166	0x8000211b	-1.1876e-41
167	0x92ed5bc1	-1.4979422e-27
168	0xbd65e517	-0.05612668
169	0x3db974cc	0.0905548
170	0x3f390766	0.72276914
171	0xbe815cb6	-0.25266045
172	0x3c9c4490	0.019075662
173	0x3f41643f	0.7554359
174	0x3eb3691f	0.3504114
175	0x3d9c4a8e	0.07631408
176	0xbe1ea9de	-0.15494487
177	0x3e7ace3b	0.24492733
178	0x3ba30591	0.004975029
179	0x3ccb4b15	0.024816075
180	0x8b8ff270	-5.5446376e-32
181	0x909337a8	-5.806703e-29
182	0x3d15c9a1	0.03656924
183	0x3dfacfcc	0.12246665
184	0x3e1363c0	0.1439352
185	0x3c4a39d2	0.012342887
186	0x3e958f17	0.2921073
187	0xbd6c6978	-0.05771777
188	0x3e489faa	0.19592157
189	0xbd84d3bd	-0.06485698
190	0xbda2ae41	-0.079433925
191	0xbdb5484c	-0.0885168
192	0xbd02618f	-0.03183132
193	0xbd27c83e	-0.04096245
194	0x808e20e0	-1.3052434e-38
195	0x9093d003	-5.830177e-29
196	0x3e5fb425	0.21846063
197	0xbe8cc9a4	-0.2749759
198	0x3da73518	0.08164424
199	0x3be895d1	0.0070979376
200	0x3e0ed834	0.13949662
201	0x3ec5ba03	0.38618478
202	0x3e3a5790	0.18197465
203	0xbd1246f1	-0.035712186
204	0xbdc79ba3	-0.09746482
205	0x3eb5a969	0.35480812
206	0x0c9cb39e	2.414371e-31
207	0x800052b1	-2.9664e-41
208	0x0fba29a4	1.8357055e-29
209	0x94922704	-1.4757622e-26
210	0x3de94e7b	0.11391922
211	0x3da13a78	0.0787248
212	0x3e8b5981	0.27216724
213	0xbe80715e	-0.25086492
214	0x3e27e0b2	0.16394308
215	0x3e2fa9da	0.17154637
216	0x3e85a5f5	0.26103178
217	0x3d8aed79	0.067835756
218	0xbd80717c	-0.062716454
219	0xbafec73d	-0.001943804
220	0xbd1dbdac	-0.038510963
221	0xbd68f493	-0.05687387
222	0x13489867	2.531869e-27
223	0x0000026f	8.73e-43
224	0x3e41c217	0.18921696
225	0x3e15e86d	0.14639445
226	0xbefa31fd	-0.48866263
227	0x3db6bd54	0.0892283
228	0x3e3c76c0	0.18404675
229	0xbecccc34	-0.39999545
230	0xbdbfd35e	-0.09366487
231	0x3e062e52	0.13103607
232	0x3e3e3673	0.18575458
233	0xbe825dc5	-0.25462165
234	0x8632754f	-3.3564264e-35
235	0x124083f4	6.074716e-28
236	0x001bf463	2.567228e-39
237	0x0d1f6699	4.9119155e-31
238	0x3ccf4132	0.025299642
239	0xbe002214	-0.12513
240	0x3e8e3877	0.27777454
241	0x3e8447a4	0.25835907
242	0xbe6acd12	-0.2292979
243	0x3e243fa2	0.16039899
244	0x3e287b02	0.16453174
245	0xbca43769	-0.020045953
246	0xbd97e681	-0.07417012
247	0x3d252739	0.04032061
248	0xbc1201c0	-0.00891155
249	0xbc8191d6	-0.01581661
250	0x0ce7ada5	3.5695694e-31
251	0x84da2b77	-5.129147e-36
252	0x3e5337f1	0.20626809
253	0xbe76cebd	-0.24102302
254	0x3d1c8fef	0.038223203
255	0x3de4d9ff	0.11174392

mlp1.bias f4 [32]
0	0x3e08b1ec	0.13349122
1	0xbe2ae1d9	-0.16687717
2	0x3eb9ed7e	0.36314005
3	0xbc8b9ae9	-0.01704164
4	0xbe063185	-0.13104828
5	0xbd50c28b	-0.05096678
6	0x3da283c0	0.079352856
7	0x3d7a5346	0.061114572
8	0x3dcf87d5	0.1013333
9	0xbe6818ad	-0.22665663
10	0x3cef234d	0.029191637
11	0x3d84f714	0.06492439
12	0x3e9bf337	0.30458996
13	0x3e346e9c	0.17620319
14	0xbe66443f	-0.22486971
15	0x3e600b48	0.21879303
16	0xbe2ee8b7	-0.17080961
17	0x3e2fec49	0.1717998
18	0x3ca15013	0.019691503
19	0xbe6247b6	-0.22097668
20	0xbab1bf19	-0.001356098
21	0x3e90aeda	0.282584
22	0x3dc0ff75	0.094237246
23	0xbe715ade	-0.2356982
24	0xbe0dfa80	-0.1386509
25	0xbdab4f2f	-0.083647124
26	0x3e412134	0.18860322
27	0x3dc5b7b4	0.09654179
28	0xbdcff800	-0.10154724
29	0x3d183c1d	0.037166703
30	0x3d62612e	0.05526846
31	0x3d831bf8	0.06401819

conv1.nn.weight f4 [32, 14]
0	0xbd130f96	-0.035903536
1	0x3de44029	0.1114505
2	0xbe84ad78	-0.25913596
3	0xbe7c6688	-0.24648488
4	0x3e3ce788	0.18447697
5	0x3e739723	0.23788123
6	0x3e83ed1f	0.25766847
7	0x3e6241e2	0.22095445
8	0xbdd81d53	-0.10552468
9	0x3dae78a0	0.08519101
10	0x3caa6ee3	0.020804828
11	0x3ca587a0	0.020206273
12	0x8b7c3439	-4.8572723e-32
13	0x800017c2	-8.523e-42
14	0xbcabb9e3	-0.020962661
15	0x3e186fa4	0.14886338
16	0x3e226ef6	0.1586264
17	0x3c0c5418	0.008564971
18	0x3e63fe4b	0.22264974
19	0x3e68c00c	0.2272951
20	0x3d1607d7	0.03662857
21	0x3d9007fa	0.070327714
22	0x3daaba22	0.08336283
23	0x1c7e168f	8.4070707e-22
24	0x0000071e	2.553e-42
25	0x1da4a783	4.358364e-21
26	0x8da0b54e	-9.904409e-31
27	0x0a0b1188	6.695904e-33
28	0xbeb001cb	-0.34376368
29	0xbe75fda7	-0.24022542
30	0x3e8def23	0.2772151
31	0x3bd3ee13	0.0064675896
32	0x3e5de4e0	0.2166934
33	0xbc9ca49d	-0.019121462
34	0xbca78154	-0.02044741
35	0xbe4e9156	-0.20172629
36	0xbe4eacea	-0.20183149
37	0x3e76ed7e	0.24114034
38	0x3e943409	0.2894595
39	0x3e8b70c5	0.27234474
40	0x800035ef	-1.9348e-41
41	0x9e2bab45	-9.088082e-21
42	0xbd84e96f	-0.064898364
43	0xbc8d015f	-0.017212568
44	0x3e7a5259	0.24445476
45	0xbd1949fc	-0.037424073
46	0x3d3b0031	0.04565448
47	0x3e4c38af	0.19943498
48	0x3e37c27b	0.17945282
49	0x3e4a1b57	0.19736992
50	0xbe27e957	-0.16397606
51	0x8aba48c7	-1.7938524e-32
52	0x967c0537	-2.0358043e-25
53	0x80008d4f	-5.0692e-41
54	0x000037c9	2.0012e-41
55	0x92ab38c8	-1.0805615e-27
56	0xbe0b7f11	-0.1362269
57	0x3d6c421c	0.057680234
58	0x3ec340e2	0.3813544
59	0x3e15f140	0.14642811
60	0xbca7152b	-0.020395836
61	0x3e9e8c5d	0.30966464
62	0x3e8d6439	0.27615526
63	0xbe366936	-0.17813572
64	0x3e6c2b56	0.23063406
65	0x3913c92e	0.00014093958
66	0x80cd0fd9	-1.8831962e-38
67	0xa08a15b7	-2.339248e-19
68	0x00cb840e	1.8689978e-38
69	0x00001155	6.218e-42
70	0xbde03a3c	-0.10948607
71	0x3c80a3dd	0.015703136
72	0x3e96141b	0.29312214
73	0x3ec0f647	0.37687895
74	0x3e038cda	0.128467
75	0x3d42737d	0.04747342
76	0x3df5a70d	0.11994753
77	0x3e9d779b	0.30755314
78	0xbe56f928	-0.20993483
79	0xb4e6e8fe	-4.3010363e-07
80	0x00002c7b	1.5957e-41
81	0x0885b3b7	8.046897e-34
82	0x870a0565	-1.0383551e-34
83	0x000015a0	7.758e-42
84	0xbe66cb18	-0.22538412
85	0xbcef321c	-0.029198699
86	0x3dc0d320	0.09415269
87	0x3e78765a	0.24263898
88	0x3e0e47a4	0.13894516
89	0xbbd1c90c	-0.0064021405
90	0xbc0fc0fb	-0.0087740375
91	0xbe7f3140	-0.24921131
92	0xbdb8604f	-0.090027444
93	0xb5f49bf7	-1.8224808e-06
94	0x3d608009	0.054809604
95	0x3d78b049	0.060714994
96	0x800019d1	-9.261e-42
97	0x80000168	-5.04e-43
98	0x3e84b443	0.2591878
99	0xbd94cfe9	-0.07266218
100	0xbf1ce314	-0.61283994
101	0x3ca4e26b	0.020127496
102	0xbdae66e1	-0.08515716
103	0xbe48152d	-0.19539328
104	0xbe4b2b13	-0.1984065
105	0x3e48cb6f	0.19608854
106	0x3e9941c9	0.29933003
107	0xbb8c80e5	-0.0042878264
108	0x3cb9f9ce	0.022702124
109	0x3ce1c5e5	0.027560184
110	0x00001e1c	1.0801e-41
111	0x1460ca3a	1.1348992e-26
112	0xbe4f3f03	-0.20238881
113	0x3e88a47e	0.26687998
114	0xbe854b01	-0.26033786
115	0x3d1b00b6	0.037842475
116	0x3e7c4a85	0.24637802
117	0x8cc2f5a2	-3.0038268e-31
118	0x1c240f29	5.428264e-22
119	0xbca4654d	-0.020067835
120	0xbc18c1d7	-0.009323559
121	0x054a4971	9.5114834e-36
122	0x3e276c5f	0.16349934
123	0x3dd82c12	0.10555281
124	0x00001146	6.197e-42
125	0x00002c0b	1.58e-41
126	0x3e698476	0.22804436
127	0x3990fc6b	0.00027653886
128	0xbecc1a12	-0.3986364
129	0x3e61aff3	0.22039776
130	0xbe5635ef	-0.20919012
131	0xbda00913	-0.07814231
132	0xbe1291c3	-0.14313416
133	0x3e62351e	0.22090575
134	0x3e742adf	0.23844479
135	0x3dba7e24	0.09106091
136	0x065a49b7	4.10554e-35
137	0x800013f2	-7.155e-42
138	0x1c043759	4.374667e-22
139	0x00001a71	9.485e-42
140	0xbe213de6	-0.15746269
141	0x3eea43ae	0.4575476
142	0xbdcbd9cd	-0.099536516
143	0xbe4fa94a	-0.20279422
144	0xbe285118	-0.16437185
145	0x941c25d6	-7.883449e-27
146	0xbb8e5b79	-0.0043444005
147	0x3d9d293c	0.076738805
148	0xbd6c4d29	-0.057690773
149	0x800053dc	-3.0083e-41
150	0x3df78424	0.12085751
151	0x3da3923a	0.07986875
152	0x9038e6dc	-3.646545e-29
153	0x943eec3f	-9.63914e-27
154	0x3da6e369	0.08148844
155	0xbe3b11db	-0.1826853
156	0x3f0d53e6	0.55206144
157	0xbde8d23b	-0.11368223
158	0xbe54c43b	-0.20777981
159	0x3f1b6d03	0.60713214
160	0x3e463942	0.1935778
161	0xbe5bb7f5	-0.21456893
162	0xbd1a0a8b	-0.03760771
163	0x3e3d97bc	0.18514913
164	0x3c47b439	0.0121889645
165	0x3d15e6f4	0.036597207
166	0x8000211b	-1.1876e-41
167	0x92ed5bc1	-1.4979422e-27
168	0xbd65e517	-0.05612668
169	0x3db974cc	0.0905548
170	0x3f390766	0.72276914
171	0xbe815cb6	-0.25266045
172	0x3c9c4490	0.019075662
173	0x3f41643f	0.7554359
174	0x3eb3691f	0.3504114
175	0x3d9c4a8e	0.07631408
176	0xbe1ea9de	-0.15494487
177	0x3e7ace3b	0.24492733
178	0x3ba30591	0.004975029
179	0x3ccb4b15	0.024816075
180	0x8b8ff270	-5.5446376e-32
181	0x909337a8	-5.806703e-29
182	0x3d15c9a1	0.03656924
183	0x3dfacfcc	0.12246665
184	0x3e1363c0	0.1439352
185	0x3c4a39d2	0.012342887
186	0x3e958f17	0.2921073
187	0xbd6c6978	-0.05771777
188	0x3e489faa	0.19592157
189	0xbd84d3bd	-0.06485698
190	0xbda2ae41	-0.079433925
191	0xbdb5484c	-0.0885168
192	0xbd02618f	-0.03183132
193	0xbd27c83e	-0.04096245
194	0x808e20e0	-1.3052434e-38
195	0x9093d003	-5.830177e-29
196	0x3e5fb425	0.21846063
197	0xbe8cc9a4	-0.2749759
198	0x3da73518	0.08164424
199	0x3be895d1	0.0070979376
200	0x3e0ed834	0.13949662
201	0x3ec5ba03	0.38618478
202	0x3e3a5790	0.18197465
203	0xbd1246f1	-0.035712186
204	0xbdc79ba3	-0.09746482
205	0x3eb5a969	0.35480812
206	0x0c9cb39e	2.414371e-31
207	0x800052b1	-2.9664e-41
208	0x0fba29a4	1.8357055e-29
209	0x94922704	-1.4757622e-26
210	0x3de94e7b	0.11391922
211	0x3da13a78	0.0787248
212	0x3e8b5981	0.27216724
213	0xbe80715e	-0.25086492
214	0x3e27e0b2	0.16394308
215	0x3e2fa9da	0.17154637
216	0x3e85a5f5	0.26103178
217	0x3d8aed79	0.067835756
218	0xbd80717c	-0.062716454
219	0xbafec73d	-0.001943804
220	0xbd1dbdac	-0.038510963
221	0xbd68f493	-0.05687387
222	0x13489867	2.531869e-27
223	0x0000026f	8.73e-43
224	0x3e41c217	0.18921696
225	0x3e15e86d	0.14639445
226	0xbefa31fd	-0.48866263
227	0x3db6bd54	0.0892283
228	0x3e3c76c0	0.18404675
229	0xbecccc34	-0.39999545
230	0xbdbfd35e	-0.09366487
231	0x3e062e52	0.13103607
232	0x3e3e3673	0.18575458
233	0xbe825dc5	-0.25462165
234	0x8632754f	-3.3564264e-35
235	0x124083f4	6.074716e-28
236	0x001bf463	2.567228e-39
237	0x0d1f6699	4.9119155e-31
238	0x3ccf4132	0.025299642
239	0xbe002214	-0.12513
240	0x3e8e3877	0.27777454
241	0x3e8447a4	0.25835907
242	0xbe6acd12	-0.2292979
243	0x3e243fa2	0.16039899
244	0x3e287b02	0.16453174
245	0xbca43769	-0.020045953
246	0xbd97e681	-0.07417012
247	0x3d252739	0.04032061
248	0xbc1201c0	-0.00891155
249	0xbc8191d6	-0.01581661
250	0x0ce7ada5	3.5695694e-31
251	0x84da2b77	-5.129147e-36
252	0x3e5337f1	0.20626809
253	0xbe76cebd	-0.24102302
254	0x3d1c8fef	0.038223203
255	0x3de4d9ff	0.11174392

conv1.nn.bias f4 [32]
0	0x3e08b1ec	0.13349122
1	0xbe2ae1d9	-0.16687717
2	0x3eb9ed7e	0.36314005
3	0xbc8b9ae9	-0.01704164
4	0xbe063185	-0.13104828
5	0xbd50c28b	-0.05096678
6	0x3da283c0	0.079352856
7	0x3d7a5346	0.061114572
8	0x3dcf87d5	0.1013333
9	0xbe6818ad	-0.22665663
10	0x3cef234d	0.029191637
11	0x3d84f714	0.06492439
12	0x3e9bf337	0.30458996
13	0x3e346e9c	0.17620319
14	0xbe66443f	-0.22486971
15	0x3e600b48	0.21879303
16	0xbe2ee8b7	-0.17080961
17	0x3e2fec49	0.1717998
18	0x3ca15013	0.019691503
19	0xbe6247b6	-0.22097668
20	0xbab1bf19	-0.001356098
21	0x3e90aeda	0.282584
22	0x3dc0ff75	0.094237246
23	0xbe715ade	-0.2356982
24	0xbe0dfa80	-0.1386509
25	0xbdab4f2f	-0.083647124
26	0x3e412134	0.18860322
27	0x3dc5b7b4	0.09654179
28	0xbdcff800	-0.10154724
29	0x3d183c1d	0.037166703
30	0x3d62612e	0.05526846
31	0x3d831bf8	0.06401819

mlp2.weight f4 [32, 32]
0	0xbdd6c84f	-0.104874246
1	0xbe031be1	-0.12803604
2	0x3e2fce21	0.17168476
3	0xbd8661a3	-0.065615915
4	0xbdeef37e	-0.11667536
5	0xbd4f9830	-0.050682247
6	0x3cb3977d	0.021922821
7	0xbd7bc059	-0.061462734
8	0xbe6c9dbb	-0.23107044
9	0xbd034cb5	-0.032055575
10	0xbf06b569	-0.5262056
11	0x3e16f1d9	0.14740695
12	0x3e4b68b4	0.1986416
13	0xbbaaca82	-0.005212129
14	0x3e0690d9	0.13141192
15	0x3c72b743	0.014814201
16	0xbdd0c528	-0.101938546
17	0x3d80ba9c	0.06285593
18	0x3d27e9b3	0.040994357
19	0x3e224c8b	0.15849511
20	0xbd988df8	-0.074489534
21	0xbd97e547	-0.07416778
22	0x3e83cc22	0.25741678
23	0xbd242eee	-0.04008382
24	0x3cb20dcd	0.021735096
25	0xbcd09bd1	-0.025464924
26	0xbe6a1f37	-0.2286347
27	0x3e1a7b03	0.15085988
28	0xbd8c2ab7	-0.06844085
29	0xbe10f717	-0.14156757
30	0x3e01584f	0.12631343
31	0xbe48b997	-0.19602047
32	0xb8a388f7	-7.7979574e-05
33	0xb3107656	-3.363524e-08
34	0xb7474001	-1.1876226e-05
35	0xae38e768	-4.2042286e-11
36	0x2f114ce4	1.321499e-10
37	0xbaada94c	-0.0013249307
38	0xb9a73f16	-0.00031899725
39	0xbbb3eba4	-0.005490737
40	0xb992e047	-0.0002801439
41	0xbb0cebe9	-0.0021502918
42	0xb7f20cab	-2.8854547e-05
43	0x368bfe1b	4.1721046e-06
44	0xb70884ac	-8.137122e-06
45	0xbbfffe70	-0.0078123137
46	0xbb06a7f3	-0.0020546883
47	0xbb9197ab	-0.004443129
48	0xbbb4da7a	-0.0055192085
49	0xba758c63	-0.00093669276
50	0xbc1264b9	-0.008935147
51	0x2e5db520	5.0410454e-11
52	0xba0c89b5	-0.0005361096
53	0xbbf975fe	-0.0076129427
54	0xaed14dae	-9.518018e-11
55	0xbb9e482e	-0.004830382
56	0xba966eb0	-0.0011477079
57	0xb4edf410	-4.432227e-07
58	0xba0dda01	-0.0005411208
59	0xbb751482	-0.0037396257
60	0xbbc95d40	-0.0061451495
61	0xac8aa37d	-3.9403467e-12
62	0x392fd785	0.00016769588
63	0xb6e6e180	-6.880786e-06
64	0xbbf409da	-0.0074474635
65	0x3e0075fb	0.12545006
66	0xbe2d59aa	-0.16928735
67	0x3e855b15	0.26046053
68	0x3e628b2f	0.22123407
69	0x3e0a9de5	0.13536794
70	0xbd95a8ea	-0.073076084
71	0xbe13079c	-0.14358371
72	0xbe254575	-0.16139777
73	0xbe14790e	-0.14499304
74	0x3e55ab63	0.2086616
75	0x3e54ca90	0.20780396
76	0x3e9c6367	0.30544588
77	0x3e292286	0.16517076
78	0xbd99aa55	-0.075031914
79	0xbb2ea8da	-0.0026650936
80	0xbe23cb0f	-0.1599543
81	0x3e4b4d16	0.19853625
82	0xbd6a3af9	-0.057185147
83	0x3e9bcfe4	0.30432045
84	0x3ca950d7	0.02066843
85	0xbd05ed82	-0.03269721
86	0x3ecd0155	0.4004008
87	0xbea27e43	-0.31736955
88	0xbcd7779e	-0.026302155
89	0xbe4296d9	-0.19002856
90	0x3e9b98f0	0.3039012
91	0x3d0292a0	0.031878114
92	0xbdd888db	-0.10572978
93	0x3ebfe22f	0.37477252
94	0x3e50d7b8	0.2039479
95	0xbe29ac05	-0.16569526
96	0x3c8212d0	0.015878111
97	0x3e9d2f7c	0.3070029
98	0xbe5fa475	-0.21840079
99	0x3d8c099c	0.0683777
100	0x3c994ae3	0.018712467
101	0xbc4e2f10	-0.012584463
102	0x3e22706a	0.15863195
103	0x3d8c8768	0.06861764
104	0x3cb9dba9	0.02268775
105	0x3d9ae441	0.07563067
106	0xbea4b85f	-0.32171914
107	0xbd73dd06	-0.059536956
108	0xbe2ca5cf	-0.16860126
109	0x3e02c2a2	0.12769559
110	0xbd8d4021	-0.06896997
111	0xba5885b6	-0.00082596706
112	0x3cc01292	0.023446355
113	0x3e018b33	0.12650757
114	0xbdf90580	-0.12159252
115	0x3e898b5b	0.26864132
116	0x3bab8498	0.0052343123
117	0x3dc9fc6f	0.09862601
118	0xbe11738f	-0.14204238
119	0xbd5f81ea	-0.054567255
120	0xbe486f98	-0.1957382
121	0xbe1bd398	-0.15217435
122	0xbd40d66e	-0.047079496
123	0xbd681c2a	-0.056667484
124	0x3dfb65f0	0.122753024
125	0xbc665036	-0.01405721
126	0xbd428c04	-0.04749681
127	0x3e81eeb7	0.25377437
128	0x3dc3b5c0	0.095561504
129	0xbe708946	-0.23489866
130	0x3eadbaf3	0.33931693
131	0xbdacce81	-0.08437825
132	0xbe352913	-0.1769145
133	0xbcb185d7	-0.021670265
134	0x3d076de6	0.03306379
135	0x3c5b29d0	0.013376668
136	0x3d93c87c	0.07215974
137	0xbaf92450	-0.0019008014
138	0x3e83b76b	0.25725874
139	0xbe1e9362	-0.1548591
140	0xba3d2669	-0.00072155014
141	0x3dbffcdb	0.093744
142	0x3d4239f1	0.04741854
143	0xbdf622e9	-0.12018377
144	0x3ab8e0f0	0.0014105123
145	0xbd5a2413	-0.05325706
146	0x3dab141c	0.08353445
147	0xbe2dfcee	-0.16991016
148	0xbce8bc6d	-0.02841016
149	0xbd2c2828	-0.042030483
150	0x3da94fdf	0.08267187
151	0x3e0aadf7	0.13542925
152	0xbe13f536	-0.1444901
153	0xbb0e9b3e	-0.0021760012
154	0x3c488d39	0.012240701
155	0x3e110a0b	0.14163987
156	0x3dc89014	0.09793106
157	0xbdfdcfad	-0.12393127
158	0x3df1e2da	0.118108466
159	0xbc80ee64	-0.015738674
160	0x3d8662c9	0.065618105
161	0x3e2e1a02	0.17002109
162	0xbe505da3	-0.2034822
163	0x3c8af2d2	0.016961489
164	0x3e1fca0a	0.15604416
165	0x3d8f23eb	0.06989273
166	0x3d9630ec	0.0733355
167	0x3d5b58c5	0.053551454
168	0x3e5d0465	0.21583708
169	0x3c17aa4a	0.009256909
170	0x3e182df8	0.14861286
171	0xbe269923	-0.16269355
172	0xbd451ba5	-0.048122067
173	0x3e513292	0.20429447
174	0x3d920969	0.07130701
175	0x3c17bebc	0.009261783
176	0x3e72dbde	0.23716685
177	0xbde06698	-0.10957068
178	0x3db70de5	0.08938197
179	0x3d3b7be4	0.04577245
180	0x3df382c5	0.11890177
181	0x3e2e8d25	0.1704603
182	0xbe40e286	-0.18836412
183	0xbbc392d7	-0.0059684324
184	0xbe2107db	-0.15725653
185	0x3d0a1d37	0.033719268
186	0x3ea0d3de	0.31411642
187	0xbdb03288	-0.08603388
188	0x3e02786b	0.12741248
189	0xbc71f8a7	-0.014768756
190	0xbe5e81c9	-0.21729197
191	0xbe2a712a	-0.16644731
192	0x3e26f2f3	0.16303615
193	0xbe235451	-0.15950133
194	0x3ecaa31d	0.3957757
195	0xbce70a65	-0.028203199
196	0xbd4a416f	-0.04937881
197	0xbdb840a9	-0.08996708
198	0xbd322ff1	-0.04350275
199	0x3e0d3c4f	0.13792537
200	0x3df5f55f	0.120096914
201	0xbcf7a082	-0.030227903
202	0x3d696ee5	0.056990523
203	0x3d24d741	0.040244345
204	0x3df360b4	0.11883679
205	0x3ca554cd	0.020182038
206	0x3e73b4b4	0.23799402
207	0x3dcfb22a	0.10141404
208	0xbe283acf	-0.16428684
209	0xbd4df14f	-0.050278958
210	0x3e37b935	0.17941745
211	0xbe729261	-0.23688652
212	0x3db14420	0.08655572
213	0x3d62d321	0.05537713
214	0x3dbbb28b	0.09164914
215	0xbd3e043c	-0.046390757
216	0x3e4f834b	0.20264928
217	0x3e6f93f7	0.23396288
218	0xbe2427dc	-0.1603083
219	0xbbbe4b54	-0.0058073197
220	0xbde5408d	-0.11193953
221	0xbd405725	-0.046958108
222	0x3e39c75d	0.18142457
223	0x3df306c5	0.118665256
224	0xbbe950db	-0.0071202344
225	0x3e95b14e	0.29236835
226	0xbe99736b	-0.2997087
227	0x3d56b821	0.052421693
228	0x3dc3ab42	0.09554149
229	0x3e060dd7	0.13091217
230	0xbda13082	-0.0787058
231	0x3d36a97e	0.044595234
232	0x3b01aaa3	0.0019785545
233	0x3d74037b	0.05957363
234	0xbea4f114	-0.32215178
235	0xbc14a998	-0.009073637
236	0xbe6eac8b	-0.23308007
237	0x3dc47e45	0.095943965
238	0xbd44a49e	-0.048008554
239	0x3e2a5fba	0.1663808
240	0x3e078073	0.13232593
241	0x3d1a9747	0.037741926
242	0x3d32c40a	0.04364399
243	0x3e61d2f9	0.22053136
244	0xbd751f34	-0.05984421
245	0x3da8456b	0.082163654
246	0xbd9cb334	-0.07651368
247	0xbcb50bcc	-0.022100352
248	0xbd862611	-0.06550229
249	0x3d304404	0.043033615
250	0x3cfc4151	0.030792864
251	0xbc49eb74	-0.012324203
252	0x3dfcc643	0.12342503
253	0xbc353074	-0.011058915
254	0x3d9ee759	0.0775897
255	0x3e680d4c	0.22661322

mlp2.bias f4 [32]
0	0x3d27f7de	0.04100787
1	0xbb0aaeab	-0.002116124
2	0xbc481a9e	-0.012213377
3	0x3e4956f1	0.19662072
4	0x3d3b9d1f	0.04580414
5	0xbd699df8	-0.057035416
6	0x3d38f7f2	0.045158334
7	0xbdf4e7a3	-0.11958244
8	0xbc94c5e9	-0.018160777
9	0xbcaf9bbc	-0.021436565
10	0x3e5e7bae	0.21726868
11	0x3dd3dc12	0.103447095
12	0xbc7b0ee5	-0.015323375
13	0xbbb1b472	-0.005423122
14	0x3d9a8af1	0.07546032
15	0x3da31834	0.07963601
16	0x3df9fb99	0.122061916
17	0xbe082e49	-0.13298906
18	0x3d81a201	0.06329728
19	0x3b1710e0	0.002305083
20	0x3b887a9b	0.0041650063
21	0xbdb409ab	-0.087909065
22	0x3da49420	0.08036065
23	0xbdc5d921	-0.09660555
24	0xbba88ba7	-0.005143601
25	0x3d77897d	0.060433853
26	0xbd8a27f3	-0.06745901
27	0x3df1f818	0.11814898
28	0x3e50c564	0.20387799
29	0x3e2d9643	0.16951852
30	0x3d979886	0.074021384
31	0xbdbfb34d	-0.09360371

conv2.nn.weight f4 [32, 32]
0	0xbdd6c84f	-0.104874246
1	0xbe031be1	-0.12803604
2	0x3e2fce21	0.17168476
3	0xbd8661a3	-0.065615915
4	0xbdeef37e	-0.11667536
5	0xbd4f9830	-0.050682247
6	0x3cb3977d	0.021922821
7	0xbd7bc059	-0.061462734
8	0xbe6c9dbb	-0.23107044
9	0xbd034cb5	-0.032055575
10	0xbf06b569	-0.5262056
11	0x3e16f1d9	0.14740695
12	0x3e4b68b4	0.1986416
13	0xbbaaca82	-0.005212129
14	0x3e0690d9	0.13141192
15	0x3c72b743	0.014814201
16	0xbdd0c528	-0.101938546
17	0x3d80ba9c	0.06285593
18	0x3d27e9b3	0.040994357
19	0x3e224c8b	0.15849511
20	0xbd988df8	-0.074489534
21	0xbd97e547	-0.07416778
22	0x3e83cc22	0.25741678
23	0xbd242eee	-0.04008382
24	0x3cb20dcd	0.021735096
25	0xbcd09bd1	-0.025464924
26	0xbe6a1f37	-0.2286347
27	0x3e1a7b03	0.15085988
28	0xbd8c2ab7	-0.06844085
29	0xbe10f717	-0.14156757
30	0x3e01584f	0.12631343
31	0xbe48b997	-0.19602047
32	0xb8a388f7	-7.7979574e-05
33	0xb3107656	-3.363524e-08
34	0xb7474001	-1.1876226e-05
35	0xae38e768	-4.2042286e-11
36	0x2f114ce4	1.321499e-10
37	0xbaada94c	-0.0013249307
38	0xb9a73f16	-0.00031899725
39	0xbbb3eba4	-0.005490737
40	0xb992e047	-0.0002801439
41	0xbb0cebe9	-0.0021502918
42	0xb7f20cab	-2.8854547e-05
43	0x368bfe1b	4.1721046e-06
44	0xb70884ac	-8.137122e-06
45	0xbbfffe70	-0.0078123137
46	0xbb06a7f3	-0.0020546883
47	0xbb9197ab	-0.004443129
48	0xbbb4da7a	-0.0055192085
49	0xba758c63	-0.00093669276
50	0xbc1264b9	-0.008935147
51	0x2e5db520	5.0410454e-11
52	0xba0c89b5	-0.0005361096
53	0xbbf975fe	-0.0076129427
54	0xaed14dae	-9.518018e-11
55	0xbb9e482e	-0.004830382
56	0xba966eb0	-0.0011477079
57	0xb4edf410	-4.432227e-07
58	0xba0dda01	-0.0005411208
59	0xbb751482	-0.0037396257
60	0xbbc95d40	-0.0061451495
61	0xac8aa37d	-3.9403467e-12
62	0x392fd785	0.00016769588
63	0xb6e6e180	-6.880786e-06
64	0xbbf409da	-0.0074474635
65	0x3e0075fb	0.12545006
66	0xbe2d59aa	-0.16928735
67	0x3e855b15	0.26046053
68	0x3e628b2f	0.22123407
69	0x3e0a9de5	0.13536794
70	0xbd95a8ea	-0.073076084
71	0xbe13079c	-0.14358371
72	0xbe254575	-0.16139777
73	0xbe14790e	-0.14499304
74	0x3e55ab63	0.2086616
75	0x3e54ca90	0.20780396
76	0x3e9c6367	0.30544588
77	0x3e292286	0.16517076
78	0xbd99aa55	-0.075031914
79	0xbb2ea8da	-0.0026650936
80	0xbe23cb0f	-0.1599543
81	0x3e4b4d16	0.19853625
82	0xbd6a3af9	-0.057185147
83	0x3e9bcfe4	0.30432045
84	0x3ca950d7	0.02066843
85	0xbd05ed82	-0.03269721
86	0x3ecd0155	0.4004008
87	0xbea27e43	-0.31736955
88	0xbcd7779e	-0.026302155
89	0xbe4296d9	-0.19002856
90	0x3e9b98f0	0.3039012
91	0x3d0292a0	0.031878114
92	0xbdd888db	-0.10572978
93	0x3ebfe22f	0.37477252
94	0x3e50d7b8	0.2039479
95	0xbe29ac05	-0.16569526
96	0x3c8212d0	0.015878111
97	0x3e9d2f7c	0.3070029
98	0xbe5fa475	-0.21840079
99	0x3d8c099c	0.0683777
100	0x3c994ae3	0.018712467
101	0xbc4e2f10	-0.012584463
102	0x3e22706a	0.15863195
103	0x3d8c8768	0.06861764
104	0x3cb9dba9	0.02268775
105	0x3d9ae441	0.07563067
106	0xbea4b85f	-0.32171914
107	0xbd73dd06	-0.059536956
108	0xbe2ca5cf	-0.16860126
109	0x3e02c2a2	0.12769559
110	0xbd8d4021	-0.06896997
111	0xba5885b6	-0.00082596706
112	0x3cc01292	0.023446355
113	0x3e018b33	0.12650757
114	0xbdf90580	-0.12159252
115	0x3e898b5b	0.26864132
116	0x3bab8498	0.0052343123
117	0x3dc9fc6f	0.09862601
118	0xbe11738f	-0.14204238
119	0xbd5f81ea	-0.054567255
120	0xbe486f98	-0.1957382
121	0xbe1bd398	-0.15217435
122	0xbd40d66e	-0.047079496
123	0xbd681c2a	-0.056667484
124	0x3dfb65f0	0.122753024
125	0xbc665036	-0.01405721
126	0xbd428c04	-0.04749681
127	0x3e81eeb7	0.25377437
128	0x3dc3b5c0	0.095561504
129	0xbe708946	-0.23489866
130	0x3eadbaf3	0.33931693
131	0xbdacce81	-0.08437825
132	0xbe352913	-0.1769145
133	0xbcb185d7	-0.021670265
134	0x3d076de6	0.03306379
135	0x3c5b29d0	0.013376668
136	0x3d93c87c	0.07215974
137	0xbaf92450	-0.0019008014
138	0x3e83b76b	0.25725874
139	0xbe1e9362	-0.1548591
140	0xba3d2669	-0.00072155014
141	0x3dbffcdb	0.093744
142	0x3d4239f1	0.04741854
143	0xbdf622e9	-0.12018377
144	0x3ab8e0f0	0.0014105123
145	0xbd5a2413	-0.05325706
146	0x3dab141c	0.08353445
147	0xbe2dfcee	-0.16991016
148	0xbce8bc6d	-0.02841016
149	0xbd2c2828	-0.042030483
150	0x3da94fdf	0.08267187
151	0x3e0aadf7	0.13542925
152	0xbe13f536	-0.1444901
153	0xbb0e9b3e	-0.0021760012
154	0x3c488d39	0.012240701
155	0x3e110a0b	0.14163987
156	0x3dc89014	0.09793106
157	0xbdfdcfad	-0.12393127
158	0x3df1e2da	0.118108466
159	0xbc80ee64	-0.015738674
160	0x3d8662c9	0.065618105
161	0x3e2e1a02	0.17002109
162	0xbe505da3	-0.2034822
163	0x3c8af2d2	0.016961489
164	0x3e1fca0a	0.15604416
165	0x3d8f23eb	0.06989273
166	0x3d9630ec	0.0733355
167	0x3d5b58c5	0.053551454
168	0x3e5d0465	0.21583708
169	0x3c17aa4a	0.009256909
170	0x3e182df8	0.14861286
171	0xbe269923	-0.16269355
172	0xbd451ba5	-0.048122067
173	0x3e513292	0.20429447
174	0x3d920969	0.07130701
175	0x3c17bebc	0.009261783
176	0x3e72dbde	0.23716685
177	0xbde06698	-0.10957068
178	0x3db70de5	0.08938197
179	0x3d3b7be4	0.04577245
180	0x3df382c5	0.11890177
181	0x3e2e8d25	0.1704603
182	0xbe40e286	-0.18836412
183	0xbbc392d7	-0.0059684324
184	0xbe2107db	-0.15725653
185	0x3d0a1d37	0.033719268
186	0x3ea0d3de	0.31411642
187	0xbdb03288	-0.08603388
188	0x3e02786b	0.12741248
189	0xbc71f8a7	-0.014768756
190	0xbe5e81c9	-0.21729197
191	0xbe2a712a	-0.16644731
192	0x3e26f2f3	0.16303615
193	0xbe235451	-0.15950133
194	0x3ecaa31d	0.3957757
195	0xbce70a65	-0.028203199
196	0xbd4a416f	-0.04937881
197	0xbdb840a9	-0.08996708
198	0xbd322ff1	-0.04350275
199	0x3e0d3c4f	0.13792537
200	0x3df5f55f	0.120096914
201	0xbcf7a082	-0.030227903
202	0x3d696ee5	0.056990523
203	0x3d24d741	0.040244345
204	0x3df360b4	0.11883679
205	0x3ca554cd	0.020182038
206	0x3e73b4b4	0.23799402
207	0x3dcfb22a	0.10141404
208	0xbe283acf	-0.16428684
209	0xbd4df14f	-0.050278958
210	0x3e37b935	0.17941745
211	0xbe729261	-0.23688652
212	0x3db14420	0.08655572
213	0x3d62d321	0.05537713
214	0x3dbbb28b	0.09164914
215	0xbd3e043c	-0.046390757
216	0x3e4f834b	0.20264928
217	0x3e6f93f7	0.23396288
218	0xbe2427dc	-0.1603083
219	0xbbbe4b54	-0.0058073197
220	0xbde5408d	-0.11193953
221	0xbd405725	-0.046958108
222	0x3e39c75d	0.18142457
223	0x3df306c5	0.118665256
224	0xbbe950db	-0.0071202344
225	0x3e95b14e	0.29236835
226	0xbe99736b	-0.2997087
227	0x3d56b821	0.052421693
228	0x3dc3ab42	0.09554149
229	0x3e060dd7	0.13091217
230	0xbda13082	-0.0787058
231	0x3d36a97e	0.044595234
232	0x3b01aaa3	0.0019785545
233	0x3d74037b	0.05957363
234	0xbea4f114	-0.32215178
235	0xbc14a998	-0.009073637
236	0xbe6eac8b	-0.23308007
237	0x3dc47e45	0.095943965
238	0xbd44a49e	-0.048008554
239	0x3e2a5fba	0.1663808
240	0x3e078073	0.13232593
241	0x3d1a9747	0.037741926
242	0x3d32c40a	0.04364399
243	0x3e61d2f9	0.22053136
244	0xbd751f34	-0.05984421
245	0x3da8456b	0.082163654
246	0xbd9cb334	-0.07651368
247	0xbcb50bcc	-0.022100352
248	0xbd862611	-0.06550229
249	0x3d304404	0.043033615
250	0x3cfc4151	0.030792864
251	0xbc49eb74	-0.012324203
252	0x3dfcc643	0.12342503
253	0xbc353074	-0.011058915
254	0x3d9ee759	0.0775897
255	0x3e680d4c	0.22661322

conv2.nn.bias f4 [32]
0	0x3d27f7de	0.04100787
1	0xbb0aaeab	-0.002116124
2	0xbc481a9e	-0.012213377
3	0x3e4956f1	0.19662072
4	0x3d3b9d1f	0.04580414
5	0xbd699df8	-0.057035416
6	0x3d38f7f2	0.045158334
7	0xbdf4e7a3	-0.11958244
8	0xbc94c5e9	-0.018160777
9	0xbcaf9bbc	-0.021436565
10	0x3e5e7bae	0.21726868
11	0x3dd3dc12	0.103447095
12	0xbc7b0ee5	-0.015323375
13	0xbbb1b472	-0.005423122
14	0x3d9a8af1	0.07546032
15	0x3da31834	0.07963601
16	0x3df9fb99	0.122061916
17	0xbe082e49	-0.13298906
18	0x3d81a201	0.06329728
19	0x3b1710e0	0.002305083
20	0x3b887a9b	0.0041650063
21	0xbdb409ab	-0.087909065
22	0x3da49420	0.08036065
23	0xbdc5d921	-0.09660555
24	0xbba88ba7	-0.005143601
25	0x3d77897d	0.060433853
26	0xbd8a27f3	-0.06745901
27	0x3df1f818	0.11814898
28	0x3e50c564	0.20387799
29	0x3e2d9643	0.16951852
30	0x3d979886	0.074021384
31	0xbdbfb34d	-0.09360371

mlp3.weight f4 [32, 32]
0	0xbe000142	-0.1250048
1	0xba06bdc8	-0.0005139974
2	0x3eac0fa4	0.33605683
3	0x3e4c4820	0.19949389
4	0xbce5b882	-0.028042082
5	0x3cd409a8	0.02588351
6	0x3d55112a	0.052018322
7	0xbd926856	-0.07148807
8	0xbc62ecc2	-0.013850393
9	0x3ddfb7db	0.109237395
10	0x3e806e21	0.25084022
11	0xbc6ffc51	-0.014647559
12	0x3d36e01a	0.044647314
13	0xbee5777b	-0.4481772
14	0x3e58695f	0.21133946
15	0x3dd3b5b5	0.10337392
16	0xbd84cc4c	-0.06484279
17	0x3d551ea1	0.052031163
18	0x3e374ee6	0.17901191
19	0xbe487d99	-0.19579162
20	0x3d363e24	0.044492856
21	0xbc80491d	-0.015659863
22	0x3c8773e6	0.016534757
23	0x3d68a621	0.056799058
24	0xba11fc42	-0.00055689004
25	0xbda4f9c6	-0.08055453
26	0xbd7052f3	-0.058672857
27	0x3d594e08	0.053052932
28	0x3e343001	0.17596437
29	0xbdae7338	-0.0851807
30	0x3eead00e	0.45861858
31	0xbd80df69	-0.06292612
32	0xbd983346	-0.07431655
33	0x383fb8b7	4.5709978e-05
34	0x3e72a8ab	0.23697154
35	0x3e0f757c	0.1400966
36	0xbd819d7a	-0.063288644
37	0xbe25fe12	-0.16210201
38	0x3e198ac5	0.14994343
39	0x3b97cc5f	0.004632517
40	0xbc09ce8b	-0.00841106
41	0x3e1dd8ea	0.15414777
42	0x3ec07c33	0.37594756
43	0xbe41f90b	-0.18942659
44	0x3dadf284	0.08493522
45	0xbda76f03	-0.08175471
46	0xbd33939e	-0.04384195
47	0xbbd3cef2	-0.006463879
48	0xbdbdddb0	-0.09270799
49	0x3b3710e6	0.0027933656
50	0xbd590b44	-0.05298926
51	0xbe21ff7b	-0.15820114
52	0xbcb8ebce	-0.022573378
53	0xbdf5ed16	-0.12008111
54	0xbdd8b2be	-0.10580967
55	0x3dd44a28	0.10365707
56	0xb90c0dfa	-0.00013356647
57	0x3a0aedcf	0.00052997185
58	0x3df1dfc8	0.11810261
59	0x3d768925	0.060189385
60	0x3d209e6c	0.039213583
61	0x3ddb2284	0.10699943
62	0x3eb72e52	0.35777527
63	0xbd6039b4	-0.05474253
64	0xb2a52be2	-1.9228484e-08
65	0xab888d1e	-9.702549e-13
66	0x324ce658	1.1926737e-08
67	0x3b4ac60a	0.0030940794
68	0x3cc1aae6	0.023641061
69	0x3b298b71	0.0025870467
70	0xbc60732a	-0.013699332
71	0x3d01ce1f	0.031690713
72	0xa7822b77	-3.6129373e-15
73	0xb8c0ad23	-9.187523e-05
74	0x35853804	9.925575e-07
75	0xbab5b603	-0.0013863448
76	0xbb3638d1	-0.0027804861
77	0xb3831783	-6.1044396e-08
78	0xbaee24f6	-0.0018168974
79	0x3c6000a4	0.013672028
80	0xbc610ada	-0.013735497
81	0x3c786027	0.015159643
82	0xbb117135	-0.002219272
83	0xb9747be2	-0.00023315803
84	0xbd6735a4	-0.05644764
85	0xba7fd6b9	-0.0009759474
86	0xbb1f6448	-0.0024321247
87	0xbce7247a	-0.028215636
88	0x80000ccd	-4.592e-42
89	0xb92bc965	-0.00016382856
90	0x35cde8d8	1.5341457e-06
91	0x38ebef5a	0.00011250256
92	0xbaf12ebb	-0.0018400768
93	0x3ae3b88c	0.0017373725
94	0xb3a24fb8	-7.5582136e-08
95	0x000012fc	6.81e-42
96	0x3d1ff36e	0.039050512
97	0x39970989	0.0002880807
98	0x3e657b39	0.22410287
99	0xbb9b0f5b	-0.004732055
100	0xbe1196aa	-0.1421763
101	0xbe0c2a28	-0.13687956
102	0xbd23565d	-0.039877284
103	0xbd927c65	-0.071526326
104	0xbb86b765	-0.004111218
105	0x3daa7847	0.08323722
106	0x3ea1bc08	0.3158877
107	0x3bdef631	0.0068042506
108	0xbe2bdc7d	-0.16783328
109	0xbe3c0479	-0.18361081
110	0xbe255161	-0.16144325
111	0x3d89db16	0.067312405
112	0xbdd00685	-0.101574935
113	0xbe220e3d	-0.15825744
114	0xbded7e47	-0.11596351
115	0x3d88f770	0.0668782
116	0xbd170507	-0.03687003
117	0x3d945525	0.072428025
118	0xbb7f7531	-0.0038979764
119	0x3da0cb21	0.07851244
120	0xb49aaddf	-2.8811243e-07
121	0x3e125ba4	0.1429277
122	0xbb3a3095	-0.0028410305
123	0xbd875a8b	-0.066090666
124	0xbd9ac298	-0.07556647
125	0x3da322b1	0.07965601
126	0x3e5f1094	0.21783668
127	0xbe0eaf06	-0.13933954
128	0xbdf1c0a5	-0.11804322
129	0xaf048d73	-1.2055583e-10
130	0xbd15053c	-0.036381945
131	0x3dd82234	0.10553399
132	0x3daad052	0.08340515
133	0xbd91a94e	-0.071123704
134	0xbdfdeda3	-0.12398841
135	0xbe046c3b	-0.12931912
136	0xb58b8d89	-1.0397499e-06
137	0x3b664536	0.0035136468
138	0x3d825aa9	0.06364948
139	0x3d06446f	0.032780107
140	0xbe00e3be	-0.12586877
141	0x3e575617	0.21028934
142	0xbd0f1881	-0.034935478
143	0xbdd31283	-0.10306265
144	0x3d7d535b	0.061847072
145	0xbd0af0e2	-0.03392113
146	0x3b5a0d31	0.0033272023
147	0x3cd5698a	0.026051302
148	0xbe451f2a	-0.1925017
149	0xbd91a5c5	-0.07111696
150	0xbda3625a	-0.079777434
151	0xbe20de57	-0.15709816
152	0x8e0d3432	-1.7404723e-30
153	0x3cc156ff	0.023601053
154	0xbcd24780	-0.02566886
155	0x3dcb1119	0.099153705
156	0x3d5d141a	0.05397425
157	0xbd89f882	-0.06736852
158	0x3c5046c7	0.012712187
159	0xbe112bf8	-0.14176929
160	0xbc329ef8	-0.010902159
161	0x3abfd816	0.0014636542
162	0x3e23e4e8	0.1600529
163	0x3c56953f	0.0130971065
164	0x3d7facf1	0.06242079
165	0x3e0decea	0.13859907
166	0xbc1c0004	-0.009521488
167	0xbdf008ff	-0.11720466
168	0x3c93d629	0.018046455
169	0xbddd282b	-0.10798677
170	0x3d15891f	0.036507722
171	0xbd33702d	-0.04380815
172	0x3e88c79a	0.26714784
173	0xbc927585	-0.017878303
174	0x3d8228f6	0.06355469
175	0x3dacca85	0.08437065
176	0xbe18ceb6	-0.14922604
177	0x3e08d0ee	0.1336095
178	0x3d299683	0.041403305
179	0xbd8589fc	-0.06520459
180	0x3dc5446a	0.096321896
181	0xbe250ca3	-0.16118102
182	0xbdabd8be	-0.0839095
183	0xbe1546fa	-0.14577857
184	0x38630a1d	5.4130436e-05
185	0xbd35573a	-0.04427264
186	0xbce4042b	-0.027834019
187	0xbd34ddfa	-0.044157006
188	0xbc8d685d	-0.017261678
189	0x3e465fc1	0.19372465
190	0x3c2d975f	0.010595172
191	0x3cb2d36a	0.021829326
192	0x3ec32540	0.38114357
193	0x3bfba1ac	0.007679185
194	0xbee0d469	-0.43912056
195	0xbdb715e0	-0.08939719
196	0x3d8b4826	0.068008706
197	0xbda54d9e	-0.08071445
198	0x3d0afa24	0.03392996
199	0x3d89958b	0.06717976
200	0x3c808d64	0.01569242
201	0x3eaf968d	0.3429455
202	0xbefc9461	-0.49331954
203	0x3e557dec	0.20848817
204	0xbd2ba92d	-0.041909385
205	0x3f252192	0.6450435
206	0xbe09f68b	-0.13472955
207	0x3e5be7e9	0.21475185
208	0xbd887174	-0.066622645
209	0x3d689287	0.056780364
210	0x3ca496b0	0.020091385
211	0x3ef2af0f	0.47399184
212	0xbdf24d6f	-0.118311755
213	0x3e1e9a9c	0.15488666
214	0x3e4b1575	0.19832404
215	0x3da1ed42	0.079065815
216	0x3a90cadd	0.0011046786
217	0x3ea82feb	0.32849059
218	0xbe8674f2	-0.26261097
219	0xbcd84a8a	-0.02640273
220	0xbe82a196	-0.25513905
221	0xbde6bde6	-0.11266689
222	0xbeeda1c1	-0.4641247
223	0x3e1c49f8	0.15262592
224	0x08f32be8	1.4635353e-33
225	0x00019a20	1.47125e-40
226	0x0c8ec1b8	2.1995154e-31
227	0x13a4449b	4.146707e-27
228	0xa41b6040	-3.3691794e-17
229	0xafd60313	-3.8928558e-10
230	0xb2a24305	-1.8889759e-08
231	0xaf196f7d	-1.3954878e-10
232	0x80007241	-4.0987e-41
233	0xa6319ae3	-6.161912e-16
234	0x958c5312	-5.667661e-26
235	0xa3166174	-8.152153e-18
236	0x99b8c61a	-1.9105167e-23
237	0x1089151d	5.40695e-29
238	0x0dca50af	1.2468635e-30
239	0x291462ad	3.294819e-14
240	0xa6cc1163	-1.4160056e-15
241	0x870845f3	-1.0252059e-34
242	0x8cd85093	-3.3328563e-31
243	0xa01d1962	-1.3306816e-19
244	0xb406cdbb	-1.2554567e-07
245	0x99cf74a5	-2.145041e-23
246	0xa384828a	-1.4366754e-17
247	0xac4742e7	-2.831674e-12
248	0x80000ea6	-5.255e-42
249	0x1e3f444c	1.0125579e-20
250	0x0595e510	1.4096037e-35
251	0x093b1674	2.2519864e-33
252	0x83cb7568	-1.1958223e-36
253	0x2ae5bebb	4.0810917e-13
254	0x96148faa	-1.2000677e-25
255	0x8000093c	-3.313e-42

mlp3.bias f4 [32]
0	0x3c5a849e	0.013337282
1	0x3e8338f2	0.25629383
2	0xbb18e00d	-0.0023326904
3	0x3e96928f	0.2940869
4	0x3ee77407	0.4520571
5	0xbe2368b5	-0.15957911
6	0x3b9fc9a7	0.0048763338
7	0xa53e0822	-1.6482629e-16
8	0x3e50ff1a	0.20409814
9	0xbe3273d5	-0.17426999
10	0x9c0f0928	-4.7326565e-22
11	0x3db6f1fa	0.08932872
12	0xbe0d7a2d	-0.13816138
13	0xbc39be2a	-0.011336843
14	0x3e18c248	0.14917862
15	0x3d270896	0.040779673
16	0xbe40d29e	-0.18830344
17	0xbca39ded	-0.019972766
18	0x3e44d34c	0.19221228
19	0x3d95269e	0.07282756
20	0xbd477139	-0.048691962
21	0xbe28b933	-0.16476898
22	0x3ce7ff4a	0.028319973
23	0xb6e62367	-6.8586555e-06
24	0xbd44164f	-0.047872838
25	0xbd842019	-0.06451435
26	0xbda51dea	-0.08062346
27	0x3e1e152b	0.15437762
28	0x3d233778	0.03984782
29	0x3dfc441d	0.12317679
30	0x3d3c04e3	0.045903098
31	0x3d281a4d	0.041040707

conv3.nn.weight f4 [32, 32]
0	0xbe000142	-0.1250048
1	0xba06bdc8	-0.0005139974
2	0x3eac0fa4	0.33605683
3	0x3e4c4820	0.19949389
4	0xbce5b882	-0.028042082
5	0x3cd409a8	0.02588351
6	0x3d55112a	0.052018322
7	0xbd926856	-0.07148807
8	0xbc62ecc2	-0.013850393
9	0x3ddfb7db	0.109237395
10	0x3e806e21	0.25084022
11	0xbc6ffc51	-0.014647559
12	0x3d36e01a	0.044647314
13	0xbee5777b	-0.4481772
14	0x3e58695f	0.21133946
15	0x3dd3b5b5	0.10337392
16	0xbd84cc4c	-0.06484279
17	0x3d551ea1	0.052031163
18	0x3e374ee6	0.17901191
19	0xbe487d99	-0.19579162
20	0x3d363e24	0.044492856
21	0xbc80491d	-0.015659863
22	0x3c8773e6	0.016534757
23	0x3d68a621	0.056799058
24	0xba11fc42	-0.00055689004
25	0xbda4f9c6	-0.08055453
26	0xbd7052f3	-0.058672857
27	0x3d594e08	0.053052932
28	0x3e343001	0.17596437
29	0xbdae7338	-0.0851807
30	0x3eead00e	0.45861858
31	0xbd80df69	-0.06292612
32	0xbd983346	-0.07431655
33	0x383fb8b7	4.5709978e-05
34	0x3e72a8ab	0.23697154
35	0x3e0f757c	0.1400966
36	0xbd819d7a	-0.063288644
37	0xbe25fe12	-0.16210201
38	0x3e198ac5	0.14994343
39	0x3b97cc5f	0.004632517
40	0xbc09ce8b	-0.00841106
41	0x3e1dd8ea	0.15414777
42	0x3ec07c33	0.37594756
43	0xbe41f90b	-0.18942659
44	0x3dadf284	0.08493522
45	0xbda76f03	-0.08175471
46	0xbd33939e	-0.04384195
47	0xbbd3cef2	-0.006463879
48	0xbdbdddb0	-0.09270799
49	0x3b3710e6	0.0027933656
50	0xbd590b44	-0.05298926
51	0xbe21ff7b	-0.15820114
52	0xbcb8ebce	-0.022573378
53	0xbdf5ed16	-0.12008111
54	0xbdd8b2be	-0.10580967
55	0x3dd44a28	0.10365707
56	0xb90c0dfa	-0.00013356647
57	0x3a0aedcf	0.00052997185
58	0x3df1dfc8	0.11810261
59	0x3d768925	0.060189385
60	0x3d209e6c	0.039213583
61	0x3ddb2284	0.10699943
62	0x3eb72e52	0.35777527
63	0xbd6039b4	-0.05474253
64	0xb2a52be2	-1.9228484e-08
65	0xab888d1e	-9.702549e-13
66	0x324ce658	1.1926737e-08
67	0x3b4ac60a	0.0030940794
68	0x3cc1aae6	0.023641061
69	0x3b298b71	0.0025870467
70	0xbc60732a	-0.013699332
71	0x3d01ce1f	0.031690713
72	0xa7822b77	-3.6129373e-15
73	0xb8c0ad23	-9.187523e-05
74	0x35853804	9.925575e-07
75	0xbab5b603	-0.0013863448
76	0xbb3638d1	-0.0027804861
77	0xb3831783	-6.1044396e-08
78	0xbaee24f6	-0.0018168974
79	0x3c6000a4	0.013672028
80	0xbc610ada	-0.013735497
81	0x3c786027	0.015159643
82	0xbb117135	-0.002219272
83	0xb9747be2	-0.00023315803
84	0xbd6735a4	-0.05644764
85	0xba7fd6b9	-0.0009759474
86	0xbb1f6448	-0.0024321247
87	0xbce7247a	-0.028215636
88	0x80000ccd	-4.592e-42
89	0xb92bc965	-0.00016382856
90	0x35cde8d8	1.5341457e-06
91	0x38ebef5a	0.00011250256
92	0xbaf12ebb	-0.0018400768
93	0x3ae3b88c	0.0017373725
94	0xb3a24fb8	-7.5582136e-08
95	0x000012fc	6.81e-42
96	0x3d1ff36e	0.039050512
97	0x39970989	0.0002880807
98	0x3e657b39	0.22410287
99	0xbb9b0f5b	-0.004732055
100	0xbe1196aa	-0.1421763
101	0xbe0c2a28	-0.13687956
102	0xbd23565d	-0.039877284
103	0xbd927c65	-0.071526326
104	0xbb86b765	-0.004111218
105	0x3daa7847	0.08323722
106	0x3ea1bc08	0.3158877
107	0x3bdef631	0.0068042506
108	0xbe2bdc7d	-0.16783328
109	0xbe3c0479	-0.18361081
110	0xbe255161	-0.16144325
111	0x3d89db16	0.067312405
112	0xbdd00685	-0.101574935
113	0xbe220e3d	-0.15825744
114	0xbded7e47	-0.11596351
115	0x3d88f770	0.0668782
116	0xbd170507	-0.03687003
117	0x3d945525	0.072428025
118	0xbb7f7531	-0.0038979764
119	0x3da0cb21	0.07851244
120	0xb49aaddf	-2.8811243e-07
121	0x3e125ba4	0.1429277
122	0xbb3a3095	-0.0028410305
123	0xbd875a8b	-0.066090666
124	0xbd9ac298	-0.07556647
125	0x3da322b1	0.07965601
126	0x3e5f1094	0.21783668
127	0xbe0eaf06	-0.13933954
128	0xbdf1c0a5	-0.11804322
129	0xaf048d73	-1.2055583e-10
130	0xbd15053c	-0.036381945
131	0x3dd82234	0.10553399
132	0x3daad052	0.08340515
133	0xbd91a94e	-0.071123704
134	0xbdfdeda3	-0.12398841
135	0xbe046c3b	-0.12931912
136	0xb58b8d89	-1.0397499e-06
137	0x3b664536	0.0035136468
138	0x3d825aa9	0.06364948
139	0x3d06446f	0.032780107
140	0xbe00e3be	-0.12586877
141	0x3e575617	0.21028934
142	0xbd0f1881	-0.034935478
143	0xbdd31283	-0.10306265
144	0x3d7d535b	0.061847072
145	0xbd0af0e2	-0.03392113
146	0x3b5a0d31	0.0033272023
147	0x3cd5698a	0.026051302
148	0xbe451f2a	-0.1925017
149	0xbd91a5c5	-0.07111696
150	0xbda3625a	-0.079777434
151	0xbe20de57	-0.15709816
152	0x8e0d3432	-1.7404723e-30
153	0x3cc156ff	0.023601053
154	0xbcd24780	-0.02566886
155	0x3dcb1119	0.099153705
156	0x3d5d141a	0.05397425
157	0xbd89f882	-0.06736852
158	0x3c5046c7	0.012712187
159	0xbe112bf8	-0.14176929
160	0xbc329ef8	-0.010902159
161	0x3abfd816	0.0014636542
162	0x3e23e4e8	0.1600529
163	0x3c56953f	0.0130971065
164	0x3d7facf1	0.06242079
165	0x3e0decea	0.13859907
166	0xbc1c0004	-0.009521488
167	0xbdf008ff	-0.11720466
168	0x3c93d629	0.018046455
169	0xbddd282b	-0.10798677
170	0x3d15891f	0.036507722
171	0xbd33702d	-0.04380815
172	0x3e88c79a	0.26714784
173	0xbc927585	-0.017878303
174	0x3d8228f6	0.06355469
175	0x3dacca85	0.08437065
176	0xbe18ceb6	-0.14922604
177	0x3e08d0ee	0.1336095
178	0x3d299683	0.041403305
179	0xbd8589fc	-0.06520459
180	0x3dc5446a	0.096321896
181	0xbe250ca3	-0.16118102
182	0xbdabd8be	-0.0839095
183	0xbe1546fa	-0.14577857
184	0x38630a1d	5.4130436e-05
185	0xbd35573a	-0.04427264
186	0xbce4042b	-0.027834019
187	0xbd34ddfa	-0.044157006
188	0xbc8d685d	-0.017261678
189	0x3e465fc1	0.19372465
190	0x3c2d975f	0.010595172
191	0x3cb2d36a	0.021829326
192	0x3ec32540	0.38114357
193	0x3bfba1ac	0.007679185
194	0xbee0d469	-0.43912056
195	0xbdb715e0	-0.08939719
196	0x3d8b4826	0.068008706
197	0xbda54d9e	-0.08071445
198	0x3d0afa24	0.03392996
199	0x3d89958b	0.06717976
200	0x3c808d64	0.01569242
201	0x3eaf968d	0.3429455
202	0xbefc9461	-0.49331954
203	0x3e557dec	0.20848817
204	0xbd2ba92d	-0.041909385
205	0x3f252192	0.6450435
206	0xbe09f68b	-0.13472955
207	0x3e5be7e9	0.21475185
208	0xbd887174	-0.066622645
209	0x3d689287	0.056780364
210	0x3ca496b0	0.020091385
211	0x3ef2af0f	0.47399184
212	0xbdf24d6f	-0.118311755
213	0x3e1e9a9c	0.15488666
214	0x3e4b1575	0.19832404
215	0x3da1ed42	0.079065815
216	0x3a90cadd	0.0011046786
217	0x3ea82feb	0.32849059
218	0xbe8674f2	-0.26261097
219	0xbcd84a8a	-0.02640273
220	0xbe82a196	-0.25513905
221	0xbde6bde6	-0.11266689
222	0xbeeda1c1	-0.4641247
223	0x3e1c49f8	0.15262592
224	0x08f32be8	1.4635353e-33
225	0x00019a20	1.47125e-40
226	0x0c8ec1b8	2.1995154e-31
227	0x13a4449b	4.146707e-27
228	0xa41b6040	-3.3691794e-17
229	0xafd60313	-3.8928558e-10
230	0xb2a24305	-1.8889759e-08
231	0xaf196f7d	-1.3954878e-10
232	0x80007241	-4.0987e-41
233	0xa6319ae3	-6.161912e-16
234	0x958c5312	-5.667661e-26
235	0xa3166174	-8.152153e-18
236	0x99b8c61a	-1.9105167e-23
237	0x1089151d	5.40695e-29
238	0x0dca50af	1.2468635e-30
239	0x291462ad	3.294819e-14
240	0xa6cc1163	-1.4160056e-15
241	0x870845f3	-1.0252059e-34
242	0x8cd85093	-3.3328563e-31
243	0xa01d1962	-1.3306816e-19
244	0xb406cdbb	-1.2554567e-07
245	0x99cf74a5	-2.145041e-23
246	0xa384828a	-1.4366754e-17
247	0xac4742e7	-2.831674e-12
248	0x80000ea6	-5.255e-42
249	0x1e3f444c	1.0125579e-20
250	0x0595e510	1.4096037e-35
251	0x093b1674	2.2519864e-33
252	0x83cb7568	-1.1958223e-36
253	0x2ae5bebb	4.0810917e-13
254	0x96148faa	-1.2000677e-25
255	0x8000093c	-3.313e-42

conv3.nn.bias f4 [32]
0	0x3c5a849e	0.013337282
1	0x3e8338f2	0.25629383
2	0xbb18e00d	-0.0023326904
3	0x3e96928f	0.2940869
4	0x3ee77407	0.4520571
5	0xbe2368b5	-0.15957911
6	0x3b9fc9a7	0.0048763338
7	0xa53e0822	-1.6482629e-16
8	0x3e50ff1a	0.20409814
9	0xbe3273d5	-0.17426999
10	0x9c0f0928	-4.7326565e-22
11	0x3db6f1fa	0.08932872
12	0xbe0d7a2d	-0.13816138
13	0xbc39be2a	-0.011336843
14	0x3e18c248	0.14917862
15	0x3d270896	0.040779673
16	0xbe40d29e	-0.18830344
17	0xbca39ded	-0.019972766
18	0x3e44d34c	0.19221228
19	0x3d95269e	0.07282756
20	0xbd477139	-0.048691962
21	0xbe28b933	-0.16476898
22	0x3ce7ff4a	0.028319973
23	0xb6e62367	-6.8586555e-06
24	0xbd44164f	-0.047872838
25	0xbd842019	-0.06451435
26	0xbda51dea	-0.08062346
27	0x3e1e152b	0.15437762
28	0x3d233778	0.03984782
29	0x3dfc441d	0.12317679
30	0x3d3c04e3	0.045903098
31	0x3d281a4d	0.041040707

lin.weight f4 [2, 32]
0	0x3e24ab43	0.16080956
1	0x3e747da4	0.23876053
2	0x3d634d9e	0.055493943
3	0x3f06b353	0.5261738
4	0x3f04b68f	0.5184106
5	0xbea30084	-0.3183633
6	0xbf09716c	-0.53688693
7	0x272c457f	2.3907469e-15
8	0x3e6c7827	0.2309271
9	0xbecd8865	-0.40143123
10	0x3ae77974	0.0017660097
11	0x3e2fc575	0.17165168
12	0xbeb5a6fb	-0.35478958
13	0x3e7d2541	0.24721242
14	0x3e8cc341	0.27492717
15	0xbf7803c4	-0.96880746
16	0xbe8f2926	-0.2796108
17	0x3e3f3eb0	0.18676257
18	0x3e2e083a	0.16995326
19	0xbe1041ca	-0.14087597
20	0xbe81ceb0	-0.25353003
21	0xbf08c78f	-0.534295
22	0xbf257539	-0.6463199
23	0xbbcdcfca	-0.006280874
24	0xbee1241e	-0.43972868
25	0xbf1b7cf1	-0.6073752
26	0xbf3f16b1	-0.74644
27	0x3ed7f048	0.42175508
28	0xbea95dd0	-0.33079386
29	0x3ddbddbc	0.10735652
30	0xbe59518d	-0.21222515
31	0xbce405f8	-0.027834877
32	0xbe2f5bea	-0.17124906
33	0xbd34ed3c	-0.044171557
34	0x3d82ebfe	0.06392668
35	0xbec406f3	-0.38286552
36	0xbf00c48c	-0.50299907
37	0x3ec8573e	0.3912906
38	0x3f07fd10	0.5312052
39	0xa484ab76	-5.753634e-17
40	0xbd3ee0b3	-0.04660101
41	0x3e9900f4	0.2988354
42	0xbae29921	-0.0017288068
43	0xbe2ed2a9	-0.17072548
44	0x3ea02f73	0.312862
45	0xbdd8b5a4	-0.1058152
46	0xbea84690	-0.32866335
47	0x3f8c14d4	1.0943856
48	0x3ee2e059	0.4431179
49	0xbe560896	-0.20901713
50	0x3ba1b7d0	0.0049352422
51	0x3e802deb	0.25035033
52	0x3ecbbcc3	0.3979245
53	0x3ef571b8	0.47938323
54	0x3f3111aa	0.6916758
55	0x3a2a0608	0.0006485884
56	0x3ebcf51c	0.36905754
57	0x3f13c8ba	0.5772816
58	0x3f200bb7	0.62517875
59	0xbed60c2a	-0.41806155
60	0x3eca0338	0.3945558
61	0xbe794afd	-0.24345012
62	0x3e4a6a96	0.19767222
63	0xbe7b5b54	-0.24546558

lin.bias f4 [2]
0	0xbdbb573b	-0.09147497
1	0x3cc3c139	0.023895847
