formal/model_weights/model_triangle.pth (torch, 5131 bytes, 12 tensors)

mlp_gin1.weight f4 [16, 11]
00000000: de9e 8cbb 338d 87be fc70 513c 0de4 e4bd
00000010: f5b4 35be 92eb 813e d160 193e bdbf 0cbe
00000020: b6a7 69be 56f7 3c3e 5592 e9bd 5ba4 7abd
00000030: 277a 6f3d ab5a b13d 3c6e 763e 16e8 a4bd
00000040: 88b0 52be fdde 503e 89f4 21be 08a5 2f3e
00000050: 9595 cc3d bf9e c0bd a29a 2fbd 3f1f b5bd
00000060: 442e 7ebe aa1d da3c 72ed 643e ac67 883e
00000070: 6c1d c83c fcbb 203e 534e 2dbe 3340 003e
00000080: f597 6fbe 3a74 313b ef12 65bd d665 b6bd
00000090: 7651 023c 513e a13c 6668 5fbd 616f 4f3e
000000a0: caf4 2ebe 5a4b 973d 1466 8b3d ba32 17be
000000b0: 120d 0a3d a562 d7bd f5ea 66bd c66a 1f3e
000000c0: 7cec ae3a e0b4 cbbd 97cf 1bbe 9f33 b7bc
000000d0: 789b d3bd 0ebe dcbd 0567 97bc 742f dfba
000000e0: ff5e 383e ef54 553d 2c20 113e 8b1d dabd
000000f0: b119 30be 4598 6ebc 451e e9bd 531d dbbd
00000100: 95b0 19be eecb bbbd c6de d43c 32aa 32bd
00000110: 33c2 dabd cfee a5be f940 7a3b 2ec2 07bd
00000120: 1ea9 f6bb adbb cbbc c661 2d3c a588 c9bd
00000130: 6203 043d 1e25 443d ca13 4ebe 649c 05be
00000140: ad42 b7be e606 5ebb 29cc 55bd 3215 973d
00000150: d6af af3d 7b95 0c3f 531e 25bd d263 4a3e
00000160: 7eca 5b3d 2b7a 49bd 122d 4f3e e243 3fbc
00000170: c333 44be dd69 2cbe 75a8 81be 8176 5ebd
00000180: 11a4 7a3e 3843 223d 3004 1a3e d681 b23d
00000190: 6ef5 dfbd 7765 f3bd 9f7b 8dbd 6047 2dbd
000001a0: 645d 6abb 30f1 07bd 2b2b 133e 9cd8 233d
000001b0: 5e66 673e 145d a13c 6cbe 923e 66f7 a2be
000001c0: 0013 583d 7f26 173e 69e4 083e 6433 8a3e
000001d0: 9d95 a13c 0d0a 24be af0f cf3d c6d2 953e
000001e0: ae1f 303e c733 1ebe 68be 08bd 43e5 b0bb
000001f0: a021 79be dd58 8b3d 6116 033e d31d 35be
00000200: 07d7 77bc 4484 223d 7516 b0bd 09de c63d
00000210: fbfa 28be afa9 e93d 3fa5 85bb eaa9 433e
00000220: ba2e 3bbb 1201 363c f5b1 153e 7aa1 2c3e
00000230: a888 823e f388 cebd 72f3 a13e c9c5 313e
00000240: 2321 57bd bfad 4e3c baec d6bd 8d95 14bd
00000250: 55c9 99bd e64b c0bd 23e6 4fbe a6b4 82be
00000260: f192 1e3e 92f8 80be 9a60 bd3e 1a76 963e
00000270: f426 633e 410c 97bd 9285 40be 993c 26be
00000280: ba9f 0f3e cc0e 513c 9ca5 f83d dbef d53d
00000290: af97 3fbc 5f9e 893d 16c0 563d 9eed 553d
000002a0: 2639 52bd 784a 853a 83fd fcbc b84a 61bd
000002b0: 3e1a 8ebd ee3e e1bd eb05 ea3c b5ba dcbd
-0.0042913994 -0.26474914 0.012783285 -0.1117631 -0.17744811 0.25375038 0.14978339 -0.13745017
-0.22817883 0.18453726 -0.11404864 -0.061191898 0.058466103 0.08659872 0.24065489 -0.080520794
-0.20575154 0.20397563 -0.15815939 0.17152798 0.09989468 -0.094052784 -0.04287208 -0.0884385
-0.24822336 0.026625473 0.22356203 0.26641595 0.024428092 0.1569671 -0.1692441 0.1252449
-0.23397811 0.0027077333 -0.05592626 -0.089061424 0.007953992 0.019683035 -0.05454292 0.20257331
-0.17085567 0.07387419 0.06806579 -0.14765444 0.03370387 -0.10516862 -0.056376416 0.15568075
0.0013345624 -0.099466085 -0.15215908 -0.022363482 -0.10332388 -0.107784376 -0.01848174 -0.0017027692
0.18004988 0.052082952 0.14172429 -0.10650166 -0.171973 -0.014562671 -0.113827266 -0.106989525
-0.15008767 -0.09169756 0.025985133 -0.043619342 -0.10681572 -0.3240876 0.00381857 -0.03314417
-0.0075274846 -0.024869764 0.010582393 -0.09840516 0.03222979 0.04788696 -0.20124736 -0.1304794
-0.35793057 -0.0033878624 -0.052196655 0.073770896 0.0857846 0.5491559 -0.040312123 0.19764641
0.05365991 -0.049188774 0.20232037 -0.011673899 -0.1916037 -0.16837259 -0.25323835 -0.054312233
0.24476649 0.039614886 0.1504066 0.087161705 -0.10935484 -0.11884587 -0.069083445 -0.042304397
-0.0035761232 -0.033189 0.14371936 0.040001497 0.22597644 0.019697703 0.28660905 -0.31829375
0.052752495 0.14760779 0.13368382 0.26992333 0.019724661 -0.16019459 0.10110413 0.2926237
0.17199585 -0.15449439 -0.03338471 -0.005398424 -0.24329233 0.06804059 0.12801506 -0.17687158
-0.01512695 0.03967692 -0.08598033 0.097103186 -0.16501991 0.11409318 -0.0040785368 0.19107786
-0.0028561787 0.011108654 0.14618666 0.16858473 0.25494885 -0.10084715 0.31631047 0.17360605
-0.052521836 0.0126146665 -0.10494371 -0.036275435 -0.07509104 -0.093894765 -0.20302634 -0.2552845
0.15485741 -0.25189644 0.36987764 0.2938698 0.22182828 -0.07375384 -0.18800953 -0.16234054
0.14025775 0.0127598755 0.121409625 0.104461394 -0.011693879 0.0671966 0.05242928 0.052228563
-0.051324032 0.0010169288 -0.030882603 -0.055002898 -0.06938599 -0.10998331 0.028567275 -0.10777799

mlp_gin1.bias f4 [16]
00000000: ea3a 9d3e ca82 0e3d 0621 a83e c816 dabd
00000010: c706 863e 1f8e 5fbd 029a e33e fcec 3fbc
00000020: d467 2abe 22c4 09be bc16 bebd 4fa1 3e3e
00000030: 7830 e53e ad32 0fbe 1cd4 73bd d446 133f
0.3070901 0.0347927 0.32837695 -0.106488764 0.26177046 -0.054578897 0.44453436 -0.011714216
-0.1664117 -0.13453725 -0.0928168 0.18616222 0.4476354 -0.13984175 -0.059528455 0.5752995

gin1.nn.weight f4 [16, 11]
00000000: de9e 8cbb 338d 87be fc70 513c 0de4 e4bd
00000010: f5b4 35be 92eb 813e d160 193e bdbf 0cbe
00000020: b6a7 69be 56f7 3c3e 5592 e9bd 5ba4 7abd
00000030: 277a 6f3d ab5a b13d 3c6e 763e 16e8 a4bd
00000040: 88b0 52be fdde 503e 89f4 21be 08a5 2f3e
00000050: 9595 cc3d bf9e c0bd a29a 2fbd 3f1f b5bd
00000060: 442e 7ebe aa1d da3c 72ed 643e ac67 883e
00000070: 6c1d c83c fcbb 203e 534e 2dbe 3340 003e
00000080: f597 6fbe 3a74 313b ef12 65bd d665 b6bd
00000090: 7651 023c 513e a13c 6668 5fbd 616f 4f3e
000000a0: caf4 2ebe 5a4b 973d 1466 8b3d ba32 17be
000000b0: 120d 0a3d a562 d7bd f5ea 66bd c66a 1f3e
000000c0: 7cec ae3a e0b4 cbbd 97cf 1bbe 9f33 b7bc
000000d0: 789b d3bd 0ebe dcbd 0567 97bc 742f dfba
000000e0: ff5e 383e ef54 553d 2c20 113e 8b1d dabd
000000f0: b119 30be 4598 6ebc 451e e9bd 531d dbbd
00000100: 95b0 19be eecb bbbd c6de d43c 32aa 32bd
00000110: 33c2 dabd cfee a5be f940 7a3b 2ec2 07bd
00000120: 1ea9 f6bb adbb cbbc c661 2d3c a588 c9bd
00000130: 6203 043d 1e25 443d ca13 4ebe 649c 05be
00000140: ad42 b7be e606 5ebb 29cc 55bd 3215 973d
00000150: d6af af3d 7b95 0c3f 531e 25bd d263 4a3e
00000160: 7eca 5b3d 2b7a 49bd 122d 4f3e e243 3fbc
00000170: c333 44be dd69 2cbe 75a8 81be 8176 5ebd
00000180: 11a4 7a3e 3843 223d 3004 1a3e d681 b23d
00000190: 6ef5 dfbd 7765 f3bd 9f7b 8dbd 6047 2dbd
000001a0: 645d 6abb 30f1 07bd 2b2b 133e 9cd8 233d
000001b0: 5e66 673e 145d a13c 6cbe 923e 66f7 a2be
000001c0: 0013 583d 7f26 173e 69e4 083e 6433 8a3e
000001d0: 9d95 a13c 0d0a 24be af0f cf3d c6d2 953e
000001e0: ae1f 303e c733 1ebe 68be 08bd 43e5 b0bb
000001f0: a021 79be dd58 8b3d 6116 033e d31d 35be
00000200: 07d7 77bc 4484 223d 7516 b0bd 09de c63d
00000210: fbfa 28be afa9 e93d 3fa5 85bb eaa9 433e
00000220: ba2e 3bbb 1201 363c f5b1 153e 7aa1 2c3e
00000230: a888 823e f388 cebd 72f3 a13e c9c5 313e
00000240: 2321 57bd bfad 4e3c baec d6bd 8d95 14bd
00000250: 55c9 99bd e64b c0bd 23e6 4fbe a6b4 82be
00000260: f192 1e3e 92f8 80be 9a60 bd3e 1a76 963e
00000270: f426 633e 410c 97bd 9285 40be 993c 26be
00000280: ba9f 0f3e cc0e 513c 9ca5 f83d dbef d53d
00000290: af97 3fbc 5f9e 893d 16c0 563d 9eed 553d
000002a0: 2639 52bd 784a 853a 83fd fcbc b84a 61bd
000002b0: 3e1a 8ebd ee3e e1bd eb05 ea3c b5ba dcbd
-0.0042913994 -0.26474914 0.012783285 -0.1117631 -0.17744811 0.25375038 0.14978339 -0.13745017
-0.22817883 0.18453726 -0.11404864 -0.061191898 0.058466103 0.08659872 0.24065489 -0.080520794
-0.20575154 0.20397563 -0.15815939 0.17152798 0.09989468 -0.094052784 -0.04287208 -0.0884385
-0.24822336 0.026625473 0.22356203 0.26641595 0.024428092 0.1569671 -0.1692441 0.1252449
-0.23397811 0.0027077333 -0.05592626 -0.089061424 0.007953992 0.019683035 -0.05454292 0.20257331
-0.17085567 0.07387419 0.06806579 -0.14765444 0.03370387 -0.10516862 -0.056376416 0.15568075
0.0013345624 -0.099466085 -0.15215908 -0.022363482 -0.10332388 -0.107784376 -0.01848174 -0.0017027692
0.18004988 0.052082952 0.14172429 -0.10650166 -0.171973 -0.014562671 -0.113827266 -0.106989525
-0.15008767 -0.09169756 0.025985133 -0.043619342 -0.10681572 -0.3240876 0.00381857 -0.03314417
-0.0075274846 -0.024869764 0.010582393 -0.09840516 0.03222979 0.04788696 -0.20124736 -0.1304794
-0.35793057 -0.0033878624 -0.052196655 0.073770896 0.0857846 0.5491559 -0.040312123 0.19764641
0.05365991 -0.049188774 0.20232037 -0.011673899 -0.1916037 -0.16837259 -0.25323835 -0.054312233
0.24476649 0.039614886 0.1504066 0.087161705 -0.10935484 -0.11884587 -0.069083445 -0.042304397
-0.0035761232 -0.033189 0.14371936 0.040001497 0.22597644 0.019697703 0.28660905 -0.31829375
0.052752495 0.14760779 0.13368382 0.26992333 0.019724661 -0.16019459 0.10110413 0.2926237
0.17199585 -0.15449439 -0.03338471 -0.005398424 -0.24329233 0.06804059 0.12801506 -0.17687158
-0.01512695 0.03967692 -0.08598033 0.097103186 -0.16501991 0.11409318 -0.0040785368 0.19107786
-0.0028561787 0.011108654 0.14618666 0.16858473 0.25494885 -0.10084715 0.31631047 0.17360605
-0.052521836 0.0126146665 -0.10494371 -0.036275435 -0.07509104 -0.093894765 -0.20302634 -0.2552845
0.15485741 -0.25189644 0.36987764 0.2938698 0.22182828 -0.07375384 -0.18800953 -0.16234054
0.14025775 0.0127598755 0.121409625 0.104461394 -0.011693879 0.0671966 0.05242928 0.052228563
-0.051324032 0.0010169288 -0.030882603 -0.055002898 -0.06938599 -0.10998331 0.028567275 -0.10777799

gin1.nn.bias f4 [16]
00000000: ea3a 9d3e ca82 0e3d 0621 a83e c816 dabd
00000010: c706 863e 1f8e 5fbd 029a e33e fcec 3fbc
00000020: d467 2abe 22c4 09be bc16 bebd 4fa1 3e3e
00000030: 7830 e53e ad32 0fbe 1cd4 73bd d446 133f
0.3070901 0.0347927 0.32837695 -0.106488764 0.26177046 -0.054578897 0.44453436 -0.011714216
-0.1664117 -0.13453725 -0.0928168 0.18616222 0.4476354 -0.13984175 -0.059528455 0.5752995

mlp_gin2.weight f4 [16, 16]
00000000: a986 70be 7709 7cbe c37f ee3d 3640 76bd
00000010: 7171 623c 29f7 2c3e d969 d5bb 12da fc3d
00000020: fdcb e73d 1df7 22bd 8664 36bd 24b4 a73d
00000030: e9f8 93be a072 033b 6450 61be 84f0 a7bb
00000040: 0add 2b3d 95d3 0a3e 5655 08bd 3cf5 15bd
00000050: 8950 b0bc 89f9 95bc 3d48 7c3e 7a23 d2bb
00000060: bd76 5ebe cf66 80be 11c4 2f3d c0f4 b93d
00000070: 4bfd fd3d 77bb cc3d 8cc9 ec3d 4a37 2cbd
00000080: feaf 253e 76f9 6d3e 39c0 4c3d 7f4f 433b
00000090: c1e5 683d f1dd 473e e526 633d cd1c 92bc
000000a0: 0147 09be a071 0ebe 0b7e 1f3e f73f 1c3e
000000b0: ab05 063e b0da bb3d 6939 ee3d f0d4 7bbd
000000c0: 1679 b0bd 9284 713d 20bb 9dbe 5980 aabe
000000d0: 7104 f43d 3950 893d b98c 7e3d a86b b43d
000000e0: cdcc 843e 52e2 dabc c140 f23c 8935 d8bd
000000f0: 0b94 9bbd 04f5 92be 12bd 3a3e 64bf 91bd
00000100: 78d4 7cbd b784 debd 9512 15be 99c2 57bd
00000110: 66e0 6ebe 4cbf 8ebe 9d30 88be 1e89 243d
00000120: 2b24 62be 5881 503e 1d93 12be e22c 07be
00000130: e718 68be b2f6 bb3b 2089 b4bd f074 4cbe
00000140: c695 5d3e 91ab 3ebe 7212 a9bd c830 803e
00000150: 2a17 89bd b68d 3ebc 2d0a fcbd 2ad6 833d
00000160: a0ee b4bd 4000 7a3d feac 88be 2b5b 29be
00000170: 60d8 433e 053d 4c3d 8dd6 52be d708 8f3e
00000180: c58b 09bd 8488 8ebd 7404 a23a 40c1 153d
00000190: 09b3 06bd 8105 263d 9f3e 58be cc29 9b3d
000001a0: 6bd8 51bc 3a4a 0dbe 7af3 20bc cdd1 14bd
000001b0: f8d5 62bd 54e8 d13d 6932 963c 924d 6cbe
000001c0: f915 533e edf7 9f3d e8b9 09be fa74 e3bb
000001d0: f868 48be 7816 c6bd bcd9 69be 712c cebb
000001e0: 3d9a 2abc 406f 2cbc efd4 ecbd 3927 9ebe
000001f0: e88c 4cbc 2e5d 403e 4756 783d 3021 87be
00000200: 769f 35bf bb9f 0ebe b9ad 9dbe a3d4 13be
00000210: 1adc dcbd 5e98 343d d599 ba3e 07f4 783c
00000220: 821a bb3d ec12 dbbc 23bb ad3e 610a 75bf
00000230: 8407 d8be 5c52 95be 9b56 7e3e da32 8b3d
00000240: 0724 bd3c fdaf f0be de4f 9abe ae85 d53e
00000250: f442 0e3e 40c5 25be ca12 12bc 5130 883e
00000260: d421 1fbf f64d 983e 48a3 22bf 2e20 9b3e
00000270: bafb 2f3d 6ccc 9abd 84df f43d 8c9a f43d
00000280: a944 59be 8b3a 76be fc7d 7bbd 31ba 15bf
00000290: 6450 b13d 05a1 8c3c 3b36 393e 6e5f 11bd
000002a0: 9067 14be 5b96 61bd 0cf0 d13e 0a3f 923d
000002b0: 6c7a aa3d c8cd 283d 2410 d23b 584a 5f3e
000002c0: a563 da3d 158f 683c 1d44 a4be 173b f1bd
000002d0: a56f 10be be2a 9dbe 2875 40bc c1fe 67bc
000002e0: 3ebc f53d 4691 86bc 7808 003e 494c 0fbc
000002f0: 6f84 eabd db0c a3be e261 9c3b 66a7 99be
00000300: c6cd 22be 735d dcbb 1971 47be 203c 1ebe
00000310: dae7 48be bfaa e3bd 7ee5 e93d 89ec fa3d
00000320: baf0 42be f5cc afbb 9a47 74bd e2d6 963d
00000330: d1af 723d 60ee f23d 2f0f 74bd be76 3cbe
00000340: 893e 04be d4ce 41be 7242 c1bc d418 d73d
00000350: 8132 403e a2af 02be f25a 2dbd ea11 da3d
00000360: fe49 2d3d 7ee0 a0bd 14e7 133d 7279 d83d
00000370: 6368 593d 1c06 50be 089f 2d3e e34c 933e
00000380: d3d6 ac3c 917b 10be 80d8 ecbb 3011 46be
00000390: 63a0 bf3d 02ca e9bd fd71 e6bb 2dbd 823e
000003a0: 6760 65be 1039 a73d 34fc 37bd d5e3 25be
000003b0: c9d5 90be 7b6d 173e 8012 34be 6b24 963d
000003c0: f884 c0be a150 a83d 1a44 44be aa4c 25be
000003d0: a814 12be f9c5 123e 2f42 7fbe 1b7f 8b3e
000003e0: 6272 8abe 40eb cf3e 5047 c13d 732a 60be
000003f0: 9c72 bcbc c044 35be baeb 7bbd 45ca 243e
-0.23488869 -0.24612986 0.11645462 -0.06011983 0.013820992 0.16891159 -0.006512862 0.12346281
0.113182046 -0.039786447 -0.04452946 0.08188656 -0.2890084 0.0020057335 -0.22003323 -0.0051251072
0.041958846 0.13557275 -0.033284508 -0.036610827 -0.021522777 -0.018307464 0.24636932 -0.0064129205
-0.21724983 -0.25078437 0.042911593 0.090798855 0.124018274 0.099966936 0.115618795 -0.042044915
0.16180417 0.23239693 0.049988005 0.0029802022 0.056859735 0.19518258 0.055457015 -0.017835999
-0.13405992 -0.13910532 0.15575425 0.15258776 0.130881 0.09172571 0.11632044 -0.06148237
-0.08616845 0.05896432 -0.30806828 -0.33301046 0.1191491 0.067047544 0.062145922 0.08809596
0.259375 -0.026719246 0.029571893 -0.10557086 -0.07596596 -0.28702557 0.18236187 -0.07116583
-0.061726063 -0.10865157 -0.1455787 -0.052675817 -0.23327789 -0.27880323 -0.2659959 0.040169828
-0.2208411 0.2036184 -0.14313932 -0.13200715 -0.2266575 0.0057361955 -0.08815217 -0.19966483
0.21639165 -0.18620135 -0.08255471 0.25037217 -0.06693871 -0.011630466 -0.123066284 0.06437333
-0.088345766 0.061035395 -0.26694483 -0.16538684 0.1912551 0.04986288 -0.20589657 0.27936432
-0.03358056 -0.06959632 0.0012360946 0.03656125 -0.032885585 0.040532593 -0.21117638 0.075763315
-0.012807946 -0.13797846 -0.009823674 -0.036332894 -0.055379838 0.10249391 0.018334584 -0.23076466
0.2061385 0.0781096 -0.13449824 -0.006941435 -0.19571292 -0.09672254 -0.22836965 -0.006291919
-0.01041275 -0.010524571 -0.11564051 -0.308893 -0.012484767 0.18785545 0.060629155 -0.26392508
-0.70946443 -0.1392812 -0.30796602 -0.14436583 -0.107841685 0.04409062 0.3644549 0.015194899
0.09135915 -0.026742421 0.33931836 -0.9571896 -0.42193234 -0.29164398 0.24837725 0.067968085
0.023088468 -0.47009268 -0.3013906 0.41703552 0.13892728 -0.16188526 -0.0089156125 0.26599362
-0.6216099 0.2974698 -0.635304 0.3029799 0.042964675 -0.07558522 0.11956695 0.1194354
-0.21217598 -0.2404577 -0.061399445 -0.5848723 0.086579114 0.017166624 0.18087094 -0.0354914
-0.14492631 -0.05507503 0.41003454 0.0714093 0.08324131 0.041211873 0.0064106155 0.21805704
0.10663537 0.01419427 -0.32083216 -0.117788486 -0.14105089 -0.30696672 -0.011746682 -0.014159859
0.11998795 -0.016426694 0.1250323 -0.008746215 -0.11451041 -0.31845745 0.0047724107 -0.30010527
-0.15898809 -0.006725007 -0.19476737 -0.15452623 -0.19619694 -0.111165516 0.11420725 0.12252147
-0.19037142 -0.005365009 -0.059638597 0.073652044 0.059249703 0.11861873 -0.059584793 -0.18404672
-0.1291448 -0.18926555 -0.023591254 0.105027825 0.18769266 -0.12762311 -0.04232306 0.10647948
0.042306893 -0.078553185 0.036109045 0.10570039 0.053078067 -0.2031483 0.16955197 0.28769597
0.02109853 -0.14109637 -0.0072279572 -0.19342494 0.09356763 -0.11415483 -0.0070326314 0.25534955
-0.22400056 0.08165181 -0.044918254 -0.16200192 -0.28288105 0.14787857 -0.17585182 0.07331165
-0.37601447 0.08218504 -0.19166604 -0.16142526 -0.14265692 0.14333333 -0.24927591 0.2724541
-0.27040392 0.4060917 0.0943743 -0.21891193 -0.023003869 -0.17702007 -0.061504103 0.16092785

mlp_gin2.bias f4 [16]
00000000: 682a 85be 280e 9abe 475e d23d 94a0 1bbe
00000010: 04de b43d 510a 253f eaac d83f 83bd 643f
00000020: b5ee 8c3e 4a3f fb3e 2aa7 51bf d209 503d
00000030: 9b27 62be 476c 073f 69f1 3b3e cc2d e13e
-0.26008916 -0.30088925 0.10271888 -0.15197974 0.088314086 0.64468867 1.6927769 0.8935167
0.2752587 0.49071723 -0.818957 0.050790615 -0.22085421 0.52899593 0.1835381 0.43980253

gin2.nn.weight f4 [16, 16]
00000000: a986 70be 7709 7cbe c37f ee3d 3640 76bd
00000010: 7171 623c 29f7 2c3e d969 d5bb 12da fc3d
00000020: fdcb e73d 1df7 22bd 8664 36bd 24b4 a73d
00000030: e9f8 93be a072 033b 6450 61be 84f0 a7bb
00000040: 0add 2b3d 95d3 0a3e 5655 08bd 3cf5 15bd
00000050: 8950 b0bc 89f9 95bc 3d48 7c3e 7a23 d2bb
00000060: bd76 5ebe cf66 80be 11c4 2f3d c0f4 b93d
00000070: 4bfd fd3d 77bb cc3d 8cc9 ec3d 4a37 2cbd
00000080: feaf 253e 76f9 6d3e 39c0 4c3d 7f4f 433b
00000090: c1e5 683d f1dd 473e e526 633d cd1c 92bc
000000a0: 0147 09be a071 0ebe 0b7e 1f3e f73f 1c3e
000000b0: ab05 063e b0da bb3d 6939 ee3d f0d4 7bbd
000000c0: 1679 b0bd 9284 713d 20bb 9dbe 5980 aabe
000000d0: 7104 f43d 3950 893d b98c 7e3d a86b b43d
000000e0: cdcc 843e 52e2 dabc c140 f23c 8935 d8bd
000000f0: 0b94 9bbd 04f5 92be 12bd 3a3e 64bf 91bd
00000100: 78d4 7cbd b784 debd 9512 15be 99c2 57bd
00000110: 66e0 6ebe 4cbf 8ebe 9d30 88be 1e89 243d
00000120: 2b24 62be 5881 503e 1d93 12be e22c 07be
00000130: e718 68be b2f6 bb3b 2089 b4bd f074 4cbe
00000140: c695 5d3e 91ab 3ebe 7212 a9bd c830 803e
00000150: 2a17 89bd b68d 3ebc 2d0a fcbd 2ad6 833d
00000160: a0ee b4bd 4000 7a3d feac 88be 2b5b 29be
00000170: 60d8 433e 053d 4c3d 8dd6 52be d708 8f3e
00000180: c58b 09bd 8488 8ebd 7404 a23a 40c1 153d
00000190: 09b3 06bd 8105 263d 9f3e 58be cc29 9b3d
000001a0: 6bd8 51bc 3a4a 0dbe 7af3 20bc cdd1 14bd
000001b0: f8d5 62bd 54e8 d13d 6932 963c 924d 6cbe
000001c0: f915 533e edf7 9f3d e8b9 09be fa74 e3bb
000001d0: f868 48be 7816 c6bd bcd9 69be 712c cebb
000001e0: 3d9a 2abc 406f 2cbc efd4 ecbd 3927 9ebe
000001f0: e88c 4cbc 2e5d 403e 4756 783d 3021 87be
00000200: 769f 35bf bb9f 0ebe b9ad 9dbe a3d4 13be
00000210: 1adc dcbd 5e98 343d d599 ba3e 07f4 783c
00000220: 821a bb3d ec12 dbbc 23bb ad3e 610a 75bf
00000230: 8407 d8be 5c52 95be 9b56 7e3e da32 8b3d
00000240: 0724 bd3c fdaf f0be de4f 9abe ae85 d53e
00000250: f442 0e3e 40c5 25be ca12 12bc 5130 883e
00000260: d421 1fbf f64d 983e 48a3 22bf 2e20 9b3e
00000270: bafb 2f3d 6ccc 9abd 84df f43d 8c9a f43d
00000280: a944 59be 8b3a 76be fc7d 7bbd 31ba 15bf
00000290: 6450 b13d 05a1 8c3c 3b36 393e 6e5f 11bd
000002a0: 9067 14be 5b96 61bd 0cf0 d13e 0a3f 923d
000002b0: 6c7a aa3d c8cd 283d 2410 d23b 584a 5f3e
000002c0: a563 da3d 158f 683c 1d44 a4be 173b f1bd
000002d0: a56f 10be be2a 9dbe 2875 40bc c1fe 67bc
000002e0: 3ebc f53d 4691 86bc 7808 003e 494c 0fbc
000002f0: 6f84 eabd db0c a3be e261 9c3b 66a7 99be
00000300: c6cd 22be 735d dcbb 1971 47be 203c 1ebe
00000310: dae7 48be bfaa e3bd 7ee5 e93d 89ec fa3d
00000320: baf0 42be f5cc afbb 9a47 74bd e2d6 963d
00000330: d1af 723d 60ee f23d 2f0f 74bd be76 3cbe
00000340: 893e 04be d4ce 41be 7242 c1bc d418 d73d
00000350: 8132 403e a2af 02be f25a 2dbd ea11 da3d
00000360: fe49 2d3d 7ee0 a0bd 14e7 133d 7279 d83d
00000370: 6368 593d 1c06 50be 089f 2d3e e34c 933e
00000380: d3d6 ac3c 917b 10be 80d8 ecbb 3011 46be
00000390: 63a0 bf3d 02ca e9bd fd71 e6bb 2dbd 823e
000003a0: 6760 65be 1039 a73d 34fc 37bd d5e3 25be
000003b0: c9d5 90be 7b6d 173e 8012 34be 6b24 963d
000003c0: f884 c0be a150 a83d 1a44 44be aa4c 25be
000003d0: a814 12be f9c5 123e 2f42 7fbe 1b7f 8b3e
000003e0: 6272 8abe 40eb cf3e 5047 c13d 732a 60be
000003f0: 9c72 bcbc c044 35be baeb 7bbd 45ca 243e
-0.23488869 -0.24612986 0.11645462 -0.06011983 0.013820992 0.16891159 -0.006512862 0.12346281
0.113182046 -0.039786447 -0.04452946 0.08188656 -0.2890084 0.0020057335 -0.22003323 -0.0051251072
0.041958846 0.13557275 -0.033284508 -0.036610827 -0.021522777 -0.018307464 0.24636932 -0.0064129205
-0.21724983 -0.25078437 0.042911593 0.090798855 0.124018274 0.099966936 0.115618795 -0.042044915
0.16180417 0.23239693 0.049988005 0.0029802022 0.056859735 0.19518258 0.055457015 -0.017835999
-0.13405992 -0.13910532 0.15575425 0.15258776 0.130881 0.09172571 0.11632044 -0.06148237
-0.08616845 0.05896432 -0.30806828 -0.33301046 0.1191491 0.067047544 0.062145922 0.08809596
0.259375 -0.026719246 0.029571893 -0.10557086 -0.07596596 -0.28702557 0.18236187 -0.07116583
-0.061726063 -0.10865157 -0.1455787 -0.052675817 -0.23327789 -0.27880323 -0.2659959 0.040169828
-0.2208411 0.2036184 -0.14313932 -0.13200715 -0.2266575 0.0057361955 -0.08815217 -0.19966483
0.21639165 -0.18620135 -0.08255471 0.25037217 -0.06693871 -0.011630466 -0.123066284 0.06437333
-0.088345766 0.061035395 -0.26694483 -0.16538684 0.1912551 0.04986288 -0.20589657 0.27936432
-0.03358056 -0.06959632 0.0012360946 0.03656125 -0.032885585 0.040532593 -0.21117638 0.075763315
-0.012807946 -0.13797846 -0.009823674 -0.036332894 -0.055379838 0.10249391 0.018334584 -0.23076466
0.2061385 0.0781096 -0.13449824 -0.006941435 -0.19571292 -0.09672254 -0.22836965 -0.006291919
-0.01041275 -0.010524571 -0.11564051 -0.308893 -0.012484767 0.18785545 0.060629155 -0.26392508
-0.70946443 -0.1392812 -0.30796602 -0.14436583 -0.107841685 0.04409062 0.3644549 0.015194899
0.09135915 -0.026742421 0.33931836 -0.9571896 -0.42193234 -0.29164398 0.24837725 0.067968085
0.023088468 -0.47009268 -0.3013906 0.41703552 0.13892728 -0.16188526 -0.0089156125 0.26599362
-0.6216099 0.2974698 -0.635304 0.3029799 0.042964675 -0.07558522 0.11956695 0.1194354
-0.21217598 -0.2404577 -0.061399445 -0.5848723 0.086579114 0.017166624 0.18087094 -0.0354914
-0.14492631 -0.05507503 0.41003454 0.0714093 0.08324131 0.041211873 0.0064106155 0.21805704
0.10663537 0.01419427 -0.32083216 -0.117788486 -0.14105089 -0.30696672 -0.011746682 -0.014159859
0.11998795 -0.016426694 0.1250323 -0.008746215 -0.11451041 -0.31845745 0.0047724107 -0.30010527
-0.15898809 -0.006725007 -0.19476737 -0.15452623 -0.19619694 -0.111165516 0.11420725 0.12252147
-0.19037142 -0.005365009 -0.059638597 0.073652044 0.059249703 0.11861873 -0.059584793 -0.18404672
-0.1291448 -0.18926555 -0.023591254 0.105027825 0.18769266 -0.12762311 -0.04232306 0.10647948
0.042306893 -0.078553185 0.036109045 0.10570039 0.053078067 -0.2031483 0.16955197 0.28769597
0.02109853 -0.14109637 -0.0072279572 -0.19342494 0.09356763 -0.11415483 -0.0070326314 0.25534955
-0.22400056 0.08165181 -0.044918254 -0.16200192 -0.28288105 0.14787857 -0.17585182 0.07331165
-0.37601447 0.08218504 -0.19166604 -0.16142526 -0.14265692 0.14333333 -0.24927591 0.2724541
-0.27040392 0.4060917 0.0943743 -0.21891193 -0.023003869 -0.17702007 -0.061504103 0.16092785

gin2.nn.bias f4 [16]
00000000: 682a 85be 280e 9abe 475e d23d 94a0 1bbe
00000010: 04de b43d 510a 253f eaac d83f 83bd 643f
00000020: b5ee 8c3e 4a3f fb3e 2aa7 51bf d209 503d
00000030: 9b27 62be 476c 073f 69f1 3b3e cc2d e13e
-0.26008916 -0.30088925 0.10271888 -0.15197974 0.088314086 0.64468867 1.6927769 0.8935167
0.2752587 0.49071723 -0.818957 0.050790615 -0.22085421 0.52899593 0.1835381 0.43980253

mlp_gin3.weight f4 [2, 16]
00000000: 3a9e 21bd 4f76 003e 4041 05be 2338 a33d
00000010: 24b6 6ebe 0e9b dfbc e709 513f 3327 fe3d
00000020: b1ba 8e3e 7677 e83e 9f0a 873e e554 713e
00000030: a55f e33d 8d73 ebbd 0b06 083e 29fd 8c3e
00000040: d821 bc3d 6c1f 06be 9026 3f3e df7d b4bd
00000050: 046b 223e 7e97 143e cab7 5ebf 45f2 aabe
00000060: d7f8 0ebf ef57 e8be 4f40 3b3e 1c0c acbd
00000070: ff4e 3b3d a5af 8f3e ee3b 26be fe9a 57be
-0.039457537 0.12545131 -0.13013172 0.079696916 -0.23311669 -0.027295616 0.81655735 0.124098204
0.2787681 0.4540364 0.2637529 0.23567541 0.11102227 -0.11496649 0.13283555 0.27536896
0.09186143 -0.13097924 0.18667054 -0.088130705 0.15861136 0.14510915 -0.8699919 -0.33387962
-0.5584845 -0.45379588 0.1828625 -0.08400747 0.045729633 0.28063694 -0.16233799 -0.21055219

mlp_gin3.bias f4 [2]
00000000: 82c4 ca3f 19bd fdbf
1.584122 -1.9823333

gin3.nn.weight f4 [2, 16]
00000000: 3a9e 21bd 4f76 003e 4041 05be 2338 a33d
00000010: 24b6 6ebe 0e9b dfbc e709 513f 3327 fe3d
00000020: b1ba 8e3e 7677 e83e 9f0a 873e e554 713e
00000030: a55f e33d 8d73 ebbd 0b06 083e 29fd 8c3e
00000040: d821 bc3d 6c1f 06be 9026 3f3e df7d b4bd
00000050: 046b 223e 7e97 143e cab7 5ebf 45f2 aabe
00000060: d7f8 0ebf ef57 e8be 4f40 3b3e 1c0c acbd
00000070: ff4e 3b3d a5af 8f3e ee3b 26be fe9a 57be
-0.039457537 0.12545131 -0.13013172 0.079696916 -0.23311669 -0.027295616 0.81655735 0.124098204
0.2787681 0.4540364 0.2637529 0.23567541 0.11102227 -0.11496649 0.13283555 0.27536896
0.09186143 -0.13097924 0.18667054 -0.088130705 0.15861136 0.14510915 -0.8699919 -0.33387962
-0.5584845 -0.45379588 0.1828625 -0.08400747 0.045729633 0.28063694 -0.16233799 -0.21055219

gin3.nn.bias f4 [2]
00000000: 82c4 ca3f 19bd fdbf
1.584122 -1.9823333
