formal/model_weights/model_homophily_L=2.pth (torch, 3223 bytes, 8 tensors)

mlp_gin1.weight f4 [16, 11]
00000000: 7f11 2a3e 4bba bfbd 22d4 08be 10d9 873e
00000010: eb72 16be a253 c2bc 93ed 563d 81d6 2c3e
00000020: 88ee 1abd 1d05 2a3e 0b10 2d3e 1567 e53d
00000030: b085 1dbc 2f4e 08be e917 37be c56b 86bd
00000040: bcce 71bd 99ba 843e 7b6e 03be dfc6 283e
00000050: aca4 ad3d 2513 7a3e e815 703e 3da2 31be
00000060: 87a8 f23c c97f 033e 5117 12be 1dca aebd
00000070: ba22 edbc 0675 23bd ee0f 933e 18ee 013e
00000080: 0f6b efbd 6743 643e f99e 073c 05d3 94be
00000090: 5b0e 183c 76e8 f13e 8fa3 0bbe 583e dabc
000000a0: 5197 b93b 08ad 3abe a3ca fc3d 2260 53be
000000b0: 0dcb 1dbe 30df 4a3c 72e7 5abd 67d6 42bd
000000c0: 391f b0be e275 a4bd a4f1 06bc 62af e83c
000000d0: e13f 733d 2d02 5cbd 8b3a 8c3d 4db0 833e
000000e0: b700 063e 06a7 09be 0848 653d 5ea3 0f3f
000000f0: bb2e 0c3e c9be 2c3d 0040 333e 2c5a 393b
00000100: 9fe6 8dbd 5dfd cbbe ccb5 c43e 87dc 27bd
00000110: 40c8 3f3d 74df e2bc 3075 f6bd 181d c43d
00000120: 0e83 9a3d 2039 80bd 995f 6d3e 508c 88bd
00000130: 4f27 8b3b 63d0 cabe 199e 133c 525d 06bf
00000140: b0f2 313d cc32 be3d 5369 09be 25b3 16be
00000150: d75f fbbd f25a 373f 8c78 533d ddc1 abbd
00000160: 5038 52be 8223 993e bbdf ccbd c905 e43d
00000170: c112 04be 77fa 423e 9a48 6f3a fbbb 983e
00000180: 8ae8 793d 3065 2a3e 9375 6bbe 6e53 1e3f
00000190: 39e5 44bd 4654 a0be b34b 373e 19c4 873d
000001a0: d5a6 fabc eaec 963c c1e3 40bd 11ba 393e
000001b0: 1a22 c13d 066c 4bbe 0efe b1bd 2698 a33b
000001c0: 5a4f 1abe 24d4 bd3d 3d76 f7bd 7abf 293e
000001d0: 02de aabb 4070 313e 4253 98bb d8d3 033e
000001e0: 6caa c7bc 7f65 29be e896 c7bb 4d5e 57bc
000001f0: 9f12 45be f41c abbd 44af 5dbe 8ad6 31bd
00000200: bb5e 2e3e 1561 cabe 7262 2ebd 187d ff3d
00000210: e937 cbbc 9a40 9cbc 17a6 2c3c 4076 3f3b
00000220: 8ef2 78be 0fc2 c53d 0525 953d ee0c 063d
00000230: e035 813e 2733 79be 0b38 1a3e dc06 cd3d
00000240: 13d2 1a3d af03 883e 4525 133d 531c 44bd
00000250: e8b9 28bb 429a dcbb 5cf3 fabd a25a e1be
00000260: 18c0 cf3a 4460 4b3e e5dd 313d aea7 2b3d
00000270: feeb db3d 6b6f 8fbd 26af 173f 1e7e f6bb
00000280: 7c3d f23c 6aa8 8839 2123 a6be e11c 32bd
00000290: 2ac8 0d3d 8330 96be 43a9 09be 7a41 45be
000002a0: 6b42 5fbd 86b4 9cbd 3f06 7c3e 1985 47bd
000002b0: 20d3 a13d ce46 9a3d b6cf aa3d 4506 98be
0.16608237 -0.093617044 -0.13362172 0.26532793 -0.14692275 -0.02372152 0.052472662 0.16878702
-0.037825137 0.16603513 0.16900651 0.11201302 -0.009614393 -0.13311075 -0.17880215 -0.06563524
-0.059035048 0.25923613 -0.12835114 0.16482113 0.08478674 0.24421366 0.23445857 -0.17347045
0.029621376 0.12841715 -0.14266707 -0.08534644 -0.028947223 -0.039906524 0.2872309 0.12688482
-0.11690342 0.22291337 0.008277648 -0.29067245 0.009280766 0.47247666 -0.13636611 -0.026641056
0.0056637903 -0.18230069 0.123433374 -0.2064214 -0.15409489 0.012382314 -0.05344338 -0.04756775
-0.3439882 -0.08030297 -0.008236323 0.028403942 0.05938709 -0.053713012 0.06847104 0.25720444
0.1308621 -0.1344262 0.055976897 0.56108654 0.13689701 0.042174134 0.17504883 0.0028282506
-0.06928753 -0.39841738 0.3841995 -0.040981796 0.046821833 -0.027694441 -0.120340705 0.09575862
0.07544528 -0.06260896 0.23180999 -0.066673875 0.0042466293 -0.3961211 0.009009861 -0.52486145
0.043444335 0.092870325 -0.13419084 -0.14716776 -0.122741394 0.71623147 0.051628634 -0.08386586
-0.20529294 0.29909903 -0.10003611 0.11133916 -0.12897779 0.19040857 0.0009127945 0.29830918
0.061012782 0.16640162 -0.2299407 0.61846054 -0.048070166 -0.31314296 0.1789997 0.066291995
-0.03059713 0.018423516 -0.047092203 0.18137385 0.094303325 -0.19865426 -0.08691035 0.0049925027
-0.15069333 0.09268978 -0.12083099 0.16576949 -0.0052144537 0.17327976 -0.004648597 0.1287378
-0.024373256 -0.16542624 -0.0060909875 -0.013145042 -0.19245385 -0.08355132 -0.2164889 -0.04341749
0.17028324 -0.39527193 -0.042574354 0.124750316 -0.024806933 -0.019073773 0.010537646 0.002921477
-0.24311277 0.09656154 0.072824515 0.032727174 0.25236416 -0.2433592 0.15060441 0.10011074
0.037798 0.2656531 0.035924215 -0.047878575 -0.0025745574 -0.006732256 -0.12253448 -0.4401446
0.0015850095 0.19860941 0.043424506 0.04190796 0.10738371 -0.07003673 0.5925163 -0.0075223586
0.029570334 0.0002606542 -0.32448676 -0.043484572 0.03461472 -0.29333887 -0.13443474 -0.19263259
-0.0545067 -0.076516196 0.24611758 -0.048710916 0.07901597 0.07533036 0.08340399 -0.29692283

mlp_gin1.bias f4 [16]
00000000: 54f6 13bf 9bf5 e2be bece 2cbc f716 d63e
00000010: 7529 723f 5ade b5bd f71a 4c3e a1a8 53bf
00000020: 6e15 fabe 3f81 a53e 5f29 253f b983 1fbf
00000030: 1ffe 2dbf 03a2 04be f3a9 2a3f 86c1 0dbf
-0.5779774 -0.44328007 -0.010547338 0.41814396 0.9459451 -0.08880301 0.19932161 -0.8267918
-0.48844475 0.3232517 0.6451625 -0.6231037 -0.67965883 -0.12952428 0.6666557 -0.5537342

gin1.nn.weight f4 [16, 11]
00000000: 7f11 2a3e 4bba bfbd 22d4 08be 10d9 873e
00000010: eb72 16be a253 c2bc 93ed 563d 81d6 2c3e
00000020: 88ee 1abd 1d05 2a3e 0b10 2d3e 1567 e53d
00000030: b085 1dbc 2f4e 08be e917 37be c56b 86bd
00000040: bcce 71bd 99ba 843e 7b6e 03be dfc6 283e
00000050: aca4 ad3d 2513 7a3e e815 703e 3da2 31be
00000060: 87a8 f23c c97f 033e 5117 12be 1dca aebd
00000070: ba22 edbc 0675 23bd ee0f 933e 18ee 013e
00000080: 0f6b efbd 6743 643e f99e 073c 05d3 94be
00000090: 5b0e 183c 76e8 f13e 8fa3 0bbe 583e dabc
000000a0: 5197 b93b 08ad 3abe a3ca fc3d 2260 53be
000000b0: 0dcb 1dbe 30df 4a3c 72e7 5abd 67d6 42bd
000000c0: 391f b0be e275 a4bd a4f1 06bc 62af e83c
000000d0: e13f 733d 2d02 5cbd 8b3a 8c3d 4db0 833e
000000e0: b700 063e 06a7 09be 0848 653d 5ea3 0f3f
000000f0: bb2e 0c3e c9be 2c3d 0040 333e 2c5a 393b
00000100: 9fe6 8dbd 5dfd cbbe ccb5 c43e 87dc 27bd
00000110: 40c8 3f3d 74df e2bc 3075 f6bd 181d c43d
00000120: 0e83 9a3d 2039 80bd 995f 6d3e 508c 88bd
00000130: 4f27 8b3b 63d0 cabe 199e 133c 525d 06bf
00000140: b0f2 313d cc32 be3d 5369 09be 25b3 16be
00000150: d75f fbbd f25a 373f 8c78 533d ddc1 abbd
00000160: 5038 52be 8223 993e bbdf ccbd c905 e43d
00000170: c112 04be 77fa 423e 9a48 6f3a fbbb 983e
00000180: 8ae8 793d 3065 2a3e 9375 6bbe 6e53 1e3f
00000190: 39e5 44bd 4654 a0be b34b 373e 19c4 873d
000001a0: d5a6 fabc eaec 963c c1e3 40bd 11ba 393e
000001b0: 1a22 c13d 066c 4bbe 0efe b1bd 2698 a33b
000001c0: 5a4f 1abe 24d4 bd3d 3d76 f7bd 7abf 293e
000001d0: 02de aabb 4070 313e 4253 98bb d8d3 033e
000001e0: 6caa c7bc 7f65 29be e896 c7bb 4d5e 57bc
000001f0: 9f12 45be f41c abbd 44af 5dbe 8ad6 31bd
00000200: bb5e 2e3e 1561 cabe 7262 2ebd 187d ff3d
00000210: e937 cbbc 9a40 9cbc 17a6 2c3c 4076 3f3b
00000220: 8ef2 78be 0fc2 c53d 0525 953d ee0c 063d
00000230: e035 813e 2733 79be 0b38 1a3e dc06 cd3d
00000240: 13d2 1a3d af03 883e 4525 133d 531c 44bd
00000250: e8b9 28bb 429a dcbb 5cf3 fabd a25a e1be
00000260: 18c0 cf3a 4460 4b3e e5dd 313d aea7 2b3d
00000270: feeb db3d 6b6f 8fbd 26af 173f 1e7e f6bb
00000280: 7c3d f23c 6aa8 8839 2123 a6be e11c 32bd
00000290: 2ac8 0d3d 8330 96be 43a9 09be 7a41 45be
000002a0: 6b42 5fbd 86b4 9cbd 3f06 7c3e 1985 47bd
000002b0: 20d3 a13d ce46 9a3d b6cf aa3d 4506 98be
0.16608237 -0.093617044 -0.13362172 0.26532793 -0.14692275 -0.02372152 0.052472662 0.16878702
-0.037825137 0.16603513 0.16900651 0.11201302 -0.009614393 -0.13311075 -0.17880215 -0.06563524
-0.059035048 0.25923613 -0.12835114 0.16482113 0.08478674 0.24421366 0.23445857 -0.17347045
0.029621376 0.12841715 -0.14266707 -0.08534644 -0.028947223 -0.039906524 0.2872309 0.12688482
-0.11690342 0.22291337 0.008277648 -0.29067245 0.009280766 0.47247666 -0.13636611 -0.026641056
0.0056637903 -0.18230069 0.123433374 -0.2064214 -0.15409489 0.012382314 -0.05344338 -0.04756775
-0.3439882 -0.08030297 -0.008236323 0.028403942 0.05938709 -0.053713012 0.06847104 0.25720444
0.1308621 -0.1344262 0.055976897 0.56108654 0.13689701 0.042174134 0.17504883 0.0028282506
-0.06928753 -0.39841738 0.3841995 -0.040981796 0.046821833 -0.027694441 -0.120340705 0.09575862
0.07544528 -0.06260896 0.23180999 -0.066673875 0.0042466293 -0.3961211 0.009009861 -0.52486145
0.043444335 0.092870325 -0.13419084 -0.14716776 -0.122741394 0.71623147 0.051628634 -0.08386586
-0.20529294 0.29909903 -0.10003611 0.11133916 -0.12897779 0.19040857 0.0009127945 0.29830918
0.061012782 0.16640162 -0.2299407 0.61846054 -0.048070166 -0.31314296 0.1789997 0.066291995
-0.03059713 0.018423516 -0.047092203 0.18137385 0.094303325 -0.19865426 -0.08691035 0.0049925027
-0.15069333 0.09268978 -0.12083099 0.16576949 -0.0052144537 0.17327976 -0.004648597 0.1287378
-0.024373256 -0.16542624 -0.0060909875 -0.013145042 -0.19245385 -0.08355132 -0.2164889 -0.04341749
0.17028324 -0.39527193 -0.042574354 0.124750316 -0.024806933 -0.019073773 0.010537646 0.002921477
-0.24311277 0.09656154 0.072824515 0.032727174 0.25236416 -0.2433592 0.15060441 0.10011074
0.037798 0.2656531 0.035924215 -0.047878575 -0.0025745574 -0.006732256 -0.12253448 -0.4401446
0.0015850095 0.19860941 0.043424506 0.04190796 0.10738371 -0.07003673 0.5925163 -0.0075223586
0.029570334 0.0002606542 -0.32448676 -0.043484572 0.03461472 -0.29333887 -0.13443474 -0.19263259
-0.0545067 -0.076516196 0.24611758 -0.048710916 0.07901597 0.07533036 0.08340399 -0.29692283

gin1.nn.bias f4 [16]
00000000: 54f6 13bf 9bf5 e2be bece 2cbc f716 d63e
00000010: 7529 723f 5ade b5bd f71a 4c3e a1a8 53bf
00000020: 6e15 fabe 3f81 a53e 5f29 253f b983 1fbf
00000030: 1ffe 2dbf 03a2 04be f3a9 2a3f 86c1 0dbf
-0.5779774 -0.44328007 -0.010547338 0.41814396 0.9459451 -0.08880301 0.19932161 -0.8267918
-0.48844475 0.3232517 0.6451625 -0.6231037 -0.67965883 -0.12952428 0.6666557 -0.5537342

mlp_gin2.weight f4 [2, 16]
00000000: 4e0a 91bb d869 173d edc9 43bd d97b 2f3e
00000010: 4eb5 5a3e 55bf ebbb d41d 9f3d 16b5 fbbd
00000020: a1d6 52be b144 3c3d f3d9 2c3e 2d3e 8cbe
00000030: 17dc 27be 2fb2 8ebd 148b d93d 6097 a03d
00000040: c0a3 1d3e c94b 163e ce96 81bc 3415 38bd
00000050: 2442 0dbd ae52 a3bd 7c5f 2fbd a74c ae3d
00000060: 3dcf 6bbd 5dda 96bd 79ba 83bd 0a85 afbd
00000070: 68fc 813d 59f0 c33d e02c 12bd 0672 873e
-0.0044262772 0.036966175 -0.047799993 0.17137088 0.21358225 -0.0071944394 0.07769361 -0.12290399
-0.20589687 0.045963947 0.16880016 -0.27391186 -0.16392551 -0.069675796 0.1062223 0.078413725
0.15394497 0.14677347 -0.01581898 -0.044942096 -0.034486905 -0.07974754 -0.04281567 0.08510714
-0.057570685 -0.07365868 -0.06432051 -0.08570297 0.06346971 0.09567327 -0.035687327 0.2645418

mlp_gin2.bias f4 [2]
00000000: cd71 493f 8809 57bf
0.7868927 -0.8399892

gin3.nn.weight f4 [2, 16]
00000000: 4e0a 91bb d869 173d edc9 43bd d97b 2f3e
00000010: 4eb5 5a3e 55bf ebbb d41d 9f3d 16b5 fbbd
00000020: a1d6 52be b144 3c3d f3d9 2c3e 2d3e 8cbe
00000030: 17dc 27be 2fb2 8ebd 148b d93d 6097 a03d
00000040: c0a3 1d3e c94b 163e ce96 81bc 3415 38bd
00000050: 2442 0dbd ae52 a3bd 7c5f 2fbd a74c ae3d
00000060: 3dcf 6bbd 5dda 96bd 79ba 83bd 0a85 afbd
00000070: 68fc 813d 59f0 c33d e02c 12bd 0672 873e
-0.0044262772 0.036966175 -0.047799993 0.17137088 0.21358225 -0.0071944394 0.07769361 -0.12290399
-0.20589687 0.045963947 0.16880016 -0.27391186 -0.16392551 -0.069675796 0.1062223 0.078413725
0.15394497 0.14677347 -0.01581898 -0.044942096 -0.034486905 -0.07974754 -0.04281567 0.08510714
-0.057570685 -0.07365868 -0.06432051 -0.08570297 0.06346971 0.09567327 -0.035687327 0.2645418

gin3.nn.bias f4 [2]
00000000: cd71 493f 8809 57bf
0.7868927 -0.8399892
