formal/model_weights/model_triangle_L=2.pth (torch, 3223 bytes, 8 tensors)

mlp_gin1.weight f4 [16, 11]
00000000: 71a5 97bd 5005 5fbd 0696 3f3d 6e40 96be
00000010: 213b 453e 6075 733d ff9b c43d c8e9 723e
00000020: 25e0 9b3e 2fd6 98bd 8b17 6bbe b5dd 3abc
00000030: 7328 87bd 3db6 a1bd 5e83 98be dc83 06be
00000040: 3bba bb3e 7596 88be 1e25 943e e60c f43e
00000050: d499 853e d39c a83d 97cf 823d 8da9 95bd
00000060: 3a02 a63d b64b d4be f09b 843d c54a 9c3c
00000070: 940c 27be c6e1 b7be 3141 0fbc ec8f 80be
00000080: 1fae 92be cd50 4e3d 2eb4 203c 1c73 57bc
00000090: fdb8 6cbe 8bea 9f3d 2d8e 783d a081 9cbd
000000a0: 27b3 8fbe a33d 90be b8f2 803e 58f3 1bbc
000000b0: 94f5 1e3e 9b54 143f f940 293d ef6e e7bd
000000c0: b18e ac3e bbe1 cc3d 30fa 37be 2740 eb3c
000000d0: b688 8d3d 4d2d 64bc 033a 7a3d a357 e03d
000000e0: 86a3 35be 6770 aebe 6090 55be 1488 413e
000000f0: bd94 4bbe 3645 8b3d 1579 443d 1abc 453e
00000100: 0a4c 443f 54f1 9e3d d2ef 77be e7e9 9cbe
00000110: 1b81 04be 9080 613e 6ea7 c8be 80d8 cf3e
00000120: 4fb5 04be ab99 88bc c72c 933e e72b 8d3e
00000130: 3ed5 ea3e b5ee 8ebd d868 1dbe b890 9cbd
00000140: 085b 7bbe bb33 8d3e 9690 db3d c313 0a3e
00000150: 6089 c23e 796f a83e 06fc aabd 04c6 60be
00000160: ba00 00bc 18c0 3b3d 5e3e d53b 382c 81be
00000170: 3721 893c 24a2 be3c ff2b ec3d 15b5 1fbe
00000180: 7159 563d 92fe 86bd 8f98 be3b c7e0 e1bc
00000190: 02ce 803b b0c4 3fbe 95a9 123d b5ed d53c
000001a0: 087d 86bc 37aa fcbd 130f a1be 2886 f1be
000001b0: dbe7 70be 7494 413e 744b 8abe 6f6c b5be
000001c0: f450 bb3e ebd1 83be 973a fb3e c4fc d73e
000001d0: fbf0 453c 9349 45be bcd5 4f3d 7b1b 943e
000001e0: d4b0 d03d 8b6b a2be cbac 8e3d d165 9dbd
000001f0: e072 a0bd 5b01 ab3d 18c7 30be 0d5c cd3e
00000200: ead8 38be fd8a de3d 94f8 213d db55 b23c
00000210: 670d 173f 094c e4bb 01de 093e 990f 003e
00000220: 0cd1 60be 8f97 55bd 6a58 a83e 6efa 25be
00000230: c106 2fbe 55fb 0c3e d071 9d3c fc6b 37be
00000240: b36c 833c 4c40 e0bd 051b debd aec7 81bc
00000250: 39d2 9f3e 69fd 743e 74fc 513d 16c4 883d
00000260: b7b7 933e 5200 a3be b95f b2be f695 6a3d
00000270: 8e8d b53e a577 813e 8935 90bd a29f 1abe
00000280: 550b 6dbe c17e d33e 814e c53d ea98 87bd
00000290: b740 6abe 71a9 f6bd 09e0 08be 97c1 22be
000002a0: 8a2e febd 4590 c13d 0b38 dc3d f85a 463e
000002b0: e724 e23d dc27 323e 0be4 bd3e e2ce 00bd
-0.07404602 -0.054448426 0.046773933 -0.2934603 0.19260837 0.05943811 0.096000664 0.23721993
0.30444446 -0.07462727 -0.229582 -0.011405398 -0.06599512 -0.07896087 -0.29787725 -0.13136238
0.3666552 -0.2667729 0.28934568 0.4766609 0.26093924 0.08233037 0.06387251 -0.0730773
0.081058934 -0.41464013 0.06475055 0.019078622 -0.16313392 -0.3591444 -0.00874357 -0.25109804
-0.2864847 0.050370026 0.009808583 -0.013150003 -0.23117442 0.078084074 0.060682464 -0.076419115
-0.2806637 -0.28172025 0.2518518 -0.009518467 0.15523368 0.579416 0.04132173 -0.11300456
0.33702615 0.10003992 -0.17966533 0.028717114 0.06910841 -0.013926816 0.06109048 0.109542154
-0.1773816 -0.3407013 -0.20855856 0.18899566 -0.19880958 0.0680031 0.047967035 0.19310036
0.76678526 0.077608734 -0.24212578 -0.30647203 -0.12939875 0.22021699 -0.3919024 0.40594864
-0.12959789 -0.016674837 0.287451 0.27572557 0.45865816 -0.069791235 -0.15372026 -0.076447904
-0.24546444 0.2757853 0.10720937 0.13484101 0.37995434 0.32897547 -0.08348851 -0.21950537
-0.007812673 0.04583749 0.006507679 -0.2522905 0.01673947 0.023270674 0.11531829 -0.15596421
0.05233139 -0.06591524 0.0058165262 -0.027573003 0.003930808 -0.18727374 0.035806257 0.026114324
-0.016417041 -0.123371534 -0.31456813 -0.47172666 -0.23525946 0.18904287 -0.2701069 -0.3543429
0.365852 -0.25746092 0.49068138 0.42185032 0.01208138 -0.19266348 0.050740942 0.28927216
0.10189977 -0.31722674 0.069665514 -0.076854356 -0.07834411 0.08349868 -0.17263448 0.40109292
-0.18051496 0.10866354 0.039543703 0.021769455 0.59004825 -0.006967072 0.13463594 0.1250595
-0.21954745 -0.05214649 0.32879955 -0.16208813 -0.1709242 0.1376775 0.01921931 -0.17912287
0.016043043 -0.10949764 -0.10844997 -0.015842285 0.31215075 0.23924793 0.05126615 0.066780254
0.288511 -0.31836182 -0.34838656 0.05727192 0.3545956 0.25286594 -0.07041461 -0.15099958
-0.23148854 0.41307643 0.09634114 -0.06620963 -0.22876249 -0.12044037 -0.13366713 -0.15894161
-0.1241122 0.09451345 0.10752877 0.1937064 0.11042195 0.17398018 0.37088045 -0.0314473

mlp_gin1.bias f4 [16]
00000000: 4207 283f d10c 94bf 4efd 213f 54b6 c9bd
00000010: 5902 9f3d ffdc a03d 5b08 b9be 510e e23e
00000020: 424a d33f f4a6 443e 8e0a 8a3d 260f 99bd
00000030: 2169 bc3d 34fc 733e a70b 0fbe ffbd 9d3f
0.65636075 -1.1566411 0.6327714 -0.098492295 0.0776412 0.07854652 -0.36139187 0.44151548
1.6507037 0.19204313 0.067402944 -0.074735925 0.09199739 0.23826677 -0.13969289 1.2323607

gin1.nn.weight f4 [16, 11]
00000000: 71a5 97bd 5005 5fbd 0696 3f3d 6e40 96be
00000010: 213b 453e 6075 733d ff9b c43d c8e9 723e
00000020: 25e0 9b3e 2fd6 98bd 8b17 6bbe b5dd 3abc
00000030: 7328 87bd 3db6 a1bd 5e83 98be dc83 06be
00000040: 3bba bb3e 7596 88be 1e25 943e e60c f43e
00000050: d499 853e d39c a83d 97cf 823d 8da9 95bd
00000060: 3a02 a63d b64b d4be f09b 843d c54a 9c3c
00000070: 940c 27be c6e1 b7be 3141 0fbc ec8f 80be
00000080: 1fae 92be cd50 4e3d 2eb4 203c 1c73 57bc
00000090: fdb8 6cbe 8bea 9f3d 2d8e 783d a081 9cbd
000000a0: 27b3 8fbe a33d 90be b8f2 803e 58f3 1bbc
000000b0: 94f5 1e3e 9b54 143f f940 293d ef6e e7bd
000000c0: b18e ac3e bbe1 cc3d 30fa 37be 2740 eb3c
000000d0: b688 8d3d 4d2d 64bc 033a 7a3d a357 e03d
000000e0: 86a3 35be 6770 aebe 6090 55be 1488 413e
000000f0: bd94 4bbe 3645 8b3d 1579 443d 1abc 453e
00000100: 0a4c 443f 54f1 9e3d d2ef 77be e7e9 9cbe
00000110: 1b81 04be 9080 613e 6ea7 c8be 80d8 cf3e
00000120: 4fb5 04be ab99 88bc c72c 933e e72b 8d3e
00000130: 3ed5 ea3e b5ee 8ebd d868 1dbe b890 9cbd
00000140: 085b 7bbe bb33 8d3e 9690 db3d c313 0a3e
00000150: 6089 c23e 796f a83e 06fc aabd 04c6 60be
00000160: ba00 00bc 18c0 3b3d 5e3e d53b 382c 81be
00000170: 3721 893c 24a2 be3c ff2b ec3d 15b5 1fbe
00000180: 7159 563d 92fe 86bd 8f98 be3b c7e0 e1bc
00000190: 02ce 803b b0c4 3fbe 95a9 123d b5ed d53c
000001a0: 087d 86bc 37aa fcbd 130f a1be 2886 f1be
000001b0: dbe7 70be 7494 413e 744b 8abe 6f6c b5be
000001c0: f450 bb3e ebd1 83be 973a fb3e c4fc d73e
000001d0: fbf0 453c 9349 45be bcd5 4f3d 7b1b 943e
000001e0: d4b0 d03d 8b6b a2be cbac 8e3d d165 9dbd
000001f0: e072 a0bd 5b01 ab3d 18c7 30be 0d5c cd3e
00000200: ead8 38be fd8a de3d 94f8 213d db55 b23c
00000210: 670d 173f 094c e4bb 01de 093e 990f 003e
00000220: 0cd1 60be 8f97 55bd 6a58 a83e 6efa 25be
00000230: c106 2fbe 55fb 0c3e d071 9d3c fc6b 37be
00000240: b36c 833c 4c40 e0bd 051b debd aec7 81bc
00000250: 39d2 9f3e 69fd 743e 74fc 513d 16c4 883d
00000260: b7b7 933e 5200 a3be b95f b2be f695 6a3d
00000270: 8e8d b53e a577 813e 8935 90bd a29f 1abe
00000280: 550b 6dbe c17e d33e 814e c53d ea98 87bd
00000290: b740 6abe 71a9 f6bd 09e0 08be 97c1 22be
000002a0: 8a2e febd 4590 c13d 0b38 dc3d f85a 463e
000002b0: e724 e23d dc27 323e 0be4 bd3e e2ce 00bd
-0.07404602 -0.054448426 0.046773933 -0.2934603 0.19260837 0.05943811 0.096000664 0.23721993
0.30444446 -0.07462727 -0.229582 -0.011405398 -0.06599512 -0.07896087 -0.29787725 -0.13136238
0.3666552 -0.2667729 0.28934568 0.4766609 0.26093924 0.08233037 0.06387251 -0.0730773
0.081058934 -0.41464013 0.06475055 0.019078622 -0.16313392 -0.3591444 -0.00874357 -0.25109804
-0.2864847 0.050370026 0.009808583 -0.013150003 -0.23117442 0.078084074 0.060682464 -0.076419115
-0.2806637 -0.28172025 0.2518518 -0.009518467 0.15523368 0.579416 0.04132173 -0.11300456
0.33702615 0.10003992 -0.17966533 0.028717114 0.06910841 -0.013926816 0.06109048 0.109542154
-0.1773816 -0.3407013 -0.20855856 0.18899566 -0.19880958 0.0680031 0.047967035 0.19310036
0.76678526 0.077608734 -0.24212578 -0.30647203 -0.12939875 0.22021699 -0.3919024 0.40594864
-0.12959789 -0.016674837 0.287451 0.27572557 0.45865816 -0.069791235 -0.15372026 -0.076447904
-0.24546444 0.2757853 0.10720937 0.13484101 0.37995434 0.32897547 -0.08348851 -0.21950537
-0.007812673 0.04583749 0.006507679 -0.2522905 0.01673947 0.023270674 0.11531829 -0.15596421
0.05233139 -0.06591524 0.0058165262 -0.027573003 0.003930808 -0.18727374 0.035806257 0.026114324
-0.016417041 -0.123371534 -0.31456813 -0.47172666 -0.23525946 0.18904287 -0.2701069 -0.3543429
0.365852 -0.25746092 0.49068138 0.42185032 0.01208138 -0.19266348 0.050740942 0.28927216
0.10189977 -0.31722674 0.069665514 -0.076854356 -0.07834411 0.08349868 -0.17263448 0.40109292
-0.18051496 0.10866354 0.039543703 0.021769455 0.59004825 -0.006967072 0.13463594 0.1250595
-0.21954745 -0.05214649 0.32879955 -0.16208813 -0.1709242 0.1376775 0.01921931 -0.17912287
0.016043043 -0.10949764 -0.10844997 -0.015842285 0.31215075 0.23924793 0.05126615 0.066780254
0.288511 -0.31836182 -0.34838656 0.05727192 0.3545956 0.25286594 -0.07041461 -0.15099958
-0.23148854 0.41307643 0.09634114 -0.06620963 -0.22876249 -0.12044037 -0.13366713 -0.15894161
-0.1241122 0.09451345 0.10752877 0.1937064 0.11042195 0.17398018 0.37088045 -0.0314473

gin1.nn.bias f4 [16]
00000000: 4207 283f d10c 94bf 4efd 213f 54b6 c9bd
00000010: 5902 9f3d ffdc a03d 5b08 b9be 510e e23e
00000020: 424a d33f f4a6 443e 8e0a 8a3d 260f 99bd
00000030: 2169 bc3d 34fc 733e a70b 0fbe ffbd 9d3f
0.65636075 -1.1566411 0.6327714 -0.098492295 0.0776412 0.07854652 -0.36139187 0.44151548
1.6507037 0.19204313 0.067402944 -0.074735925 0.09199739 0.23826677 -0.13969289 1.2323607

mlp_gin2.weight f4 [2, 16]
00000000: 5fe8 913e 0afb 0c3e 2ed8 acbe 6c0e 663e
00000010: ff48 8cbd a6c1 06bd 18a9 26be 2636 a4be
00000020: 6736 4c3e 6b03 323d 0059 033e fce5 10be
00000030: b824 18be 37f9 7ebe b6a8 d13c 7249 aa3e
00000040: 2551 e5be b843 b6be d1f5 de3c b7a6 95be
00000050: 33c8 133e 61aa 993e 0c89 5d3c 1e68 513e
00000060: d712 9fbe bee0 9e3e bd48 a83e 2bd5 e13d
00000070: ebff 8aba 0e3a 9c3d 4257 413e db28 21be
0.28497598 0.13767639 -0.33758682 0.22466439 -0.068498604 -0.03289952 -0.16275442 -0.32072562
0.19942628 0.04346029 0.1282692 -0.14150232 -0.14857757 -0.24899755 0.025593143 0.3325916
-0.4478847 -0.3559854 0.027216824 -0.29228756 0.14431839 0.300128 0.013521444 0.20449874
-0.3106906 0.3103084 0.32867995 0.11026987 -0.0010604834 0.076282606 0.18880942 -0.15738241

mlp_gin2.bias f4 [2]
00000000: 91ab 943f 6d7d a3bf
1.1614858 -1.2772652

gin3.nn.weight f4 [2, 16]
00000000: 5fe8 913e 0afb 0c3e 2ed8 acbe 6c0e 663e
00000010: ff48 8cbd a6c1 06bd 18a9 26be 2636 a4be
00000020: 6736 4c3e 6b03 323d 0059 033e fce5 10be
00000030: b824 18be 37f9 7ebe b6a8 d13c 7249 aa3e
00000040: 2551 e5be b843 b6be d1f5 de3c b7a6 95be
00000050: 33c8 133e 61aa 993e 0c89 5d3c 1e68 513e
00000060: d712 9fbe bee0 9e3e bd48 a83e 2bd5 e13d
00000070: ebff 8aba 0e3a 9c3d 4257 413e db28 21be
0.28497598 0.13767639 -0.33758682 0.22466439 -0.068498604 -0.03289952 -0.16275442 -0.32072562
0.19942628 0.04346029 0.1282692 -0.14150232 -0.14857757 -0.24899755 0.025593143 0.3325916
-0.4478847 -0.3559854 0.027216824 -0.29228756 0.14431839 0.300128 0.013521444 0.20449874
-0.3106906 0.3103084 0.32867995 0.11026987 -0.0010604834 0.076282606 0.18880942 -0.15738241

gin3.nn.bias f4 [2]
00000000: 91ab 943f 6d7d a3bf
1.1614858 -1.2772652
