formal/model_weights/model_triangle_L=1.pth (torch, 1571 bytes, 4 tensors)

mlp_gin1.weight f4 [2, 11]
00000000: 1c92 ecbc 9381 a73c 8e3d 68ba f519 8abc
00000010: 18c1 0fbe 5329 e6bd a104 143d 15db c4bd
00000020: d7a1 853e ef19 e53d 25da ffbd 0297 abbc
00000030: 2700 773c 78a5 d13a f50f b7bd e4e4 19be
00000040: cff4 b8bd 8b39 b9bd 6d0d 26be b7d7 bb3d
00000050: cace 21bd c5a0 fbbd
-0.028878264 0.020447528 -0.000885927 -0.01685808 -0.14038503 -0.11238351 0.036137227 -0.09612099
0.26100037 0.11186587 -0.1249278 -0.02094603 0.01507572 0.0015994748 -0.089385904 -0.15028721
-0.090310685 -0.090441786 -0.16216059 0.09172004 -0.03950385 -0.12286524

mlp_gin1.bias f4 [2]
00000000: 14f1 28bc 9e7f ebbc
-0.010311384 -0.028747376

gin3.nn.weight f4 [2, 11]
00000000: 1c92 ecbc 9381 a73c 8e3d 68ba f519 8abc
00000010: 18c1 0fbe 5329 e6bd a104 143d 15db c4bd
00000020: d7a1 853e ef19 e53d 25da ffbd 0297 abbc
00000030: 2700 773c 78a5 d13a f50f b7bd e4e4 19be
00000040: cff4 b8bd 8b39 b9bd 6d0d 26be b7d7 bb3d
00000050: cace 21bd c5a0 fbbd
-0.028878264 0.020447528 -0.000885927 -0.01685808 -0.14038503 -0.11238351 0.036137227 -0.09612099
0.26100037 0.11186587 -0.1249278 -0.02094603 0.01507572 0.0015994748 -0.089385904 -0.15028721
-0.090310685 -0.090441786 -0.16216059 0.09172004 -0.03950385 -0.12286524

gin3.nn.bias f4 [2]
00000000: 14f1 28bc 9e7f ebbc
-0.010311384 -0.028747376
