formal/model_weights/model_fair.pth (torch, 5131 bytes, 12 tensors)

mlp_gin1.weight f4 [16, 11]
0.16653706 0.11465178 -0.21961714 -0.0050969627 0.28402543 -0.17476125 -0.24618867 0.048077643
0.26275626 0.20011283 0.15846048 0.09627134 -0.06477783 -0.09443621 0.008504948 0.44105092
-0.19575506 -0.13075878 0.06063716 -0.06351287 0.1478423 0.04415918 0.24131654 0.08726484
0.17205852 -0.048006605 -0.1633949 -0.07956637 0.07775556 0.05176688 -0.46123356 -0.16548735
-0.19698825 -0.005795511 0.08727035 0.011897409 0.010785353 0.49815062 0.011556632 -0.061186656
-0.09719105 0.02877777 -0.092946075 -0.023373488 0.2075848 0.14578205 -0.13749497 0.050793346
-0.062043145 -0.0639775 0.10136423 -0.16573757 0.19642979 0.019022768 -0.27188 0.26493788
-0.011505299 0.051193 0.11348329 0.1284479 0.03925478 -0.021180253 0.1551786 -0.63562804
-0.12775183 0.23696838 0.14110133 0.20568326 -0.27318925 -0.1474481 -0.17165121 -0.025103463
0.18050787 0.12329405 -0.058339175 -0.19906655 -0.044247918 0.050156254 -0.10259207 0.2970172
-0.10591853 -0.20810038 0.0012577508 0.028657833 -0.109686315 0.022244709 0.054364204 0.15055728
-0.28458157 -0.054938093 -0.14628707 0.01930305 0.29595163 0.03952242 -0.010587956 0.06524065
0.19962089 -0.027153362 -0.13964196 -0.039185297 0.13495281 -0.09623253 0.0028396167 -0.047575068
0.10816841 0.13939829 -0.074921876 -0.16948545 0.039408263 -0.38467568 -0.080649875 -0.0041854493
-0.2240772 0.06345672 -0.13765612 -0.067762055 0.026540237 -0.122715615 0.1280781 -0.09241887
0.029566597 0.18731992 0.12944485 -0.020440463 0.13080502 0.29203576 0.21838334 0.041175775
-0.10687975 -0.2587704 -0.16538778 0.25070617 0.19037221 -0.13899346 -0.0897993 -0.013684578
-0.35169792 0.14029726 -0.011288443 0.18931854 -0.3797232 0.016029447 -0.12882943 0.003744544
-0.1968 -0.10363777 -0.103306204 0.091155745 -0.061220713 -0.1369543 0.078018665 -0.3044247
0.088178135 -0.3789181 -0.08892902 0.012351591 0.111203305 0.06294168 0.03410602 -0.1950798
0.026684323 0.017376615 0.12815933 0.13508548 -0.09235639 0.28210738 0.08775914 0.19219355
0.15032382 -0.36211792 0.26628897 0.024078375 -0.105935395 0.02020719 -0.073365726 -0.09935075
00000000: b188 2a3e 8dce ea3d 51e3 60be 6c04 a7bb
00000010: c86b 913e 9df4 32be e218 7cbe 10ed 443d
00000020: fd87 863e 61ea 4c3e 7743 223e e929 c53d
00000030: 3daa 84bd c667 c1bd 5658 0b3c 6dd1 e13e
00000040: 0474 48be a1e5 05be ac5e 783d 0913 82bd
00000050: f963 173e 42e0 343d af1b 773e e9b7 b23d
00000060: 1c30 303e 93a2 44bd fe50 27be b1f3 a2bd
00000070: 4f3e 9f3d 8209 543d ce26 ecbe 8475 29be
00000080: 4ab7 49be 45e8 bdbb ccba b23d 5aed 423c
00000090: 0db5 303c 990d ff3e 0758 3d3c dc9e 7abd
000000a0: 1a0c c7bd 5cbf eb3c 835a bebd c279 bfbc
000000b0: 1c91 543e e447 153e 7bcb 0cbe af0c 503d
000000c0: f420 7ebd a306 83bd 0d98 cf3d 1cb7 29be
000000d0: e424 493e a3d5 9b3c db33 8bbe f0a5 873e
000000e0: b980 3cbc c0af 513d ed69 e83d d987 033e
000000f0: 9fc9 203d 3682 adbc 24e7 1e3e 85b8 22bf
00000100: 60d1 02be d7a7 723e de7c 103e a29e 523e
00000110: 76df 8bbe a2fc 16be 56c5 2fbe c7a5 cdbc
00000120: 0ed7 383e 9781 fc3d 0ff5 6ebd 1ad8 4bbe
00000130: 4e3d 35bd a570 4d3d cb1b d2bd a312 983e
00000140: d0eb d8bd 4418 55be 1ddb a43a d5c3 ea3c
00000150: 38a3 e0bd 893a b63c 00ad 5e3d b02b 1a3e
00000160: adb4 91be c406 61bd 47cc 15be 6e21 9e3c
00000170: f986 973e 43e2 213d 1b79 2dbc e49c 853d
00000180: 6b69 4c3e ba70 debc 4dfe 0ebe c380 20bd
00000190: 1231 0a3e 9015 c5bd dd18 3a3b 13de 42bd
000001a0: 6687 dd3d 6dbe 0e3e a470 99bd 988d 2dbe
000001b0: 8f6a 213d 36f4 c4be c32b a5bd 1826 89bb
000001c0: 7e74 65be 99f5 813d baf5 0cbe d5c6 8abd
000001d0: e96a d93c 5352 fbbd e826 033e 1b46 bdbd
000001e0: a635 f23c cbd0 3f3e 318d 043e c272 a7bc
000001f0: c0f1 053e b685 953e e29f 5f3e eea7 283d
00000200: c5e3 dabd 8e7d 84be 6a5b 29be 8f5c 803e
00000210: eff0 423e 4d54 0ebe b2e8 b7bd 4835 60bc
00000220: c011 b4be 16aa 0f3e 29f3 38bc b8dc 413e
00000230: 146b c2be 3050 833c ddeb 03be 0667 753b
00000240: f085 49be 0a40 d4bd 3492 d3bd ddaf ba3d
00000250: 92c2 7abd bf3d 0cbe 40c8 9f3d 8edd 9bbe
00000260: bd96 b43d 8e01 c2be 6b20 b6bd 545e 4a3c
00000270: 8fbe e33d 91e7 803d c1b2 0b3d 00c3 47be
00000280: 1599 da3c 6759 8e3c 333c 033e d953 0a3e
00000290: 5925 bdbd 6170 903e 10bb b33d 63ce 443e
000002a0: 7dee 193e 8567 b9be 0757 883e 0340 c53c
000002b0: a8f4 d8bd 8d89 a53c c540 96bd 6878 cbbd

mlp_gin1.bias f4 [16]
-0.100022994 -0.18624297 -0.31004477 0.260534 0.018101107 0.023797464 0.122759126 -0.044794638
0.3613982 -0.15926392 -0.18494451 -0.1602855 0.00853143 -0.06782802 0.30091688 -0.26452565
00000000: dbd8 ccbd 7ab6 3ebe 30be 9ebe b664 853e
00000010: c648 943c e6f2 c23c 2369 fb3d 957a 37bd
00000020: 2f09 b93e 1516 23be 1862 3dbe e221 24be
00000030: 69c7 0b3c 6be9 8abd c711 9a3e e86f 87be

gin1.nn.weight f4 [16, 11]
0.16653706 0.11465178 -0.21961714 -0.0050969627 0.28402543 -0.17476125 -0.24618867 0.048077643
0.26275626 0.20011283 0.15846048 0.09627134 -0.06477783 -0.09443621 0.008504948 0.44105092
-0.19575506 -0.13075878 0.06063716 -0.06351287 0.1478423 0.04415918 0.24131654 0.08726484
0.17205852 -0.048006605 -0.1633949 -0.07956637 0.07775556 0.05176688 -0.46123356 -0.16548735
-0.19698825 -0.005795511 0.08727035 0.011897409 0.010785353 0.49815062 0.011556632 -0.061186656
-0.09719105 0.02877777 -0.092946075 -0.023373488 0.2075848 0.14578205 -0.13749497 0.050793346
-0.062043145 -0.0639775 0.10136423 -0.16573757 0.19642979 0.019022768 -0.27188 0.26493788
-0.011505299 0.051193 0.11348329 0.1284479 0.03925478 -0.021180253 0.1551786 -0.63562804
-0.12775183 0.23696838 0.14110133 0.20568326 -0.27318925 -0.1474481 -0.17165121 -0.025103463
0.18050787 0.12329405 -0.058339175 -0.19906655 -0.044247918 0.050156254 -0.10259207 0.2970172
-0.10591853 -0.20810038 0.0012577508 0.028657833 -0.109686315 0.022244709 0.054364204 0.15055728
-0.28458157 -0.054938093 -0.14628707 0.01930305 0.29595163 0.03952242 -0.010587956 0.06524065
0.19962089 -0.027153362 -0.13964196 -0.039185297 0.13495281 -0.09623253 0.0028396167 -0.047575068
0.10816841 0.13939829 -0.074921876 -0.16948545 0.039408263 -0.38467568 -0.080649875 -0.0041854493
-0.2240772 0.06345672 -0.13765612 -0.067762055 0.026540237 -0.122715615 0.1280781 -0.09241887
0.029566597 0.18731992 0.12944485 -0.020440463 0.13080502 0.29203576 0.21838334 0.041175775
-0.10687975 -0.2587704 -0.16538778 0.25070617 0.19037221 -0.13899346 -0.0897993 -0.013684578
-0.35169792 0.14029726 -0.011288443 0.18931854 -0.3797232 0.016029447 -0.12882943 0.003744544
-0.1968 -0.10363777 -0.103306204 0.091155745 -0.061220713 -0.1369543 0.078018665 -0.3044247
0.088178135 -0.3789181 -0.08892902 0.012351591 0.111203305 0.06294168 0.03410602 -0.1950798
0.026684323 0.017376615 0.12815933 0.13508548 -0.09235639 0.28210738 0.08775914 0.19219355
0.15032382 -0.36211792 0.26628897 0.024078375 -0.105935395 0.02020719 -0.073365726 -0.09935075
00000000: b188 2a3e 8dce ea3d 51e3 60be 6c04 a7bb
00000010: c86b 913e 9df4 32be e218 7cbe 10ed 443d
00000020: fd87 863e 61ea 4c3e 7743 223e e929 c53d
00000030: 3daa 84bd c667 c1bd 5658 0b3c 6dd1 e13e
00000040: 0474 48be a1e5 05be ac5e 783d 0913 82bd
00000050: f963 173e 42e0 343d af1b 773e e9b7 b23d
00000060: 1c30 303e 93a2 44bd fe50 27be b1f3 a2bd
00000070: 4f3e 9f3d 8209 543d ce26 ecbe 8475 29be
00000080: 4ab7 49be 45e8 bdbb ccba b23d 5aed 423c
00000090: 0db5 303c 990d ff3e 0758 3d3c dc9e 7abd
000000a0: 1a0c c7bd 5cbf eb3c 835a bebd c279 bfbc
000000b0: 1c91 543e e447 153e 7bcb 0cbe af0c 503d
000000c0: f420 7ebd a306 83bd 0d98 cf3d 1cb7 29be
000000d0: e424 493e a3d5 9b3c db33 8bbe f0a5 873e
000000e0: b980 3cbc c0af 513d ed69 e83d d987 033e
000000f0: 9fc9 203d 3682 adbc 24e7 1e3e 85b8 22bf
00000100: 60d1 02be d7a7 723e de7c 103e a29e 523e
00000110: 76df 8bbe a2fc 16be 56c5 2fbe c7a5 cdbc
00000120: 0ed7 383e 9781 fc3d 0ff5 6ebd 1ad8 4bbe
00000130: 4e3d 35bd a570 4d3d cb1b d2bd a312 983e
00000140: d0eb d8bd 4418 55be 1ddb a43a d5c3 ea3c
00000150: 38a3 e0bd 893a b63c 00ad 5e3d b02b 1a3e
00000160: adb4 91be c406 61bd 47cc 15be 6e21 9e3c
00000170: f986 973e 43e2 213d 1b79 2dbc e49c 853d
00000180: 6b69 4c3e ba70 debc 4dfe 0ebe c380 20bd
00000190: 1231 0a3e 9015 c5bd dd18 3a3b 13de 42bd
000001a0: 6687 dd3d 6dbe 0e3e a470 99bd 988d 2dbe
000001b0: 8f6a 213d 36f4 c4be c32b a5bd 1826 89bb
000001c0: 7e74 65be 99f5 813d baf5 0cbe d5c6 8abd
000001d0: e96a d93c 5352 fbbd e826 033e 1b46 bdbd
000001e0: a635 f23c cbd0 3f3e 318d 043e c272 a7bc
000001f0: c0f1 053e b685 953e e29f 5f3e eea7 283d
00000200: c5e3 dabd 8e7d 84be 6a5b 29be 8f5c 803e
00000210: eff0 423e 4d54 0ebe b2e8 b7bd 4835 60bc
00000220: c011 b4be 16aa 0f3e 29f3 38bc b8dc 413e
00000230: 146b c2be 3050 833c ddeb 03be 0667 753b
00000240: f085 49be 0a40 d4bd 3492 d3bd ddaf ba3d
00000250: 92c2 7abd bf3d 0cbe 40c8 9f3d 8edd 9bbe
00000260: bd96 b43d 8e01 c2be 6b20 b6bd 545e 4a3c
00000270: 8fbe e33d 91e7 803d c1b2 0b3d 00c3 47be
00000280: 1599 da3c 6759 8e3c 333c 033e d953 0a3e
00000290: 5925 bdbd 6170 903e 10bb b33d 63ce 443e
000002a0: 7dee 193e 8567 b9be 0757 883e 0340 c53c
000002b0: a8f4 d8bd 8d89 a53c c540 96bd 6878 cbbd

gin1.nn.bias f4 [16]
-0.100022994 -0.18624297 -0.31004477 0.260534 0.018101107 0.023797464 0.122759126 -0.044794638
0.3613982 -0.15926392 -0.18494451 -0.1602855 0.00853143 -0.06782802 0.30091688 -0.26452565
00000000: dbd8 ccbd 7ab6 3ebe 30be 9ebe b664 853e
00000010: c648 943c e6f2 c23c 2369 fb3d 957a 37bd
00000020: 2f09 b93e 1516 23be 1862 3dbe e221 24be
00000030: 69c7 0b3c 6be9 8abd c711 9a3e e86f 87be

mlp_gin2.weight f4 [16, 16]
0.020118004 0.1743904 0.18248956 -0.16650401 0.12405787 -0.16286112 -0.099950895 -0.049111314
-0.25733954 -0.1428889 0.033454403 -0.004087791 0.08375529 -0.11613552 -0.08593135 0.10571747
0.11010705 0.13596603 -0.030966472 -0.052252296 0.21175766 -0.10823731 -0.13240395 -0.18323702
-0.0006485718 0.06927038 -0.10172816 -0.03053014 -0.12867002 -0.0532909 -0.016431853 0.21460825
-0.1273312 0.23343058 0.0005549417 0.060841378 0.18993218 0.12536068 -0.12703837 0.020863913
-0.11751988 0.09893372 0.17624652 -0.071219526 0.09237322 -0.20725004 -0.027813464 0.011305803
-0.09224446 -0.21817909 0.1116737 -0.08728702 -0.26531488 -0.008357691 -0.16491039 -0.29880446
-0.08976931 -0.13169974 -0.11167021 -0.0607223 -0.26156294 -0.12647437 -0.015037252 0.11709881
-0.052035786 -0.06596349 -0.11751492 0.09456866 -0.08477102 -0.11464651 -0.25184 0.086867735
-0.1798411 0.0035939466 -0.18588205 0.1709665 -0.046577852 -0.20334613 0.0628044 -0.29249522
-0.25501195 -0.0568899 0.0428557 -0.25040033 -0.03417806 -0.05508005 -0.13897292 0.06442431
0.10078227 -0.2513304 -0.09075897 -0.23192716 0.016067106 0.02707559 -0.31793168 0.115497306
-0.2993381 -0.17193742 0.014788544 0.22821848 0.09893595 -0.13778268 -0.025284087 -0.2600369
0.11408417 0.066076174 0.10430654 -0.16671862 0.08306221 -0.22323297 0.065145954 -0.1732095
-0.12241384 -0.24053122 0.03375071 0.10313703 -0.19727594 -0.31713986 0.05503172 0.09841485
-0.004659899 0.23858193 -0.17134054 -0.2780027 -0.111063056 0.20344329 -0.22391422 0.14102188
-0.12114505 0.18816406 -0.15636857 -0.19791223 0.14563763 0.17875713 -0.03385752 0.16728298
0.09726863 0.11445084 -0.068437755 -0.24950689 -0.1669547 0.05153367 -0.2022483 0.093484715
0.10862575 0.19256997 -0.2910068 -0.18336335 0.084892735 0.059618395 -0.056520235 -0.22165693
0.045481946 -0.2714832 0.009779333 0.13256468 -0.056458093 -0.1372531 -0.23875691 -0.21688333
-0.11729292 -0.06362624 0.13763429 -0.27204165 0.067869015 0.14591482 -0.019021463 0.0079911
-0.1508961 -0.110898815 0.14899339 -0.11610146 0.112801656 0.16672823 -0.35976985 0.07712233
-0.13536088 -0.14527634 0.10132672 0.06905492 0.15337412 0.010990183 0.17181759 0.08237058
0.036323894 -0.04450185 0.08626808 0.120782465 -0.010331544 -0.26587883 -0.0053448286 -0.1912478
0.13613153 -0.120616235 0.108066626 -0.01837054 -0.088061966 0.046113834 0.039003447 0.12105788
0.123830624 0.057210103 0.13794117 -0.15867116 0.019459797 0.093957946 0.04838798 0.19214919
0.08194674 0.1345842 0.0116370125 -0.14987023 -0.2611222 0.17260273 -0.13062072 0.028486995
-0.2243061 0.107514165 0.06366639 -0.23653188 -0.19188648 -0.274901 -0.18896857 0.13746221
-0.1663842 -0.38733125 0.043183237 -0.18121491 0.028888281 -0.12273296 -0.13275917 -0.34744292
-0.17587702 -0.120741814 -0.07703542 -0.038397808 -0.16250516 -0.094162025 0.06482437 -0.093860015
-0.20568337 0.12563244 0.06254136 -0.24102712 0.06648278 -0.2018274 0.07491246 -0.11752673
0.005568175 0.1223873 0.02774103 -0.18610108 0.082560554 -0.10489488 0.04392175 0.14505093
00000000: 83ce a43c 6693 323e 8bde 3a3e 0780 2abe
00000010: 0d12 fe3d 11c5 26be 0eb3 ccbd f228 49bd
00000020: 02c2 83be 7851 12be 7c07 093d e0f2 85bb
00000030: e587 ab3d 76d8 edbd c7fc afbd 6782 d83d
00000040: ce7f e13d ae3a 0b3e 66ad fdbc 8106 56bd
00000050: 00d7 583e 86ab ddbd e794 07be 7ca2 3bbe
00000060: eb04 2aba a1dd 8d3d db56 d0bd 581a fabc
00000070: 13c2 03be 8f47 5abd 189c 86bc 44c2 5b3e
00000080: 1c63 02be 6d08 6f3e 8279 113a cf34 793d
00000090: 957d 423e 8d5e 003e 5916 02be ccea aa3c
000000a0: 43ae f0bd c39d ca3d f879 343e 8bdb 91bd
000000b0: 2c2e bd3d 5b39 54be 10d9 e3bc fa3b 393c
000000c0: aaea bcbd 576a 5fbe 2eb5 e43d 8ac3 b2bd
000000d0: 5ad7 87be b2ee 08bc 45de 28be e6fc 98be
000000e0: f9d8 b7bd 4cdc 06be 5ab3 e4bd f2b7 78bd
000000f0: 94eb 85be 7f82 01be ce5e 76bc 80d1 ef3d
00000100: 7a23 55bd de17 87bd aaab f0bd 37ad c13d
00000110: 6e9c adbd cacb eabd 2cf1 80be b6e7 b13d
00000120: 4428 38be 6b88 6b3b dd57 3ebe d811 2f3e
00000130: 6bc8 3ebd f839 50be 989f 803d efc1 95be
00000140: ed90 82be 6205 69bd 7589 2f3d 7934 80be
00000150: 4bfe 0bbd 9e9b 61bd eb4e 0ebe e5f0 833d
00000160: ef66 ce3d 61ae 80be d7df b9bd 507e 6dbe
00000170: 2a9f 833c a1cd dd3c f1c7 a2be da89 ec3d
00000180: d842 99be 5d10 30be a64b 723c 1bb2 693e
00000190: ee9e ca3d e716 0dbe 9320 cfbc 8e23 85be
000001a0: f6a4 e93d f252 873d ab9e d53d 49b8 2abe
000001b0: 851c aa3d 2f97 64be 3e6b 853d d55d 31be
000001c0: 1bb4 fabd d14d 76be 2f3e 0a3d 8239 d33d
000001d0: b402 4abe 2860 a2be f168 613d ba8d c93d
000001e0: 11b2 98bb d24e 743e e573 2fbe 5f56 8ebe
000001f0: 0775 e3bd 7053 503e c549 65be 0a68 103e
00000200: e51a f8bd 14ae 403e 151f 20be 81a9 4abe
00000210: 0822 153e 1c0c 373e 2fae 0abd 3b4c 2b3e
00000220: c734 c73d 3465 ea3d 1829 8cbd bc7e 7fbe
00000230: 2cf6 2abe f814 533d 2e1a 4fbe ea74 bf3d
00000240: 2d77 de3d 1031 453e d8fe 94be 9ac3 3bbe
00000250: 3edc ad3d 6b32 743d c381 67bd 09fa 62be
00000260: 474b 3a3d d9ff 8abe 7f39 203c 09bf 073e
00000270: 9a40 67bd 148c 0cbe b17c 74be aa16 5ebe
00000280: 4537 f0bd 794e 82bd 01f0 0c3e 0b49 8bbe
00000290: e9fe 8a3d b26a 153e e6d2 9bbc 1aed 023c
000002a0: 8284 1abe eb1e e3bd b991 183e 9ac6 edbd
000002b0: 8e04 e73d ceba 2a3e c133 b8be 50f2 9d3d
000002c0: 0b9c 0abe 52c3 14be 6284 cf3d aa6c 8d3d
000002d0: 1b0e 1d3e 2b10 343c f3f0 2f3e e8b1 a83d
000002e0: 5dc8 143d 9247 36bd 52ad b03d cc5c f73d
000002f0: a345 29bc 4521 88be ac23 afbb 77d6 43be
00000300: 1066 0b3e a505 f7bd 0952 dd3d d17d 96bc
00000310: d559 b4bd dce1 3c3d 14c2 1f3d 32ed f73d
00000320: e99a fd3d 2455 6a3d 7340 0d3e b17a 22be
00000330: 276a 9f3c 066d c03d 7932 463d c2c2 443e
00000340: b1d3 a73d 71d0 093e 2ba9 3e3c 9577 19be
00000350: cfb1 85be c5be 303e 70c1 05be 8f5d e93c
00000360: 80b0 65be 6330 dc3d 8663 823d 6a35 72be
00000370: e47d 44be d3bf 8cbe fa80 41be e5c2 0c3e
00000380: 9f60 2abe 4850 c6be e8e0 303d 6790 39be
00000390: 1ea7 ec3c 6b5b fbbd 05f2 07be 0ae4 b1be
000003a0: 1b19 34be 7c47 f7bd bfc4 9dbd 0547 1dbd
000003b0: c167 26be 05d8 c0bd a4c2 843d ae39 c0bd
000003c0: a99e 52be caa5 003e af15 803d d0cf 76be
000003d0: 2028 883d d8ab 4ebe b46b 993d dbb1 f0bd
000003e0: 3d75 b63b 31a6 fa3d 2841 e33c 4891 3ebe
000003f0: 8215 a93d 20d3 d6bd 4be7 333d 3b88 143e

mlp_gin2.bias f4 [16]
1.8779876 -0.4404852 -0.48022994 -0.22601351 0.031223884 0.116258726 -0.18165104 -0.46149638
0.5628774 0.4011306 0.7747638 -0.17517841 -1.3174018 1.7952005 -0.24135514 0.36588678
00000000: e661 f03f 4787 e1be b3e0 f5be 1670 67be
00000010: 3bc9 ff3c 0e19 ee3d bb02 3abe 4149 ecbe
00000020: bc18 103f fd60 cd3e ec56 463f f861 33be
00000030: 9fa0 a8bf 21c9 e53f cd25 77be 8355 bb3e

gin2.nn.weight f4 [16, 16]
0.020118004 0.1743904 0.18248956 -0.16650401 0.12405787 -0.16286112 -0.099950895 -0.049111314
-0.25733954 -0.1428889 0.033454403 -0.004087791 0.08375529 -0.11613552 -0.08593135 0.10571747
0.11010705 0.13596603 -0.030966472 -0.052252296 0.21175766 -0.10823731 -0.13240395 -0.18323702
-0.0006485718 0.06927038 -0.10172816 -0.03053014 -0.12867002 -0.0532909 -0.016431853 0.21460825
-0.1273312 0.23343058 0.0005549417 0.060841378 0.18993218 0.12536068 -0.12703837 0.020863913
-0.11751988 0.09893372 0.17624652 -0.071219526 0.09237322 -0.20725004 -0.027813464 0.011305803
-0.09224446 -0.21817909 0.1116737 -0.08728702 -0.26531488 -0.008357691 -0.16491039 -0.29880446
-0.08976931 -0.13169974 -0.11167021 -0.0607223 -0.26156294 -0.12647437 -0.015037252 0.11709881
-0.052035786 -0.06596349 -0.11751492 0.09456866 -0.08477102 -0.11464651 -0.25184 0.086867735
-0.1798411 0.0035939466 -0.18588205 0.1709665 -0.046577852 -0.20334613 0.0628044 -0.29249522
-0.25501195 -0.0568899 0.0428557 -0.25040033 -0.03417806 -0.05508005 -0.13897292 0.06442431
0.10078227 -0.2513304 -0.09075897 -0.23192716 0.016067106 0.02707559 -0.31793168 0.115497306
-0.2993381 -0.17193742 0.014788544 0.22821848 0.09893595 -0.13778268 -0.025284087 -0.2600369
0.11408417 0.066076174 0.10430654 -0.16671862 0.08306221 -0.22323297 0.065145954 -0.1732095
-0.12241384 -0.24053122 0.03375071 0.10313703 -0.19727594 -0.31713986 0.05503172 0.09841485
-0.004659899 0.23858193 -0.17134054 -0.2780027 -0.111063056 0.20344329 -0.22391422 0.14102188
-0.12114505 0.18816406 -0.15636857 -0.19791223 0.14563763 0.17875713 -0.03385752 0.16728298
0.09726863 0.11445084 -0.068437755 -0.24950689 -0.1669547 0.05153367 -0.2022483 0.093484715
0.10862575 0.19256997 -0.2910068 -0.18336335 0.084892735 0.059618395 -0.056520235 -0.22165693
0.045481946 -0.2714832 0.009779333 0.13256468 -0.056458093 -0.1372531 -0.23875691 -0.21688333
-0.11729292 -0.06362624 0.13763429 -0.27204165 0.067869015 0.14591482 -0.019021463 0.0079911
-0.1508961 -0.110898815 0.14899339 -0.11610146 0.112801656 0.16672823 -0.35976985 0.07712233
-0.13536088 -0.14527634 0.10132672 0.06905492 0.15337412 0.010990183 0.17181759 0.08237058
0.036323894 -0.04450185 0.08626808 0.120782465 -0.010331544 -0.26587883 -0.0053448286 -0.1912478
0.13613153 -0.120616235 0.108066626 -0.01837054 -0.088061966 0.046113834 0.039003447 0.12105788
0.123830624 0.057210103 0.13794117 -0.15867116 0.019459797 0.093957946 0.04838798 0.19214919
0.08194674 0.1345842 0.0116370125 -0.14987023 -0.2611222 0.17260273 -0.13062072 0.028486995
-0.2243061 0.107514165 0.06366639 -0.23653188 -0.19188648 -0.274901 -0.18896857 0.13746221
-0.1663842 -0.38733125 0.043183237 -0.18121491 0.028888281 -0.12273296 -0.13275917 -0.34744292
-0.17587702 -0.120741814 -0.07703542 -0.038397808 -0.16250516 -0.094162025 0.06482437 -0.093860015
-0.20568337 0.12563244 0.06254136 -0.24102712 0.06648278 -0.2018274 0.07491246 -0.11752673
0.005568175 0.1223873 0.02774103 -0.18610108 0.082560554 -0.10489488 0.04392175 0.14505093
00000000: 83ce a43c 6693 323e 8bde 3a3e 0780 2abe
00000010: 0d12 fe3d 11c5 26be 0eb3 ccbd f228 49bd
00000020: 02c2 83be 7851 12be 7c07 093d e0f2 85bb
00000030: e587 ab3d 76d8 edbd c7fc afbd 6782 d83d
00000040: ce7f e13d ae3a 0b3e 66ad fdbc 8106 56bd
00000050: 00d7 583e 86ab ddbd e794 07be 7ca2 3bbe
00000060: eb04 2aba a1dd 8d3d db56 d0bd 581a fabc
00000070: 13c2 03be 8f47 5abd 189c 86bc 44c2 5b3e
00000080: 1c63 02be 6d08 6f3e 8279 113a cf34 793d
00000090: 957d 423e 8d5e 003e 5916 02be ccea aa3c
000000a0: 43ae f0bd c39d ca3d f879 343e 8bdb 91bd
000000b0: 2c2e bd3d 5b39 54be 10d9 e3bc fa3b 393c
000000c0: aaea bcbd 576a 5fbe 2eb5 e43d 8ac3 b2bd
000000d0: 5ad7 87be b2ee 08bc 45de 28be e6fc 98be
000000e0: f9d8 b7bd 4cdc 06be 5ab3 e4bd f2b7 78bd
000000f0: 94eb 85be 7f82 01be ce5e 76bc 80d1 ef3d
00000100: 7a23 55bd de17 87bd aaab f0bd 37ad c13d
00000110: 6e9c adbd cacb eabd 2cf1 80be b6e7 b13d
00000120: 4428 38be 6b88 6b3b dd57 3ebe d811 2f3e
00000130: 6bc8 3ebd f839 50be 989f 803d efc1 95be
00000140: ed90 82be 6205 69bd 7589 2f3d 7934 80be
00000150: 4bfe 0bbd 9e9b 61bd eb4e 0ebe e5f0 833d
00000160: ef66 ce3d 61ae 80be d7df b9bd 507e 6dbe
00000170: 2a9f 833c a1cd dd3c f1c7 a2be da89 ec3d
00000180: d842 99be 5d10 30be a64b 723c 1bb2 693e
00000190: ee9e ca3d e716 0dbe 9320 cfbc 8e23 85be
000001a0: f6a4 e93d f252 873d ab9e d53d 49b8 2abe
000001b0: 851c aa3d 2f97 64be 3e6b 853d d55d 31be
000001c0: 1bb4 fabd d14d 76be 2f3e 0a3d 8239 d33d
000001d0: b402 4abe 2860 a2be f168 613d ba8d c93d
000001e0: 11b2 98bb d24e 743e e573 2fbe 5f56 8ebe
000001f0: 0775 e3bd 7053 503e c549 65be 0a68 103e
00000200: e51a f8bd 14ae 403e 151f 20be 81a9 4abe
00000210: 0822 153e 1c0c 373e 2fae 0abd 3b4c 2b3e
00000220: c734 c73d 3465 ea3d 1829 8cbd bc7e 7fbe
00000230: 2cf6 2abe f814 533d 2e1a 4fbe ea74 bf3d
00000240: 2d77 de3d 1031 453e d8fe 94be 9ac3 3bbe
00000250: 3edc ad3d 6b32 743d c381 67bd 09fa 62be
00000260: 474b 3a3d d9ff 8abe 7f39 203c 09bf 073e
00000270: 9a40 67bd 148c 0cbe b17c 74be aa16 5ebe
00000280: 4537 f0bd 794e 82bd 01f0 0c3e 0b49 8bbe
00000290: e9fe 8a3d b26a 153e e6d2 9bbc 1aed 023c
000002a0: 8284 1abe eb1e e3bd b991 183e 9ac6 edbd
000002b0: 8e04 e73d ceba 2a3e c133 b8be 50f2 9d3d
000002c0: 0b9c 0abe 52c3 14be 6284 cf3d aa6c 8d3d
000002d0: 1b0e 1d3e 2b10 343c f3f0 2f3e e8b1 a83d
000002e0: 5dc8 143d 9247 36bd 52ad b03d cc5c f73d
000002f0: a345 29bc 4521 88be ac23 afbb 77d6 43be
00000300: 1066 0b3e a505 f7bd 0952 dd3d d17d 96bc
00000310: d559 b4bd dce1 3c3d 14c2 1f3d 32ed f73d
00000320: e99a fd3d 2455 6a3d 7340 0d3e b17a 22be
00000330: 276a 9f3c 066d c03d 7932 463d c2c2 443e
00000340: b1d3 a73d 71d0 093e 2ba9 3e3c 9577 19be
00000350: cfb1 85be c5be 303e 70c1 05be 8f5d e93c
00000360: 80b0 65be 6330 dc3d 8663 823d 6a35 72be
00000370: e47d 44be d3bf 8cbe fa80 41be e5c2 0c3e
00000380: 9f60 2abe 4850 c6be e8e0 303d 6790 39be
00000390: 1ea7 ec3c 6b5b fbbd 05f2 07be 0ae4 b1be
000003a0: 1b19 34be 7c47 f7bd bfc4 9dbd 0547 1dbd
000003b0: c167 26be 05d8 c0bd a4c2 843d ae39 c0bd
000003c0: a99e 52be caa5 003e af15 803d d0cf 76be
000003d0: 2028 883d d8ab 4ebe b46b 993d dbb1 f0bd
000003e0: 3d75 b63b 31a6 fa3d 2841 e33c 4891 3ebe
000003f0: 8215 a93d 20d3 d6bd 4be7 333d 3b88 143e

gin2.nn.bias f4 [16]
1.8779876 -0.4404852 -0.48022994 -0.22601351 0.031223884 0.116258726 -0.18165104 -0.46149638
0.5628774 0.4011306 0.7747638 -0.17517841 -1.3174018 1.7952005 -0.24135514 0.36588678
00000000: e661 f03f 4787 e1be b3e0 f5be 1670 67be
00000010: 3bc9 ff3c 0e19 ee3d bb02 3abe 4149 ecbe
00000020: bc18 103f fd60 cd3e ec56 463f f861 33be
00000030: 9fa0 a8bf 21c9 e53f cd25 77be 8355 bb3e

mlp_gin3.weight f4 [2, 16]
0.003413483 0.108142786 -0.18537502 -0.14054835 0.13461491 0.0992649 -0.059689425 -0.13699095
-0.034780953 0.17109445 -0.07509459 -0.08804861 -0.05554578 0.13114125 0.0927753 0.20162532
-0.28305936 0.17950942 -0.067365676 -0.06296594 -0.10453747 -0.073812895 -0.04405825 -0.0038448172
-0.17026761 0.009131919 -0.12580724 -0.108036794 0.23928264 -0.02789745 0.12970555 0.16631503
00000000: beb4 5f3b f779 dd3d f3d2 3dbe e8eb 0fbe
00000010: 7ed8 093e 654b cb3d e67c 74bd 5b47 0cbe
00000020: 7976 0ebd 6233 2f3e 31cb 99bd d452 b4bd
00000030: f983 63bd e449 063e fa00 be3d de76 4e3e
00000040: 28ed 90be 51d1 373e 04f7 89bd 49f4 80bd
00000050: be17 d6bd 372b 97bd 6c76 34bd 54f9 7bbb
00000060: a25a 2ebe 0b9e 153c 9dd3 00be 6542 ddbd
00000070: 8206 753e 3189 e4bc 88d1 043e 7d4e 2a3e

mlp_gin3.bias f4 [2]
0.99500537 -0.7495529
00000000: acb8 7e3f b3e2 3fbf

gin3.nn.weight f4 [2, 16]
0.003413483 0.108142786 -0.18537502 -0.14054835 0.13461491 0.0992649 -0.059689425 -0.13699095
-0.034780953 0.17109445 -0.07509459 -0.08804861 -0.05554578 0.13114125 0.0927753 0.20162532
-0.28305936 0.17950942 -0.067365676 -0.06296594 -0.10453747 -0.073812895 -0.04405825 -0.0038448172
-0.17026761 0.009131919 -0.12580724 -0.108036794 0.23928264 -0.02789745 0.12970555 0.16631503
00000000: beb4 5f3b f779 dd3d f3d2 3dbe e8eb 0fbe
00000010: 7ed8 093e 654b cb3d e67c 74bd 5b47 0cbe
00000020: 7976 0ebd 6233 2f3e 31cb 99bd d452 b4bd
00000030: f983 63bd e449 063e fa00 be3d de76 4e3e
00000040: 28ed 90be 51d1 373e 04f7 89bd 49f4 80bd
00000050: be17 d6bd 372b 97bd 6c76 34bd 54f9 7bbb
00000060: a25a 2ebe 0b9e 153c 9dd3 00be 6542 ddbd
00000070: 8206 753e 3189 e4bc 88d1 043e 7d4e 2a3e

gin3.nn.bias f4 [2]
0.99500537 -0.7495529
00000000: acb8 7e3f b3e2 3fbf
