formal/model_weights/model_heterophily.pth (torch, 5131 bytes, 12 tensors)

mlp_gin1.weight f4 [16, 11]
000000 ba f5 9f be a5 5b b6 3d e2 b8 00 3e 0f f3 43 3e
       -0.31242162 0.089041986 0.12570527 0.19135688
000010 d9 38 aa be e3 38 0c 3d 78 7d 35 3d cb b9 b0 be
       -0.33246496 0.03423394 0.04430911 -0.3451675
000020 d9 18 ff be c7 01 03 bd be b6 91 3c 76 2e 00 3e
       -0.49823645 -0.031984117 0.017787334 0.12517723
000030 41 42 c8 3d a8 da 00 3e 56 e3 cb bd 79 27 3b be
       0.09778262 0.1258341 -0.0995547 -0.18276776
000040 ae d3 d3 bd 73 da 64 3e 94 ee bd be f4 0a 83 be
       -0.10343109 0.22348957 -0.37096083 -0.25594294
000050 0e d8 ab be 48 7a 77 3e 8d b2 d2 3e af ec ba 3c
       -0.33563274 0.2416774 0.41151848 0.022817938
000060 88 a8 d6 3e 89 22 09 3d d0 fa a4 be cd 20 b1 bc
       0.41925454 0.0334802 -0.32222605 -0.021622086
000070 7e 26 b6 3b 6e ca bd bb f9 0f 1b bf f3 95 f3 3c
       0.005558788 -0.0057919538 -0.6057125 0.029734587
000080 12 1f b5 3d 16 ff 7d be 03 b6 db 3d 90 c8 03 3c
       0.08843817 -0.24804339 0.10728075 0.008043423
000090 40 a4 0c be 88 d8 f5 3c f9 1f a6 be 97 a2 84 3e
       -0.13734531 0.030010477 -0.32446268 0.25905296
0000a0 91 1d 38 3e ac d8 df 3e 00 b4 e3 3d d0 3f 91 bd
       0.17980029 0.43719995 0.11118317 -0.070922494
0000b0 7b 5c 00 bd 01 7e c6 bd 8b 9c 24 3e 3b 45 c2 bb
       -0.031338196 -0.09692002 0.16075341 -0.005928663
0000c0 ce 2a 40 bc 07 22 b5 3b fa cd 77 bd 00 74 d3 bc
       -0.011728955 0.005527738 -0.06049917 -0.025812149
0000d0 41 be 3a 3e 7d 06 c6 bd d6 b7 fa 3d e2 83 21 be
       0.18236639 -0.09669206 0.12242095 -0.15772966
0000e0 4e a9 d8 bd 93 24 8e 3e 2e c5 cb 3d e5 70 9f be
       -0.10579167 0.2776228 0.099497184 -0.3114082
0000f0 ea 5d bc 3c 46 50 ef bd 7e eb ae bd d5 33 20 be
       0.022994 -0.11685233 -0.0854101 -0.15644772
000100 5d 85 72 be 1c 3c 3e 3e 7b 2d 4a be a7 ac 8a be
       -0.23683687 0.18577617 -0.19743912 -0.27084848
000110 f4 e4 9d be 30 fd e6 bd 91 08 60 3e 14 7f 2a 3e
       -0.3083874 -0.112787604 0.21878268 0.16650039
000120 75 ef 62 be 7e 74 d2 3d 46 bc 67 3e a7 8f 21 be
       -0.22161658 0.10276125 0.22630414 -0.15777455
000130 34 42 97 be d5 db 72 be c5 43 47 bd b3 a2 f7 bd
       -0.29542696 -0.23716672 -0.048648614 -0.12091579
000140 0e 96 39 3d 41 8d 9a bd 72 3a 10 3d 7f 59 bc bd
       0.04530912 -0.07546473 0.035211988 -0.091967575
000150 15 7c ea 3c d3 c6 24 bc ef 62 81 bd 33 fe 0c 3d
       0.02862362 -0.010057169 -0.06317698 0.03442211
000160 58 d9 2f 3c ec 97 b6 3d 5c 4c 98 be f0 c2 87 3d
       0.010732971 0.089156955 -0.29745758 0.06628978
000170 83 80 b6 3d 20 8e ae 3d dc b8 df 3d f7 9e d6 bd
       0.089112304 0.08523202 0.10923931 -0.10479539
000180 df 28 bf 3e 73 3f b5 3d 83 67 1b bd fa d9 29 3e
       0.3733587 0.088499926 -0.037940513 0.16587058
000190 6e 98 e1 bd 01 8c 97 be 45 91 70 3d 35 7d a8 bd
       -0.11015402 -0.29599002 0.05873229 -0.08227006
0001a0 7a c7 b5 3b b8 d9 f3 bd ca a0 45 3e 5d 98 67 be
       0.005547461 -0.11906761 0.19299617 -0.22616716
0001b0 14 9a ce 3d c4 49 00 3e bd df bc 3b e3 52 3c bd
       0.10087982 0.1252814 0.0057639764 -0.045977484
0001c0 44 49 94 bd ce fe 26 3d b3 d6 b4 bd 44 f5 68 3e
       -0.07240537 0.040770344 -0.08830013 0.22749811
0001d0 d7 79 9c bd eb 3e 21 bd 0b 29 0c bd 0c 5e 16 3e
       -0.076404266 -0.039366644 -0.03421883 0.14684314
0001e0 fd bf 78 be 70 ed af 3e e1 83 0f 3e 54 b6 8d bd
       -0.24291988 0.34360838 0.14015152 -0.06919542
0001f0 b8 8e dc 3c ca 14 9d 3e 93 d5 cd bd ec 9e 8c 3e
       0.026923522 0.30679923 -0.10050502 0.27464998
000200 cf da 08 be 31 5c 0e bf b8 ea 7b 3e 63 39 40 3e
       -0.13364719 -0.5560942 0.24601257 0.18771891
000210 ef b9 d7 be 9c 88 00 3e bc 0e dc 3d b9 33 3a 3c
       -0.42134044 0.12552112 0.10744998 0.011364871
000220 af e2 eb bc 1a 9d 2f 3d 03 51 35 3c 5e f5 f2 3c
       -0.028794615 0.042874433 0.011066678 0.029658016
000230 a9 13 1d be 43 d1 3c 3e 5c a7 91 bd 66 99 a1 bd
       -0.15339531 0.18439202 -0.071119994 -0.078905866
000240 bf 5b ce 3d 7d 8e 80 bd 05 80 d4 bc d2 f7 22 3e
       0.10076093 -0.062771775 -0.02593995 0.15914848
000250 01 cf 1a bd 81 1c cd 3d 0f e0 26 3d 1b 3c 11 3c
       -0.03779507 0.10015202 0.040741023 0.008864428
000260 2e 77 35 3e d7 e9 39 bd 84 8e 38 bd 28 3a 56 3e
       0.17721245 -0.045389023 -0.04505779 0.20920622
000270 60 4b c0 3d c3 83 22 3e 81 2f f5 3c 9f 8a 3e be
       0.09389377 0.15870576 0.029929878 -0.18607567
000280 cf 87 ee bd 6a 9a af bd c6 5b 61 be bf e3 fe 3d
       -0.11646997 -0.08574374 -0.22007665 0.12445783
000290 32 18 5a be a4 f0 52 3e 78 d1 1d 3e c7 db 13 be
       -0.21298292 0.2059961 0.15411937 -0.14439307
0002a0 05 f8 89 3d 2f 15 0a be db 72 c0 3d 1d f2 43 3e
       0.06736759 -0.13484643 0.09396907 0.19135328
0002b0 9f 8c 50 bd 2e 71 23 3e d9 f1 0b 3e 0b f6 bf bd
       -0.050915357 0.15961143 0.13666476 -0.09373101

mlp_gin1.bias f4 [16]
000000 3a 31 04 3e 18 2f 07 be 7a 79 6f 3e 31 79 7f be
       0.12909403 -0.13201559 0.23386183 -0.24948575
000010 80 d2 f1 3e 7a fe 20 bf 4b 4c 3a be 56 4b 5e 3f
       0.4723091 -0.628883 -0.18193166 0.86833704
000020 a7 21 fe 3e f5 c6 d7 be d6 9c ff bc 22 23 ec 3e
       0.4963505 -0.4214398 -0.031202715 0.46120554
000030 b4 53 fe 3d 07 ec 0e 3f 78 7f 25 be 28 e6 10 bf
       0.12418309 0.558289 -0.16161907 -0.5660119

gin1.nn.weight f4 [16, 11]
000000 ba f5 9f be a5 5b b6 3d e2 b8 00 3e 0f f3 43 3e
       -0.31242162 0.089041986 0.12570527 0.19135688
000010 d9 38 aa be e3 38 0c 3d 78 7d 35 3d cb b9 b0 be
       -0.33246496 0.03423394 0.04430911 -0.3451675
000020 d9 18 ff be c7 01 03 bd be b6 91 3c 76 2e 00 3e
       -0.49823645 -0.031984117 0.017787334 0.12517723
000030 41 42 c8 3d a8 da 00 3e 56 e3 cb bd 79 27 3b be
       0.09778262 0.1258341 -0.0995547 -0.18276776
000040 ae d3 d3 bd 73 da 64 3e 94 ee bd be f4 0a 83 be
       -0.10343109 0.22348957 -0.37096083 -0.25594294
000050 0e d8 ab be 48 7a 77 3e 8d b2 d2 3e af ec ba 3c
       -0.33563274 0.2416774 0.41151848 0.022817938
000060 88 a8 d6 3e 89 22 09 3d d0 fa a4 be cd 20 b1 bc
       0.41925454 0.0334802 -0.32222605 -0.021622086
000070 7e 26 b6 3b 6e ca bd bb f9 0f 1b bf f3 95 f3 3c
       0.005558788 -0.0057919538 -0.6057125 0.029734587
000080 12 1f b5 3d 16 ff 7d be 03 b6 db 3d 90 c8 03 3c
       0.08843817 -0.24804339 0.10728075 0.008043423
000090 40 a4 0c be 88 d8 f5 3c f9 1f a6 be 97 a2 84 3e
       -0.13734531 0.030010477 -0.32446268 0.25905296
0000a0 91 1d 38 3e ac d8 df 3e 00 b4 e3 3d d0 3f 91 bd
       0.17980029 0.43719995 0.11118317 -0.070922494
0000b0 7b 5c 00 bd 01 7e c6 bd 8b 9c 24 3e 3b 45 c2 bb
       -0.031338196 -0.09692002 0.16075341 -0.005928663
0000c0 ce 2a 40 bc 07 22 b5 3b fa cd 77 bd 00 74 d3 bc
       -0.011728955 0.005527738 -0.06049917 -0.025812149
0000d0 41 be 3a 3e 7d 06 c6 bd d6 b7 fa 3d e2 83 21 be
       0.18236639 -0.09669206 0.12242095 -0.15772966
0000e0 4e a9 d8 bd 93 24 8e 3e 2e c5 cb 3d e5 70 9f be
       -0.10579167 0.2776228 0.099497184 -0.3114082
0000f0 ea 5d bc 3c 46 50 ef bd 7e eb ae bd d5 33 20 be
       0.022994 -0.11685233 -0.0854101 -0.15644772
000100 5d 85 72 be 1c 3c 3e 3e 7b 2d 4a be a7 ac 8a be
       -0.23683687 0.18577617 -0.19743912 -0.27084848
000110 f4 e4 9d be 30 fd e6 bd 91 08 60 3e 14 7f 2a 3e
       -0.3083874 -0.112787604 0.21878268 0.16650039
000120 75 ef 62 be 7e 74 d2 3d 46 bc 67 3e a7 8f 21 be
       -0.22161658 0.10276125 0.22630414 -0.15777455
000130 34 42 97 be d5 db 72 be c5 43 47 bd b3 a2 f7 bd
       -0.29542696 -0.23716672 -0.048648614 -0.12091579
000140 0e 96 39 3d 41 8d 9a bd 72 3a 10 3d 7f 59 bc bd
       0.04530912 -0.07546473 0.035211988 -0.091967575
000150 15 7c ea 3c d3 c6 24 bc ef 62 81 bd 33 fe 0c 3d
       0.02862362 -0.010057169 -0.06317698 0.03442211
000160 58 d9 2f 3c ec 97 b6 3d 5c 4c 98 be f0 c2 87 3d
       0.010732971 0.089156955 -0.29745758 0.06628978
000170 83 80 b6 3d 20 8e ae 3d dc b8 df 3d f7 9e d6 bd
       0.089112304 0.08523202 0.10923931 -0.10479539
000180 df 28 bf 3e 73 3f b5 3d 83 67 1b bd fa d9 29 3e
       0.3733587 0.088499926 -0.037940513 0.16587058
000190 6e 98 e1 bd 01 8c 97 be 45 91 70 3d 35 7d a8 bd
       -0.11015402 -0.29599002 0.05873229 -0.08227006
0001a0 7a c7 b5 3b b8 d9 f3 bd ca a0 45 3e 5d 98 67 be
       0.005547461 -0.11906761 0.19299617 -0.22616716
0001b0 14 9a ce 3d c4 49 00 3e bd df bc 3b e3 52 3c bd
       0.10087982 0.1252814 0.0057639764 -0.045977484
0001c0 44 49 94 bd ce fe 26 3d b3 d6 b4 bd 44 f5 68 3e
       -0.07240537 0.040770344 -0.08830013 0.22749811
0001d0 d7 79 9c bd eb 3e 21 bd 0b 29 0c bd 0c 5e 16 3e
       -0.076404266 -0.039366644 -0.03421883 0.14684314
0001e0 fd bf 78 be 70 ed af 3e e1 83 0f 3e 54 b6 8d bd
       -0.24291988 0.34360838 0.14015152 -0.06919542
0001f0 b8 8e dc 3c ca 14 9d 3e 93 d5 cd bd ec 9e 8c 3e
       0.026923522 0.30679923 -0.10050502 0.27464998
000200 cf da 08 be 31 5c 0e bf b8 ea 7b 3e 63 39 40 3e
       -0.13364719 -0.5560942 0.24601257 0.18771891
000210 ef b9 d7 be 9c 88 00 3e bc 0e dc 3d b9 33 3a 3c
       -0.42134044 0.12552112 0.10744998 0.011364871
000220 af e2 eb bc 1a 9d 2f 3d 03 51 35 3c 5e f5 f2 3c
       -0.028794615 0.042874433 0.011066678 0.029658016
000230 a9 13 1d be 43 d1 3c 3e 5c a7 91 bd 66 99 a1 bd
       -0.15339531 0.18439202 -0.071119994 -0.078905866
000240 bf 5b ce 3d 7d 8e 80 bd 05 80 d4 bc d2 f7 22 3e
       0.10076093 -0.062771775 -0.02593995 0.15914848
000250 01 cf 1a bd 81 1c cd 3d 0f e0 26 3d 1b 3c 11 3c
       -0.03779507 0.10015202 0.040741023 0.008864428
000260 2e 77 35 3e d7 e9 39 bd 84 8e 38 bd 28 3a 56 3e
       0.17721245 -0.045389023 -0.04505779 0.20920622
000270 60 4b c0 3d c3 83 22 3e 81 2f f5 3c 9f 8a 3e be
       0.09389377 0.15870576 0.029929878 -0.18607567
000280 cf 87 ee bd 6a 9a af bd c6 5b 61 be bf e3 fe 3d
       -0.11646997 -0.08574374 -0.22007665 0.12445783
000290 32 18 5a be a4 f0 52 3e 78 d1 1d 3e c7 db 13 be
       -0.21298292 0.2059961 0.15411937 -0.14439307
0002a0 05 f8 89 3d 2f 15 0a be db 72 c0 3d 1d f2 43 3e
       0.06736759 -0.13484643 0.09396907 0.19135328
0002b0 9f 8c 50 bd 2e 71 23 3e d9 f1 0b 3e 0b f6 bf bd
       -0.050915357 0.15961143 0.13666476 -0.09373101

gin1.nn.bias f4 [16]
000000 3a 31 04 3e 18 2f 07 be 7a 79 6f 3e 31 79 7f be
       0.12909403 -0.13201559 0.23386183 -0.24948575
000010 80 d2 f1 3e 7a fe 20 bf 4b 4c 3a be 56 4b 5e 3f
       0.4723091 -0.628883 -0.18193166 0.86833704
000020 a7 21 fe 3e f5 c6 d7 be d6 9c ff bc 22 23 ec 3e
       0.4963505 -0.4214398 -0.031202715 0.46120554
000030 b4 53 fe 3d 07 ec 0e 3f 78 7f 25 be 28 e6 10 bf
       0.12418309 0.558289 -0.16161907 -0.5660119

mlp_gin2.weight f4 [16, 16]
000000 d4 8a 4a bd b5 b7 99 bc 24 96 25 3e 62 f5 e2 3d
       -0.049448803 -0.018764356 0.16170555 0.11081959
000010 eb 24 f7 3d 02 44 b9 be 89 79 30 3d f5 c9 b9 be
       0.120675884 -0.36184698 0.043084655 -0.36286893
000020 0d e6 a7 bd 3a b0 de be 5c 17 44 3d ef 82 b4 3d
       -0.081981756 -0.43493825 0.04787384 0.08814036
000030 ef 5b 6c be 7b f5 9a be be 59 ef 3c 61 22 8d be
       -0.23081945 -0.30265412 0.029217597 -0.27565292
000040 29 4a 16 be b7 54 85 be 03 26 87 3d c4 c9 9b 3d
       -0.14676727 -0.26041195 0.06599047 0.07606843
000050 ec fa 93 bd a8 da f1 bc 14 a3 95 be fa ce 4e be
       -0.07225594 -0.029523209 -0.2922598 -0.20196143
000060 fe 1f 18 3d e8 63 ba bc 93 6e e1 3d ea 30 80 be
       0.037139885 -0.022752717 0.110074185 -0.25037318
000070 9d f3 91 bd a6 c8 be 3c 1d 73 8e be 93 99 3e be
       -0.07126544 0.023289036 -0.278222 -0.18613271
000080 c7 90 88 3c d1 67 cf bd dd c5 1b bd ad ce 81 bd
       0.016670598 -0.10127223 -0.038030494 -0.063382484
000090 9e 9a ae be d8 c3 b0 be 32 9f 8e 3d 90 20 8b be
       -0.3410234 -0.34524417 0.06963958 -0.2717328
0000a0 07 81 0e be cf a3 55 be 1e a0 4c be cd 2c 95 3d
       -0.13916408 -0.2086327 -0.19982955 0.07283936
0000b0 9b 2f 04 be e3 4f 5b 3d 36 4e 24 bc 6d fc d4 3b
       -0.12908785 0.053542983 -0.010028413 0.006499818
0000c0 9b 79 f9 bd 01 a0 23 be ef f8 7f bd 3f 50 a0 be
       -0.121813975 -0.15979005 -0.06249326 -0.31311223
0000d0 c0 d3 16 3e 51 39 5b be 67 bd 31 3e 10 e7 22 3e
       0.14729214 -0.21408583 0.17357408 0.15908456
0000e0 ef c7 0f 3e 60 7d 85 be cc 32 91 bd 26 f5 06 be
       0.14041112 -0.26072216 -0.07089767 -0.13179454
0000f0 52 0a 8c be 5b f5 55 3d 39 8e 16 3d 9f f4 58 3d
       -0.27351624 0.052235942 0.036756728 0.052967664
000100 d2 33 ea bd 92 a3 41 be 98 f5 17 be 1d b2 72 be
       -0.11435665 -0.18910053 -0.1483978 -0.23700757
000110 6f db 9a 3d c9 56 3d be 99 15 1e be f9 b2 b7 3d
       0.07561385 -0.18490137 -0.15437926 0.08969683
000120 e4 af 89 3d d7 ad f1 3d bc 01 21 3e 56 06 ce bd
       0.067230016 0.118007354 0.15723318 -0.10059802
000130 c8 ba 46 be 3e 43 e7 3d 2a 65 ae bd 8d e0 db bd
       -0.19407189 0.11292122 -0.08515389 -0.10736189
000140 5a 36 dd bd 07 08 8a bc a8 b2 6c 3b a8 4c a0 be
       -0.10801382 -0.01684953 0.003611723 -0.31308484
000150 2d ae 71 be 0a 32 9d bd 72 5e 0d 3d d3 ab f0 3d
       -0.23601599 -0.0767556 0.0345139 0.11751523
000160 ee 87 73 be c2 20 2f bd 90 dc f9 bd 44 6e 62 3c
       -0.23782322 -0.04275585 -0.12200272 0.013820235
000170 a9 7a c7 bd 67 b4 a4 bc 39 22 c2 3d 26 ec 77 be
       -0.097401924 -0.020105554 0.09479184 -0.24211177
000180 ed b7 84 be 9c a2 ca 3c 34 57 7d 3c 21 96 4c 3b
       -0.25921574 0.024735741 0.015462685 0.0031217413
000190 b5 4d 33 be d4 8e bb 3d 1b 0b 10 3d 36 11 a2 be
       -0.17510112 0.09158102 0.03516684 -0.31653756
0001a0 c3 0d 3b 3d 71 29 3b be 36 15 85 bc d2 23 a1 bc
       0.04566742 -0.18277527 -0.016245466 -0.0196704
0001b0 9d 65 04 3e be c4 3b bd 2c 9b e4 3d c5 da 42 be
       0.12929387 -0.045841925 0.11162409 -0.19028766
0001c0 09 0e 9f be 05 63 6f 3c df f4 9b 3d c2 63 8a 3d
       -0.31065395 0.01461101 0.07615065 0.067573085
0001d0 b6 9a 72 be b2 52 f5 bd a9 dd c1 bd 65 fc 81 be
       -0.2369183 -0.119786635 -0.094661064 -0.25387874
0001e0 53 83 11 3e e3 4a 4e 3e 59 18 e6 3d 91 a0 8c be
       0.14210252 0.20145755 0.11235113 -0.27466252
0001f0 ad 4a 66 be 6b 66 78 be f0 9e 4e be 2a 66 13 be
       -0.22489424 -0.2425782 -0.20177817 -0.14394441
000200 ad 2b 96 be e5 8c 3b 3e 26 f8 09 be bb b6 a8 bd
       -0.29330197 0.18315466 -0.13473567 -0.08237978
000210 67 ad d5 bc 92 e6 3c 3c dd b2 f6 3c 48 a5 95 be
       -0.026083661 0.011529582 0.030114586 -0.29227662
000220 07 b2 96 be 1f 2f d8 bd 2a 43 0e be ab 8a 4f 3d
       -0.294327 -0.10555863 -0.13892809 0.050669353
000230 c2 b4 f7 3d 8f a8 2d be 92 98 b8 bc 5e 5c 36 ba
       0.12095024 -0.16958831 -0.022533689 -0.0006956513
000240 1b f3 bd bc 7b 9b 62 3c 59 8d 2c be 9c ee 53 be
       -0.02318721 0.013831015 -0.16850795 -0.20696491
000250 23 57 86 bc 98 fa 4b 3e 8f a3 70 bc 4a 2b b8 3d
       -0.016398972 0.19919813 -0.014687433 0.08992632
000260 0a 9a 43 bd d1 15 82 bd 25 d4 8f 3e 96 42 c9 3c
       -0.047754325 -0.063518174 0.2809154 0.024567883
000270 b4 9d 6f be 28 4c 23 bc 8a 71 2b 3d bb b3 00 be
       -0.23400003 -0.0099668875 0.041856326 -0.12568562
000280 cd b1 25 bd 97 2b 56 3d f9 af 19 be 4a 94 b2 bd
       -0.040452767 0.052287664 -0.15008534 -0.0871969
000290 cd 6f 68 be 29 8f 9e be d6 0e 41 be 53 9e 88 bd
       -0.22698899 -0.30968598 -0.18853316 -0.06670823
0002a0 fb 91 13 be 85 fc 1a be 98 e2 98 3d 3a 41 20 bd
       -0.14411156 -0.15135391 0.07465094 -0.039124705
0002b0 86 ac 2d be 51 d3 a1 be 55 9b 02 be b2 20 c6 bd
       -0.16960344 -0.31606534 -0.12754567 -0.09674205
0002c0 dc 55 47 be 96 4c eb bd 5a 28 0e be 38 df c4 3d
       -0.19466347 -0.11489217 -0.1388258 0.09612888
0002d0 c6 ee 8e be 70 ca cd bc fa bb 1d 3e 1d 92 6c 3d
       -0.27916545 -0.025120944 0.15403739 0.057756532
0002e0 2b e9 9e 3d ce ce 8b be f0 a0 02 3d 91 15 b4 bc
       0.07759317 -0.27306217 0.031891763 -0.02198294
0002f0 bf c9 45 be 1c b8 19 be 79 b1 51 3e a6 9e ce 3d
       -0.19315241 -0.15011638 0.20477857 0.100888535
000300 2c 14 95 be 46 51 85 be 80 db d0 3d 86 b5 d0 bc
       -0.29116952 -0.2603857 0.10198116 -0.025477182
000310 76 cf 83 be 06 8c f3 3d 1b e0 5e be 1a 91 8b be
       -0.25744218 0.11891942 -0.21765177 -0.2725914
000320 7b 53 90 bd 1e bb dd bd 76 ce 26 be 54 25 ae bb
       -0.07047173 -0.108267054 -0.16289696 -0.0053145085
000330 4f fb 84 be 90 a7 6f bd 08 10 6a bc 0c a1 0c 3d
       -0.25972983 -0.05850941 -0.014286049 0.034333274
000340 63 68 8f 3c d0 74 92 bc b2 00 a6 3e fe 61 16 3e
       0.01750583 -0.017877966 0.32422405 0.14685819
000350 13 5b 04 3e 21 52 c7 3c 30 0d 86 3e 62 71 bd 3e
       0.12925367 0.024331154 0.26181936 0.37000567
000360 12 ad 9d 3e d9 96 42 bd f2 63 a8 bd 6a 67 eb bd
       0.30796105 -0.04750714 -0.08222188 -0.11494334
000370 45 83 a5 3c b9 36 e9 3d 39 32 a4 bd 85 67 96 be
       0.020204196 0.11387391 -0.08017392 -0.29375854
000380 cc 53 4d bd 64 f4 c3 bc 6b 9f 78 bd 64 16 3a 3d
       -0.050128743 -0.023920245 -0.060698908 0.04543151
000390 45 2d 1c be 5f 67 0a 3e 3f ec b0 3d 29 80 6d be
       -0.15251644 0.13515995 0.0863881 -0.2319342
0003a0 b7 1a 83 bd e9 b6 87 3d bd 6b 78 bd 0e 08 ea 3c
       -0.0640158 0.06626684 -0.060649622 0.028568294
0003b0 a6 94 ec 3d 41 cf 7c be 16 05 c1 3b 91 6f 3a 3d
       0.1155179 -0.24688436 0.005890499 0.045516554
0003c0 8e f8 2b 3e c1 61 80 be 88 bd d3 bd 8f 1f 1a be
       0.16794035 -0.2507458 -0.103388846 -0.15051101
0003d0 f6 61 9d 3c 74 c5 e8 bd 81 74 57 be 8e 9e 6b be
       0.01921175 -0.11365786 -0.21040536 -0.23009703
0003e0 a1 7b 8f bd 5f 03 df 3d bc b4 7b be 22 fd 75 be
       -0.07006002 0.10889315 -0.24580663 -0.24022344
0003f0 ae c6 fb bd b7 a9 3c 3e a8 49 f8 3d ec 1a 13 3e
       -0.122937545 0.18424116 0.12123424 0.14365739

mlp_gin2.bias f4 [16]
000000 60 ec 6c 3e c7 08 0a 3d 86 c9 eb bc c1 d4 59 be
       0.23137045 0.033699777 -0.028782617 -0.21272565
000010 67 be 7e be cb 02 98 3d 32 f6 18 bd a2 24 f9 3d
       -0.2487732 0.07422408 -0.037344165 0.1216519
000020 8b d0 1a be e9 13 ad 3f 74 fd ad 3d 1e e4 85 be
       -0.15118615 1.3521701 0.08495608 -0.26150602
000030 d4 ce 4d be e2 08 2d bf d7 06 0f 40 ec 4f 55 bb
       -0.2009843 -0.6759168 2.2347925 -0.0032548858

gin2.nn.weight f4 [16, 16]
000000 d4 8a 4a bd b5 b7 99 bc 24 96 25 3e 62 f5 e2 3d
       -0.049448803 -0.018764356 0.16170555 0.11081959
000010 eb 24 f7 3d 02 44 b9 be 89 79 30 3d f5 c9 b9 be
       0.120675884 -0.36184698 0.043084655 -0.36286893
000020 0d e6 a7 bd 3a b0 de be 5c 17 44 3d ef 82 b4 3d
       -0.081981756 -0.43493825 0.04787384 0.08814036
000030 ef 5b 6c be 7b f5 9a be be 59 ef 3c 61 22 8d be
       -0.23081945 -0.30265412 0.029217597 -0.27565292
000040 29 4a 16 be b7 54 85 be 03 26 87 3d c4 c9 9b 3d
       -0.14676727 -0.26041195 0.06599047 0.07606843
000050 ec fa 93 bd a8 da f1 bc 14 a3 95 be fa ce 4e be
       -0.07225594 -0.029523209 -0.2922598 -0.20196143
000060 fe 1f 18 3d e8 63 ba bc 93 6e e1 3d ea 30 80 be
       0.037139885 -0.022752717 0.110074185 -0.25037318
000070 9d f3 91 bd a6 c8 be 3c 1d 73 8e be 93 99 3e be
       -0.07126544 0.023289036 -0.278222 -0.18613271
000080 c7 90 88 3c d1 67 cf bd dd c5 1b bd ad ce 81 bd
       0.016670598 -0.10127223 -0.038030494 -0.063382484
000090 9e 9a ae be d8 c3 b0 be 32 9f 8e 3d 90 20 8b be
       -0.3410234 -0.34524417 0.06963958 -0.2717328
0000a0 07 81 0e be cf a3 55 be 1e a0 4c be cd 2c 95 3d
       -0.13916408 -0.2086327 -0.19982955 0.07283936
0000b0 9b 2f 04 be e3 4f 5b 3d 36 4e 24 bc 6d fc d4 3b
       -0.12908785 0.053542983 -0.010028413 0.006499818
0000c0 9b 79 f9 bd 01 a0 23 be ef f8 7f bd 3f 50 a0 be
       -0.121813975 -0.15979005 -0.06249326 -0.31311223
0000d0 c0 d3 16 3e 51 39 5b be 67 bd 31 3e 10 e7 22 3e
       0.14729214 -0.21408583 0.17357408 0.15908456
0000e0 ef c7 0f 3e 60 7d 85 be cc 32 91 bd 26 f5 06 be
       0.14041112 -0.26072216 -0.07089767 -0.13179454
0000f0 52 0a 8c be 5b f5 55 3d 39 8e 16 3d 9f f4 58 3d
       -0.27351624 0.052235942 0.036756728 0.052967664
000100 d2 33 ea bd 92 a3 41 be 98 f5 17 be 1d b2 72 be
       -0.11435665 -0.18910053 -0.1483978 -0.23700757
000110 6f db 9a 3d c9 56 3d be 99 15 1e be f9 b2 b7 3d
       0.07561385 -0.18490137 -0.15437926 0.08969683
000120 e4 af 89 3d d7 ad f1 3d bc 01 21 3e 56 06 ce bd
       0.067230016 0.118007354 0.15723318 -0.10059802
000130 c8 ba 46 be 3e 43 e7 3d 2a 65 ae bd 8d e0 db bd
       -0.19407189 0.11292122 -0.08515389 -0.10736189
000140 5a 36 dd bd 07 08 8a bc a8 b2 6c 3b a8 4c a0 be
       -0.10801382 -0.01684953 0.003611723 -0.31308484
000150 2d ae 71 be 0a 32 9d bd 72 5e 0d 3d d3 ab f0 3d
       -0.23601599 -0.0767556 0.0345139 0.11751523
000160 ee 87 73 be c2 20 2f bd 90 dc f9 bd 44 6e 62 3c
       -0.23782322 -0.04275585 -0.12200272 0.013820235
000170 a9 7a c7 bd 67 b4 a4 bc 39 22 c2 3d 26 ec 77 be
       -0.097401924 -0.020105554 0.09479184 -0.24211177
000180 ed b7 84 be 9c a2 ca 3c 34 57 7d 3c 21 96 4c 3b
       -0.25921574 0.024735741 0.015462685 0.0031217413
000190 b5 4d 33 be d4 8e bb 3d 1b 0b 10 3d 36 11 a2 be
       -0.17510112 0.09158102 0.03516684 -0.31653756
0001a0 c3 0d 3b 3d 71 29 3b be 36 15 85 bc d2 23 a1 bc
       0.04566742 -0.18277527 -0.016245466 -0.0196704
0001b0 9d 65 04 3e be c4 3b bd 2c 9b e4 3d c5 da 42 be
       0.12929387 -0.045841925 0.11162409 -0.19028766
0001c0 09 0e 9f be 05 63 6f 3c df f4 9b 3d c2 63 8a 3d
       -0.31065395 0.01461101 0.07615065 0.067573085
0001d0 b6 9a 72 be b2 52 f5 bd a9 dd c1 bd 65 fc 81 be
       -0.2369183 -0.119786635 -0.094661064 -0.25387874
0001e0 53 83 11 3e e3 4a 4e 3e 59 18 e6 3d 91 a0 8c be
       0.14210252 0.20145755 0.11235113 -0.27466252
0001f0 ad 4a 66 be 6b 66 78 be f0 9e 4e be 2a 66 13 be
       -0.22489424 -0.2425782 -0.20177817 -0.14394441
000200 ad 2b 96 be e5 8c 3b 3e 26 f8 09 be bb b6 a8 bd
       -0.29330197 0.18315466 -0.13473567 -0.08237978
000210 67 ad d5 bc 92 e6 3c 3c dd b2 f6 3c 48 a5 95 be
       -0.026083661 0.011529582 0.030114586 -0.29227662
000220 07 b2 96 be 1f 2f d8 bd 2a 43 0e be ab 8a 4f 3d
       -0.294327 -0.10555863 -0.13892809 0.050669353
000230 c2 b4 f7 3d 8f a8 2d be 92 98 b8 bc 5e 5c 36 ba
       0.12095024 -0.16958831 -0.022533689 -0.0006956513
000240 1b f3 bd bc 7b 9b 62 3c 59 8d 2c be 9c ee 53 be
       -0.02318721 0.013831015 -0.16850795 -0.20696491
000250 23 57 86 bc 98 fa 4b 3e 8f a3 70 bc 4a 2b b8 3d
       -0.016398972 0.19919813 -0.014687433 0.08992632
000260 0a 9a 43 bd d1 15 82 bd 25 d4 8f 3e 96 42 c9 3c
       -0.047754325 -0.063518174 0.2809154 0.024567883
000270 b4 9d 6f be 28 4c 23 bc 8a 71 2b 3d bb b3 00 be
       -0.23400003 -0.0099668875 0.041856326 -0.12568562
000280 cd b1 25 bd 97 2b 56 3d f9 af 19 be 4a 94 b2 bd
       -0.040452767 0.052287664 -0.15008534 -0.0871969
000290 cd 6f 68 be 29 8f 9e be d6 0e 41 be 53 9e 88 bd
       -0.22698899 -0.30968598 -0.18853316 -0.06670823
0002a0 fb 91 13 be 85 fc 1a be 98 e2 98 3d 3a 41 20 bd
       -0.14411156 -0.15135391 0.07465094 -0.039124705
0002b0 86 ac 2d be 51 d3 a1 be 55 9b 02 be b2 20 c6 bd
       -0.16960344 -0.31606534 -0.12754567 -0.09674205
0002c0 dc 55 47 be 96 4c eb bd 5a 28 0e be 38 df c4 3d
       -0.19466347 -0.11489217 -0.1388258 0.09612888
0002d0 c6 ee 8e be 70 ca cd bc fa bb 1d 3e 1d 92 6c 3d
       -0.27916545 -0.025120944 0.15403739 0.057756532
0002e0 2b e9 9e 3d ce ce 8b be f0 a0 02 3d 91 15 b4 bc
       0.07759317 -0.27306217 0.031891763 -0.02198294
0002f0 bf c9 45 be 1c b8 19 be 79 b1 51 3e a6 9e ce 3d
       -0.19315241 -0.15011638 0.20477857 0.100888535
000300 2c 14 95 be 46 51 85 be 80 db d0 3d 86 b5 d0 bc
       -0.29116952 -0.2603857 0.10198116 -0.025477182
000310 76 cf 83 be 06 8c f3 3d 1b e0 5e be 1a 91 8b be
       -0.25744218 0.11891942 -0.21765177 -0.2725914
000320 7b 53 90 bd 1e bb dd bd 76 ce 26 be 54 25 ae bb
       -0.07047173 -0.108267054 -0.16289696 -0.0053145085
000330 4f fb 84 be 90 a7 6f bd 08 10 6a bc 0c a1 0c 3d
       -0.25972983 -0.05850941 -0.014286049 0.034333274
000340 63 68 8f 3c d0 74 92 bc b2 00 a6 3e fe 61 16 3e
       0.01750583 -0.017877966 0.32422405 0.14685819
000350 13 5b 04 3e 21 52 c7 3c 30 0d 86 3e 62 71 bd 3e
       0.12925367 0.024331154 0.26181936 0.37000567
000360 12 ad 9d 3e d9 96 42 bd f2 63 a8 bd 6a 67 eb bd
       0.30796105 -0.04750714 -0.08222188 -0.11494334
000370 45 83 a5 3c b9 36 e9 3d 39 32 a4 bd 85 67 96 be
       0.020204196 0.11387391 -0.08017392 -0.29375854
000380 cc 53 4d bd 64 f4 c3 bc 6b 9f 78 bd 64 16 3a 3d
       -0.050128743 -0.023920245 -0.060698908 0.04543151
000390 45 2d 1c be 5f 67 0a 3e 3f ec b0 3d 29 80 6d be
       -0.15251644 0.13515995 0.0863881 -0.2319342
0003a0 b7 1a 83 bd e9 b6 87 3d bd 6b 78 bd 0e 08 ea 3c
       -0.0640158 0.06626684 -0.060649622 0.028568294
0003b0 a6 94 ec 3d 41 cf 7c be 16 05 c1 3b 91 6f 3a 3d
       0.1155179 -0.24688436 0.005890499 0.045516554
0003c0 8e f8 2b 3e c1 61 80 be 88 bd d3 bd 8f 1f 1a be
       0.16794035 -0.2507458 -0.103388846 -0.15051101
0003d0 f6 61 9d 3c 74 c5 e8 bd 81 74 57 be 8e 9e 6b be
       0.01921175 -0.11365786 -0.21040536 -0.23009703
0003e0 a1 7b 8f bd 5f 03 df 3d bc b4 7b be 22 fd 75 be
       -0.07006002 0.10889315 -0.24580663 -0.24022344
0003f0 ae c6 fb bd b7 a9 3c 3e a8 49 f8 3d ec 1a 13 3e
       -0.122937545 0.18424116 0.12123424 0.14365739

gin2.nn.bias f4 [16]
000000 60 ec 6c 3e c7 08 0a 3d 86 c9 eb bc c1 d4 59 be
       0.23137045 0.033699777 -0.028782617 -0.21272565
000010 67 be 7e be cb 02 98 3d 32 f6 18 bd a2 24 f9 3d
       -0.2487732 0.07422408 -0.037344165 0.1216519
000020 8b d0 1a be e9 13 ad 3f 74 fd ad 3d 1e e4 85 be
       -0.15118615 1.3521701 0.08495608 -0.26150602
000030 d4 ce 4d be e2 08 2d bf d7 06 0f 40 ec 4f 55 bb
       -0.2009843 -0.6759168 2.2347925 -0.0032548858

mlp_gin3.weight f4 [2, 16]
000000 41 56 fc 3d 40 9a fa 3d c8 a4 c8 3d f9 fc fb 3d
       0.12321139 0.12236452 0.097970545 0.1230411
000010 00 dc b2 bb df 69 14 3e ee 14 df bc 73 9d 3a 3e
       -0.005458355 0.14493512 -0.02723166 0.18224125
000020 b0 a4 2d bd 18 d9 e4 3d 32 8f 0d be a4 69 10 bd
       -0.042393386 0.1117422 -0.13824156 -0.035256997
000030 d3 58 cf 3d 96 a8 55 3d 34 62 f4 3e f8 17 f4 bd
       0.10124364 0.05216273 0.47731173 -0.11918634
000040 a9 a1 20 be 2a 98 11 3e 28 70 17 3e b0 17 94 bd
       -0.15686668 0.14218202 0.14788878 -0.072310805
000050 25 81 c2 3c 15 9d 4e 3e b9 52 4d bc 07 f0 39 3d
       0.023743222 0.2017711 -0.01253193 0.045394924
000060 c9 ae 1b 3e 19 d4 ab bd 9b 75 5e bd de b4 a8 3c
       0.15203394 -0.08390064 -0.054311376 0.020594057
000070 9a a2 30 be dd 9c 53 3e 6c e6 a3 be 57 cb 94 bd
       -0.17249528 0.20665307 -0.32011735 -0.072653465

mlp_gin3.bias f4 [2]
000000 38 27 51 3f d0 a1 71 bf
       0.8170047 -0.9438753

gin3.nn.weight f4 [2, 16]
000000 41 56 fc 3d 40 9a fa 3d c8 a4 c8 3d f9 fc fb 3d
       0.12321139 0.12236452 0.097970545 0.1230411
000010 00 dc b2 bb df 69 14 3e ee 14 df bc 73 9d 3a 3e
       -0.005458355 0.14493512 -0.02723166 0.18224125
000020 b0 a4 2d bd 18 d9 e4 3d 32 8f 0d be a4 69 10 bd
       -0.042393386 0.1117422 -0.13824156 -0.035256997
000030 d3 58 cf 3d 96 a8 55 3d 34 62 f4 3e f8 17 f4 bd
       0.10124364 0.05216273 0.47731173 -0.11918634
000040 a9 a1 20 be 2a 98 11 3e 28 70 17 3e b0 17 94 bd
       -0.15686668 0.14218202 0.14788878 -0.072310805
000050 25 81 c2 3c 15 9d 4e 3e b9 52 4d bc 07 f0 39 3d
       0.023743222 0.2017711 -0.01253193 0.045394924
000060 c9 ae 1b 3e 19 d4 ab bd 9b 75 5e bd de b4 a8 3c
       0.15203394 -0.08390064 -0.054311376 0.020594057
000070 9a a2 30 be dd 9c 53 3e 6c e6 a3 be 57 cb 94 bd
       -0.17249528 0.20665307 -0.32011735 -0.072653465

gin3.nn.bias f4 [2]
000000 38 27 51 3f d0 a1 71 bf
       0.8170047 -0.9438753
