formal/model_weights/model_homophily.pth (torch, 5131 bytes, 12 tensors)

mlp_gin1.weight f4 [16, 11]
00000000: 92f3 a7bd c0d0 7f3e 5ef6 96bd c291 b1bd
00000010: 6c54 773e a602 50bd 7d9d 69be b8a7 4d3e
00000020: 3bdb 9cbd bcc6 523e 977c 96be 7878 0f3d
00000030: bee1 253c 3d98 1ebe e940 1e3e f602 a43e
00000040: 6995 6a3c 97e7 8c3d 9873 0f3d 4c4e a23d
00000050: d07e 603d f4c3 89ba 4708 d93d 8c96 32be
00000060: 5119 c4bd 66e3 313e 860e 2bb9 3cb4 373e
00000070: fe7d 283e 8a28 1cbe 3583 a23e 3bc6 24be
00000080: 6d90 38be 0565 4fbe bc03 933d 4b54 953c
00000090: 7f53 02be d94f dc3d eaaa e43c dd84 8bbd
000000a0: 5e1f 963c da6e 013f 4941 0abd eab7 4fbe
000000b0: 2ac0 193e 6e29 fe3d 1151 45be 06dd 133e
000000c0: 1b30 5dbc d823 9abc ba15 743e 6e0b f83d
000000d0: 3ac8 6b3c fc05 13be eb6c c23e 2ed0 3a3d
000000e0: 85f3 ad3d ae53 2d3e 2715 bcbb 6c35 52be
000000f0: 8eda f03c ee06 723d 0175 00be c557 c43d
00000100: 891f ccbb 4931 4ebe 32d9 af3e 533a 3d3e
00000110: 6cc8 f63d 9091 90bd 2780 b53e fa99 113d
00000120: d77a 8b3d 6ac2 b73d 0d2d d03a 94ab 1a3e
00000130: 0e5e 77be a686 33bd 32ea 27bd 71d5 0b3d
00000140: d3d1 c63d 0d0b 9f3d 8d99 1a3e 47d3 263d
00000150: 2ed5 55bd 45e7 8ebe 6e96 1bbe c712 c7be
00000160: 7595 92bc 6170 50bd 6109 cd3d 44aa 803e
00000170: 1393 b03d e60e a33d 7fcd 103e 792e f33d
00000180: 8577 cdbc 405b 063e 7314 bcbe 7ae0 e4bd
00000190: 0425 72bc fdb5 ca3c 358f 57bd 35cb c2bd
000001a0: 70b2 d3bd 98be 13bd fd08 5c3d 2c4a 30be
000001b0: d362 b73c bd74 aa3e df2b 1cbe cd96 33bd
000001c0: a9b6 1dbe b215 ae3c ea30 c23e 7b5e aebd
000001d0: 0d80 ad3c 5868 0fbe 2e2b ebbd a90b 263e
000001e0: 5666 4e3e 33ce c0bd 686f 683d 1a01 9fbe
000001f0: 51a7 a13d d311 a33e 2d42 a1bd 583e 19be
00000200: d746 a63c ca2d 463e a677 ea3c a6f3 bbbe
00000210: 4b95 2f3e 29e5 b73d fa4a 103c f046 7dbd
00000220: 8ed3 f1bb 7191 b9bd ec87 3dbd d5b5 8b3b
00000230: 3ee2 08be ba14 723d 4f70 82be ccd7 883d
00000240: 8276 ebbd db70 c1bd 577b b43d e1e0 423c
00000250: 9387 e23d 4a5a a43d b4a7 9dbd e13a 8d3e
00000260: bde2 b1bd 5d31 23bd 06f1 2a3d daf1 1d3e
00000270: 2511 25bd e963 e2bd 41e6 243d da0a f5bd
00000280: 5fc2 f6bd 3c92 de3c 8e71 2dbe 2974 b73d
00000290: 60ca 89be e4ba d13d 732f 28bc 7456 bcbc
000002a0: 3be2 18be 3922 d73c e7d3 693e 891b fe3d
000002b0: 5cef 023e 3ddd bb3c e63b cf3d 393e f7bd
-0.08200754 0.24981976 -0.073712096 -0.08670379 0.24153298 -0.050783776 -0.22813983 0.20083511
-0.076590024 0.20583624 -0.2939193 0.035026997 0.010124622 -0.15487762 0.15454449 0.3203351
0.014317849 0.0688011 0.03502235 0.0792509 0.054808438 -0.0010510669 0.10597282 -0.17440242
-0.09575141 0.17371902 -0.00016313241 0.17939848 0.16454312 -0.1524984 0.31740728 -0.16091244
-0.18023844 -0.2025338 0.07178447 0.01822867 -0.12727164 0.10757417 0.02791353 -0.06812451
0.018325504 0.5055977 -0.033753667 -0.20285001 0.15014711 0.12410246 -0.19269206 0.14439783
-0.013500239 -0.01881592 0.23836413 0.12111555 0.014390999 -0.14357752 0.37973723 0.045608692
0.08493713 0.16926453 -0.0057398262 -0.20528191 0.02940109 0.05908864 -0.12544633 0.09587053
-0.006229345 -0.20135988 0.34345394 0.1847928 0.12049946 -0.07059014 0.35449335 0.035547234
0.06810539 0.089726284 0.0015882567 0.15104514 -0.24156973 -0.043829583 -0.04099483 0.0341391
0.097079895 0.0776578 0.15097637 0.040728834 -0.052205257 -0.2791082 -0.15194103 -0.38881513
-0.017893532 -0.050888423 0.100115545 0.25129902 0.08621802 0.07961826 0.1414089 0.11874098
-0.025081405 0.13120747 -0.36734352 -0.11175628 -0.014779333 0.024744982 -0.052626807 -0.09511415
-0.103367686 -0.036070436 0.05371951 -0.17215794 0.02238599 0.3329219 -0.1525111 -0.043844987
-0.1540171 0.02125058 0.37927943 -0.085141145 0.021179223 -0.14004648 -0.11482845 0.16215385
0.20156226 -0.094143294 0.05674687 -0.31055528 0.07893241 0.31849536 -0.0787395 -0.14965189
0.020297451 0.19353405 0.028621506 -0.36709327 0.17146794 0.08979256 0.008806938 -0.06183523
-0.0073799556 -0.09060944 -0.046272203 0.0042636194 -0.13367555 0.059101798 -0.2547631 0.06681785
-0.11497213 -0.094453536 0.08812588 0.011894436 0.11061015 0.08025034 -0.076980025 0.27583984
-0.08685825 -0.039842 0.041733764 0.1542429 -0.040299553 -0.110542126 0.04025865 -0.119649604
-0.12048792 0.02716934 -0.16937849 0.08957703 -0.26912212 0.10240725 -0.010265219 -0.022990443
-0.1493005 0.026261436 0.2283474 0.12407596 0.12786621 0.022932643 0.101188466 -0.12072415

mlp_gin1.bias f4 [16]
00000000: dd76 01be 2543 1bbf 5526 08be a7be ebbd
00000010: 6952 8cbe 8ddb e83e c05c 823d 42b7 b63e
00000020: f44c 43be e291 903f 3fe3 1f3d 1ce9 34bd
00000030: d75a e43d 5c59 303f f736 12bf dc47 a7be
-0.12642999 -0.6064933 -0.13295873 -0.115109734 -0.27406624 0.45480004 0.06365347 0.3568669
-0.19072324 1.129452 0.03903508 -0.044167623 0.11150139 0.6888635 -0.5711512 -0.32672012

gin1.nn.weight f4 [16, 11]
00000000: 92f3 a7bd c0d0 7f3e 5ef6 96bd c291 b1bd
00000010: 6c54 773e a602 50bd 7d9d 69be b8a7 4d3e
00000020: 3bdb 9cbd bcc6 523e 977c 96be 7878 0f3d
00000030: bee1 253c 3d98 1ebe e940 1e3e f602 a43e
00000040: 6995 6a3c 97e7 8c3d 9873 0f3d 4c4e a23d
00000050: d07e 603d f4c3 89ba 4708 d93d 8c96 32be
00000060: 5119 c4bd 66e3 313e 860e 2bb9 3cb4 373e
00000070: fe7d 283e 8a28 1cbe 3583 a23e 3bc6 24be
00000080: 6d90 38be 0565 4fbe bc03 933d 4b54 953c
00000090: 7f53 02be d94f dc3d eaaa e43c dd84 8bbd
000000a0: 5e1f 963c da6e 013f 4941 0abd eab7 4fbe
000000b0: 2ac0 193e 6e29 fe3d 1151 45be 06dd 133e
000000c0: 1b30 5dbc d823 9abc ba15 743e 6e0b f83d
000000d0: 3ac8 6b3c fc05 13be eb6c c23e 2ed0 3a3d
000000e0: 85f3 ad3d ae53 2d3e 2715 bcbb 6c35 52be
000000f0: 8eda f03c ee06 723d 0175 00be c557 c43d
00000100: 891f ccbb 4931 4ebe 32d9 af3e 533a 3d3e
00000110: 6cc8 f63d 9091 90bd 2780 b53e fa99 113d
00000120: d77a 8b3d 6ac2 b73d 0d2d d03a 94ab 1a3e
00000130: 0e5e 77be a686 33bd 32ea 27bd 71d5 0b3d
00000140: d3d1 c63d 0d0b 9f3d 8d99 1a3e 47d3 263d
00000150: 2ed5 55bd 45e7 8ebe 6e96 1bbe c712 c7be
00000160: 7595 92bc 6170 50bd 6109 cd3d 44aa 803e
00000170: 1393 b03d e60e a33d 7fcd 103e 792e f33d
00000180: 8577 cdbc 405b 063e 7314 bcbe 7ae0 e4bd
00000190: 0425 72bc fdb5 ca3c 358f 57bd 35cb c2bd
000001a0: 70b2 d3bd 98be 13bd fd08 5c3d 2c4a 30be
000001b0: d362 b73c bd74 aa3e df2b 1cbe cd96 33bd
000001c0: a9b6 1dbe b215 ae3c ea30 c23e 7b5e aebd
000001d0: 0d80 ad3c 5868 0fbe 2e2b ebbd a90b 263e
000001e0: 5666 4e3e 33ce c0bd 686f 683d 1a01 9fbe
000001f0: 51a7 a13d d311 a33e 2d42 a1bd 583e 19be
00000200: d746 a63c ca2d 463e a677 ea3c a6f3 bbbe
00000210: 4b95 2f3e 29e5 b73d fa4a 103c f046 7dbd
00000220: 8ed3 f1bb 7191 b9bd ec87 3dbd d5b5 8b3b
00000230: 3ee2 08be ba14 723d 4f70 82be ccd7 883d
00000240: 8276 ebbd db70 c1bd 577b b43d e1e0 423c
00000250: 9387 e23d 4a5a a43d b4a7 9dbd e13a 8d3e
00000260: bde2 b1bd 5d31 23bd 06f1 2a3d daf1 1d3e
00000270: 2511 25bd e963 e2bd 41e6 243d da0a f5bd
00000280: 5fc2 f6bd 3c92 de3c 8e71 2dbe 2974 b73d
00000290: 60ca 89be e4ba d13d 732f 28bc 7456 bcbc
000002a0: 3be2 18be 3922 d73c e7d3 693e 891b fe3d
000002b0: 5cef 023e 3ddd bb3c e63b cf3d 393e f7bd
-0.08200754 0.24981976 -0.073712096 -0.08670379 0.24153298 -0.050783776 -0.22813983 0.20083511
-0.076590024 0.20583624 -0.2939193 0.035026997 0.010124622 -0.15487762 0.15454449 0.3203351
0.014317849 0.0688011 0.03502235 0.0792509 0.054808438 -0.0010510669 0.10597282 -0.17440242
-0.09575141 0.17371902 -0.00016313241 0.17939848 0.16454312 -0.1524984 0.31740728 -0.16091244
-0.18023844 -0.2025338 0.07178447 0.01822867 -0.12727164 0.10757417 0.02791353 -0.06812451
0.018325504 0.5055977 -0.033753667 -0.20285001 0.15014711 0.12410246 -0.19269206 0.14439783
-0.013500239 -0.01881592 0.23836413 0.12111555 0.014390999 -0.14357752 0.37973723 0.045608692
0.08493713 0.16926453 -0.0057398262 -0.20528191 0.02940109 0.05908864 -0.12544633 0.09587053
-0.006229345 -0.20135988 0.34345394 0.1847928 0.12049946 -0.07059014 0.35449335 0.035547234
0.06810539 0.089726284 0.0015882567 0.15104514 -0.24156973 -0.043829583 -0.04099483 0.0341391
0.097079895 0.0776578 0.15097637 0.040728834 -0.052205257 -0.2791082 -0.15194103 -0.38881513
-0.017893532 -0.050888423 0.100115545 0.25129902 0.08621802 0.07961826 0.1414089 0.11874098
-0.025081405 0.13120747 -0.36734352 -0.11175628 -0.014779333 0.024744982 -0.052626807 -0.09511415
-0.103367686 -0.036070436 0.05371951 -0.17215794 0.02238599 0.3329219 -0.1525111 -0.043844987
-0.1540171 0.02125058 0.37927943 -0.085141145 0.021179223 -0.14004648 -0.11482845 0.16215385
0.20156226 -0.094143294 0.05674687 -0.31055528 0.07893241 0.31849536 -0.0787395 -0.14965189
0.020297451 0.19353405 0.028621506 -0.36709327 0.17146794 0.08979256 0.008806938 -0.06183523
-0.0073799556 -0.09060944 -0.046272203 0.0042636194 -0.13367555 0.059101798 -0.2547631 0.06681785
-0.11497213 -0.094453536 0.08812588 0.011894436 0.11061015 0.08025034 -0.076980025 0.27583984
-0.08685825 -0.039842 0.041733764 0.1542429 -0.040299553 -0.110542126 0.04025865 -0.119649604
-0.12048792 0.02716934 -0.16937849 0.08957703 -0.26912212 0.10240725 -0.010265219 -0.022990443
-0.1493005 0.026261436 0.2283474 0.12407596 0.12786621 0.022932643 0.101188466 -0.12072415

gin1.nn.bias f4 [16]
00000000: dd76 01be 2543 1bbf 5526 08be a7be ebbd
00000010: 6952 8cbe 8ddb e83e c05c 823d 42b7 b63e
00000020: f44c 43be e291 903f 3fe3 1f3d 1ce9 34bd
00000030: d75a e43d 5c59 303f f736 12bf dc47 a7be
-0.12642999 -0.6064933 -0.13295873 -0.115109734 -0.27406624 0.45480004 0.06365347 0.3568669
-0.19072324 1.129452 0.03903508 -0.044167623 0.11150139 0.6888635 -0.5711512 -0.32672012

mlp_gin2.weight f4 [16, 16]
00000000: ccd0 bcbe 8d18 0bbf e039 38bc a03a 473e
00000010: 70d5 253c d3ec 75be 5b5d 973e 8cda b1bc
00000020: ca80 133e 6f4f 0c3e b6aa 323b 0e83 9a3e
00000030: 261a 0d3e cd33 f43d baed 6abe e525 34be
00000040: ec51 b83d 9bd0 2abf 2c7a 8ebf 30a0 cebd
00000050: ecaf 23be c277 1ebd 09de c33c c319 023e
00000060: 7477 6bbd 737b 77bd 9270 c3bc ae85 cdbe
00000070: e8a5 a73d 3733 1dbd 963b 53be ecff 6ebf
00000080: 725f 7abe 1f80 5a3e 32b0 3fbe 5e3a 5dbe
00000090: dc3a f5ba 711e ebbd 9424 76be 4242 75bd
000000a0: 2c2c 42be 7e68 083e d944 3cbe d9d7 8e3d
000000b0: 8752 723c a58c 6f3e c1c8 e7bd b18e 96bd
000000c0: 5359 31bd ba7d 7e3e d202 253e 47d7 bd3c
000000d0: 8c79 31be dbc7 66bd bdb6 67bd d77c 1fbd
000000e0: 2865 c1bc eb77 22be 4b66 133d 4211 733d
000000f0: 09ba 6a3e 17d3 86be 354b 27bd 9dcb 283c
00000100: 9ced 983c c9d3 76be b8f8 923d ad16 98bd
00000110: 1c3c aa3d fbd4 92bd 2189 393e ded8 a53d
00000120: cbbb c8bd 4ec2 943e 668f 87be dcd4 5bbe
00000130: 1833 73bd ea59 cfbc 07d8 23bd 59c4 053e
00000140: 5d9e 0f3e 1c34 483e 1fb0 ed3d e9b9 96bd
00000150: 9c89 3e3d 897a 81be 9c74 073d 73df 6cbe
00000160: 9a4d 8a3d ae44 85be 89a4 0abe fcc9 063e
00000170: 6154 cb3b 8228 f7bc 140f 3dbe 6c66 b2bc
00000180: f8d7 f8bd d1d1 ebbd 113f 2d3d 9187 4b3d
00000190: 42b5 ec3d 6410 97bd 5902 413d 29f1 79be
000001a0: 7e2f 5bbe 085c 45be d3f6 11be 72c8 9d3c
000001b0: 40f2 3dbe 22da a53d 70f0 073e 1653 013e
000001c0: 5fb8 0b3e cdf3 8f3d 4ad7 47be 5811 bf3d
000001d0: 8683 34be 12ab d93d 3626 29be 34ca 59bd
000001e0: b9fd f43a f990 6e3e 5d06 2cbe 1cd6 813d
000001f0: 0654 c1bd 7882 c3bd 6d5f 5d3e aea4 233e
00000200: d524 0ebe bae4 d63d beb8 98bd 519a 3e3e
00000210: de1b cfbc 41bf 243e 8ef2 ddbd cb96 193e
00000220: f1ed a13d df64 4dbe efc9 073e 9b81 e13d
00000230: 8422 183e e631 073e 2c16 81be 39b9 b73c
00000240: 0c82 25bb ece1 45bd 1e25 f83d 3649 37bd
00000250: b485 14bc 8b6c ccbc 5ee3 bb3b d329 2ebd
00000260: e0f9 a83b 4f3c 17bd 7dfe 2ebd c858 b8bb
00000270: 7470 e3bd 0c42 28be 0202 a33d cc62 db3b
00000280: a4c5 633e a740 9ebe a881 16be c2ff debd
00000290: 3d12 353e aceb 2e3d 6629 f83d 8fcb 373c
000002a0: 811c 793e 345a f5bd 5706 84bd fb70 8e3d
000002b0: 2d4d 76be 82d4 12bd 4a8e 5dbe a595 4abe
000002c0: e651 a13d 41c5 a13d 6079 1b3e 4138 983b
000002d0: 0882 d7b7 3b1b 603e 0ec5 49be 3b2d cc3d
000002e0: 481b 9d3c 8c84 15be a145 0c3e a40f 273e
000002f0: ed1a 523e 2e75 b7bd e304 0bbe d254 043e
00000300: 468c 143e ca1d fcbd f1f7 ffbd 87cb 09be
00000310: 215b e4bd e2ee 88bc f9b6 e33c d219 30bc
00000320: f071 0d3e f3bb 9abd 5dcc fd3d a434 21be
00000330: 87f4 19be 96fa a83c 13c5 ee3d d4c6 d7bd
00000340: 7ebb 97be 54fe 053e 9720 1a3d 0adc 55bd
00000350: 7dba fcbc 5331 88be c542 143e 816d 703e
00000360: f0fc 453c d3f7 f9bd 1734 3a3e 4860 c93d
00000370: 225e 98bc 3a8e 1fbe ea2c 293e cf5c 21bd
00000380: c128 7ebe c4eb c4ba c153 59be 508f 6d3e
00000390: b5e4 fabd 9b05 debd 75f7 633c 4637 433e
000003a0: 17ef 773e 5024 8cbe 1051 783e 4b1c 683e
000003b0: 7a47 12be ab6b 7e3e d53f ad3d 1e1e 39be
000003c0: a6c6 2c3e 884d e93d 197d 93be a01e 013e
000003d0: 8a40 15be f410 023c 80a4 383e 8cda da3b
000003e0: 8968 ab3d f628 8fbe 6111 31be c44f 7fbd
000003f0: 4a65 acbd 8c4e bbbc 4637 85bb 2036 5ebe
-0.3687805 -0.54334337 -0.011244267 0.19455957 0.010121688 -0.24016123 0.29563412 -0.021710657
0.14404598 0.13702177 0.0027262396 0.30178112 0.13779506 0.11923943 -0.22942248 -0.1759258
0.09 -0.66724557 -1.1131034 -0.10089147 -0.15985078 -0.03868843 0.023909586 0.1270514
-0.057486966 -0.060420465 -0.023857389 -0.40141052 0.08185941 -0.03837892 -0.20628199 -0.93359256
-0.24450472 0.21337937 -0.18719557 -0.21604297 -0.0018709558 -0.114804156 -0.24037391 -0.05987764
-0.18962163 0.1332111 -0.18385638 0.069747634 0.014790184 0.23393495 -0.11317588 -0.07351435
-0.043298077 0.24852648 0.16114357 0.023173941 -0.17331523 -0.05634294 -0.056570757 -0.038937416
-0.023607805 -0.15866058 0.035986226 0.05934263 0.2292253 -0.26332924 -0.040843207 0.010302451
0.018667988 -0.24104227 0.071763456 -0.074262 0.08312246 -0.07169529 0.18118717 0.08098005
-0.09801444 0.29054493 -0.26476592 -0.21467918 -0.0593749 -0.025311429 -0.04000094 0.13063182
0.14025255 0.19551128 0.11605858 -0.07359678 0.046517953 -0.252888 0.03307019 -0.23132114
0.067530826 -0.2602896 -0.13539328 0.13162988 0.006205127 -0.030170683 -0.18462783 -0.021777354
-0.12150568 -0.11514629 0.042296473 0.049689833 0.1155801 -0.07376173 0.04712138 -0.24408402
-0.21404836 -0.19273388 -0.14254312 0.019260619 -0.18549442 0.08098246 0.13275313 0.12629351
0.1364455 0.07028923 -0.1951572 0.0932948 -0.17628297 0.10628332 -0.16518483 -0.05317135
0.0018691338 0.2329749 -0.16799302 0.06339666 -0.09439854 -0.09546369 0.21618433 0.15980789
-0.13881238 0.10492845 -0.07457112 0.18613555 -0.025281843 0.16088583 -0.10837279 0.14998929
0.07906712 -0.2005801 0.13260625 0.110110484 0.14856917 0.13202628 -0.25212228 0.022427188
-0.0025254516 -0.04831116 0.121164545 -0.044747554 -0.00906508 -0.024954101 0.0057338914 -0.042520355
0.0051567405 -0.03692275 -0.042723168 -0.005625818 -0.11105433 -0.16431445 0.07959367 0.006695127
0.22243363 -0.309087 -0.14697897 -0.10888626 0.17682739 0.042705223 0.12117271 0.011217966
0.2432728 -0.119800955 -0.06446522 0.06955143 -0.24052878 -0.035847194 -0.2163631 -0.19783647
0.07876949 0.07898951 0.1518302 0.004645378 -2.5690548e-05 0.21885388 -0.19704077 0.099695645
0.019178048 -0.14601344 0.13698436 0.1631456 0.20518084 -0.08957897 -0.13576083 0.12922981
0.14506635 -0.12310369 -0.12498463 -0.13456546 -0.11150194 -0.01671547 0.02779721 -0.010748344
0.13812995 -0.0755538 0.12392495 -0.15742737 -0.15034686 0.020627301 0.11658683 -0.1053597
-0.29635233 0.130853 0.037628736 -0.0522118 -0.030850643 -0.2660013 0.14478596 0.23479272
0.012084231 -0.12205472 0.18183933 0.09832817 -0.018599574 -0.15581599 0.1652104 -0.03939515
-0.24820234 -0.0015023877 -0.21223356 0.231992 -0.12250654 -0.10840913 0.013913979 0.19064054
0.242123 -0.27371454 0.24249673 0.22667043 -0.14285079 0.2484576 0.084594406 -0.18077895
0.16872653 0.11391741 -0.2880638 0.12609339 -0.14575401 0.007938612 0.18031502 0.006678885
0.08369548 -0.27960938 -0.17291786 -0.06233193 -0.08417757 -0.022864603 -0.004065427 -0.21700335

mlp_gin2.bias f4 [16]
00000000: c81e 0bbe 24d4 af3f 6ec2 473a 5cba c13f
00000010: 81b6 83be 817e 1ebe 3f93 4e3e abab 5f3d
00000020: 9736 cf3c 9cd9 b53f f5f1 2abe 932a 1ebe
00000030: 69ef 92bb 634c 693d 53fc efbd 4157 4abe
-0.13585961 1.3736615 0.000762022 1.5134997 -0.25725177 -0.15477945 0.20173357 0.054607075
0.025294585 1.4207034 -0.16693862 -0.15445928 -0.0044841063 0.056957614 -0.11718049 -0.19759847

gin2.nn.weight f4 [16, 16]
00000000: ccd0 bcbe 8d18 0bbf e039 38bc a03a 473e
00000010: 70d5 253c d3ec 75be 5b5d 973e 8cda b1bc
00000020: ca80 133e 6f4f 0c3e b6aa 323b 0e83 9a3e
00000030: 261a 0d3e cd33 f43d baed 6abe e525 34be
00000040: ec51 b83d 9bd0 2abf 2c7a 8ebf 30a0 cebd
00000050: ecaf 23be c277 1ebd 09de c33c c319 023e
00000060: 7477 6bbd 737b 77bd 9270 c3bc ae85 cdbe
00000070: e8a5 a73d 3733 1dbd 963b 53be ecff 6ebf
00000080: 725f 7abe 1f80 5a3e 32b0 3fbe 5e3a 5dbe
00000090: dc3a f5ba 711e ebbd 9424 76be 4242 75bd
000000a0: 2c2c 42be 7e68 083e d944 3cbe d9d7 8e3d
000000b0: 8752 723c a58c 6f3e c1c8 e7bd b18e 96bd
000000c0: 5359 31bd ba7d 7e3e d202 253e 47d7 bd3c
000000d0: 8c79 31be dbc7 66bd bdb6 67bd d77c 1fbd
000000e0: 2865 c1bc eb77 22be 4b66 133d 4211 733d
000000f0: 09ba 6a3e 17d3 86be 354b 27bd 9dcb 283c
00000100: 9ced 983c c9d3 76be b8f8 923d ad16 98bd
00000110: 1c3c aa3d fbd4 92bd 2189 393e ded8 a53d
00000120: cbbb c8bd 4ec2 943e 668f 87be dcd4 5bbe
00000130: 1833 73bd ea59 cfbc 07d8 23bd 59c4 053e
00000140: 5d9e 0f3e 1c34 483e 1fb0 ed3d e9b9 96bd
00000150: 9c89 3e3d 897a 81be 9c74 073d 73df 6cbe
00000160: 9a4d 8a3d ae44 85be 89a4 0abe fcc9 063e
00000170: 6154 cb3b 8228 f7bc 140f 3dbe 6c66 b2bc
00000180: f8d7 f8bd d1d1 ebbd 113f 2d3d 9187 4b3d
00000190: 42b5 ec3d 6410 97bd 5902 413d 29f1 79be
000001a0: 7e2f 5bbe 085c 45be d3f6 11be 72c8 9d3c
000001b0: 40f2 3dbe 22da a53d 70f0 073e 1653 013e
000001c0: 5fb8 0b3e cdf3 8f3d 4ad7 47be 5811 bf3d
000001d0: 8683 34be 12ab d93d 3626 29be 34ca 59bd
000001e0: b9fd f43a f990 6e3e 5d06 2cbe 1cd6 813d
000001f0: 0654 c1bd 7882 c3bd 6d5f 5d3e aea4 233e
00000200: d524 0ebe bae4 d63d beb8 98bd 519a 3e3e
00000210: de1b cfbc 41bf 243e 8ef2 ddbd cb96 193e
00000220: f1ed a13d df64 4dbe efc9 073e 9b81 e13d
00000230: 8422 183e e631 073e 2c16 81be 39b9 b73c
00000240: 0c82 25bb ece1 45bd 1e25 f83d 3649 37bd
00000250: b485 14bc 8b6c ccbc 5ee3 bb3b d329 2ebd
00000260: e0f9 a83b 4f3c 17bd 7dfe 2ebd c858 b8bb
00000270: 7470 e3bd 0c42 28be 0202 a33d cc62 db3b
00000280: a4c5 633e a740 9ebe a881 16be c2ff debd
00000290: 3d12 353e aceb 2e3d 6629 f83d 8fcb 373c
000002a0: 811c 793e 345a f5bd 5706 84bd fb70 8e3d
000002b0: 2d4d 76be 82d4 12bd 4a8e 5dbe a595 4abe
000002c0: e651 a13d 41c5 a13d 6079 1b3e 4138 983b
000002d0: 0882 d7b7 3b1b 603e 0ec5 49be 3b2d cc3d
000002e0: 481b 9d3c 8c84 15be a145 0c3e a40f 273e
000002f0: ed1a 523e 2e75 b7bd e304 0bbe d254 043e
00000300: 468c 143e ca1d fcbd f1f7 ffbd 87cb 09be
00000310: 215b e4bd e2ee 88bc f9b6 e33c d219 30bc
00000320: f071 0d3e f3bb 9abd 5dcc fd3d a434 21be
00000330: 87f4 19be 96fa a83c 13c5 ee3d d4c6 d7bd
00000340: 7ebb 97be 54fe 053e 9720 1a3d 0adc 55bd
00000350: 7dba fcbc 5331 88be c542 143e 816d 703e
00000360: f0fc 453c d3f7 f9bd 1734 3a3e 4860 c93d
00000370: 225e 98bc 3a8e 1fbe ea2c 293e cf5c 21bd
00000380: c128 7ebe c4eb c4ba c153 59be 508f 6d3e
00000390: b5e4 fabd 9b05 debd 75f7 633c 4637 433e
000003a0: 17ef 773e 5024 8cbe 1051 783e 4b1c 683e
000003b0: 7a47 12be ab6b 7e3e d53f ad3d 1e1e 39be
000003c0: a6c6 2c3e 884d e93d 197d 93be a01e 013e
000003d0: 8a40 15be f410 023c 80a4 383e 8cda da3b
000003e0: 8968 ab3d f628 8fbe 6111 31be c44f 7fbd
000003f0: 4a65 acbd 8c4e bbbc 4637 85bb 2036 5ebe
-0.3687805 -0.54334337 -0.011244267 0.19455957 0.010121688 -0.24016123 0.29563412 -0.021710657
0.14404598 0.13702177 0.0027262396 0.30178112 0.13779506 0.11923943 -0.22942248 -0.1759258
0.09 -0.66724557 -1.1131034 -0.10089147 -0.15985078 -0.03868843 0.023909586 0.1270514
-0.057486966 -0.060420465 -0.023857389 -0.40141052 0.08185941 -0.03837892 -0.20628199 -0.93359256
-0.24450472 0.21337937 -0.18719557 -0.21604297 -0.0018709558 -0.114804156 -0.24037391 -0.05987764
-0.18962163 0.1332111 -0.18385638 0.069747634 0.014790184 0.23393495 -0.11317588 -0.07351435
-0.043298077 0.24852648 0.16114357 0.023173941 -0.17331523 -0.05634294 -0.056570757 -0.038937416
-0.023607805 -0.15866058 0.035986226 0.05934263 0.2292253 -0.26332924 -0.040843207 0.010302451
0.018667988 -0.24104227 0.071763456 -0.074262 0.08312246 -0.07169529 0.18118717 0.08098005
-0.09801444 0.29054493 -0.26476592 -0.21467918 -0.0593749 -0.025311429 -0.04000094 0.13063182
0.14025255 0.19551128 0.11605858 -0.07359678 0.046517953 -0.252888 0.03307019 -0.23132114
0.067530826 -0.2602896 -0.13539328 0.13162988 0.006205127 -0.030170683 -0.18462783 -0.021777354
-0.12150568 -0.11514629 0.042296473 0.049689833 0.1155801 -0.07376173 0.04712138 -0.24408402
-0.21404836 -0.19273388 -0.14254312 0.019260619 -0.18549442 0.08098246 0.13275313 0.12629351
0.1364455 0.07028923 -0.1951572 0.0932948 -0.17628297 0.10628332 -0.16518483 -0.05317135
0.0018691338 0.2329749 -0.16799302 0.06339666 -0.09439854 -0.09546369 0.21618433 0.15980789
-0.13881238 0.10492845 -0.07457112 0.18613555 -0.025281843 0.16088583 -0.10837279 0.14998929
0.07906712 -0.2005801 0.13260625 0.110110484 0.14856917 0.13202628 -0.25212228 0.022427188
-0.0025254516 -0.04831116 0.121164545 -0.044747554 -0.00906508 -0.024954101 0.0057338914 -0.042520355
0.0051567405 -0.03692275 -0.042723168 -0.005625818 -0.11105433 -0.16431445 0.07959367 0.006695127
0.22243363 -0.309087 -0.14697897 -0.10888626 0.17682739 0.042705223 0.12117271 0.011217966
0.2432728 -0.119800955 -0.06446522 0.06955143 -0.24052878 -0.035847194 -0.2163631 -0.19783647
0.07876949 0.07898951 0.1518302 0.004645378 -2.5690548e-05 0.21885388 -0.19704077 0.099695645
0.019178048 -0.14601344 0.13698436 0.1631456 0.20518084 -0.08957897 -0.13576083 0.12922981
0.14506635 -0.12310369 -0.12498463 -0.13456546 -0.11150194 -0.01671547 0.02779721 -0.010748344
0.13812995 -0.0755538 0.12392495 -0.15742737 -0.15034686 0.020627301 0.11658683 -0.1053597
-0.29635233 0.130853 0.037628736 -0.0522118 -0.030850643 -0.2660013 0.14478596 0.23479272
0.012084231 -0.12205472 0.18183933 0.09832817 -0.018599574 -0.15581599 0.1652104 -0.03939515
-0.24820234 -0.0015023877 -0.21223356 0.231992 -0.12250654 -0.10840913 0.013913979 0.19064054
0.242123 -0.27371454 0.24249673 0.22667043 -0.14285079 0.2484576 0.084594406 -0.18077895
0.16872653 0.11391741 -0.2880638 0.12609339 -0.14575401 0.007938612 0.18031502 0.006678885
0.08369548 -0.27960938 -0.17291786 -0.06233193 -0.08417757 -0.022864603 -0.004065427 -0.21700335

gin2.nn.bias f4 [16]
00000000: c81e 0bbe 24d4 af3f 6ec2 473a 5cba c13f
00000010: 81b6 83be 817e 1ebe 3f93 4e3e abab 5f3d
00000020: 9736 cf3c 9cd9 b53f f5f1 2abe 932a 1ebe
00000030: 69ef 92bb 634c 693d 53fc efbd 4157 4abe
-0.13585961 1.3736615 0.000762022 1.5134997 -0.25725177 -0.15477945 0.20173357 0.054607075
0.025294585 1.4207034 -0.16693862 -0.15445928 -0.0044841063 0.056957614 -0.11718049 -0.19759847

mlp_gin3.weight f4 [2, 16]
00000000: 6c90 9ebd 35d0 2ebf fde7 53bc e187 1c3f
00000010: 9aac 913d f29b 27bd 53a3 4f3e f97f 71bd
00000020: ad32 fb3d 9dc7 3a3f e110 113c 1b98 3bbe
00000030: 242e 033e 191e 0f3e 36da 1dbe 3ab7 18bd
00000040: cecc 0c3e 5230 e43e 009d 32be 9d53 43bf
00000050: 5212 123e dbeb 123e feb3 b03d 738d a73c
00000060: b78a 4bbd 909f 3cbf b707 9e3d 143b a03d
00000070: 2b5f 183e c338 9ebd 76f2 963d 08e4 f7bd
-0.0774239 -0.6828645 -0.012933728 0.61144835 0.07112999 -0.040920205 0.20277147 -0.058959935
0.12265525 0.72960836 0.008854122 -0.18319742 0.1281057 0.13976325 -0.15415272 -0.037284113
0.13750002 0.44568115 -0.17442703 -0.7629946 0.14264801 0.14347784 0.08628081 0.02045319
-0.049692836 -0.73680973 0.07716315 0.07823768 0.14880054 -0.0772567 0.073704645 -0.121040404

mlp_gin3.bias f4 [2]
00000000: 2ca2 2d3f 94d0 4dbf
0.6782558 -0.8039639

gin3.nn.weight f4 [2, 16]
00000000: 6c90 9ebd 35d0 2ebf fde7 53bc e187 1c3f
00000010: 9aac 913d f29b 27bd 53a3 4f3e f97f 71bd
00000020: ad32 fb3d 9dc7 3a3f e110 113c 1b98 3bbe
00000030: 242e 033e 191e 0f3e 36da 1dbe 3ab7 18bd
00000040: cecc 0c3e 5230 e43e 009d 32be 9d53 43bf
00000050: 5212 123e dbeb 123e feb3 b03d 738d a73c
00000060: b78a 4bbd 909f 3cbf b707 9e3d 143b a03d
00000070: 2b5f 183e c338 9ebd 76f2 963d 08e4 f7bd
-0.0774239 -0.6828645 -0.012933728 0.61144835 0.07112999 -0.040920205 0.20277147 -0.058959935
0.12265525 0.72960836 0.008854122 -0.18319742 0.1281057 0.13976325 -0.15415272 -0.037284113
0.13750002 0.44568115 -0.17442703 -0.7629946 0.14264801 0.14347784 0.08628081 0.02045319
-0.049692836 -0.73680973 0.07716315 0.07823768 0.14880054 -0.0772567 0.073704645 -0.121040404

gin3.nn.bias f4 [2]
00000000: 2ca2 2d3f 94d0 4dbf
0.6782558 -0.8039639
