formal/model_weights/model_homophily_L=1.pth (torch, 1571 bytes, 4 tensors)

mlp_gin1.weight f4 [2, 11]
000000 a7 4c 23 3e 59 0e 08 bd e0 6a 6f 3e a4 e4 c9 bc
       0.1594721 -0.033216808 0.23380613 -0.024645157
000010 32 4c 32 3e dc d2 cf 3d f3 db 40 3e 09 7e 65 bb
       0.17411879 0.1014764 0.18833904 -0.003501775
000020 64 75 23 3e c6 6f 4a bd 0d 5b 39 be 1d 22 17 bd
       0.1596275 -0.049423 -0.1810114 -0.036897767
000030 d2 4b 30 bd 67 99 55 3e ca a1 a6 bc 73 33 03 3b
       -0.043041058 0.208593 -0.020340819 0.002001968
000040 83 8c c4 3d a9 cb 41 3e 4f 3e 34 ba 08 aa 4c 3e
       0.09597113 0.18925346 -0.000687574 0.19986737
000050 af 3a 52 bd 00 c1 5e 3b
       -0.051325496 0.0033989549

mlp_gin1.bias f4 [2]
000000 33 93 a4 3d df 03 8b bd
       0.080358885 -0.06787848

gin3.nn.weight f4 [2, 11]
000000 a7 4c 23 3e 59 0e 08 bd e0 6a 6f 3e a4 e4 c9 bc
       0.1594721 -0.033216808 0.23380613 -0.024645157
000010 32 4c 32 3e dc d2 cf 3d f3 db 40 3e 09 7e 65 bb
       0.17411879 0.1014764 0.18833904 -0.003501775
000020 64 75 23 3e c6 6f 4a bd 0d 5b 39 be 1d 22 17 bd
       0.1596275 -0.049423 -0.1810114 -0.036897767
000030 d2 4b 30 bd 67 99 55 3e ca a1 a6 bc 73 33 03 3b
       -0.043041058 0.208593 -0.020340819 0.002001968
000040 83 8c c4 3d a9 cb 41 3e 4f 3e 34 ba 08 aa 4c 3e
       0.09597113 0.18925346 -0.000687574 0.19986737
000050 af 3a 52 bd 00 c1 5e 3b
       -0.051325496 0.0033989549

gin3.nn.bias f4 [2]
000000 33 93 a4 3d df 03 8b bd
       0.080358885 -0.06787848
