formal/realworld/fc/model_weights/GIN_fc.pth (torch, 14468 bytes, 14 tensors)

mlp1.weight f4 [32, 14]
000000 6b 28 e8 bd 72 5a ae be 0b 68 de bd d3 17 90 bd
       -0.11335834 -0.3405338 -0.10859688 -0.07035794
000010 06 79 06 be 38 49 f0 bd 69 c0 06 be 3f 78 14 be
       -0.13132104 -0.11732715 -0.13159336 -0.14498995
000020 94 74 00 00 28 22 01 80 cb db 43 be 05 67 00 80
       4.182e-41 -1.04088e-40 -0.19126813 -3.6956e-41
000030 b0 68 00 00 5a d8 00 80 19 66 1e be a4 92 6b 3e
       3.7555e-41 -7.7612e-41 -0.15468635 0.23005158
000040 3d 4c 1f be 12 b2 3f 3e 02 85 73 3e ca 9e 89 bd
       -0.15556426 0.18720272 0.23781207 -0.0671974
000050 b0 3c 0e 3c f1 ec 74 3e cd 47 01 80 9b 1f bf 2a
       0.008681461 0.23918511 -1.17593e-40 3.3950346e-13
000060 c5 bb b4 3d d7 65 00 80 8c c2 00 80 1e 60 01 80
       0.08824877 -3.6533e-41 -6.979e-41 -1.26316e-40
000070 6c a5 93 ad 6d 6f dd 94 ef f4 d8 94 e3 8d 80 95
       -1.6785427e-11 -2.2359247e-26 -2.1907036e-26 -5.1922646e-26
000080 3e 2d 00 00 39 c6 3e 10 c3 12 00 80 df 6f 00 00
       1.623e-41 3.7623598e-29 -6.73e-42 4.0132e-41
000090 a6 7b 00 80 54 44 00 80 da 24 01 80 55 0c 01 80
       -4.4357e-41 -2.4512e-41 -1.05055e-40 -9.626e-41
0000a0 1a 76 bd ad 55 6a 00 00 25 00 bf be 02 d3 03 3c
       -2.153926e-11 3.8145e-41 -0.37304798 0.008045914
0000b0 2d 1b a8 3e 38 a4 e8 3e 6f 1a ca 3e 8c 9c 9a 3b
       0.32833233 0.4543779 0.39473292 0.004718369
0000c0 62 cb 0a bd fe 59 dc bd 4b 05 00 00 19 8f 00 80
       -0.033885367 -0.10759352 1.899e-42 -5.1334e-41
0000d0 84 fb f3 3d ce 04 00 80 19 16 01 80 1e aa 00 80
       0.11913207 -1.724e-42 -9.9763e-41 -6.1027e-41
0000e0 f5 6e 31 be 28 4c d0 3c 88 3f 5e 3d 61 40 7d be
       -0.17327483 0.02542694 0.054259807 -0.2473159
0000f0 a2 7c 96 be de 77 56 3b 9d 2c ae bd 2f f2 36 3d
       -0.29391962 0.0032725255 -0.08504603 0.044664558
000100 d1 bf 83 05 04 17 01 00 dc 5a 8e 3c 72 05 01 80
       1.2389643e-35 1.00092e-40 0.01737731 -9.3789e-41
000110 31 a1 00 80 3d 7f 00 80 ae e1 96 3d 38 9f 2f be
       -5.7825e-41 -4.5644e-41 0.07367264 -0.17150581
000120 56 ff 88 be 58 48 38 be 03 94 a6 be 2a c3 62 bd
       -0.26757306 -0.17996347 -0.325348 -0.055361904
000130 55 9b 84 be 58 3b 9b bd bf b0 00 80 8b 04 00 80
       -0.2589976 -0.07579678 -6.3405e-41 -1.63e-42
000140 c6 8b 6d 3d 8b 57 00 80 69 43 00 80 5b 4a 00 80
       0.057994626 -3.1404e-41 -2.4182e-41 -2.6674e-41
000150 18 5f 41 be 64 f7 a2 3c 61 ba 61 3c 7b 16 27 3c
       -0.18883932 0.019893356 0.013777346 0.010198231
000160 c3 36 b7 be 57 c9 29 bd 4a f1 f3 3b 79 da b5 be
       -0.35783967 -0.04145178 0.0074445354 -0.35518244
000170 ea 51 00 80 ea 0a 01 00 a0 fa c3 bb 10 6c 01 00
       -2.9385e-41 9.5751e-41 -0.0059808046 1.30601e-40
000180 90 4a 00 00 af 3d 73 37 bc a4 9c b9 73 23 3e 9c
       2.6748e-41 1.44982905e-05 -0.00029877375 -6.2911544e-22
000190 4e f9 a2 8a f6 10 00 00 61 01 00 00 cc 76 00 00
       -1.569381e-32 6.084e-42 4.95e-43 4.2616e-41
0001a0 12 1f 00 80 a9 22 00 00 b0 fb 00 80 fa f4 01 00
       -1.1146e-41 1.2434e-41 -9.0288e-41 1.79717e-40
0001b0 68 38 00 80 7d 43 00 00 16 af 02 00 a9 aa 00 80
       -2.0235e-41 2.421e-41 2.4648e-40 -6.1221e-41
0001c0 26 aa 2b be 50 43 eb be a4 a0 94 3e 05 c6 ec bc
       -0.16764125 -0.45949793 0.2902881 -0.028903017
0001d0 e4 be a7 bd c4 1f 24 3e 46 18 d1 3d 18 49 3e 3e
       -0.08190706 0.16027743 0.10209708 0.1858257
0001e0 e7 4c 00 00 d9 c6 00 00 96 14 f1 bd 23 9a 00 80
       2.7587e-41 7.1333e-41 -0.117715046 -5.5294e-41
0001f0 c6 21 00 80 27 80 00 80 67 5a 03 be 9f 5b 56 bd
       -1.2116e-41 -4.5972e-41 -0.12827455 -0.05233347
000200 24 c2 e1 bd 5b f9 db 3d ef e2 6a be 67 02 b3 bd
       -0.110233575 0.1074092 -0.22938131 -0.087406926
000210 93 e5 8c bd 95 a0 4d bd ca 07 3f a8 ef a4 00 00
       -0.06879725 -0.05020197 -1.0604319e-14 5.9167e-41
000220 2f da ea ba 05 c0 00 00 e2 cf 00 00 8c 1c 01 00
       -0.0017917807 6.8884e-41 7.4574e-41 1.02076e-40
000230 19 fc 3b 3e fc df 4e 3c 62 b3 b2 be 9b 6e 3e 3e
       0.18357886 0.012626644 -0.34902483 0.1859688
000240 5f e3 99 be 8d 96 6d bd 53 d0 8e be ed d5 62 be
       -0.30056283 -0.058004905 -0.27893314 -0.22151919
000250 86 76 1d 29 40 92 00 00 e0 39 e6 bd b2 0c 00 00
       3.4963806e-14 5.2465e-41 -0.112415075 4.554e-42
000260 5c 95 00 00 18 61 00 00 7e 35 88 3d bc 27 ab bc
       5.358e-41 3.483e-41 0.06650828 -0.02089297
000270 ea b2 f8 bd 8c 18 b7 bd 8d 0a 9e be f5 0e 4b 3d
       -0.121435 -0.08940229 -0.30867425 0.04957481
000280 3f 61 9c be 41 a8 40 be 69 31 01 80 15 14 00 80
       -0.30542943 -0.18814184 -1.0956e-40 -7.204e-42
000290 a8 a0 b0 bd 4e a8 00 00 49 0a 00 80 03 c4 00 80
       -0.08624393 6.0376e-41 -3.69e-42 -7.0316e-41
0002a0 bb 9c c9 3d 60 99 d5 bb 7b 19 58 be 84 8d 22 3d
       0.09844347 -0.006518528 -0.2110347 0.03968574
0002b0 4c 69 bd 3d 4e 92 97 ba f8 3b b5 3d 99 c1 0c 3f
       0.092485994 -0.0011563988 0.08849329 0.54982907
0002c0 2b 92 03 80 b2 fe 00 80 58 87 80 3e a6 22 00 80
       -3.27942e-40 -9.1367e-41 0.2510326 -1.243e-41
0002d0 b1 01 00 00 ab b4 00 80 db 3e 20 3e ab f8 c1 be
       6.07e-43 -6.4811e-41 0.15648977 -0.3788503
0002e0 a2 14 2e be 93 28 a4 3d ba 80 b4 bd da 88 7c 3d
       -0.17000058 0.080155514 -0.08813615 0.06165395
0002f0 42 ec ef 3d 1a f5 70 3e b5 5f 03 00 3a 6a 01 80
       0.117149845 0.23530999 3.0984e-40 -1.29942e-40
000300 41 44 45 3e 2a 1f 00 00 06 cd f6 a4 cf b0 00 80
       0.19264318 1.118e-41 -1.0703282e-16 -6.3427e-41
000310 f5 cb 89 3d 17 f4 8d bd 09 a5 c3 bc 46 25 c0 3b
       0.06728355 -0.06931322 -0.023882406 0.0058638183
000320 c5 d9 19 be 3b 35 86 3d ea 00 14 be af 88 0f be
       -0.15024479 0.06553122 -0.14453474 -0.14016984
000330 86 39 00 80 71 f6 96 a6 eb fa 5e bd 58 20 00 80
       -2.0636e-41 -1.0475139e-15 -0.054438513 -1.1603e-41
000340 ac fd 00 00 c6 a7 00 00 d3 69 2a 3e 2f f0 28 3c
       9.1e-41 6.0186e-41 0.16641931 0.0103111705
000350 a0 e6 97 be 10 e2 ca bd a0 6a a5 3e db 92 f3 3c
       -0.2966814 -0.09906399 0.3230791 0.029733112
000360 72 c3 81 3e 97 1c 29 3f 81 69 01 00 4c f6 00 80
       0.25344425 0.6605925 1.29683e-40 -8.8355e-41
000370 a4 5e 5d 3e ba 03 01 00 54 14 00 80 7e 3c 00 00
       0.21618134 9.3172e-41 -7.292e-42 2.17e-41
000380 67 25 97 be 13 a0 d5 3e 85 25 ba 3e 2b d0 82 3e
       -0.29520723 0.4172369 0.3635675 0.25549445
000390 cc 56 b6 3e c2 76 b8 3d 68 ee 40 bd b0 a7 56 bd
       0.35613096 0.09007026 -0.047102362 -0.052406013
0003a0 dc 17 00 80 90 1a 00 80 4d 25 01 3e 80 14 00 80
       -8.559e-42 -9.529e-42 0.12611885 -7.354e-42
0003b0 c4 1a bd 38 e0 c0 00 80 7c 4a 0e bd 4d 91 37 bc
       9.017208e-05 -6.919e-41 -0.034739003 -0.011204076
0003c0 df 3d 13 3c 18 44 c7 3b f4 1b 5e bb a2 bc 47 ba
       0.008986919 0.0060811155 -0.0033891173 -0.0007619356
0003d0 cb 8a 16 a3 06 84 9b ac e5 38 00 00 f4 21 01 00
       -8.160907e-18 -4.4200225e-12 2.041e-41 1.04016e-40
0003e0 3f b9 01 81 4a 02 40 b2 e6 99 00 80 b5 05 00 00
       -2.3826466e-38 -1.1176391e-08 -5.5208e-41 2.047e-42
0003f0 7a 1e ba 3d e8 8b 80 be 18 d4 e0 3d 5e b0 52 bc
       0.09087844 -0.2510674 0.10977954 -0.012859432

mlp1.bias f4 [32]
000000 f8 38 e2 3e 67 dd 4f 3e 6f e7 e1 93 34 b9 c9 3c
       0.4418409 0.20299302 -5.7026196e-27 0.024624445
000010 6a 60 e9 3e 7e a1 4b 3c f9 34 03 3f 85 2a 05 b4
       0.4558137 0.012428639 0.51252705 -1.2402059e-07
000020 ca 09 17 3d f5 19 b4 3e 45 d5 85 be 40 14 cb 3d
       0.03687457 0.35176054 -0.26139274 0.09915972
000030 1c 29 47 3b 59 c5 92 3d 61 6f 8a bd 4b 2e 2c bd
       0.0030389493 0.07166547 -0.06759525 -0.042036336
000040 3a 28 b3 bd 6a b8 a7 bc 9d db c4 bd d6 c8 2e 3a
       -0.08747907 -0.020473678 -0.096122004 0.00066675
000050 21 ce 9e be 68 97 03 bb 42 ba d4 3e a0 18 bc 3e
       -0.3101664 -0.0020079259 0.41548353 0.36737537
000060 b0 05 c0 be 43 39 05 bf 78 72 48 be 25 7c f8 be
       -0.3750434 -0.520405 -0.19574916 -0.48532215
000070 3f 3d d5 3d 44 31 c3 3d 8d 57 e8 bd 71 a1 86 bc
       0.104120724 0.09530881 -0.11344824 -0.016434403

conv1.nn.weight f4 [32, 14]
000000 6b 28 e8 bd 72 5a ae be 0b 68 de bd d3 17 90 bd
       -0.11335834 -0.3405338 -0.10859688 -0.07035794
000010 06 79 06 be 38 49 f0 bd 69 c0 06 be 3f 78 14 be
       -0.13132104 -0.11732715 -0.13159336 -0.14498995
000020 94 74 00 00 28 22 01 80 cb db 43 be 05 67 00 80
       4.182e-41 -1.04088e-40 -0.19126813 -3.6956e-41
000030 b0 68 00 00 5a d8 00 80 19 66 1e be a4 92 6b 3e
       3.7555e-41 -7.7612e-41 -0.15468635 0.23005158
000040 3d 4c 1f be 12 b2 3f 3e 02 85 73 3e ca 9e 89 bd
       -0.15556426 0.18720272 0.23781207 -0.0671974
000050 b0 3c 0e 3c f1 ec 74 3e cd 47 01 80 9b 1f bf 2a
       0.008681461 0.23918511 -1.17593e-40 3.3950346e-13
000060 c5 bb b4 3d d7 65 00 80 8c c2 00 80 1e 60 01 80
       0.08824877 -3.6533e-41 -6.979e-41 -1.26316e-40
000070 6c a5 93 ad 6d 6f dd 94 ef f4 d8 94 e3 8d 80 95
       -1.6785427e-11 -2.2359247e-26 -2.1907036e-26 -5.1922646e-26
000080 3e 2d 00 00 39 c6 3e 10 c3 12 00 80 df 6f 00 00
       1.623e-41 3.7623598e-29 -6.73e-42 4.0132e-41
000090 a6 7b 00 80 54 44 00 80 da 24 01 80 55 0c 01 80
       -4.4357e-41 -2.4512e-41 -1.05055e-40 -9.626e-41
0000a0 1a 76 bd ad 55 6a 00 00 25 00 bf be 02 d3 03 3c
       -2.153926e-11 3.8145e-41 -0.37304798 0.008045914
0000b0 2d 1b a8 3e 38 a4 e8 3e 6f 1a ca 3e 8c 9c 9a 3b
       0.32833233 0.4543779 0.39473292 0.004718369
0000c0 62 cb 0a bd fe 59 dc bd 4b 05 00 00 19 8f 00 80
       -0.033885367 -0.10759352 1.899e-42 -5.1334e-41
0000d0 84 fb f3 3d ce 04 00 80 19 16 01 80 1e aa 00 80
       0.11913207 -1.724e-42 -9.9763e-41 -6.1027e-41
0000e0 f5 6e 31 be 28 4c d0 3c 88 3f 5e 3d 61 40 7d be
       -0.17327483 0.02542694 0.054259807 -0.2473159
0000f0 a2 7c 96 be de 77 56 3b 9d 2c ae bd 2f f2 36 3d
       -0.29391962 0.0032725255 -0.08504603 0.044664558
000100 d1 bf 83 05 04 17 01 00 dc 5a 8e 3c 72 05 01 80
       1.2389643e-35 1.00092e-40 0.01737731 -9.3789e-41
000110 31 a1 00 80 3d 7f 00 80 ae e1 96 3d 38 9f 2f be
       -5.7825e-41 -4.5644e-41 0.07367264 -0.17150581
000120 56 ff 88 be 58 48 38 be 03 94 a6 be 2a c3 62 bd
       -0.26757306 -0.17996347 -0.325348 -0.055361904
000130 55 9b 84 be 58 3b 9b bd bf b0 00 80 8b 04 00 80
       -0.2589976 -0.07579678 -6.3405e-41 -1.63e-42
000140 c6 8b 6d 3d 8b 57 00 80 69 43 00 80 5b 4a 00 80
       0.057994626 -3.1404e-41 -2.4182e-41 -2.6674e-41
000150 18 5f 41 be 64 f7 a2 3c 61 ba 61 3c 7b 16 27 3c
       -0.18883932 0.019893356 0.013777346 0.010198231
000160 c3 36 b7 be 57 c9 29 bd 4a f1 f3 3b 79 da b5 be
       -0.35783967 -0.04145178 0.0074445354 -0.35518244
000170 ea 51 00 80 ea 0a 01 00 a0 fa c3 bb 10 6c 01 00
       -2.9385e-41 9.5751e-41 -0.0059808046 1.30601e-40
000180 90 4a 00 00 af 3d 73 37 bc a4 9c b9 73 23 3e 9c
       2.6748e-41 1.44982905e-05 -0.00029877375 -6.2911544e-22
000190 4e f9 a2 8a f6 10 00 00 61 01 00 00 cc 76 00 00
       -1.569381e-32 6.084e-42 4.95e-43 4.2616e-41
0001a0 12 1f 00 80 a9 22 00 00 b0 fb 00 80 fa f4 01 00
       -1.1146e-41 1.2434e-41 -9.0288e-41 1.79717e-40
0001b0 68 38 00 80 7d 43 00 00 16 af 02 00 a9 aa 00 80
       -2.0235e-41 2.421e-41 2.4648e-40 -6.1221e-41
0001c0 26 aa 2b be 50 43 eb be a4 a0 94 3e 05 c6 ec bc
       -0.16764125 -0.45949793 0.2902881 -0.028903017
0001d0 e4 be a7 bd c4 1f 24 3e 46 18 d1 3d 18 49 3e 3e
       -0.08190706 0.16027743 0.10209708 0.1858257
0001e0 e7 4c 00 00 d9 c6 00 00 96 14 f1 bd 23 9a 00 80
       2.7587e-41 7.1333e-41 -0.117715046 -5.5294e-41
0001f0 c6 21 00 80 27 80 00 80 67 5a 03 be 9f 5b 56 bd
       -1.2116e-41 -4.5972e-41 -0.12827455 -0.05233347
000200 24 c2 e1 bd 5b f9 db 3d ef e2 6a be 67 02 b3 bd
       -0.110233575 0.1074092 -0.22938131 -0.087406926
000210 93 e5 8c bd 95 a0 4d bd ca 07 3f a8 ef a4 00 00
       -0.06879725 -0.05020197 -1.0604319e-14 5.9167e-41
000220 2f da ea ba 05 c0 00 00 e2 cf 00 00 8c 1c 01 00
       -0.0017917807 6.8884e-41 7.4574e-41 1.02076e-40
000230 19 fc 3b 3e fc df 4e 3c 62 b3 b2 be 9b 6e 3e 3e
       0.18357886 0.012626644 -0.34902483 0.1859688
000240 5f e3 99 be 8d 96 6d bd 53 d0 8e be ed d5 62 be
       -0.30056283 -0.058004905 -0.27893314 -0.22151919
000250 86 76 1d 29 40 92 00 00 e0 39 e6 bd b2 0c 00 00
       3.4963806e-14 5.2465e-41 -0.112415075 4.554e-42
000260 5c 95 00 00 18 61 00 00 7e 35 88 3d bc 27 ab bc
       5.358e-41 3.483e-41 0.06650828 -0.02089297
000270 ea b2 f8 bd 8c 18 b7 bd 8d 0a 9e be f5 0e 4b 3d
       -0.121435 -0.08940229 -0.30867425 0.04957481
000280 3f 61 9c be 41 a8 40 be 69 31 01 80 15 14 00 80
       -0.30542943 -0.18814184 -1.0956e-40 -7.204e-42
000290 a8 a0 b0 bd 4e a8 00 00 49 0a 00 80 03 c4 00 80
       -0.08624393 6.0376e-41 -3.69e-42 -7.0316e-41
0002a0 bb 9c c9 3d 60 99 d5 bb 7b 19 58 be 84 8d 22 3d
       0.09844347 -0.006518528 -0.2110347 0.03968574
0002b0 4c 69 bd 3d 4e 92 97 ba f8 3b b5 3d 99 c1 0c 3f
       0.092485994 -0.0011563988 0.08849329 0.54982907
0002c0 2b 92 03 80 b2 fe 00 80 58 87 80 3e a6 22 00 80
       -3.27942e-40 -9.1367e-41 0.2510326 -1.243e-41
0002d0 b1 01 00 00 ab b4 00 80 db 3e 20 3e ab f8 c1 be
       6.07e-43 -6.4811e-41 0.15648977 -0.3788503
0002e0 a2 14 2e be 93 28 a4 3d ba 80 b4 bd da 88 7c 3d
       -0.17000058 0.080155514 -0.08813615 0.06165395
0002f0 42 ec ef 3d 1a f5 70 3e b5 5f 03 00 3a 6a 01 80
       0.117149845 0.23530999 3.0984e-40 -1.29942e-40
000300 41 44 45 3e 2a 1f 00 00 06 cd f6 a4 cf b0 00 80
       0.19264318 1.118e-41 -1.0703282e-16 -6.3427e-41
000310 f5 cb 89 3d 17 f4 8d bd 09 a5 c3 bc 46 25 c0 3b
       0.06728355 -0.06931322 -0.023882406 0.0058638183
000320 c5 d9 19 be 3b 35 86 3d ea 00 14 be af 88 0f be
       -0.15024479 0.06553122 -0.14453474 -0.14016984
000330 86 39 00 80 71 f6 96 a6 eb fa 5e bd 58 20 00 80
       -2.0636e-41 -1.0475139e-15 -0.054438513 -1.1603e-41
000340 ac fd 00 00 c6 a7 00 00 d3 69 2a 3e 2f f0 28 3c
       9.1e-41 6.0186e-41 0.16641931 0.0103111705
000350 a0 e6 97 be 10 e2 ca bd a0 6a a5 3e db 92 f3 3c
       -0.2966814 -0.09906399 0.3230791 0.029733112
000360 72 c3 81 3e 97 1c 29 3f 81 69 01 00 4c f6 00 80
       0.25344425 0.6605925 1.29683e-40 -8.8355e-41
000370 a4 5e 5d 3e ba 03 01 00 54 14 00 80 7e 3c 00 00
       0.21618134 9.3172e-41 -7.292e-42 2.17e-41
000380 67 25 97 be 13 a0 d5 3e 85 25 ba 3e 2b d0 82 3e
       -0.29520723 0.4172369 0.3635675 0.25549445
000390 cc 56 b6 3e c2 76 b8 3d 68 ee 40 bd b0 a7 56 bd
       0.35613096 0.09007026 -0.047102362 -0.052406013
0003a0 dc 17 00 80 90 1a 00 80 4d 25 01 3e 80 14 00 80
       -8.559e-42 -9.529e-42 0.12611885 -7.354e-42
0003b0 c4 1a bd 38 e0 c0 00 80 7c 4a 0e bd 4d 91 37 bc
       9.017208e-05 -6.919e-41 -0.034739003 -0.011204076
0003c0 df 3d 13 3c 18 44 c7 3b f4 1b 5e bb a2 bc 47 ba
       0.008986919 0.0060811155 -0.0033891173 -0.0007619356
0003d0 cb 8a 16 a3 06 84 9b ac e5 38 00 00 f4 21 01 00
       -8.160907e-18 -4.4200225e-12 2.041e-41 1.04016e-40
0003e0 3f b9 01 81 4a 02 40 b2 e6 99 00 80 b5 05 00 00
       -2.3826466e-38 -1.1176391e-08 -5.5208e-41 2.047e-42
0003f0 7a 1e ba 3d e8 8b 80 be 18 d4 e0 3d 5e b0 52 bc
       0.09087844 -0.2510674 0.10977954 -0.012859432

conv1.nn.bias f4 [32]
000000 f8 38 e2 3e 67 dd 4f 3e 6f e7 e1 93 34 b9 c9 3c
       0.4418409 0.20299302 -5.7026196e-27 0.024624445
000010 6a 60 e9 3e 7e a1 4b 3c f9 34 03 3f 85 2a 05 b4
       0.4558137 0.012428639 0.51252705 -1.2402059e-07
000020 ca 09 17 3d f5 19 b4 3e 45 d5 85 be 40 14 cb 3d
       0.03687457 0.35176054 -0.26139274 0.09915972
000030 1c 29 47 3b 59 c5 92 3d 61 6f 8a bd 4b 2e 2c bd
       0.0030389493 0.07166547 -0.06759525 -0.042036336
000040 3a 28 b3 bd 6a b8 a7 bc 9d db c4 bd d6 c8 2e 3a
       -0.08747907 -0.020473678 -0.096122004 0.00066675
000050 21 ce 9e be 68 97 03 bb 42 ba d4 3e a0 18 bc 3e
       -0.3101664 -0.0020079259 0.41548353 0.36737537
000060 b0 05 c0 be 43 39 05 bf 78 72 48 be 25 7c f8 be
       -0.3750434 -0.520405 -0.19574916 -0.48532215
000070 3f 3d d5 3d 44 31 c3 3d 8d 57 e8 bd 71 a1 86 bc
       0.104120724 0.09530881 -0.11344824 -0.016434403

mlp2.weight f4 [32, 32]
000000 5d 52 1a be 4b 44 92 bd b2 87 81 13 a3 1a ad 3c
       -0.15070482 -0.07141932 3.2697984e-27 0.021130865
000010 7e 97 b6 3c 18 dd 57 3d 94 e7 7a be 68 15 00 00
       0.022289034 0.052701086 -0.24502403 7.679e-42
000020 1d f2 56 3e b9 63 33 be 5b 9e 8a 3c 2c 1c 8e bb
       0.20990796 -0.1751851 0.016921213 -0.0043368544
000030 6d 38 6a 3d ea 15 d1 3d e2 a7 04 bd e6 6a bf 3d
       0.057182718 0.10209258 -0.032386668 0.09346561
000040 0c af bb 3e 71 ab 74 39 c2 03 41 3e 1c f2 80 be
       0.36656988 0.0002333352 0.1884909 -0.25184715
000050 2f 44 80 3b 6d 70 04 be bc d8 25 3c 7e fe 83 bc
       0.003914378 -0.12933512 0.010122474 -0.016112562
000060 e3 b4 44 be 77 11 13 be b2 30 95 be f0 ca 06 be
       -0.19209628 -0.14362131 -0.29138714 -0.13163352
000070 19 a5 f3 bb 56 5c d0 3c 17 eb 76 bd d1 2c 89 b9
       -0.0074354527 0.025434654 -0.060282793 -0.00026164067
000080 cb c3 88 be c5 d6 78 3d ce f4 a8 11 66 eb 51 bd
       -0.26711878 0.060751695 2.66566e-28 -0.051249884
000090 e8 81 03 bd 1c 7a f1 3c 61 a1 39 be 0d 07 00 80
       -0.03210631 0.029477172 -0.18127967 -2.53e-42
0000a0 d7 1b 8e 3e fb 64 be 3d a0 eb 94 bd 2e 1b bb bd
       0.27755615 0.09296604 -0.072715044 -0.091360435
0000b0 57 ce a2 3e 17 b3 62 3e 1c cd 44 be 3d 29 86 3e
       0.3179805 0.2213863 -0.19218868 0.26203337
0000c0 fc c3 88 bd 3e ca c9 39 88 98 98 3d 69 51 53 be
       -0.06678006 0.0003848839 0.07450968 -0.20636524
0000d0 5d b9 73 bd 3f e5 9d bc cf ff 0c 3e ce 7f 0b be
       -0.059502948 -0.019274352 0.13769458 -0.13622972
0000e0 51 cd 79 be 4c ad d7 bc 10 3a bb be 56 ea 12 bd
       -0.24394728 -0.026327752 -0.36567736 -0.03586801
0000f0 82 a8 9f bd 3a 04 9f bd 91 a1 80 bd 63 96 99 3b
       -0.07795812 -0.07764478 -0.06280816 0.004687117
000100 c3 c1 13 bd ac 97 79 bd b6 aa ee 12 1b 25 b5 3c
       -0.036073457 -0.06093566 1.5061995e-27 0.02211242
000110 6c 2b b6 3d be 5f 42 3d d5 6c 01 be 15 1c 00 80
       0.08895001 0.047454588 -0.12639172 -1.0074e-41
000120 00 9c 08 3e f8 6a c0 bd 2f e4 9a bd 8f 14 04 3d
       0.1334076 -0.09395403 -0.07563054 0.03224617
000130 da b9 82 bd 25 ef a5 3d 5e 79 0b 3e 9f 74 3e bd
       -0.063831046 0.08102254 0.13620517 -0.046497937
000140 64 4f 4d 3e 74 8f 4f 38 e4 ca 27 3e 6e 29 f6 bd
       0.20049816 4.9486247e-05 0.1638599 -0.12019621
000150 4a d3 19 3d 33 4f bd bd f7 eb 65 bc 2b b2 f7 bc
       0.037555017 -0.09243622 -0.014033309 -0.030236324
000160 e6 2c 73 bc d3 09 9c bd a4 0f e5 bd b0 f4 86 bd
       -0.014842248 -0.07619061 -0.11184624 -0.06589639
000170 b9 78 dd 3b 92 fb 85 bc ca 79 db 3a e0 6d af b8
       0.006758776 -0.01635531 0.001674467 -8.365116e-05
000180 2f f7 1f be 7c e0 25 be b8 3e 4f 05 22 8d b6 3e
       -0.15621637 -0.16198915 9.744613e-36 0.3565455
000190 35 e8 e2 be 9c cf 49 bc 8b b3 26 bf 3e 2b 1a 1f
       -0.44317785 -0.012317564 -0.6511771 3.2646538e-20
0001a0 cd 88 02 be 44 f8 9b be 11 37 a0 bd 9f 0c 93 bd
       -0.12747498 -0.3046285 -0.07823003 -0.07180142
0001b0 4e ec 35 3e bc 72 01 3e fd 9d 12 3d d5 c4 41 3e
       0.17765924 0.12641424 0.0357952 0.18922742
0001c0 3c cc 99 3e 5e 0b e4 37 02 f8 16 3b 5f 13 38 be
       0.3003863 2.7185011e-05 0.0023036008 -0.1797614
0001d0 2a 64 08 3e 57 c5 51 bd f8 91 ba be 09 b9 83 be
       0.1331946 -0.05121359 -0.3643949 -0.25727108
0001e0 05 5a 95 bd 5c dd d6 be 08 7d ff bd 9d dc ba be
       -0.072925605 -0.4196576 -0.1247502 -0.3649644
0001f0 75 00 13 3e 0d c7 82 3e e9 79 27 3d 3f d3 a6 bb
       0.14355643 0.2554249 0.040887747 -0.0050911005
000200 4f 19 c1 09 e2 09 00 80 cb ca 00 00 d4 83 c5 93
       4.648686e-33 -3.545e-42 7.2748e-41 -4.9859784e-27
000210 9c 9e d2 88 43 02 00 80 36 3d 25 8a 7b 2a 01 00
       -1.2676204e-33 -8.11e-43 -7.9559735e-33 1.07075e-40
000220 f2 0b 1c 89 4d e6 ce 08 a3 09 00 00 5a 6d 3f 09
       -1.8783434e-33 1.24523175e-33 3.457e-42 2.3042206e-33
000230 48 05 00 00 22 50 a1 89 2a 4b c6 88 b2 51 00 96
       1.895e-42 -3.8834697e-33 -1.19343625e-33 -1.0365536e-25
000240 eb e9 c9 93 38 f5 00 00 ea 03 14 8a 96 12 00 00
       -5.0970194e-27 8.7968e-41 -7.126677e-33 6.667e-42
000250 ef 94 af 08 b4 06 00 80 f3 df db 08 6c 5f a5 09
       1.05674435e-33 -2.405e-42 1.3233233e-33 3.981204e-33
000260 98 39 a8 05 1c 58 78 06 6b 26 00 80 7b f9 1f 06
       1.58198e-35 4.6708348e-35 -1.3782e-41 3.0087866e-35
000270 cf 01 05 09 4e ce 0e 0d 1d 12 00 00 97 52 02 80
       1.6010143e-33 4.400546e-31 6.498e-42 -2.13299e-40
000280 6a ff 49 3e 31 d1 3a be e4 50 59 09 03 91 48 be
       0.19726339 -0.18243863 2.615846e-33 -0.19586568
000290 fe 89 c9 3d f4 46 26 3e d1 c9 25 3e 46 1c 00 00
       0.09840773 0.16238004 0.16190268 1.0143e-41
0002a0 6e c5 4e bd 69 1e b3 3c 60 d5 2e 3e a8 be 1a 3e
       -0.050481252 0.021865087 0.17073584 0.15111792
0002b0 b4 09 2c bd b5 cf b4 bd 3a 87 8f bd cb a4 cd 3d
       -0.04200144 -0.088286795 -0.07008214 0.100411974
0002c0 4f 9a e1 bd 6d e4 44 b6 4a 67 e8 bd ea 38 8c 3d
       -0.1101576 -2.9339237e-06 -0.11347826 0.06846793
0002d0 8f aa a5 bd 96 61 ca 3a 98 f4 30 3d 2c b4 9d 3d
       -0.08089172 0.001544046 0.043202013 0.07700381
0002e0 be 49 b1 bd 23 10 20 3e 38 de 30 3c 93 3b 0e 3e
       -0.08656643 0.15631156 0.010795169 0.13889913
0002f0 a3 45 36 3d 09 2f ec bd 78 ca 0a be c5 5e a0 3b
       0.044500005 -0.11532409 -0.13553798 0.00489411
000300 22 07 9b bb bf 1b f5 bb c1 0b 00 80 2d a2 51 ba
       -0.004731075 -0.007480114 -4.217e-42 -0.00079968834
000310 7e d2 dc ba 59 ff b3 bb d5 bb 74 bb 3b 1e 34 a7
       -0.00168474 -0.0054930863 -0.0037343402 -2.4996406e-15
000320 c9 f8 1e 37 a9 2b 13 b8 e5 d7 56 bc 9c 86 60 bc
       9.475459e-06 -3.5088193e-05 -0.013112997 -0.013703968
000330 36 4c 98 bc e1 b2 9e bc 68 9a 99 bb f2 27 d1 bc
       -0.018591028 -0.019372405 -0.004687596 -0.025531743
000340 90 90 16 ba d1 a0 95 0d 3d 67 77 bc 46 c9 dd bb
       -0.00057435874 9.221549e-31 -0.0151002975 -0.0067683784
000350 57 11 07 bc b5 3d dd 24 9e 05 d8 b9 9f 31 cb ba
       -0.00824388 9.594801e-17 -0.00041202916 -0.0015502459
000360 5b d0 95 b3 47 e1 0c b1 c4 d6 e6 bb f6 46 91 b1
       -6.976253e-08 -2.0500737e-09 -0.007044645 -4.2281227e-09
000370 83 76 06 ae 69 14 a7 bb d5 bd 6f b5 de 77 87 90
       -3.0573332e-11 -0.0050988686 -8.931068e-07 -5.3432796e-29
000380 dd 2c 7d be 98 cd 88 bb 68 70 72 85 28 d1 a2 3e
       -0.24724145 -0.0041748993 -1.1399431e-35 0.318002
000390 b9 41 e8 be 2d 1f d1 bd 3f a2 0a bf 7e b0 27 10
       -0.45362642 -0.102110244 -0.5415382 3.3070907e-29
0003a0 5c be 29 be a5 67 0b be 07 29 e7 3d 33 10 9f 3d
       -0.16576523 -0.13613756 0.11287122 0.07766762
0003b0 e5 10 aa bc b4 60 25 3e 00 55 94 3c 90 20 b9 3c
       -0.020760009 0.1615017 0.018106937 0.022598535
0003c0 25 e3 99 3e 23 5f cf b9 ef 66 0a 3e 9a 8f 0c be
       0.3005611 -0.00039553 0.13515829 -0.13726655
0003d0 ed 7e 70 bd d5 e4 00 bd c1 fe 85 be 54 73 88 be
       -0.058714796 -0.03146823 -0.26170924 -0.26650488
0003e0 ae bb 32 3c 74 ab ab be 90 4d 0a be 77 5f 8e be
       0.010909004 -0.33529246 -0.1350615 -0.2780721
0003f0 5e a0 34 3d ed e5 54 3e 05 23 8f 3d bd 6d 6e bb
       0.04409825 0.20790835 0.06989101 -0.0036381327

mlp2.bias f4 [32]
000000 fe 01 dc 3d f6 4c 21 3e 69 c4 3c bc df a0 7f 3d
       0.107425675 0.15752015 -0.011521437 0.062409278
000010 63 07 d1 89 fa f7 6e bd 1a 36 b3 bc ad b1 d6 3d
       -5.0321866e-33 -0.058341958 -0.021876384 0.10483108
000020 89 f0 46 bd fc f4 fe b3 ce 73 8d bb fd 0b a3 bd
       -0.048569236 -1.1872359e-07 -0.0043167835 -0.07961271
000030 b8 e6 ef 3d 06 b8 3b 3e 08 2c f4 bc 6a 08 96 bd
       0.11713928 0.18331918 -0.029806152 -0.073258236
000040 4d fc d1 bd 8b fc ab 3b 66 13 b0 9c 6e 46 fa 3d
       -0.10253201 0.0052486113 -1.1651717e-21 0.12220465
000050 f1 d3 a3 3d d5 0e 01 3e f4 f0 53 be 7f 59 02 3e
       0.07999409 0.12603314 -0.20697385 0.12729453
000060 91 9d c4 bd a7 65 cd 3c f0 d7 e9 3d 5d 3d 2c bf
       -0.09600366 0.025072886 0.1141814 -0.6728113
000070 76 5b 35 bd 4f 79 57 3e f8 b1 40 3d 80 06 42 3e
       -0.044276677 0.2104237 0.047044724 0.18947792

conv2.nn.weight f4 [32, 32]
000000 5d 52 1a be 4b 44 92 bd b2 87 81 13 a3 1a ad 3c
       -0.15070482 -0.07141932 3.2697984e-27 0.021130865
000010 7e 97 b6 3c 18 dd 57 3d 94 e7 7a be 68 15 00 00
       0.022289034 0.052701086 -0.24502403 7.679e-42
000020 1d f2 56 3e b9 63 33 be 5b 9e 8a 3c 2c 1c 8e bb
       0.20990796 -0.1751851 0.016921213 -0.0043368544
000030 6d 38 6a 3d ea 15 d1 3d e2 a7 04 bd e6 6a bf 3d
       0.057182718 0.10209258 -0.032386668 0.09346561
000040 0c af bb 3e 71 ab 74 39 c2 03 41 3e 1c f2 80 be
       0.36656988 0.0002333352 0.1884909 -0.25184715
000050 2f 44 80 3b 6d 70 04 be bc d8 25 3c 7e fe 83 bc
       0.003914378 -0.12933512 0.010122474 -0.016112562
000060 e3 b4 44 be 77 11 13 be b2 30 95 be f0 ca 06 be
       -0.19209628 -0.14362131 -0.29138714 -0.13163352
000070 19 a5 f3 bb 56 5c d0 3c 17 eb 76 bd d1 2c 89 b9
       -0.0074354527 0.025434654 -0.060282793 -0.00026164067
000080 cb c3 88 be c5 d6 78 3d ce f4 a8 11 66 eb 51 bd
       -0.26711878 0.060751695 2.66566e-28 -0.051249884
000090 e8 81 03 bd 1c 7a f1 3c 61 a1 39 be 0d 07 00 80
       -0.03210631 0.029477172 -0.18127967 -2.53e-42
0000a0 d7 1b 8e 3e fb 64 be 3d a0 eb 94 bd 2e 1b bb bd
       0.27755615 0.09296604 -0.072715044 -0.091360435
0000b0 57 ce a2 3e 17 b3 62 3e 1c cd 44 be 3d 29 86 3e
       0.3179805 0.2213863 -0.19218868 0.26203337
0000c0 fc c3 88 bd 3e ca c9 39 88 98 98 3d 69 51 53 be
       -0.06678006 0.0003848839 0.07450968 -0.20636524
0000d0 5d b9 73 bd 3f e5 9d bc cf ff 0c 3e ce 7f 0b be
       -0.059502948 -0.019274352 0.13769458 -0.13622972
0000e0 51 cd 79 be 4c ad d7 bc 10 3a bb be 56 ea 12 bd
       -0.24394728 -0.026327752 -0.36567736 -0.03586801
0000f0 82 a8 9f bd 3a 04 9f bd 91 a1 80 bd 63 96 99 3b
       -0.07795812 -0.07764478 -0.06280816 0.004687117
000100 c3 c1 13 bd ac 97 79 bd b6 aa ee 12 1b 25 b5 3c
       -0.036073457 -0.06093566 1.5061995e-27 0.02211242
000110 6c 2b b6 3d be 5f 42 3d d5 6c 01 be 15 1c 00 80
       0.08895001 0.047454588 -0.12639172 -1.0074e-41
000120 00 9c 08 3e f8 6a c0 bd 2f e4 9a bd 8f 14 04 3d
       0.1334076 -0.09395403 -0.07563054 0.03224617
000130 da b9 82 bd 25 ef a5 3d 5e 79 0b 3e 9f 74 3e bd
       -0.063831046 0.08102254 0.13620517 -0.046497937
000140 64 4f 4d 3e 74 8f 4f 38 e4 ca 27 3e 6e 29 f6 bd
       0.20049816 4.9486247e-05 0.1638599 -0.12019621
000150 4a d3 19 3d 33 4f bd bd f7 eb 65 bc 2b b2 f7 bc
       0.037555017 -0.09243622 -0.014033309 -0.030236324
000160 e6 2c 73 bc d3 09 9c bd a4 0f e5 bd b0 f4 86 bd
       -0.014842248 -0.07619061 -0.11184624 -0.06589639
000170 b9 78 dd 3b 92 fb 85 bc ca 79 db 3a e0 6d af b8
       0.006758776 -0.01635531 0.001674467 -8.365116e-05
000180 2f f7 1f be 7c e0 25 be b8 3e 4f 05 22 8d b6 3e
       -0.15621637 -0.16198915 9.744613e-36 0.3565455
000190 35 e8 e2 be 9c cf 49 bc 8b b3 26 bf 3e 2b 1a 1f
       -0.44317785 -0.012317564 -0.6511771 3.2646538e-20
0001a0 cd 88 02 be 44 f8 9b be 11 37 a0 bd 9f 0c 93 bd
       -0.12747498 -0.3046285 -0.07823003 -0.07180142
0001b0 4e ec 35 3e bc 72 01 3e fd 9d 12 3d d5 c4 41 3e
       0.17765924 0.12641424 0.0357952 0.18922742
0001c0 3c cc 99 3e 5e 0b e4 37 02 f8 16 3b 5f 13 38 be
       0.3003863 2.7185011e-05 0.0023036008 -0.1797614
0001d0 2a 64 08 3e 57 c5 51 bd f8 91 ba be 09 b9 83 be
       0.1331946 -0.05121359 -0.3643949 -0.25727108
0001e0 05 5a 95 bd 5c dd d6 be 08 7d ff bd 9d dc ba be
       -0.072925605 -0.4196576 -0.1247502 -0.3649644
0001f0 75 00 13 3e 0d c7 82 3e e9 79 27 3d 3f d3 a6 bb
       0.14355643 0.2554249 0.040887747 -0.0050911005
000200 4f 19 c1 09 e2 09 00 80 cb ca 00 00 d4 83 c5 93
       4.648686e-33 -3.545e-42 7.2748e-41 -4.9859784e-27
000210 9c 9e d2 88 43 02 00 80 36 3d 25 8a 7b 2a 01 00
       -1.2676204e-33 -8.11e-43 -7.9559735e-33 1.07075e-40
000220 f2 0b 1c 89 4d e6 ce 08 a3 09 00 00 5a 6d 3f 09
       -1.8783434e-33 1.24523175e-33 3.457e-42 2.3042206e-33
000230 48 05 00 00 22 50 a1 89 2a 4b c6 88 b2 51 00 96
       1.895e-42 -3.8834697e-33 -1.19343625e-33 -1.0365536e-25
000240 eb e9 c9 93 38 f5 00 00 ea 03 14 8a 96 12 00 00
       -5.0970194e-27 8.7968e-41 -7.126677e-33 6.667e-42
000250 ef 94 af 08 b4 06 00 80 f3 df db 08 6c 5f a5 09
       1.05674435e-33 -2.405e-42 1.3233233e-33 3.981204e-33
000260 98 39 a8 05 1c 58 78 06 6b 26 00 80 7b f9 1f 06
       1.58198e-35 4.6708348e-35 -1.3782e-41 3.0087866e-35
000270 cf 01 05 09 4e ce 0e 0d 1d 12 00 00 97 52 02 80
       1.6010143e-33 4.400546e-31 6.498e-42 -2.13299e-40
000280 6a ff 49 3e 31 d1 3a be e4 50 59 09 03 91 48 be
       0.19726339 -0.18243863 2.615846e-33 -0.19586568
000290 fe 89 c9 3d f4 46 26 3e d1 c9 25 3e 46 1c 00 00
       0.09840773 0.16238004 0.16190268 1.0143e-41
0002a0 6e c5 4e bd 69 1e b3 3c 60 d5 2e 3e a8 be 1a 3e
       -0.050481252 0.021865087 0.17073584 0.15111792
0002b0 b4 09 2c bd b5 cf b4 bd 3a 87 8f bd cb a4 cd 3d
       -0.04200144 -0.088286795 -0.07008214 0.100411974
0002c0 4f 9a e1 bd 6d e4 44 b6 4a 67 e8 bd ea 38 8c 3d
       -0.1101576 -2.9339237e-06 -0.11347826 0.06846793
0002d0 8f aa a5 bd 96 61 ca 3a 98 f4 30 3d 2c b4 9d 3d
       -0.08089172 0.001544046 0.043202013 0.07700381
0002e0 be 49 b1 bd 23 10 20 3e 38 de 30 3c 93 3b 0e 3e
       -0.08656643 0.15631156 0.010795169 0.13889913
0002f0 a3 45 36 3d 09 2f ec bd 78 ca 0a be c5 5e a0 3b
       0.044500005 -0.11532409 -0.13553798 0.00489411
000300 22 07 9b bb bf 1b f5 bb c1 0b 00 80 2d a2 51 ba
       -0.004731075 -0.007480114 -4.217e-42 -0.00079968834
000310 7e d2 dc ba 59 ff b3 bb d5 bb 74 bb 3b 1e 34 a7
       -0.00168474 -0.0054930863 -0.0037343402 -2.4996406e-15
000320 c9 f8 1e 37 a9 2b 13 b8 e5 d7 56 bc 9c 86 60 bc
       9.475459e-06 -3.5088193e-05 -0.013112997 -0.013703968
000330 36 4c 98 bc e1 b2 9e bc 68 9a 99 bb f2 27 d1 bc
       -0.018591028 -0.019372405 -0.004687596 -0.025531743
000340 90 90 16 ba d1 a0 95 0d 3d 67 77 bc 46 c9 dd bb
       -0.00057435874 9.221549e-31 -0.0151002975 -0.0067683784
000350 57 11 07 bc b5 3d dd 24 9e 05 d8 b9 9f 31 cb ba
       -0.00824388 9.594801e-17 -0.00041202916 -0.0015502459
000360 5b d0 95 b3 47 e1 0c b1 c4 d6 e6 bb f6 46 91 b1
       -6.976253e-08 -2.0500737e-09 -0.007044645 -4.2281227e-09
000370 83 76 06 ae 69 14 a7 bb d5 bd 6f b5 de 77 87 90
       -3.0573332e-11 -0.0050988686 -8.931068e-07 -5.3432796e-29
000380 dd 2c 7d be 98 cd 88 bb 68 70 72 85 28 d1 a2 3e
       -0.24724145 -0.0041748993 -1.1399431e-35 0.318002
000390 b9 41 e8 be 2d 1f d1 bd 3f a2 0a bf 7e b0 27 10
       -0.45362642 -0.102110244 -0.5415382 3.3070907e-29
0003a0 5c be 29 be a5 67 0b be 07 29 e7 3d 33 10 9f 3d
       -0.16576523 -0.13613756 0.11287122 0.07766762
0003b0 e5 10 aa bc b4 60 25 3e 00 55 94 3c 90 20 b9 3c
       -0.020760009 0.1615017 0.018106937 0.022598535
0003c0 25 e3 99 3e 23 5f cf b9 ef 66 0a 3e 9a 8f 0c be
       0.3005611 -0.00039553 0.13515829 -0.13726655
0003d0 ed 7e 70 bd d5 e4 00 bd c1 fe 85 be 54 73 88 be
       -0.058714796 -0.03146823 -0.26170924 -0.26650488
0003e0 ae bb 32 3c 74 ab ab be 90 4d 0a be 77 5f 8e be
       0.010909004 -0.33529246 -0.1350615 -0.2780721
0003f0 5e a0 34 3d ed e5 54 3e 05 23 8f 3d bd 6d 6e bb
       0.04409825 0.20790835 0.06989101 -0.0036381327

conv2.nn.bias f4 [32]
000000 fe 01 dc 3d f6 4c 21 3e 69 c4 3c bc df a0 7f 3d
       0.107425675 0.15752015 -0.011521437 0.062409278
000010 63 07 d1 89 fa f7 6e bd 1a 36 b3 bc ad b1 d6 3d
       -5.0321866e-33 -0.058341958 -0.021876384 0.10483108
000020 89 f0 46 bd fc f4 fe b3 ce 73 8d bb fd 0b a3 bd
       -0.048569236 -1.1872359e-07 -0.0043167835 -0.07961271
000030 b8 e6 ef 3d 06 b8 3b 3e 08 2c f4 bc 6a 08 96 bd
       0.11713928 0.18331918 -0.029806152 -0.073258236
000040 4d fc d1 bd 8b fc ab 3b 66 13 b0 9c 6e 46 fa 3d
       -0.10253201 0.0052486113 -1.1651717e-21 0.12220465
000050 f1 d3 a3 3d d5 0e 01 3e f4 f0 53 be 7f 59 02 3e
       0.07999409 0.12603314 -0.20697385 0.12729453
000060 91 9d c4 bd a7 65 cd 3c f0 d7 e9 3d 5d 3d 2c bf
       -0.09600366 0.025072886 0.1141814 -0.6728113
000070 76 5b 35 bd 4f 79 57 3e f8 b1 40 3d 80 06 42 3e
       -0.044276677 0.2104237 0.047044724 0.18947792

mlp3.weight f4 [32, 32]
000000 89 f3 10 be 9e c3 1d be 53 c0 f6 bb 63 1d 09 be
       -0.14155401 -0.15406653 -0.007530251 -0.13390116
000010 bf 02 d0 88 e2 a7 2a 3e a7 d9 d9 ba 5b 5b c7 bd
       -1.251919e-33 0.16665605 -0.0016620652 -0.097342215
000020 f0 65 2f 3e ad a0 5f 9b 78 01 9c b9 a9 05 c9 bd
       0.1712873 -1.8498045e-22 -0.00029755733 -0.09815533
000030 a6 58 e6 3d ec 70 00 3e b5 3d b6 3d 29 12 a6 3d
       0.11247377 0.12543076 0.088984884 0.081089325
000040 3b 14 05 bd 14 13 8d 38 62 26 00 80 ae 6f 0a bd
       -0.032489996 6.7269575e-05 -1.3769e-41 -0.033797912
000050 ba c0 31 be ac 51 9a bc 80 f4 97 3d 8e 8f 7d 3d
       -0.17358676 -0.018837772 0.074196815 0.061904483
000060 94 d2 89 be e2 a9 78 3e 7e c5 69 3e 1e f2 4d 3e
       -0.2691847 0.24283555 0.22829244 0.20111892
000070 df 91 07 be 7a a2 4d 3d e7 15 f9 3d ab f1 fb 3d
       -0.13239239 0.050203778 0.12162381 0.12301954
000080 b6 bb 46 3e b4 ea 6f 3e fa da bc 3d 7d 19 e2 bd
       0.19407544 0.23429376 0.09221454 -0.11040018
000090 b8 3a 3a 89 06 56 04 bd 55 e1 23 3c 95 e6 a3 bc
       -2.2416545e-33 -0.0323086 0.010002454 -0.020007411
0000a0 66 0b a8 3d 56 64 ee 2b f5 65 c5 3a c7 9b 9f be
       0.08205299 1.6938766e-12 0.0015060293 -0.31173536
0000b0 68 8f 4c 3e 2f d7 05 3d c0 75 a7 3d f1 dd 7e bd
       0.1997658 0.03267592 0.08176756 -0.06222338
0000c0 89 18 91 be 26 4e fb 3b 0a 26 00 80 ac 2d 56 3d
       -0.2833903 0.007669228 -1.3646e-41 0.05228965
0000d0 49 ef 0a be b7 ff 80 bd 77 ac 96 be 04 33 07 bd
       -0.13567843 -0.06298774 -0.29428455 -0.033007637
0000e0 ea 71 89 3e de db c6 3d a8 dc a6 bd de 04 34 3e
       0.26844722 0.09709905 -0.081475556 0.17579982
0000f0 8c 18 52 be d7 27 ef 3a ed a0 09 3d 9f c4 36 3e
       -0.20517176 0.0018246126 0.033600736 0.17848442
000100 3b 59 de 3c 66 df 50 3e c2 eb 87 3c 5e bd 46 ba
       0.027142158 0.2039772 0.01659191 -0.00075813185
000110 08 38 b3 08 7a 0b 71 3d 58 a1 e1 3a 8a 47 d1 bd
       1.07863435e-33 0.058848836 0.0017214222 -0.10218723
000120 4c c1 c1 3d c6 55 d4 1e 1f da cd 3a 41 aa 0b 3a
       0.094606966 2.2481848e-20 0.0015705264 0.0005327799
000130 ac ac 00 3e 82 54 79 bd c6 4c 16 3d bf 26 c1 3c
       0.12565869 -0.06087161 0.03669431 0.023578046
000140 05 22 c2 bd e1 bc 7a 3a ea 23 00 00 2f 7a 0a 3e
       -0.09479145 0.00095648883 1.2884e-41 0.13523172
000150 47 1a 14 bc 5e f7 f2 bd 31 2d 80 bd 98 fe 09 bd
       -0.009039468 -0.11863588 -0.062586196 -0.033690065
000160 f8 5e ec 3d 78 21 49 3d a5 3b f2 3d 0c 6e b5 3e
       0.11541551 0.049104184 0.118277825 0.35435522
000170 30 e9 31 bd 6b e6 35 bc 9c 56 b9 3d 92 33 fb 3a
       -0.043435276 -0.011102299 0.090497226 0.001916515
000180 14 a6 18 3e 68 ec 54 3d 4b 36 1b 3e 06 78 9b 3e
       0.14907104 0.051983267 0.1515743 0.30365008
000190 f8 bb 26 87 c9 78 16 be e3 f7 00 bc 13 b6 b1 3e
       -1.2543691e-34 -0.14694513 -0.007871601 0.34709224
0001a0 6d 1f 86 be 82 03 18 b1 8b 8d fc bb 69 bc d6 3e
       -0.2619585 -2.2120905e-09 -0.007707303 0.4194062
0001b0 37 fa 7f bc 7e 48 13 be 21 73 91 be f7 ec 19 be
       -0.015623621 -0.14383122 -0.2840815 -0.15031801
0001c0 42 6b 72 3e 7f 7c 8e 3c 6a 0a 00 00 79 02 f8 3d
       0.23673728 0.017393349 3.736e-42 0.121098466
0001d0 bf e0 89 3e 16 5e af 3e 8b d5 be 3c 94 78 c2 be
       0.2692928 0.3425147 0.023295185 -0.3798262
0001e0 50 bb ed bd 62 0d 0a bf b4 57 72 be 43 8a b7 bf
       -0.11607993 -0.5392667 -0.23666269 -1.4339069
0001f0 32 f8 c1 3e 99 d9 19 bd ed 83 f4 bd 2b 1c b9 be
       0.3788467 -0.037561033 -0.11939225 -0.36154303
000200 b4 cd 13 3e 72 4b 30 3e 55 f5 e9 3d a8 60 c8 3e
       0.14433938 0.1721628 0.114237465 0.39136243
000210 f1 84 a1 85 50 80 54 be 58 5b e9 bb 54 9c a0 3e
       -1.5189202e-35 -0.20752072 -0.0071214847 0.3136927
000220 4f 1c a7 be dc 2e 54 af 89 66 e4 bb 8e 49 e2 3e
       -0.32638785 -1.9297935e-10 -0.006970231 0.44196743
000230 e5 a8 ce bd 0c 1a e4 bc 0a 0e 9b be 22 e0 fe bd
       -0.10090808 -0.027844451 -0.30284148 -0.12445094
000240 1f 11 43 3e 34 4a 4b bc 46 01 00 00 05 3b 4d 3e
       0.190495 -0.012407828 4.57e-43 0.20042045
000250 9a 5c 2a 3e 4f 62 b7 3e 64 bc 1e bd 86 ce b1 be
       0.16636887 0.3581719 -0.038753882 -0.34727877
000260 f2 1f a1 bd d5 2a 14 bf b7 32 89 be cc 8b aa bf
       -0.07867421 -0.57877856 -0.26796505 -1.3323913
000270 5d 74 8f 3e 8d 3c 09 3c 0a c4 cd bd 1f 92 98 be
       0.28018466 0.008376253 -0.10047157 -0.29798982
000280 8a 44 75 3d 81 20 47 3d ab 35 01 3d 88 5c 1c bd
       0.059879817 0.048614983 0.031545322 -0.038174182
000290 e8 39 01 08 e4 2e 2e bd 8d da 42 39 92 ae 5b bd
       3.8887594e-34 -0.042525187 0.00018582698 -0.05363328
0002a0 1b 30 54 3d 43 d9 99 82 0d 5f c8 39 77 d8 10 bd
       0.05180369 -2.2606032e-37 0.0003821779 -0.035362687
0002b0 6f 2a 95 3d 67 8a 41 bd 31 ef 4c 3d f8 0a d4 3c
       0.07283484 -0.04725113 0.0500328 0.025884137
0002c0 8c 29 6d 3c ca 44 f2 39 72 11 00 80 55 79 d6 3d
       0.014475238 0.0004620909 -6.258e-42 0.10472361
0002d0 16 ba 26 3d 8b df a1 bd 2d 77 4d bd f3 1c 4e bd
       0.04070481 -0.079039656 -0.050162483 -0.050320577
0002e0 6d 55 81 3d 6d b0 56 3c 88 26 a2 3d e1 09 4e 3e
       0.06315122 0.013103587 0.079175055 0.20120956
0002f0 c9 e0 81 bd d5 4e 72 3d 44 35 14 3d 2a 03 17 3a
       -0.063417025 0.05915721 0.03618361 0.00057606644
000300 ac 10 14 b0 65 75 08 b5 11 3b 00 80 c1 b0 68 a7
       -5.386578e-10 -5.083478e-07 -2.1189e-41 -3.2292286e-15
000310 4a 1c 93 2b 90 0f 11 a0 07 3d 00 80 17 f7 cf a3
       1.045283e-12 -1.2287127e-19 -2.1892e-41 -2.2547632e-17
000320 94 09 51 ab 59 be b2 35 a8 07 a3 af 5a 99 bf a7
       -7.426501e-13 1.3317432e-06 -2.9654967e-10 -5.3179414e-15
000330 a6 12 21 b0 a3 2a 24 04 40 65 0f 8b 5f 43 6b 0e
       -5.859796e-10 1.9297685e-36 -2.761697e-32 2.8998424e-30
000340 ca 69 0b 9f 32 68 00 80 50 90 eb 9b 0b 21 4e a3
       -2.95219e-20 -3.7378e-41 -3.8970749e-22 -1.11742795e-17
000350 60 7a 65 a8 1c 15 00 80 90 0c 00 80 51 31 2e ad
       -1.27385895e-14 -7.573e-42 -4.507e-42 -9.901705e-12
000360 d0 22 00 80 3a 71 0b 00 ff b6 f0 ab 8b 1a 00 00
       -1.2488e-41 1.050808e-39 -1.7103817e-12 9.522e-42
000370 05 c9 13 a4 de 6d a7 03 3f a7 19 a3 ca 0e 5e 91
       -3.2045814e-17 9.840602e-37 -8.329562e-18 -1.7517269e-28
000380 77 c8 fa bc 01 85 3e be 4d b9 2b bd 3c 12 13 be
       -0.030613167 -0.18605424 -0.041924763 -0.14362425
000390 3b 1f 8e 09 6d 83 0c 3e 55 8a 3d bb b1 5d fc bd
       3.4214626e-33 0.1372201 -0.0028921564 -0.12322558
0003a0 b4 cd d0 3d 4a 49 35 a1 65 7f 26 ba 21 bb d5 bd
       0.10195485 -6.1422183e-19 -0.0006351381 -0.10436083
0003b0 51 5c 09 3d 17 88 ed 3d 10 66 7b 3d 19 8d a5 3d
       0.033535305 0.11598223 0.06137663 0.08083553
0003c0 39 1f 4b bd a6 ef 81 b9 a5 0b 00 80 76 30 74 bd
       -0.049590323 -0.0002478335 -4.177e-42 -0.05961653
0003d0 e4 71 51 be 98 ab 7d bc 8b 37 de 3d c6 0f 3f 3e
       -0.20453602 -0.015482806 0.10850438 0.18658361
0003e0 4d 83 ae be a4 d5 8d 3e 50 bf 49 3e d2 76 5d 3e
       -0.3408455 0.27702057 0.19701886 0.21627358
0003f0 b7 64 17 be e0 2e 5b 3d f3 4c 39 3e c2 3c 5a 3e
       -0.14784513 0.0535115 0.1809576 0.2131224

mlp3.bias f4 [32]
000000 4a 63 f8 bd ac ce 33 3e a4 b8 90 3d 6f 41 0f be
       -0.12128313 0.17559308 0.070664674 -0.13989805
000010 a5 6b 5a be 6f 07 29 3e 99 de d0 a6 9c 83 aa bd
       -0.21330126 0.16506742 -1.4493235e-15 -0.08325884
000020 03 c0 13 be a9 96 7d b9 10 96 7e be 35 61 fc ad
       -0.14428715 -0.00024184085 -0.24861932 -2.8692252e-11
000030 05 f3 81 88 6b 58 1c 83 04 9f 61 be dc eb 06 3e
       -7.821039e-34 -4.594578e-37 -0.22033316 0.1317591
000040 84 8f 06 b6 3e 1f ac b0 5f 7a cf bd cf 3b c3 3d
       -2.0051093e-06 -1.2523527e-09 -0.10130762 0.09532892
000050 b4 70 94 3c e5 b5 70 be 0f 62 c6 3d e7 de ca ab
       0.018120147 -0.23506887 0.09686672 -1.4414831e-12
000060 b4 db ba 3e de ab 6f b8 b4 3c e0 b9 9b e0 0f a3
       0.36495745 -5.7142104e-05 -0.00042769837 -7.799608e-18
000070 9b 48 2b be 95 84 b5 98 3a 90 2e b8 fa 42 d5 3e
       -0.16726916 -4.6921277e-24 -4.1619154e-05 0.41652662

conv3.nn.weight f4 [32, 32]
000000 89 f3 10 be 9e c3 1d be 53 c0 f6 bb 63 1d 09 be
       -0.14155401 -0.15406653 -0.007530251 -0.13390116
000010 bf 02 d0 88 e2 a7 2a 3e a7 d9 d9 ba 5b 5b c7 bd
       -1.251919e-33 0.16665605 -0.0016620652 -0.097342215
000020 f0 65 2f 3e ad a0 5f 9b 78 01 9c b9 a9 05 c9 bd
       0.1712873 -1.8498045e-22 -0.00029755733 -0.09815533
000030 a6 58 e6 3d ec 70 00 3e b5 3d b6 3d 29 12 a6 3d
       0.11247377 0.12543076 0.088984884 0.081089325
000040 3b 14 05 bd 14 13 8d 38 62 26 00 80 ae 6f 0a bd
       -0.032489996 6.7269575e-05 -1.3769e-41 -0.033797912
000050 ba c0 31 be ac 51 9a bc 80 f4 97 3d 8e 8f 7d 3d
       -0.17358676 -0.018837772 0.074196815 0.061904483
000060 94 d2 89 be e2 a9 78 3e 7e c5 69 3e 1e f2 4d 3e
       -0.2691847 0.24283555 0.22829244 0.20111892
000070 df 91 07 be 7a a2 4d 3d e7 15 f9 3d ab f1 fb 3d
       -0.13239239 0.050203778 0.12162381 0.12301954
000080 b6 bb 46 3e b4 ea 6f 3e fa da bc 3d 7d 19 e2 bd
       0.19407544 0.23429376 0.09221454 -0.11040018
000090 b8 3a 3a 89 06 56 04 bd 55 e1 23 3c 95 e6 a3 bc
       -2.2416545e-33 -0.0323086 0.010002454 -0.020007411
0000a0 66 0b a8 3d 56 64 ee 2b f5 65 c5 3a c7 9b 9f be
       0.08205299 1.6938766e-12 0.0015060293 -0.31173536
0000b0 68 8f 4c 3e 2f d7 05 3d c0 75 a7 3d f1 dd 7e bd
       0.1997658 0.03267592 0.08176756 -0.06222338
0000c0 89 18 91 be 26 4e fb 3b 0a 26 00 80 ac 2d 56 3d
       -0.2833903 0.007669228 -1.3646e-41 0.05228965
0000d0 49 ef 0a be b7 ff 80 bd 77 ac 96 be 04 33 07 bd
       -0.13567843 -0.06298774 -0.29428455 -0.033007637
0000e0 ea 71 89 3e de db c6 3d a8 dc a6 bd de 04 34 3e
       0.26844722 0.09709905 -0.081475556 0.17579982
0000f0 8c 18 52 be d7 27 ef 3a ed a0 09 3d 9f c4 36 3e
       -0.20517176 0.0018246126 0.033600736 0.17848442
000100 3b 59 de 3c 66 df 50 3e c2 eb 87 3c 5e bd 46 ba
       0.027142158 0.2039772 0.01659191 -0.00075813185
000110 08 38 b3 08 7a 0b 71 3d 58 a1 e1 3a 8a 47 d1 bd
       1.07863435e-33 0.058848836 0.0017214222 -0.10218723
000120 4c c1 c1 3d c6 55 d4 1e 1f da cd 3a 41 aa 0b 3a
       0.094606966 2.2481848e-20 0.0015705264 0.0005327799
000130 ac ac 00 3e 82 54 79 bd c6 4c 16 3d bf 26 c1 3c
       0.12565869 -0.06087161 0.03669431 0.023578046
000140 05 22 c2 bd e1 bc 7a 3a ea 23 00 00 2f 7a 0a 3e
       -0.09479145 0.00095648883 1.2884e-41 0.13523172
000150 47 1a 14 bc 5e f7 f2 bd 31 2d 80 bd 98 fe 09 bd
       -0.009039468 -0.11863588 -0.062586196 -0.033690065
000160 f8 5e ec 3d 78 21 49 3d a5 3b f2 3d 0c 6e b5 3e
       0.11541551 0.049104184 0.118277825 0.35435522
000170 30 e9 31 bd 6b e6 35 bc 9c 56 b9 3d 92 33 fb 3a
       -0.043435276 -0.011102299 0.090497226 0.001916515
000180 14 a6 18 3e 68 ec 54 3d 4b 36 1b 3e 06 78 9b 3e
       0.14907104 0.051983267 0.1515743 0.30365008
000190 f8 bb 26 87 c9 78 16 be e3 f7 00 bc 13 b6 b1 3e
       -1.2543691e-34 -0.14694513 -0.007871601 0.34709224
0001a0 6d 1f 86 be 82 03 18 b1 8b 8d fc bb 69 bc d6 3e
       -0.2619585 -2.2120905e-09 -0.007707303 0.4194062
0001b0 37 fa 7f bc 7e 48 13 be 21 73 91 be f7 ec 19 be
       -0.015623621 -0.14383122 -0.2840815 -0.15031801
0001c0 42 6b 72 3e 7f 7c 8e 3c 6a 0a 00 00 79 02 f8 3d
       0.23673728 0.017393349 3.736e-42 0.121098466
0001d0 bf e0 89 3e 16 5e af 3e 8b d5 be 3c 94 78 c2 be
       0.2692928 0.3425147 0.023295185 -0.3798262
0001e0 50 bb ed bd 62 0d 0a bf b4 57 72 be 43 8a b7 bf
       -0.11607993 -0.5392667 -0.23666269 -1.4339069
0001f0 32 f8 c1 3e 99 d9 19 bd ed 83 f4 bd 2b 1c b9 be
       0.3788467 -0.037561033 -0.11939225 -0.36154303
000200 b4 cd 13 3e 72 4b 30 3e 55 f5 e9 3d a8 60 c8 3e
       0.14433938 0.1721628 0.114237465 0.39136243
000210 f1 84 a1 85 50 80 54 be 58 5b e9 bb 54 9c a0 3e
       -1.5189202e-35 -0.20752072 -0.0071214847 0.3136927
000220 4f 1c a7 be dc 2e 54 af 89 66 e4 bb 8e 49 e2 3e
       -0.32638785 -1.9297935e-10 -0.006970231 0.44196743
000230 e5 a8 ce bd 0c 1a e4 bc 0a 0e 9b be 22 e0 fe bd
       -0.10090808 -0.027844451 -0.30284148 -0.12445094
000240 1f 11 43 3e 34 4a 4b bc 46 01 00 00 05 3b 4d 3e
       0.190495 -0.012407828 4.57e-43 0.20042045
000250 9a 5c 2a 3e 4f 62 b7 3e 64 bc 1e bd 86 ce b1 be
       0.16636887 0.3581719 -0.038753882 -0.34727877
000260 f2 1f a1 bd d5 2a 14 bf b7 32 89 be cc 8b aa bf
       -0.07867421 -0.57877856 -0.26796505 -1.3323913
000270 5d 74 8f 3e 8d 3c 09 3c 0a c4 cd bd 1f 92 98 be
       0.28018466 0.008376253 -0.10047157 -0.29798982
000280 8a 44 75 3d 81 20 47 3d ab 35 01 3d 88 5c 1c bd
       0.059879817 0.048614983 0.031545322 -0.038174182
000290 e8 39 01 08 e4 2e 2e bd 8d da 42 39 92 ae 5b bd
       3.8887594e-34 -0.042525187 0.00018582698 -0.05363328
0002a0 1b 30 54 3d 43 d9 99 82 0d 5f c8 39 77 d8 10 bd
       0.05180369 -2.2606032e-37 0.0003821779 -0.035362687
0002b0 6f 2a 95 3d 67 8a 41 bd 31 ef 4c 3d f8 0a d4 3c
       0.07283484 -0.04725113 0.0500328 0.025884137
0002c0 8c 29 6d 3c ca 44 f2 39 72 11 00 80 55 79 d6 3d
       0.014475238 0.0004620909 -6.258e-42 0.10472361
0002d0 16 ba 26 3d 8b df a1 bd 2d 77 4d bd f3 1c 4e bd
       0.04070481 -0.079039656 -0.050162483 -0.050320577
0002e0 6d 55 81 3d 6d b0 56 3c 88 26 a2 3d e1 09 4e 3e
       0.06315122 0.013103587 0.079175055 0.20120956
0002f0 c9 e0 81 bd d5 4e 72 3d 44 35 14 3d 2a 03 17 3a
       -0.063417025 0.05915721 0.03618361 0.00057606644
000300 ac 10 14 b0 65 75 08 b5 11 3b 00 80 c1 b0 68 a7
       -5.386578e-10 -5.083478e-07 -2.1189e-41 -3.2292286e-15
000310 4a 1c 93 2b 90 0f 11 a0 07 3d 00 80 17 f7 cf a3
       1.045283e-12 -1.2287127e-19 -2.1892e-41 -2.2547632e-17
000320 94 09 51 ab 59 be b2 35 a8 07 a3 af 5a 99 bf a7
       -7.426501e-13 1.3317432e-06 -2.9654967e-10 -5.3179414e-15
000330 a6 12 21 b0 a3 2a 24 04 40 65 0f 8b 5f 43 6b 0e
       -5.859796e-10 1.9297685e-36 -2.761697e-32 2.8998424e-30
000340 ca 69 0b 9f 32 68 00 80 50 90 eb 9b 0b 21 4e a3
       -2.95219e-20 -3.7378e-41 -3.8970749e-22 -1.11742795e-17
000350 60 7a 65 a8 1c 15 00 80 90 0c 00 80 51 31 2e ad
       -1.27385895e-14 -7.573e-42 -4.507e-42 -9.901705e-12
000360 d0 22 00 80 3a 71 0b 00 ff b6 f0 ab 8b 1a 00 00
       -1.2488e-41 1.050808e-39 -1.7103817e-12 9.522e-42
000370 05 c9 13 a4 de 6d a7 03 3f a7 19 a3 ca 0e 5e 91
       -3.2045814e-17 9.840602e-37 -8.329562e-18 -1.7517269e-28
000380 77 c8 fa bc 01 85 3e be 4d b9 2b bd 3c 12 13 be
       -0.030613167 -0.18605424 -0.041924763 -0.14362425
000390 3b 1f 8e 09 6d 83 0c 3e 55 8a 3d bb b1 5d fc bd
       3.4214626e-33 0.1372201 -0.0028921564 -0.12322558
0003a0 b4 cd d0 3d 4a 49 35 a1 65 7f 26 ba 21 bb d5 bd
       0.10195485 -6.1422183e-19 -0.0006351381 -0.10436083
0003b0 51 5c 09 3d 17 88 ed 3d 10 66 7b 3d 19 8d a5 3d
       0.033535305 0.11598223 0.06137663 0.08083553
0003c0 39 1f 4b bd a6 ef 81 b9 a5 0b 00 80 76 30 74 bd
       -0.049590323 -0.0002478335 -4.177e-42 -0.05961653
0003d0 e4 71 51 be 98 ab 7d bc 8b 37 de 3d c6 0f 3f 3e
       -0.20453602 -0.015482806 0.10850438 0.18658361
0003e0 4d 83 ae be a4 d5 8d 3e 50 bf 49 3e d2 76 5d 3e
       -0.3408455 0.27702057 0.19701886 0.21627358
0003f0 b7 64 17 be e0 2e 5b 3d f3 4c 39 3e c2 3c 5a 3e
       -0.14784513 0.0535115 0.1809576 0.2131224

conv3.nn.bias f4 [32]
000000 4a 63 f8 bd ac ce 33 3e a4 b8 90 3d 6f 41 0f be
       -0.12128313 0.17559308 0.070664674 -0.13989805
000010 a5 6b 5a be 6f 07 29 3e 99 de d0 a6 9c 83 aa bd
       -0.21330126 0.16506742 -1.4493235e-15 -0.08325884
000020 03 c0 13 be a9 96 7d b9 10 96 7e be 35 61 fc ad
       -0.14428715 -0.00024184085 -0.24861932 -2.8692252e-11
000030 05 f3 81 88 6b 58 1c 83 04 9f 61 be dc eb 06 3e
       -7.821039e-34 -4.594578e-37 -0.22033316 0.1317591
000040 84 8f 06 b6 3e 1f ac b0 5f 7a cf bd cf 3b c3 3d
       -2.0051093e-06 -1.2523527e-09 -0.10130762 0.09532892
000050 b4 70 94 3c e5 b5 70 be 0f 62 c6 3d e7 de ca ab
       0.018120147 -0.23506887 0.09686672 -1.4414831e-12
000060 b4 db ba 3e de ab 6f b8 b4 3c e0 b9 9b e0 0f a3
       0.36495745 -5.7142104e-05 -0.00042769837 -7.799608e-18
000070 9b 48 2b be 95 84 b5 98 3a 90 2e b8 fa 42 d5 3e
       -0.16726916 -4.6921277e-24 -4.1619154e-05 0.41652662

lin.weight f4 [2, 32]
000000 bb ae 96 be a0 76 b5 3e 2f 2c 35 3e d5 78 3f bf
       -0.29430184 0.35442066 0.17692636 -0.7479375
000010 9d 1e 48 bf cd 08 6e 3d 55 d9 11 bb 66 45 e1 be
       -0.7817171 0.05811386 -0.0022254784 -0.4399826
000020 ad b4 25 bf eb fd 09 3b 3d 98 5d bf 32 db db 39
       -0.64728814 0.0021055888 -0.8656042 0.00041934248
000030 e0 94 85 34 c7 65 27 b8 64 89 25 bf 6e 1e d1 3d
       2.48815e-07 -3.991069e-05 -0.64662766 0.10210882
000040 2e 74 59 37 15 7c 1e 3b f2 ec ba be e9 e3 a2 3e
       1.2961258e-05 0.0024182845 -0.365089 0.31814507
000050 55 d1 97 3d e5 f8 38 3f fa bf 47 3e 33 2f 72 bb
       0.07412974 0.7225478 0.19506827 -0.0036954402
000060 a9 85 10 3f 51 f7 00 38 fb a0 99 3c 31 f7 fa 35
       0.5645395 3.074791e-05 0.01875352 1.8698394e-06
000070 37 78 54 bf 17 05 11 35 a6 2d d8 3a a7 3c bd 3e
       -0.82995933 5.4024116e-07 0.0016493096 0.36960337
000080 7e 6a b4 3e f7 66 c7 be 22 36 fc bd 98 18 54 3f
       0.35237497 -0.38945743 -0.123150125 0.8285003
000090 de 81 2b 3f f7 8d fa bd 5d d9 11 3b 46 6e 9e 3e
       0.66995037 -0.12234109 0.0022254803 0.30943507
0000a0 7f 1e 32 3f e5 fd 09 bb e2 52 43 3f ee da db b9
       0.69577783 -0.0021055874 0.76298344 -0.0004193405
0000b0 d0 94 85 b4 26 66 27 38 7a c8 66 3f ba d7 06 be
       -2.4881456e-07 3.9911036e-05 0.9014965 -0.1316823
0000c0 70 5c 59 b7 fe 7b 1e bb 2f d3 8e 3e 82 d7 8e be
       -1.295573e-05 -0.0024182792 0.27895495 -0.27898794
0000d0 f1 0b ec bd 31 92 21 bf be 0e 92 be 45 2f 72 3b
       -0.11525715 -0.63113695 -0.28526872 0.0036954444
0000e0 44 ba ef be 43 f7 00 b8 ec a0 99 bc e3 f3 fa b5
       -0.46821797 -3.074786e-05 -0.018753491 -1.8697432e-06
0000f0 72 cf 4e 3f 30 05 11 b5 9b 2d d8 ba be 79 f7 be
       0.80785286 -5.402426e-07 -0.0016493084 -0.4833507

lin.bias f4 [2]
000000 aa 61 92 3d ce 05 35 be
       0.07147534 -0.17677996
