formal/model_homophily.pth (torch, 5131 bytes, 12 tensors)

mlp_gin1.weight f4 [16, 11]
-0.013280084 -0.12088507 0.2531928 -0.120472796 0.11791274 -0.09298815 0.06520027 -0.012391499
-0.26861656 0.18369842 -0.12066022 -0.0029763673 0.06540729 -0.1854515 -0.122518644 0.3994
-0.09787402 0.0227588 0.14404345 -0.43799645 0.1468533 -0.08474425 0.097522184 -0.026686138
-0.10927776 -0.001965972 0.013765425 -0.018528484 0.0507506 -0.06252522 -0.37092254 -0.00058393367
-0.1710065 -0.12286182 0.013610229 -0.11672762 -0.0732488 0.50061125 -0.039720185 0.090763874
-0.011633943 -0.4959907 0.049894925 0.27174997 0.18966278 0.09330755 0.15470341 -0.16741689
-0.22902358 0.08273576 0.104560785 -0.023222612 0.61732566 0.008442704 -0.13909853 0.0718966
-0.12426994 0.2169141 0.077683486 -0.3247269 0.10216553 -0.18867448 0.05028261 -0.023414457
-0.13652463 -0.35614836 -0.18395482 -0.014003113 -0.1887383 0.0013656957 0.14171393 -0.007813126
-0.012982857 -0.024407266 0.2715364 -0.010307567 -0.13587917 0.22790444 0.011053443 -0.04513812
0.090521105 -0.14443037 -0.09546967 0.010869706 0.07209078 -0.12911144 0.12638673 0.057902817
0.015190709 -0.004558589 0.2240842 0.009911587 -0.026315004 -0.07015216 0.0061832177 0.006420497
-0.0073644463 0.013946957 0.28485295 -0.11951842 0.14814226 0.24819995 0.10321706 0.023961544
0.2433092 0.24091135 -6.5292e-05 -0.06008678 0.063645996 -0.33031955 -0.2083651 -0.10163934
-0.10541216 -0.027128616 -0.21861194 0.17426659 -0.30739683 -0.013568243 -0.16118136 -0.055875722
0.31935003 -0.051477645 0.2811488 0.065138645 0.028746327 -0.11076297 -0.124893814 -0.23593648
-0.074943595 0.04927591 -0.013765211 -0.049764518 0.26115653 -0.10341176 0.12671961 0.05361516
0.16262707 -0.15488288 0.016639557 -0.12764212 0.08617042 -0.12489474 0.18685532 -0.15377966
-0.006777678 -0.073774464 -0.09070301 0.013887533 0.15820308 0.09831271 0.1248931 0.16561581
-0.2869496 0.21448068 -0.004889837 -0.13871035 -0.04806547 0.12451552 0.06470657 0.11494896
-0.073468186 0.08945063 -0.1591222 0.0382797 -0.34905896 0.37885207 -0.020450111 0.08819303
0.03284349 0.06244605 -0.1702831 0.034354582 0.029907165 -0.37773064 0.20890121 -0.20019874
00000000: b694 59bc 9792 f7bd 7da2 813e 71ba f6bd
00000010: 3c7c f13d 9270 bebd b887 853d b705 4bbc
00000020: 1c88 89be 701b 3c3e b51c f7bd 280f 43bb
00000030: 42f4 853d ffe6 3dbe 0eeb fabd 287e cc3e
00000040: 2d72 c8bd aa70 ba3c 2080 133e 1241 e0be
00000050: b660 163e 658e adbd b6b9 c73d e39c dabc
00000060: 05cd dfbd 89d7 00bb 6188 613c 0cc9 97bc
00000070: dcdf 4f3d 390d 80bd 8fe9 bdbe 2013 19ba
00000080: 541c 2fbe fa9e fbbd 70fd 5e3c e40e efbd
00000090: 7803 96bd 0f28 003f a2b1 22bd 69e2 b93d
000000a0: 4b9c 3ebc 7ef2 fdbe 9f5e 4c3d d022 8b3e
000000b0: f636 423e 0718 bf3d 926a 1e3e 556f 2bbe
000000c0: 2885 6abe 5e71 a93d f723 d63d 593d bebc
000000d0: 0e09 1e3f 4453 0a3c d86f 0ebe 863e 933d
000000e0: 3d81 febd bb1e 5e3e 8518 9f3d 9b42 a6be
000000f0: 293c d13d e233 41be 23f5 4d3d adcf bfbc
00000100: 1dcd 0bbe 1459 b6be a75e 3cbe 506d 65bc
00000110: 9d44 41be 2501 b33a 751d 113e a002 00bc
00000120: 0db6 54bc bff1 c7bc d206 8b3e 12e1 28bc
00000130: e923 0bbe c85f 693e 8019 353c c0e2 38bd
00000140: 2163 b93d 8ee5 13be 9a85 c3bd da16 323c
00000150: 55a4 933d ca35 04be 866b 013e 812b 6d3d
00000160: 74e2 783c 3760 95bb 5476 653e 3664 223c
00000170: 9092 d7bc f0ab 8fbd 979c ca3b 0863 d23b
00000180: 7451 f1bb c781 643c 3fd8 913e 13c6 f4bd
00000190: 9bb2 173e 2128 7e3e 7763 d33d 004b c43c
000001a0: 0c26 793e 77b1 763e 60ed 88b8 8e1d 76bd
000001b0: d558 823d a51f a9be a95d 55be 4928 d0bd
000001c0: 55e2 d7bd d53c debc cfdb 5fbe f172 323e
000001d0: 1e63 9dbe 564d 5ebc ba0c 25be f1dd 64bd
000001e0: d981 a33e 39da 52bd bcf2 8f3e 6967 853d
000001f0: 6b7d eb3c b2d7 e2bd 54c8 ffbd 5599 71be
00000200: 077c 99bd 89d5 493d 7b87 61bc e1d5 4bbd
00000210: 4fb6 853e 8bc9 d3bd c9c2 013e 929b 5b3d
00000220: b687 263e 9e99 1ebe ae4f 883c 9eb4 02be
00000230: 1e7a b03d d0c8 ffbd 0057 3f3e 6a78 1dbe
00000240: 4917 debb 1117 97bd 80c2 b9bd 8988 633c
00000250: fdff 213e 2d58 c93d f4c7 ff3d 3197 293e
00000260: 0feb 92be d3a0 5b3e ed3a a0bb 160a 0ebe
00000270: 4ce0 44bd fe01 ff3d e184 843d 5c6a eb3d
00000280: 7d76 96bd e431 b73d eef0 22be 2dcb 1c3d
00000290: dbb7 b2be e6f8 c13e fe86 a7bc 8c9e b43d
000002a0: e586 063d 6ec7 7f3d b15e 2ebe 64b7 0c3d
000002b0: dfff f43c e965 c1be 33ea 553e e600 4dbe

mlp_gin1.bias f4 [16]
0.3974211 0.12852941 0.9472517 -0.32231802 0.27626598 -0.28141606 0.44291115 0.4463822
0.65519416 0.12261114 0.1662394 -0.20645568 -0.37658173 -0.13281347 -0.2822995 -0.31485686
00000000: c77a cb3e 379d 033e 167f 723f de06 a5be
00000010: bc72 8d3e c415 90be 40c5 e23e 358c e43e
00000020: ceba 273f 8d1b fb3d a93a 2a3e 1e69 53be
00000030: 52cf c0be 4100 08be 8f89 90be eb34 a1be

gin1.nn.weight f4 [16, 11]
-0.013280084 -0.12088507 0.2531928 -0.120472796 0.11791274 -0.09298815 0.06520027 -0.012391499
-0.26861656 0.18369842 -0.12066022 -0.0029763673 0.06540729 -0.1854515 -0.122518644 0.3994
-0.09787402 0.0227588 0.14404345 -0.43799645 0.1468533 -0.08474425 0.097522184 -0.026686138
-0.10927776 -0.001965972 0.013765425 -0.018528484 0.0507506 -0.06252522 -0.37092254 -0.00058393367
-0.1710065 -0.12286182 0.013610229 -0.11672762 -0.0732488 0.50061125 -0.039720185 0.090763874
-0.011633943 -0.4959907 0.049894925 0.27174997 0.18966278 0.09330755 0.15470341 -0.16741689
-0.22902358 0.08273576 0.104560785 -0.023222612 0.61732566 0.008442704 -0.13909853 0.0718966
-0.12426994 0.2169141 0.077683486 -0.3247269 0.10216553 -0.18867448 0.05028261 -0.023414457
-0.13652463 -0.35614836 -0.18395482 -0.014003113 -0.1887383 0.0013656957 0.14171393 -0.007813126
-0.012982857 -0.024407266 0.2715364 -0.010307567 -0.13587917 0.22790444 0.011053443 -0.04513812
0.090521105 -0.14443037 -0.09546967 0.010869706 0.07209078 -0.12911144 0.12638673 0.057902817
0.015190709 -0.004558589 0.2240842 0.009911587 -0.026315004 -0.07015216 0.0061832177 0.006420497
-0.0073644463 0.013946957 0.28485295 -0.11951842 0.14814226 0.24819995 0.10321706 0.023961544
0.2433092 0.24091135 -6.5292e-05 -0.06008678 0.063645996 -0.33031955 -0.2083651 -0.10163934
-0.10541216 -0.027128616 -0.21861194 0.17426659 -0.30739683 -0.013568243 -0.16118136 -0.055875722
0.31935003 -0.051477645 0.2811488 0.065138645 0.028746327 -0.11076297 -0.124893814 -0.23593648
-0.074943595 0.04927591 -0.013765211 -0.049764518 0.26115653 -0.10341176 0.12671961 0.05361516
0.16262707 -0.15488288 0.016639557 -0.12764212 0.08617042 -0.12489474 0.18685532 -0.15377966
-0.006777678 -0.073774464 -0.09070301 0.013887533 0.15820308 0.09831271 0.1248931 0.16561581
-0.2869496 0.21448068 -0.004889837 -0.13871035 -0.04806547 0.12451552 0.06470657 0.11494896
-0.073468186 0.08945063 -0.1591222 0.0382797 -0.34905896 0.37885207 -0.020450111 0.08819303
0.03284349 0.06244605 -0.1702831 0.034354582 0.029907165 -0.37773064 0.20890121 -0.20019874
00000000: b694 59bc 9792 f7bd 7da2 813e 71ba f6bd
00000010: 3c7c f13d 9270 bebd b887 853d b705 4bbc
00000020: 1c88 89be 701b 3c3e b51c f7bd 280f 43bb
00000030: 42f4 853d ffe6 3dbe 0eeb fabd 287e cc3e
00000040: 2d72 c8bd aa70 ba3c 2080 133e 1241 e0be
00000050: b660 163e 658e adbd b6b9 c73d e39c dabc
00000060: 05cd dfbd 89d7 00bb 6188 613c 0cc9 97bc
00000070: dcdf 4f3d 390d 80bd 8fe9 bdbe 2013 19ba
00000080: 541c 2fbe fa9e fbbd 70fd 5e3c e40e efbd
00000090: 7803 96bd 0f28 003f a2b1 22bd 69e2 b93d
000000a0: 4b9c 3ebc 7ef2 fdbe 9f5e 4c3d d022 8b3e
000000b0: f636 423e 0718 bf3d 926a 1e3e 556f 2bbe
000000c0: 2885 6abe 5e71 a93d f723 d63d 593d bebc
000000d0: 0e09 1e3f 4453 0a3c d86f 0ebe 863e 933d
000000e0: 3d81 febd bb1e 5e3e 8518 9f3d 9b42 a6be
000000f0: 293c d13d e233 41be 23f5 4d3d adcf bfbc
00000100: 1dcd 0bbe 1459 b6be a75e 3cbe 506d 65bc
00000110: 9d44 41be 2501 b33a 751d 113e a002 00bc
00000120: 0db6 54bc bff1 c7bc d206 8b3e 12e1 28bc
00000130: e923 0bbe c85f 693e 8019 353c c0e2 38bd
00000140: 2163 b93d 8ee5 13be 9a85 c3bd da16 323c
00000150: 55a4 933d ca35 04be 866b 013e 812b 6d3d
00000160: 74e2 783c 3760 95bb 5476 653e 3664 223c
00000170: 9092 d7bc f0ab 8fbd 979c ca3b 0863 d23b
00000180: 7451 f1bb c781 643c 3fd8 913e 13c6 f4bd
00000190: 9bb2 173e 2128 7e3e 7763 d33d 004b c43c
000001a0: 0c26 793e 77b1 763e 60ed 88b8 8e1d 76bd
000001b0: d558 823d a51f a9be a95d 55be 4928 d0bd
000001c0: 55e2 d7bd d53c debc cfdb 5fbe f172 323e
000001d0: 1e63 9dbe 564d 5ebc ba0c 25be f1dd 64bd
000001e0: d981 a33e 39da 52bd bcf2 8f3e 6967 853d
000001f0: 6b7d eb3c b2d7 e2bd 54c8 ffbd 5599 71be
00000200: 077c 99bd 89d5 493d 7b87 61bc e1d5 4bbd
00000210: 4fb6 853e 8bc9 d3bd c9c2 013e 929b 5b3d
00000220: b687 263e 9e99 1ebe ae4f 883c 9eb4 02be
00000230: 1e7a b03d d0c8 ffbd 0057 3f3e 6a78 1dbe
00000240: 4917 debb 1117 97bd 80c2 b9bd 8988 633c
00000250: fdff 213e 2d58 c93d f4c7 ff3d 3197 293e
00000260: 0feb 92be d3a0 5b3e ed3a a0bb 160a 0ebe
00000270: 4ce0 44bd fe01 ff3d e184 843d 5c6a eb3d
00000280: 7d76 96bd e431 b73d eef0 22be 2dcb 1c3d
00000290: dbb7 b2be e6f8 c13e fe86 a7bc 8c9e b43d
000002a0: e586 063d 6ec7 7f3d b15e 2ebe 64b7 0c3d
000002b0: dfff f43c e965 c1be 33ea 553e e600 4dbe

gin1.nn.bias f4 [16]
0.3974211 0.12852941 0.9472517 -0.32231802 0.27626598 -0.28141606 0.44291115 0.4463822
0.65519416 0.12261114 0.1662394 -0.20645568 -0.37658173 -0.13281347 -0.2822995 -0.31485686
00000000: c77a cb3e 379d 033e 167f 723f de06 a5be
00000010: bc72 8d3e c415 90be 40c5 e23e 358c e43e
00000020: ceba 273f 8d1b fb3d a93a 2a3e 1e69 53be
00000030: 52cf c0be 4100 08be 8f89 90be eb34 a1be

mlp_gin2.weight f4 [16, 16]
0.13155349 -0.3648322 0.001780035 -0.045643777 0.0200259 0.19775163 0.045034133 -0.106802806
-0.20851025 -0.16067213 -0.16312142 0.060950782 0.02927507 0.22654499 0.16833965 -0.099940315
0.16740476 -0.13273235 -0.11224001 0.12571435 -0.12540802 -0.13145582 0.10195477 0.19676553
0.16863182 0.10338223 -0.0291899 -0.08454493 0.053786784 -0.31026766 -0.015197269 -0.104784876
0.05452032 0.11519251 0.05207848 0.077911034 0.24495155 0.05034448 0.11535388 0.06938579
-0.020289844 -0.2186748 -0.12980326 -0.13916732 0.073213376 0.043554034 0.17272578 0.017963137
0.08312434 -0.19836496 -0.22770573 -0.024842931 0.12269123 -0.34509215 -0.0042350437 -0.3394772
-0.2922633 -0.3015977 0.007104659 -0.104920596 -0.09864346 0.102103174 0.07214763 0.046431065
0.2748956 -0.32159406 -0.4822927 -0.113195196 -0.3310956 0.283286 -0.056527693 0.21237496
-0.13776828 0.17632629 -0.0025317026 -0.030473499 -0.52739716 -0.18655188 -0.46052927 -0.41947582
-0.07508334 -0.00860387 -0.07604377 -0.112923525 -0.26447806 -0.28855655 0.0685956 -0.18291919
0.010575434 -0.15114082 0.15607898 -0.19864121 -0.1391015 -0.003983356 -0.052099075 0.039373565
0.09781545 -0.063715376 -0.3984534 0.07883773 -0.23291256 0.26455352 -0.021396967 0.15820722
-0.16363925 -0.1383173 -0.2761957 0.17640318 -0.10408459 0.15371567 0.26801547 -0.21269703
0.17810628 0.22179498 0.23938972 -0.1537123 0.21206236 0.03676923 0.22880426 0.14045131
0.03771696 -0.16618599 -0.14596388 -0.04685748 0.056878775 0.17932692 0.22907057 -0.20835729
-0.046222635 0.22282256 -0.24098964 -0.20539938 -0.058600057 -0.18309312 0.04552846 0.0029454485
0.10825359 0.091026776 -0.2085367 -0.028756494 0.13454328 9.99904e-05 -0.20661536 -0.3042344
-0.00718107 -0.14310168 0.05536441 -0.28376496 -0.20103322 0.06946774 -0.0084037855 -0.2804729
-0.11202562 -0.06725361 -0.28813303 0.2155354 -0.15390192 0.07510711 0.11246908 0.1650437
-0.23417832 -0.1714595 0.20867145 -0.31401664 -0.15853369 -0.13241048 0.17297944 0.077636816
-0.07750768 -0.11535617 0.10564083 0.052129366 0.15758106 0.00811403 0.010965805 -0.09478952
-0.1493082 -0.07834321 -0.13806902 0.22753023 -0.020455638 0.1192087 0.23000064 -0.15274183
0.025893891 -0.17377777 0.052477766 -0.20663966 0.17799361 0.04630293 0.049304586 -0.14654602
-0.18642561 -0.091064304 0.095522314 -0.3386209 -0.20205289 0.11376695 0.19443043 0.014210368
-0.028896514 0.14905123 -0.06100069 0.07788539 -0.038500786 0.103930585 -0.07013356 -0.015094933
0.04588865 0.017515093 -0.11344234 -0.042925324 -0.044295277 0.0032474222 -0.17310046 -0.056934528
-0.18051268 0.005996898 -0.040967688 0.027607586 0.05444835 -0.013269349 0.031543285 0.023391347
0.023886092 0.13097553 -0.01277395 -0.19401859 -0.08390353 -0.20003523 -0.056545902 -0.0889423
-0.20961373 0.19088992 0.16433784 0.16611579 0.1929994 -0.13517459 0.08482855 -0.021219663
0.0918261 0.14031051 0.17979088 -0.14841223 -0.34842137 -0.04916 0.08107639 0.031581122
-0.17296623 -0.029135896 0.059892043 -0.120954216 0.13748299 0.08801398 0.07633655 -0.25195345
00000000: f5b5 063e 49cb babe 1050 e93a f8f4 3abd
00000010: 5b0d a43c 677f 4a3e b675 383d 6ebb dabd
00000020: b683 55be 3c87 24be 4d09 27be 87a7 793d
00000030: 46d2 ef3c 69fb 673e 3b61 2c3e 82ad ccbd
00000040: 276c 2b3e fdea 07be 17de e5bd 43bb 003e
00000050: f66a 00be 5b9c 06be aacd d03d e77c 493e
00000060: d2ad 2c3e 10ba d33d a81f efbc e425 adbd
00000070: 884f 5c3d 67db 9ebe f7fd 78bc 7499 d6bd
00000080: b350 5f3d 0dea eb3d 3f50 553d d28f 9f3d
00000090: 94d4 7a3e 0336 4e3d a83e ec3d 231a 8e3d
000000a0: e336 a6bc 49ec 5fbe 25eb 04be e181 0ebe
000000b0: e5f0 953d b765 323d 07df 303e 6e27 933c
000000c0: 183d aa3d 2f20 4bbe b12b 69be 6783 cbbc
000000d0: 8a45 fb3d ebaf b0be 1fc6 8abb f5cf adbe
000000e0: 89a3 95be 046b 9abe 33ce e83b 9ce0 d6bd
000000f0: 9505 cabd 781b d13d 23c2 933d 802e 3e3d
00000100: 1ebf 8c3e faa7 a4be 12ef f6be e2d2 e7bd
00000110: 5d85 a9be dd0a 913e 9589 67bd d278 593e
00000120: 2113 0dbe e18e 343e ecea 25bb 8fa3 f9bc
00000130: 8003 07bf 7507 3fbe 7eca ebbe 89c5 d6be
00000140: 4bc5 99bd 3ff7 0cbc d6bc 9bbd 7344 e7bd
00000150: ab69 87be afbd 93be da7b 8c3d 2b4f 3bbe
00000160: 9644 2d3c a9c4 1abe 2bd3 1f3e 9a68 4bbe
00000170: a070 0ebe d086 82bb d765 55bd 2d46 213d
00000180: 7753 c83d 357d 82bd 1602 ccbe ad75 a13d
00000190: a180 6ebe 8f73 873e b148 afbc 1301 223e
000001a0: 0c91 27be 0da3 0dbe 8669 8dbe 09a3 343e
000001b0: 4d2a d5bd a467 1d3e 5339 893e 40cd 59be
000001c0: 7e61 363e 391e 633e 9422 753e c266 1dbe
000001d0: e026 593e 559b 163d aa4b 6a3e 78d2 0f3e
000001e0: 197d 1a3d a92c 2abe 8e77 15be a1ed 3fbd
000001f0: b8f9 683d 7aa1 373e 7a91 6a3e 9d5b 55be
00000200: f253 3dbd 992b 643e fdc5 76be 3754 52be
00000210: 9d06 70bd c37c 3bbe 0d7c 3a3d 6d08 413b
00000220: 0fb4 dd3d 3f6c ba3d a58a 55be bd92 ebbc
00000230: b7c5 093e f0b1 d138 fa92 53be 9cc4 9bbe
00000240: 2e4f ebbb 3f89 12be cbc5 623d a449 91be
00000250: a7db 4dbe 1a45 8e3d 08b0 09bc 259a 8fbe
00000260: b06d e5bd 43bc 89bd 2c86 93be 50b5 5c3e
00000270: 7798 1dbe c2d1 993d 3056 e63d 3701 293e
00000280: 71cc 6fbe 1493 2fbe f8ad 553e cac6 a0be
00000290: a856 22be 9d96 07be 8621 313e 0d00 9f3d
000002a0: 59bc 9ebd db3f ecbd 385a d83d 9a85 553d
000002b0: ee5c 213e b5f0 043c eba9 333c 0221 c2bd
000002c0: 40e4 18be 6872 a0bd f761 0dbe affd 683e
000002d0: 9592 a7bc b123 f43d 4a85 6b3e 5b68 1cbe
000002e0: 6d1f d43c cdf2 31be edf2 563d 5999 53be
000002f0: f543 363e 24a8 3d3d 9bf3 493d 2910 16be
00000300: 5be6 3ebe ec7f babd 34a1 c33d b85f adbe
00000310: f4e6 4ebe a6fe e83d c518 473e 9ad2 683c
00000320: 62b8 ecbc e3a0 183e dcdb 79bd 6082 9f3d
00000330: 00b3 1dbd 8fd9 d43d 2fa2 8fbd bd50 77bc
00000340: bdf5 3b3d d07b 8f3c 7554 e8bd 77d2 2fbd
00000350: f76e 35bd b4d2 543b 3f41 31be 2e34 69bd
00000360: 51d8 38be a081 c43b bccd 27bd 4e29 e23c
00000370: 3c05 5f3d af67 59bc 8833 013d 369f bf3c
00000380: c4ac c33c 731e 063e d449 51bc cfac 46be
00000390: 9dd5 abbd 09d6 4cbe ad9c 67bd 6127 b6bd
000003a0: fba4 56be a678 433e 2e48 283e 421a 2a3e
000003b0: a2a1 453e 356b 0abe 97ba ad3d dcd4 adbc
000003c0: 530f bc3d 8fad 0f3e 1a1b 383e 60f9 17be
000003d0: 4964 b2be ff5b 49bd 610b a63d 355b 013d
000003e0: 0f1e 31be 67ae eebc 5c51 753d d8b6 f7bd
000003f0: 57c8 0c3e ac40 b43d 5656 9c3d 0b00 81be

mlp_gin2.bias f4 [16]
0.009683017 -0.22506632 0.26146048 -0.24771476 0.07407792 0.13327806 -0.49856225 -0.4773743
0.69354105 0.10252559 0.073980354 -0.12439354 -0.7037001 2.7198284 -0.11041928 0.043736342
00000000: 84a5 1e3c c977 66be 26de 853e f0a8 7dbe
00000010: 2ab6 973d 0b7a 083e 8d43 ffbe 676a f4be
00000020: e88b 313f f0f8 d13d 0383 973d 0ac2 febd
00000030: b125 34bf ab11 2e40 8123 e2bd e124 333d

gin2.nn.weight f4 [16, 16]
0.13155349 -0.3648322 0.001780035 -0.045643777 0.0200259 0.19775163 0.045034133 -0.106802806
-0.20851025 -0.16067213 -0.16312142 0.060950782 0.02927507 0.22654499 0.16833965 -0.099940315
0.16740476 -0.13273235 -0.11224001 0.12571435 -0.12540802 -0.13145582 0.10195477 0.19676553
0.16863182 0.10338223 -0.0291899 -0.08454493 0.053786784 -0.31026766 -0.015197269 -0.104784876
0.05452032 0.11519251 0.05207848 0.077911034 0.24495155 0.05034448 0.11535388 0.06938579
-0.020289844 -0.2186748 -0.12980326 -0.13916732 0.073213376 0.043554034 0.17272578 0.017963137
0.08312434 -0.19836496 -0.22770573 -0.024842931 0.12269123 -0.34509215 -0.0042350437 -0.3394772
-0.2922633 -0.3015977 0.007104659 -0.104920596 -0.09864346 0.102103174 0.07214763 0.046431065
0.2748956 -0.32159406 -0.4822927 -0.113195196 -0.3310956 0.283286 -0.056527693 0.21237496
-0.13776828 0.17632629 -0.0025317026 -0.030473499 -0.52739716 -0.18655188 -0.46052927 -0.41947582
-0.07508334 -0.00860387 -0.07604377 -0.112923525 -0.26447806 -0.28855655 0.0685956 -0.18291919
0.010575434 -0.15114082 0.15607898 -0.19864121 -0.1391015 -0.003983356 -0.052099075 0.039373565
0.09781545 -0.063715376 -0.3984534 0.07883773 -0.23291256 0.26455352 -0.021396967 0.15820722
-0.16363925 -0.1383173 -0.2761957 0.17640318 -0.10408459 0.15371567 0.26801547 -0.21269703
0.17810628 0.22179498 0.23938972 -0.1537123 0.21206236 0.03676923 0.22880426 0.14045131
0.03771696 -0.16618599 -0.14596388 -0.04685748 0.056878775 0.17932692 0.22907057 -0.20835729
-0.046222635 0.22282256 -0.24098964 -0.20539938 -0.058600057 -0.18309312 0.04552846 0.0029454485
0.10825359 0.091026776 -0.2085367 -0.028756494 0.13454328 9.99904e-05 -0.20661536 -0.3042344
-0.00718107 -0.14310168 0.05536441 -0.28376496 -0.20103322 0.06946774 -0.0084037855 -0.2804729
-0.11202562 -0.06725361 -0.28813303 0.2155354 -0.15390192 0.07510711 0.11246908 0.1650437
-0.23417832 -0.1714595 0.20867145 -0.31401664 -0.15853369 -0.13241048 0.17297944 0.077636816
-0.07750768 -0.11535617 0.10564083 0.052129366 0.15758106 0.00811403 0.010965805 -0.09478952
-0.1493082 -0.07834321 -0.13806902 0.22753023 -0.020455638 0.1192087 0.23000064 -0.15274183
0.025893891 -0.17377777 0.052477766 -0.20663966 0.17799361 0.04630293 0.049304586 -0.14654602
-0.18642561 -0.091064304 0.095522314 -0.3386209 -0.20205289 0.11376695 0.19443043 0.014210368
-0.028896514 0.14905123 -0.06100069 0.07788539 -0.038500786 0.103930585 -0.07013356 -0.015094933
0.04588865 0.017515093 -0.11344234 -0.042925324 -0.044295277 0.0032474222 -0.17310046 -0.056934528
-0.18051268 0.005996898 -0.040967688 0.027607586 0.05444835 -0.013269349 0.031543285 0.023391347
0.023886092 0.13097553 -0.01277395 -0.19401859 -0.08390353 -0.20003523 -0.056545902 -0.0889423
-0.20961373 0.19088992 0.16433784 0.16611579 0.1929994 -0.13517459 0.08482855 -0.021219663
0.0918261 0.14031051 0.17979088 -0.14841223 -0.34842137 -0.04916 0.08107639 0.031581122
-0.17296623 -0.029135896 0.059892043 -0.120954216 0.13748299 0.08801398 0.07633655 -0.25195345
00000000: f5b5 063e 49cb babe 1050 e93a f8f4 3abd
00000010: 5b0d a43c 677f 4a3e b675 383d 6ebb dabd
00000020: b683 55be 3c87 24be 4d09 27be 87a7 793d
00000030: 46d2 ef3c 69fb 673e 3b61 2c3e 82ad ccbd
00000040: 276c 2b3e fdea 07be 17de e5bd 43bb 003e
00000050: f66a 00be 5b9c 06be aacd d03d e77c 493e
00000060: d2ad 2c3e 10ba d33d a81f efbc e425 adbd
00000070: 884f 5c3d 67db 9ebe f7fd 78bc 7499 d6bd
00000080: b350 5f3d 0dea eb3d 3f50 553d d28f 9f3d
00000090: 94d4 7a3e 0336 4e3d a83e ec3d 231a 8e3d
000000a0: e336 a6bc 49ec 5fbe 25eb 04be e181 0ebe
000000b0: e5f0 953d b765 323d 07df 303e 6e27 933c
000000c0: 183d aa3d 2f20 4bbe b12b 69be 6783 cbbc
000000d0: 8a45 fb3d ebaf b0be 1fc6 8abb f5cf adbe
000000e0: 89a3 95be 046b 9abe 33ce e83b 9ce0 d6bd
000000f0: 9505 cabd 781b d13d 23c2 933d 802e 3e3d
00000100: 1ebf 8c3e faa7 a4be 12ef f6be e2d2 e7bd
00000110: 5d85 a9be dd0a 913e 9589 67bd d278 593e
00000120: 2113 0dbe e18e 343e ecea 25bb 8fa3 f9bc
00000130: 8003 07bf 7507 3fbe 7eca ebbe 89c5 d6be
00000140: 4bc5 99bd 3ff7 0cbc d6bc 9bbd 7344 e7bd
00000150: ab69 87be afbd 93be da7b 8c3d 2b4f 3bbe
00000160: 9644 2d3c a9c4 1abe 2bd3 1f3e 9a68 4bbe
00000170: a070 0ebe d086 82bb d765 55bd 2d46 213d
00000180: 7753 c83d 357d 82bd 1602 ccbe ad75 a13d
00000190: a180 6ebe 8f73 873e b148 afbc 1301 223e
000001a0: 0c91 27be 0da3 0dbe 8669 8dbe 09a3 343e
000001b0: 4d2a d5bd a467 1d3e 5339 893e 40cd 59be
000001c0: 7e61 363e 391e 633e 9422 753e c266 1dbe
000001d0: e026 593e 559b 163d aa4b 6a3e 78d2 0f3e
000001e0: 197d 1a3d a92c 2abe 8e77 15be a1ed 3fbd
000001f0: b8f9 683d 7aa1 373e 7a91 6a3e 9d5b 55be
00000200: f253 3dbd 992b 643e fdc5 76be 3754 52be
00000210: 9d06 70bd c37c 3bbe 0d7c 3a3d 6d08 413b
00000220: 0fb4 dd3d 3f6c ba3d a58a 55be bd92 ebbc
00000230: b7c5 093e f0b1 d138 fa92 53be 9cc4 9bbe
00000240: 2e4f ebbb 3f89 12be cbc5 623d a449 91be
00000250: a7db 4dbe 1a45 8e3d 08b0 09bc 259a 8fbe
00000260: b06d e5bd 43bc 89bd 2c86 93be 50b5 5c3e
00000270: 7798 1dbe c2d1 993d 3056 e63d 3701 293e
00000280: 71cc 6fbe 1493 2fbe f8ad 553e cac6 a0be
00000290: a856 22be 9d96 07be 8621 313e 0d00 9f3d
000002a0: 59bc 9ebd db3f ecbd 385a d83d 9a85 553d
000002b0: ee5c 213e b5f0 043c eba9 333c 0221 c2bd
000002c0: 40e4 18be 6872 a0bd f761 0dbe affd 683e
000002d0: 9592 a7bc b123 f43d 4a85 6b3e 5b68 1cbe
000002e0: 6d1f d43c cdf2 31be edf2 563d 5999 53be
000002f0: f543 363e 24a8 3d3d 9bf3 493d 2910 16be
00000300: 5be6 3ebe ec7f babd 34a1 c33d b85f adbe
00000310: f4e6 4ebe a6fe e83d c518 473e 9ad2 683c
00000320: 62b8 ecbc e3a0 183e dcdb 79bd 6082 9f3d
00000330: 00b3 1dbd 8fd9 d43d 2fa2 8fbd bd50 77bc
00000340: bdf5 3b3d d07b 8f3c 7554 e8bd 77d2 2fbd
00000350: f76e 35bd b4d2 543b 3f41 31be 2e34 69bd
00000360: 51d8 38be a081 c43b bccd 27bd 4e29 e23c
00000370: 3c05 5f3d af67 59bc 8833 013d 369f bf3c
00000380: c4ac c33c 731e 063e d449 51bc cfac 46be
00000390: 9dd5 abbd 09d6 4cbe ad9c 67bd 6127 b6bd
000003a0: fba4 56be a678 433e 2e48 283e 421a 2a3e
000003b0: a2a1 453e 356b 0abe 97ba ad3d dcd4 adbc
000003c0: 530f bc3d 8fad 0f3e 1a1b 383e 60f9 17be
000003d0: 4964 b2be ff5b 49bd 610b a63d 355b 013d
000003e0: 0f1e 31be 67ae eebc 5c51 753d d8b6 f7bd
000003f0: 57c8 0c3e ac40 b43d 5656 9c3d 0b00 81be

gin2.nn.bias f4 [16]
0.009683017 -0.22506632 0.26146048 -0.24771476 0.07407792 0.13327806 -0.49856225 -0.4773743
0.69354105 0.10252559 0.073980354 -0.12439354 -0.7037001 2.7198284 -0.11041928 0.043736342
00000000: 84a5 1e3c c977 66be 26de 853e f0a8 7dbe
00000010: 2ab6 973d 0b7a 083e 8d43 ffbe 676a f4be
00000020: e88b 313f f0f8 d13d 0383 973d 0ac2 febd
00000030: b125 34bf ab11 2e40 8123 e2bd e124 333d

mlp_gin3.weight f4 [2, 16]
0.2581078 -0.06611809 0.10711514 -0.24321799 0.38061512 0.12984921 -0.03833553 -0.10604113
0.25828332 0.19478458 -0.097224995 -0.00026843284 -0.1312772 0.20050815 -0.18570179 0.1818051
0.08119738 0.02455008 -0.09859042 -0.21371712 -0.40509278 -0.066047415 0.13976088 0.1412537
0.09279234 -0.08144039 -0.17047566 0.13650674 0.1424523 -0.5586687 -0.016361106 0.12618315
00000000: b526 843e ec68 87bd 2f5f db3d 230e 79be
00000010: fcdf c23e 31f7 043e b705 1dbd 182c d9bd
00000020: b63d 843e 9c75 473e e61d c7bd 72bc 8cb9
00000030: 886d 06be 0252 4d3e 9c28 3ebe 1e2b 3a3e
00000040: d04a a63d 401d c93c c6e9 c9bd a9d8 5abe
00000050: 5268 cfbe de43 87bd 7a1d 0f3e cfa4 103e
00000060: e909 be3d 38ca a6bd 2c91 2ebe 6cc8 0b3e
00000070: 04df 113e e904 0fbf ba07 86bc 2836 013e

mlp_gin3.bias f4 [2]
0.8563498 -0.6201298
00000000: be39 5b3f d4c0 1ebf

gin3.nn.weight f4 [2, 16]
0.2581078 -0.06611809 0.10711514 -0.24321799 0.38061512 0.12984921 -0.03833553 -0.10604113
0.25828332 0.19478458 -0.097224995 -0.00026843284 -0.1312772 0.20050815 -0.18570179 0.1818051
0.08119738 0.02455008 -0.09859042 -0.21371712 -0.40509278 -0.066047415 0.13976088 0.1412537
0.09279234 -0.08144039 -0.17047566 0.13650674 0.1424523 -0.5586687 -0.016361106 0.12618315
00000000: b526 843e ec68 87bd 2f5f db3d 230e 79be
00000010: fcdf c23e 31f7 043e b705 1dbd 182c d9bd
00000020: b63d 843e 9c75 473e e61d c7bd 72bc 8cb9
00000030: 886d 06be 0252 4d3e 9c28 3ebe 1e2b 3a3e
00000040: d04a a63d 401d c93c c6e9 c9bd a9d8 5abe
00000050: 5268 cfbe de43 87bd 7a1d 0f3e cfa4 103e
00000060: e909 be3d 38ca a6bd 2c91 2ebe 6cc8 0b3e
00000070: 04df 113e e904 0fbf ba07 86bc 2836 013e

gin3.nn.bias f4 [2]
0.8563498 -0.6201298
00000000: be39 5b3f d4c0 1ebf
