formal/model_heterophily.pth (torch, 5131 bytes, 12 tensors)

mlp_gin1.weight f4 [16, 11]
000000 33 2d 4a 3d 2b 08 63 bd 71 e1 3f 3d b5 2f 90 3d
       0.04935951 -0.05542771 0.046845857 0.070403494
000010 3e b2 27 3e 39 74 f0 bd 87 a9 58 be ad c3 b9 bd
       0.16376588 -0.11740918 -0.2115842 -0.09070525
000020 96 48 87 bd 82 35 87 be 25 7c 5a bd 71 a5 ad bd
       -0.066056415 -0.2640801 -0.05334105 -0.08478821
000030 14 b7 35 3e 55 68 a9 3d 9d cf a1 3d 0d 10 14 be
       0.1774562 0.08271853 0.07900927 -0.14459248
000040 5a 9b ba bd 0f 39 54 be 68 41 66 bd 93 1d 24 3e
       -0.09111662 -0.20724891 -0.05621472 0.16026907
000050 63 2b 79 3d fb b1 b7 bd e1 86 df bd 31 0b 28 bc
       0.060832392 -0.08969494 -0.10914398 -0.0102565745
000060 f8 75 19 bc 01 cb f7 3a bc cc 5b 3e 23 d8 fa 3c
       -0.009366505 0.0018905104 0.21464819 0.03062064
000070 4c f7 0a 3e 90 1b 68 3d 1c c2 86 bd b4 63 84 be
       0.13570899 0.05666691 -0.06579992 -0.25857317
000080 28 85 c9 bd b7 bb a5 be 94 aa 22 3e 05 2d 60 3e
       -0.09839851 -0.32369778 0.15885383 0.21892174
000090 db e7 86 3d 2a 7d c3 ba dd 07 02 bb be 5d 37 3e
       0.06587192 -0.0014914621 -0.0019841113 0.17906854
0000a0 79 4f 8d bc c8 14 1e 3e 1f 98 08 be 5b 89 b4 be
       -0.01724981 0.15437615 -0.1333928 -0.35261044
0000b0 fc 73 64 be 0c bb 84 3c 24 e4 00 be f8 ad 58 3e
       -0.2230987 0.016202472 -0.12587029 0.21160114
0000c0 e7 bf 0b 3e e2 bf 1f 3d c2 5a 59 3d 24 d0 c7 3c
       0.13647424 0.039001353 0.05306507 0.024391241
0000d0 eb c5 71 bd 8d 12 b6 be c8 6f 1e be 51 07 69 bd
       -0.05902664 -0.35561028 -0.15472329 -0.056891743
0000e0 87 34 46 bd e2 1b 89 3d 63 90 65 be c4 2f 6a 3e
       -0.048389938 0.06694771 -0.2241836 0.22869784
0000f0 45 53 9e 3d bc 85 cd bd f9 51 0f 3e 87 fb 5d be
       0.07730726 -0.100352734 0.13996114 -0.21677981
000100 ce fe 16 3e 87 90 ad bd 3e 57 c6 bc 9f 80 66 be
       0.14745638 -0.08474832 -0.024211522 -0.22510003
000110 f5 f6 8e be 4d 3d 1e be 59 33 56 bb 75 b3 56 3e
       -0.27922788 -0.15453072 -0.0032684414 0.20966895
000120 91 f9 5c be 8a 3b 6e 3e d9 d2 2b bd 2a 59 64 3e
       -0.21579577 0.232649 -0.041949127 0.22299638
000130 d3 3f 77 3e 50 1c 9c bd 68 c0 81 bd b0 d1 e9 3c
       0.24145441 -0.07622588 -0.06335527 0.02854237
000140 1a 1f 7b bd cd 72 2f be 0f c5 a2 3d f4 80 53 3e
       -0.061308958 -0.17133637 0.07947742 0.2065466
000150 8f 1c 8d bd 7d 83 cd 3b 1a f2 84 3e a1 8e f8 3d
       -0.06890213 0.006271778 0.2596596 0.12136579
000160 b9 0b 75 be 41 23 23 3d 8b ab 2d be 74 12 b0 3d
       -0.23930253 0.039828543 -0.1695997 0.0859727
000170 8b 7a 20 3d 65 5d 4e 3e cf 55 65 3e 7a 65 bd 3c
       0.039179366 0.20152815 0.22396015 0.023119677
000180 07 66 85 bd df cc d4 3d cb 85 86 3e 97 08 46 3e
       -0.06513601 0.103906386 0.2627395 0.19339214
000190 8e 80 a3 3c e6 ee 37 3e 97 d4 a8 3d 6b 57 ae bd
       0.01995876 0.17962226 0.08243673 -0.085127674
0001a0 49 38 e6 bd 44 41 b6 bd 62 52 19 be 7a c1 32 be
       -0.11241204 -0.08899167 -0.14972833 -0.17456618
0001b0 26 81 3e 3d c3 3b 89 be 65 f6 d6 3e 9d 22 b2 bd
       0.046509884 -0.26803407 0.4198486 -0.08698008
0001c0 00 2b 7c bc ae 57 41 be 8a 22 92 be 5e 47 d9 bd
       -0.015391111 -0.18881103 -0.28541976 -0.10609315
0001d0 bc 29 ba be 1b c9 99 bc b0 ef e1 3d bf ec ff 3d
       -0.36359966 -0.018772652 0.11032045 0.124963276
0001e0 57 94 02 3d 86 39 37 be 54 90 57 bd 5a 29 f7 bd
       0.03187975 -0.17893037 -0.052627876 -0.12068434
0001f0 3d 45 89 3d 64 14 68 be db 18 ce bc ed 99 96 3e
       0.06702659 -0.22664028 -0.025158336 0.2941431
000200 12 bd 04 3d 56 ab e1 3d a9 9a 9e 3e b2 e4 9f bc
       0.032406874 0.11019008 0.3097737 -0.01951823
000210 97 e2 fc bd 77 e1 0e 3d e7 6a 15 3e aa 36 68 be
       -0.12347906 0.03488299 0.14591561 -0.22677103
000220 6d ca 53 3e d1 5e 00 be 08 bd a1 3e 61 c1 21 be
       0.20682688 -0.1253617 0.31589532 -0.15796424
000230 2d a1 cf 3d 39 85 3d be f8 73 89 3e 98 e6 25 3d
       0.10138164 -0.18507852 0.2684629 0.040503114
000240 60 2a 0a be 24 6a 39 bc 51 0b 3b be a4 8d b9 3e
       -0.13492727 -0.01131681 -0.18266036 0.36240876
000250 5b c3 d5 3b c1 dd 1f be cb 05 aa 3c f4 4c 5a 3d
       0.0065235323 -0.15611936 0.020754715 0.053296044
000260 2a 50 8d be ae 74 7c 3e 4e 22 0c 3c 4e 20 76 3c
       -0.27600223 0.24653885 0.008553101 0.0150223505
000270 dc 50 72 3d 2b 79 1a 3e e5 be 87 bd bb 1f 92 3d
       0.059159145 0.15085284 -0.06628207 0.07134958
000280 f5 13 8a 3e 6b 4f 88 3d 41 57 1e be ef 90 71 bd
       0.2696835 0.06655773 -0.15462972 -0.05897611
000290 07 9e 03 3e 0f 97 74 3e 62 6f 86 bd 55 11 98 3d
       0.12853251 0.2388575 -0.06564213 0.07425181
0002a0 94 84 99 be 62 64 81 bd 75 31 53 bd c8 6a a0 be
       -0.29983962 -0.063179746 -0.051560838 -0.31331468
0002b0 ae ef 1b be 40 a9 a1 be 80 f5 5c bd 06 46 e3 bc
       -0.1522815 -0.3157444 -0.053945065 -0.02774335

mlp_gin1.bias f4 [16]
000000 89 86 2b bd a4 ce 55 be f7 5f 8e be be 03 14 be
       -0.04187635 -0.20879608 -0.2780759 -0.14454553
000010 9d d8 66 3e 6d ac 50 be 16 c9 6b 3d 5b 8a 9b be
       0.22543569 -0.20378275 0.057564817 -0.30378994
000020 6f 07 53 3e 52 e0 b2 be ed 5c c8 bd dc be 89 be
       0.20608304 -0.34936768 -0.09783349 -0.26903427
000030 cb fa 8e bd d4 be 81 3e 31 08 5a bd 6e 0d 61 bd
       -0.06981429 0.25340903 -0.05323047 -0.05494445

gin1.nn.weight f4 [16, 11]
000000 33 2d 4a 3d 2b 08 63 bd 71 e1 3f 3d b5 2f 90 3d
       0.04935951 -0.05542771 0.046845857 0.070403494
000010 3e b2 27 3e 39 74 f0 bd 87 a9 58 be ad c3 b9 bd
       0.16376588 -0.11740918 -0.2115842 -0.09070525
000020 96 48 87 bd 82 35 87 be 25 7c 5a bd 71 a5 ad bd
       -0.066056415 -0.2640801 -0.05334105 -0.08478821
000030 14 b7 35 3e 55 68 a9 3d 9d cf a1 3d 0d 10 14 be
       0.1774562 0.08271853 0.07900927 -0.14459248
000040 5a 9b ba bd 0f 39 54 be 68 41 66 bd 93 1d 24 3e
       -0.09111662 -0.20724891 -0.05621472 0.16026907
000050 63 2b 79 3d fb b1 b7 bd e1 86 df bd 31 0b 28 bc
       0.060832392 -0.08969494 -0.10914398 -0.0102565745
000060 f8 75 19 bc 01 cb f7 3a bc cc 5b 3e 23 d8 fa 3c
       -0.009366505 0.0018905104 0.21464819 0.03062064
000070 4c f7 0a 3e 90 1b 68 3d 1c c2 86 bd b4 63 84 be
       0.13570899 0.05666691 -0.06579992 -0.25857317
000080 28 85 c9 bd b7 bb a5 be 94 aa 22 3e 05 2d 60 3e
       -0.09839851 -0.32369778 0.15885383 0.21892174
000090 db e7 86 3d 2a 7d c3 ba dd 07 02 bb be 5d 37 3e
       0.06587192 -0.0014914621 -0.0019841113 0.17906854
0000a0 79 4f 8d bc c8 14 1e 3e 1f 98 08 be 5b 89 b4 be
       -0.01724981 0.15437615 -0.1333928 -0.35261044
0000b0 fc 73 64 be 0c bb 84 3c 24 e4 00 be f8 ad 58 3e
       -0.2230987 0.016202472 -0.12587029 0.21160114
0000c0 e7 bf 0b 3e e2 bf 1f 3d c2 5a 59 3d 24 d0 c7 3c
       0.13647424 0.039001353 0.05306507 0.024391241
0000d0 eb c5 71 bd 8d 12 b6 be c8 6f 1e be 51 07 69 bd
       -0.05902664 -0.35561028 -0.15472329 -0.056891743
0000e0 87 34 46 bd e2 1b 89 3d 63 90 65 be c4 2f 6a 3e
       -0.048389938 0.06694771 -0.2241836 0.22869784
0000f0 45 53 9e 3d bc 85 cd bd f9 51 0f 3e 87 fb 5d be
       0.07730726 -0.100352734 0.13996114 -0.21677981
000100 ce fe 16 3e 87 90 ad bd 3e 57 c6 bc 9f 80 66 be
       0.14745638 -0.08474832 -0.024211522 -0.22510003
000110 f5 f6 8e be 4d 3d 1e be 59 33 56 bb 75 b3 56 3e
       -0.27922788 -0.15453072 -0.0032684414 0.20966895
000120 91 f9 5c be 8a 3b 6e 3e d9 d2 2b bd 2a 59 64 3e
       -0.21579577 0.232649 -0.041949127 0.22299638
000130 d3 3f 77 3e 50 1c 9c bd 68 c0 81 bd b0 d1 e9 3c
       0.24145441 -0.07622588 -0.06335527 0.02854237
000140 1a 1f 7b bd cd 72 2f be 0f c5 a2 3d f4 80 53 3e
       -0.061308958 -0.17133637 0.07947742 0.2065466
000150 8f 1c 8d bd 7d 83 cd 3b 1a f2 84 3e a1 8e f8 3d
       -0.06890213 0.006271778 0.2596596 0.12136579
000160 b9 0b 75 be 41 23 23 3d 8b ab 2d be 74 12 b0 3d
       -0.23930253 0.039828543 -0.1695997 0.0859727
000170 8b 7a 20 3d 65 5d 4e 3e cf 55 65 3e 7a 65 bd 3c
       0.039179366 0.20152815 0.22396015 0.023119677
000180 07 66 85 bd df cc d4 3d cb 85 86 3e 97 08 46 3e
       -0.06513601 0.103906386 0.2627395 0.19339214
000190 8e 80 a3 3c e6 ee 37 3e 97 d4 a8 3d 6b 57 ae bd
       0.01995876 0.17962226 0.08243673 -0.085127674
0001a0 49 38 e6 bd 44 41 b6 bd 62 52 19 be 7a c1 32 be
       -0.11241204 -0.08899167 -0.14972833 -0.17456618
0001b0 26 81 3e 3d c3 3b 89 be 65 f6 d6 3e 9d 22 b2 bd
       0.046509884 -0.26803407 0.4198486 -0.08698008
0001c0 00 2b 7c bc ae 57 41 be 8a 22 92 be 5e 47 d9 bd
       -0.015391111 -0.18881103 -0.28541976 -0.10609315
0001d0 bc 29 ba be 1b c9 99 bc b0 ef e1 3d bf ec ff 3d
       -0.36359966 -0.018772652 0.11032045 0.124963276
0001e0 57 94 02 3d 86 39 37 be 54 90 57 bd 5a 29 f7 bd
       0.03187975 -0.17893037 -0.052627876 -0.12068434
0001f0 3d 45 89 3d 64 14 68 be db 18 ce bc ed 99 96 3e
       0.06702659 -0.22664028 -0.025158336 0.2941431
000200 12 bd 04 3d 56 ab e1 3d a9 9a 9e 3e b2 e4 9f bc
       0.032406874 0.11019008 0.3097737 -0.01951823
000210 97 e2 fc bd 77 e1 0e 3d e7 6a 15 3e aa 36 68 be
       -0.12347906 0.03488299 0.14591561 -0.22677103
000220 6d ca 53 3e d1 5e 00 be 08 bd a1 3e 61 c1 21 be
       0.20682688 -0.1253617 0.31589532 -0.15796424
000230 2d a1 cf 3d 39 85 3d be f8 73 89 3e 98 e6 25 3d
       0.10138164 -0.18507852 0.2684629 0.040503114
000240 60 2a 0a be 24 6a 39 bc 51 0b 3b be a4 8d b9 3e
       -0.13492727 -0.01131681 -0.18266036 0.36240876
000250 5b c3 d5 3b c1 dd 1f be cb 05 aa 3c f4 4c 5a 3d
       0.0065235323 -0.15611936 0.020754715 0.053296044
000260 2a 50 8d be ae 74 7c 3e 4e 22 0c 3c 4e 20 76 3c
       -0.27600223 0.24653885 0.008553101 0.0150223505
000270 dc 50 72 3d 2b 79 1a 3e e5 be 87 bd bb 1f 92 3d
       0.059159145 0.15085284 -0.06628207 0.07134958
000280 f5 13 8a 3e 6b 4f 88 3d 41 57 1e be ef 90 71 bd
       0.2696835 0.06655773 -0.15462972 -0.05897611
000290 07 9e 03 3e 0f 97 74 3e 62 6f 86 bd 55 11 98 3d
       0.12853251 0.2388575 -0.06564213 0.07425181
0002a0 94 84 99 be 62 64 81 bd 75 31 53 bd c8 6a a0 be
       -0.29983962 -0.063179746 -0.051560838 -0.31331468
0002b0 ae ef 1b be 40 a9 a1 be 80 f5 5c bd 06 46 e3 bc
       -0.1522815 -0.3157444 -0.053945065 -0.02774335

gin1.nn.bias f4 [16]
000000 89 86 2b bd a4 ce 55 be f7 5f 8e be be 03 14 be
       -0.04187635 -0.20879608 -0.2780759 -0.14454553
000010 9d d8 66 3e 6d ac 50 be 16 c9 6b 3d 5b 8a 9b be
       0.22543569 -0.20378275 0.057564817 -0.30378994
000020 6f 07 53 3e 52 e0 b2 be ed 5c c8 bd dc be 89 be
       0.20608304 -0.34936768 -0.09783349 -0.26903427
000030 cb fa 8e bd d4 be 81 3e 31 08 5a bd 6e 0d 61 bd
       -0.06981429 0.25340903 -0.05323047 -0.05494445

mlp_gin2.weight f4 [16, 16]
000000 3e e2 37 3d 71 76 8b 3c e9 68 c2 bc bb 7d fe 3d
       0.044893496 0.01702425 -0.023731666 0.12426325
000010 e0 87 4c 3e aa 64 19 3e 14 5e 17 be bc 7d 21 3e
       0.19973707 0.14979807 -0.14781982 0.1577062
000020 91 78 d9 bc c6 91 5a be cc 80 c4 bb 55 02 13 3e
       -0.026546748 -0.2134467 -0.005996799 0.14356358
000030 2f 9c 0e bd 7c 2e b7 3d 63 a0 22 bd 55 7c 2b 3e
       -0.034816917 0.08944413 -0.039703738 0.16746648
000040 01 ae 98 bc 92 b9 01 be 4f e5 85 be 72 86 04 be
       -0.018637659 -0.12668446 -0.2615151 -0.12941912
000050 41 e4 b7 3d c9 a5 97 3d 98 7d 1c 3e f5 39 2e bd
       0.08979083 0.07404668 0.15282285 -0.04253574
000060 08 22 a1 38 3d c6 33 3e 92 49 4e 3e b8 25 68 be
       7.683417e-05 0.1755609 0.20145252 -0.22670639
000070 9d 05 33 be b8 a7 00 be 3f 39 b6 3d 22 50 78 3e
       -0.1748261 -0.1256398 0.088976376 0.24249318
000080 5a 0c 31 3c d7 b1 48 be b7 49 2c be 7f c1 f7 3d
       0.0108061675 -0.1959909 -0.16824995 0.12097453
000090 49 53 42 3e 69 9e 5c be ec 7a 24 be be 1a e0 b9
       0.18977083 -0.21544804 -0.16062516 -0.00042744534
0000a0 e6 f0 37 3e f1 23 e6 3d fc b0 12 3e 52 91 15 3e
       0.17962989 0.11237324 0.14325327 0.14606217
0000b0 a9 0d 02 be f6 38 c6 bb 25 a1 24 3e 4e 17 5c bd
       -0.12700523 -0.0060492707 0.16077097 -0.053733163
0000c0 93 48 63 be 97 35 32 be 41 99 4a be 81 68 93 3d
       -0.22195654 -0.17403255 -0.19785024 0.07197667
0000d0 4b 74 85 bc 49 d4 5b 3e e7 b3 6f 3d d8 66 0e be
       -0.016290804 0.21467699 0.058521178 -0.1390642
0000e0 0c 5f 7c be ea 8c 62 be 0e 48 07 3e cd 22 dc 3d
       -0.24645633 -0.22124067 0.1321108 0.10748825
0000f0 1b f2 19 bd e1 d9 08 3d 90 cf 19 3e d9 70 81 3b
       -0.037584405 0.03341091 0.15020585 0.00395022
000100 e6 b1 2b be 22 9f 64 bd 01 72 e8 3d 2b 28 17 3e
       -0.16767082 -0.055815823 0.113498695 0.14761417
000110 49 51 a7 3d ad d2 9c be 11 48 0e 3c fd d9 7b be
       0.08169801 -0.30629483 0.008684174 -0.24594875
000120 a1 e6 44 3c 37 b3 ab 3d a5 79 85 be 66 2d 61 bd
       0.012017877 0.08383792 -0.2606937 -0.054974936
000130 09 43 0e 3e 22 42 8b be b4 a6 93 3d 19 e4 68 be
       0.1389276 -0.27198893 0.072095305 -0.22743262
000140 59 9f 43 be 52 02 dc 3d 77 21 10 3e 79 94 e6 bd
       -0.19103755 0.1074263 0.14075266 -0.11258788
000150 c6 be 9e 3d 71 8d 62 be 9f 47 5a 3e e1 a0 ff bd
       0.07751231 -0.22124268 0.21316384 -0.12481857
000160 28 84 16 3e 0d bf 7b 3c b1 89 c8 3d 56 41 c0 3d
       0.14698851 0.015365374 0.097918876 0.09387462
000170 e0 ea 8c be 3e ac 10 be 27 1e 61 3d d7 93 85 3e
       -0.27522945 -0.14128205 0.054960396 0.26089355
000180 78 4c c6 3d 51 2d f0 3b f3 1a 1e 3e 77 15 1d 3d
       0.09682554 0.007329621 0.15439968 0.03835055
000190 e4 ec ef bd f2 49 45 be bb 57 5a 3c 1f fd 72 be
       -0.11715105 -0.19266489 0.013326581 -0.2372937
0001a0 cd dc fc bd a3 eb 13 be f4 0c de 3c 44 2e 5a 3e
       -0.12346802 -0.14445357 0.027105786 0.21306711
0001b0 7e 8d b9 3d 53 b5 8c be 96 8b 15 be f7 0c 33 be
       0.090601906 -0.2748209 -0.14604029 -0.17485414
0001c0 e4 be 4a 3e 6d 17 56 3e 66 f7 8f be 9a 42 63 be
       0.19799381 0.20907374 -0.28118438 -0.22193375
0001d0 31 ca 4b 3e 4a a7 37 be a1 97 4d bd 15 86 06 be
       0.19901349 -0.1793491 -0.050193433 -0.13137086
0001e0 1b 84 06 3e f2 04 08 3d 6e da 81 3d a6 93 00 3e
       0.13136332 0.03320784 0.0634049 0.12556323
0001f0 cf 21 28 be 1d 8f 75 be b7 f9 1b 3e 58 03 05 be
       -0.16419147 -0.23980375 0.15231977 -0.12989557
000200 b7 1e c2 3d 24 04 6a be 1d fc b5 3c 7c 30 cf 3c
       0.09478515 -0.22853142 0.022214944 0.025291674
000210 d6 29 08 be d2 9a 41 be fd c2 3b 3d 05 9e 12 3e
       -0.13297209 -0.18906716 0.045840252 0.14318092
000220 6b a8 cd 3d a8 8a 46 be 5d 91 16 3e 3d 53 f4 3d
       0.10041889 -0.1938883 0.14703889 0.11929939
000230 ad 74 9d bc 49 96 80 be 8e d4 81 bd 20 05 19 be
       -0.019220674 -0.25114658 -0.0633937 -0.14943361
000240 5c 6c 39 be d0 90 a2 be 81 36 0f 3e 02 80 0c 3e
       -0.18107742 -0.31751108 0.13985635 0.13720706
000250 4b e3 a7 3d 11 62 30 bd c4 10 97 3d 08 b4 36 3e
       0.081976496 -0.043062273 0.07376245 0.17842114
000260 3d af 9d be 31 7b 7f 3d e9 56 31 3e f2 9b 7e be
       -0.3079776 0.062373344 0.1731831 -0.24864176
000270 b1 49 50 be 63 63 3d be b0 02 50 be ff a0 2a be
       -0.20340611 -0.18494944 -0.20313525 -0.16662978
000280 94 4a da 3d a6 40 7d be 10 a6 8c bd 6a c6 6d be
       0.10658756 -0.24731693 -0.068676114 -0.2322022
000290 af b5 e1 3d ca ea c7 3d a2 ad 48 be fb 22 93 3d
       0.110209815 0.09761579 -0.19597486 0.07184406
0002a0 20 46 19 be 99 91 0f be 95 5b 13 be eb 13 8e be
       -0.14968157 -0.14020385 -0.14390405 -0.2774957
0002b0 6a 2f 2d be 66 09 8a be 3a 8f a2 3c a1 1e 1c be
       -0.16912618 -0.26960295 0.019843686 -0.15246059
0002c0 2d 27 d9 bd d1 e1 7f bd 76 69 24 3e 8f 73 82 bd
       -0.10603175 -0.062471215 0.16055855 -0.06369697
0002d0 da af ab bd 16 91 8c bd d9 00 45 be 05 05 74 3d
       -0.083831504 -0.068636104 -0.19238605 0.0595751
0002e0 e6 72 ba 3c 44 c2 4b 3d 8f 7f 8a be 5c b7 2a 3e
       0.022759866 0.049745813 -0.27050444 0.16671509
0002f0 25 25 be bd c8 ed 2f 3e bc 2d ce bd 5e c7 06 be
       -0.092844285 0.1718055 -0.10067317 -0.1316199
000300 a0 85 52 bd f3 67 06 be 63 da 03 3d 72 62 77 bc
       -0.051396966 -0.13125591 0.03219069 -0.015099155
000310 e6 bc 1b be 1b d1 e5 3d 84 10 0d be 25 db 75 3e
       -0.15208778 0.11221524 -0.13775831 0.24009378
000320 a8 6c 54 3d 4f 5f 0b 3e 6e 90 d8 bd fd 22 0d 3d
       0.051861435 0.13610576 -0.10574423 0.034457196
000330 e9 8c e1 3d 70 ff d6 3d 80 10 9b be 45 6f 27 3e
       0.110132046 0.104979396 -0.30286026 0.1635104
000340 07 14 10 3e e1 f2 20 3e 36 58 f1 bd 98 84 be bd
       0.1407014 0.15717651 -0.11784403 -0.09302634
000350 b8 08 83 be 02 d0 d4 bd a8 65 d7 bd 0f 19 60 be
       -0.2559259 -0.10391237 -0.10517436 -0.21884559
000360 3a f8 ac 3c 9e f8 41 3e 1a 19 30 3e 1c 1f 17 be
       0.021114457 0.18942496 0.17197075 -0.14757961
000370 ec 0a 47 be 67 01 80 3d 02 0b 4e 3d 26 37 c8 bd
       -0.1943776 0.062502675 0.050303467 -0.09776144
000380 43 eb 38 be 6c f6 f9 3d 5d 41 03 3e 90 ed cb bb
       -0.18058495 0.12205204 0.12817903 -0.006223388
000390 88 7d 98 3d 27 f0 f3 3d 2a 0f 13 3e 2a 92 1d be
       0.07445818 0.1191104 0.14361253 -0.15387788
0003a0 2d b8 60 3e d0 2f 50 3e 29 ff 48 be 8c fa 40 bd
       0.21945257 0.20330739 -0.19628586 -0.04711394
0003b0 0d d4 2c 3e d1 70 bf 3d 32 bc 07 be dd b3 1b 3e
       0.16877766 0.0934769 -0.13255385 0.15205331
0003c0 72 92 40 be 9c 31 44 3e a1 e6 79 be d3 6d 0f 3e
       -0.18805864 0.1915955 -0.24404384 0.14006738
0003d0 ea 02 be be 19 ac 4a 3e 07 e8 31 bd 00 8b 9c 3d
       -0.37111598 0.19792213 -0.04343417 0.076437
0003e0 63 48 a4 3e 00 aa ed 3d 2e ab bb 3d ab a6 75 3e
       0.32086477 0.116046906 0.09163509 0.2398936
0003f0 b4 ca b6 3d a7 4f 23 be c1 07 4a 3d 03 ee 29 bd
       0.08925381 -0.15948354 0.0493238 -0.04148675

mlp_gin2.bias f4 [16]
000000 ff 94 9d be 9a 67 72 3d 07 9c 9e be b6 7a 9d 3e
       -0.30777737 0.059180833 -0.30978414 0.30757684
000010 4f 59 64 bc 0c b1 49 3e 79 3b 01 be a4 3c 8b 3e
       -0.013937308 0.19696444 -0.12620343 0.27194703
000020 eb 77 7c be 7d 75 14 be 51 7a 8e bd 15 81 7a 3d
       -0.2465512 -0.14497943 -0.06956924 0.06115826
000030 25 dd 53 3d fd d0 3e 3e a0 8e 9e 3d 50 e6 48 3e
       0.05172457 0.1863441 0.07742047 0.19619107

gin2.nn.weight f4 [16, 16]
000000 3e e2 37 3d 71 76 8b 3c e9 68 c2 bc bb 7d fe 3d
       0.044893496 0.01702425 -0.023731666 0.12426325
000010 e0 87 4c 3e aa 64 19 3e 14 5e 17 be bc 7d 21 3e
       0.19973707 0.14979807 -0.14781982 0.1577062
000020 91 78 d9 bc c6 91 5a be cc 80 c4 bb 55 02 13 3e
       -0.026546748 -0.2134467 -0.005996799 0.14356358
000030 2f 9c 0e bd 7c 2e b7 3d 63 a0 22 bd 55 7c 2b 3e
       -0.034816917 0.08944413 -0.039703738 0.16746648
000040 01 ae 98 bc 92 b9 01 be 4f e5 85 be 72 86 04 be
       -0.018637659 -0.12668446 -0.2615151 -0.12941912
000050 41 e4 b7 3d c9 a5 97 3d 98 7d 1c 3e f5 39 2e bd
       0.08979083 0.07404668 0.15282285 -0.04253574
000060 08 22 a1 38 3d c6 33 3e 92 49 4e 3e b8 25 68 be
       7.683417e-05 0.1755609 0.20145252 -0.22670639
000070 9d 05 33 be b8 a7 00 be 3f 39 b6 3d 22 50 78 3e
       -0.1748261 -0.1256398 0.088976376 0.24249318
000080 5a 0c 31 3c d7 b1 48 be b7 49 2c be 7f c1 f7 3d
       0.0108061675 -0.1959909 -0.16824995 0.12097453
000090 49 53 42 3e 69 9e 5c be ec 7a 24 be be 1a e0 b9
       0.18977083 -0.21544804 -0.16062516 -0.00042744534
0000a0 e6 f0 37 3e f1 23 e6 3d fc b0 12 3e 52 91 15 3e
       0.17962989 0.11237324 0.14325327 0.14606217
0000b0 a9 0d 02 be f6 38 c6 bb 25 a1 24 3e 4e 17 5c bd
       -0.12700523 -0.0060492707 0.16077097 -0.053733163
0000c0 93 48 63 be 97 35 32 be 41 99 4a be 81 68 93 3d
       -0.22195654 -0.17403255 -0.19785024 0.07197667
0000d0 4b 74 85 bc 49 d4 5b 3e e7 b3 6f 3d d8 66 0e be
       -0.016290804 0.21467699 0.058521178 -0.1390642
0000e0 0c 5f 7c be ea 8c 62 be 0e 48 07 3e cd 22 dc 3d
       -0.24645633 -0.22124067 0.1321108 0.10748825
0000f0 1b f2 19 bd e1 d9 08 3d 90 cf 19 3e d9 70 81 3b
       -0.037584405 0.03341091 0.15020585 0.00395022
000100 e6 b1 2b be 22 9f 64 bd 01 72 e8 3d 2b 28 17 3e
       -0.16767082 -0.055815823 0.113498695 0.14761417
000110 49 51 a7 3d ad d2 9c be 11 48 0e 3c fd d9 7b be
       0.08169801 -0.30629483 0.008684174 -0.24594875
000120 a1 e6 44 3c 37 b3 ab 3d a5 79 85 be 66 2d 61 bd
       0.012017877 0.08383792 -0.2606937 -0.054974936
000130 09 43 0e 3e 22 42 8b be b4 a6 93 3d 19 e4 68 be
       0.1389276 -0.27198893 0.072095305 -0.22743262
000140 59 9f 43 be 52 02 dc 3d 77 21 10 3e 79 94 e6 bd
       -0.19103755 0.1074263 0.14075266 -0.11258788
000150 c6 be 9e 3d 71 8d 62 be 9f 47 5a 3e e1 a0 ff bd
       0.07751231 -0.22124268 0.21316384 -0.12481857
000160 28 84 16 3e 0d bf 7b 3c b1 89 c8 3d 56 41 c0 3d
       0.14698851 0.015365374 0.097918876 0.09387462
000170 e0 ea 8c be 3e ac 10 be 27 1e 61 3d d7 93 85 3e
       -0.27522945 -0.14128205 0.054960396 0.26089355
000180 78 4c c6 3d 51 2d f0 3b f3 1a 1e 3e 77 15 1d 3d
       0.09682554 0.007329621 0.15439968 0.03835055
000190 e4 ec ef bd f2 49 45 be bb 57 5a 3c 1f fd 72 be
       -0.11715105 -0.19266489 0.013326581 -0.2372937
0001a0 cd dc fc bd a3 eb 13 be f4 0c de 3c 44 2e 5a 3e
       -0.12346802 -0.14445357 0.027105786 0.21306711
0001b0 7e 8d b9 3d 53 b5 8c be 96 8b 15 be f7 0c 33 be
       0.090601906 -0.2748209 -0.14604029 -0.17485414
0001c0 e4 be 4a 3e 6d 17 56 3e 66 f7 8f be 9a 42 63 be
       0.19799381 0.20907374 -0.28118438 -0.22193375
0001d0 31 ca 4b 3e 4a a7 37 be a1 97 4d bd 15 86 06 be
       0.19901349 -0.1793491 -0.050193433 -0.13137086
0001e0 1b 84 06 3e f2 04 08 3d 6e da 81 3d a6 93 00 3e
       0.13136332 0.03320784 0.0634049 0.12556323
0001f0 cf 21 28 be 1d 8f 75 be b7 f9 1b 3e 58 03 05 be
       -0.16419147 -0.23980375 0.15231977 -0.12989557
000200 b7 1e c2 3d 24 04 6a be 1d fc b5 3c 7c 30 cf 3c
       0.09478515 -0.22853142 0.022214944 0.025291674
000210 d6 29 08 be d2 9a 41 be fd c2 3b 3d 05 9e 12 3e
       -0.13297209 -0.18906716 0.045840252 0.14318092
000220 6b a8 cd 3d a8 8a 46 be 5d 91 16 3e 3d 53 f4 3d
       0.10041889 -0.1938883 0.14703889 0.11929939
000230 ad 74 9d bc 49 96 80 be 8e d4 81 bd 20 05 19 be
       -0.019220674 -0.25114658 -0.0633937 -0.14943361
000240 5c 6c 39 be d0 90 a2 be 81 36 0f 3e 02 80 0c 3e
       -0.18107742 -0.31751108 0.13985635 0.13720706
000250 4b e3 a7 3d 11 62 30 bd c4 10 97 3d 08 b4 36 3e
       0.081976496 -0.043062273 0.07376245 0.17842114
000260 3d af 9d be 31 7b 7f 3d e9 56 31 3e f2 9b 7e be
       -0.3079776 0.062373344 0.1731831 -0.24864176
000270 b1 49 50 be 63 63 3d be b0 02 50 be ff a0 2a be
       -0.20340611 -0.18494944 -0.20313525 -0.16662978
000280 94 4a da 3d a6 40 7d be 10 a6 8c bd 6a c6 6d be
       0.10658756 -0.24731693 -0.068676114 -0.2322022
000290 af b5 e1 3d ca ea c7 3d a2 ad 48 be fb 22 93 3d
       0.110209815 0.09761579 -0.19597486 0.07184406
0002a0 20 46 19 be 99 91 0f be 95 5b 13 be eb 13 8e be
       -0.14968157 -0.14020385 -0.14390405 -0.2774957
0002b0 6a 2f 2d be 66 09 8a be 3a 8f a2 3c a1 1e 1c be
       -0.16912618 -0.26960295 0.019843686 -0.15246059
0002c0 2d 27 d9 bd d1 e1 7f bd 76 69 24 3e 8f 73 82 bd
       -0.10603175 -0.062471215 0.16055855 -0.06369697
0002d0 da af ab bd 16 91 8c bd d9 00 45 be 05 05 74 3d
       -0.083831504 -0.068636104 -0.19238605 0.0595751
0002e0 e6 72 ba 3c 44 c2 4b 3d 8f 7f 8a be 5c b7 2a 3e
       0.022759866 0.049745813 -0.27050444 0.16671509
0002f0 25 25 be bd c8 ed 2f 3e bc 2d ce bd 5e c7 06 be
       -0.092844285 0.1718055 -0.10067317 -0.1316199
000300 a0 85 52 bd f3 67 06 be 63 da 03 3d 72 62 77 bc
       -0.051396966 -0.13125591 0.03219069 -0.015099155
000310 e6 bc 1b be 1b d1 e5 3d 84 10 0d be 25 db 75 3e
       -0.15208778 0.11221524 -0.13775831 0.24009378
000320 a8 6c 54 3d 4f 5f 0b 3e 6e 90 d8 bd fd 22 0d 3d
       0.051861435 0.13610576 -0.10574423 0.034457196
000330 e9 8c e1 3d 70 ff d6 3d 80 10 9b be 45 6f 27 3e
       0.110132046 0.104979396 -0.30286026 0.1635104
000340 07 14 10 3e e1 f2 20 3e 36 58 f1 bd 98 84 be bd
       0.1407014 0.15717651 -0.11784403 -0.09302634
000350 b8 08 83 be 02 d0 d4 bd a8 65 d7 bd 0f 19 60 be
       -0.2559259 -0.10391237 -0.10517436 -0.21884559
000360 3a f8 ac 3c 9e f8 41 3e 1a 19 30 3e 1c 1f 17 be
       0.021114457 0.18942496 0.17197075 -0.14757961
000370 ec 0a 47 be 67 01 80 3d 02 0b 4e 3d 26 37 c8 bd
       -0.1943776 0.062502675 0.050303467 -0.09776144
000380 43 eb 38 be 6c f6 f9 3d 5d 41 03 3e 90 ed cb bb
       -0.18058495 0.12205204 0.12817903 -0.006223388
000390 88 7d 98 3d 27 f0 f3 3d 2a 0f 13 3e 2a 92 1d be
       0.07445818 0.1191104 0.14361253 -0.15387788
0003a0 2d b8 60 3e d0 2f 50 3e 29 ff 48 be 8c fa 40 bd
       0.21945257 0.20330739 -0.19628586 -0.04711394
0003b0 0d d4 2c 3e d1 70 bf 3d 32 bc 07 be dd b3 1b 3e
       0.16877766 0.0934769 -0.13255385 0.15205331
0003c0 72 92 40 be 9c 31 44 3e a1 e6 79 be d3 6d 0f 3e
       -0.18805864 0.1915955 -0.24404384 0.14006738
0003d0 ea 02 be be 19 ac 4a 3e 07 e8 31 bd 00 8b 9c 3d
       -0.37111598 0.19792213 -0.04343417 0.076437
0003e0 63 48 a4 3e 00 aa ed 3d 2e ab bb 3d ab a6 75 3e
       0.32086477 0.116046906 0.09163509 0.2398936
0003f0 b4 ca b6 3d a7 4f 23 be c1 07 4a 3d 03 ee 29 bd
       0.08925381 -0.15948354 0.0493238 -0.04148675

gin2.nn.bias f4 [16]
000000 ff 94 9d be 9a 67 72 3d 07 9c 9e be b6 7a 9d 3e
       -0.30777737 0.059180833 -0.30978414 0.30757684
000010 4f 59 64 bc 0c b1 49 3e 79 3b 01 be a4 3c 8b 3e
       -0.013937308 0.19696444 -0.12620343 0.27194703
000020 eb 77 7c be 7d 75 14 be 51 7a 8e bd 15 81 7a 3d
       -0.2465512 -0.14497943 -0.06956924 0.06115826
000030 25 dd 53 3d fd d0 3e 3e a0 8e 9e 3d 50 e6 48 3e
       0.05172457 0.1863441 0.07742047 0.19619107

mlp_gin3.weight f4 [2, 16]
000000 0c 1d a2 3c e3 89 80 3e 40 35 a4 3c b1 a5 9a bd
       0.019789241 0.251052 0.020044923 -0.075511344
000010 46 bf 01 3d 73 ef 87 bd e0 3e 13 be 64 1a 60 3e
       0.031676553 -0.06637468 -0.14379454 0.21885067
000020 0a 0d dc 3c ab a7 aa bd ba 00 0b 3d 0b 91 09 be
       0.026861686 -0.083327614 0.03393624 -0.13434236
000030 7f c6 8d bd 5b bd 52 bd 80 a1 00 bc 0e 3f 68 3e
       -0.06922626 -0.051450115 -0.007851005 0.22680303
000040 ea 60 c8 3d ba a8 49 3e f8 97 e2 3d 33 94 3b be
       0.0978411 0.1969327 0.11064142 -0.18318252
000050 5f 59 f0 3a 1c 4e 42 be a3 fb 39 be 48 e3 fd 3d
       0.0018337182 -0.18975109 -0.18162398 0.12396866
000060 37 c7 35 be 24 d6 2e bd 12 b8 4d 3d 7f 64 a4 3c
       -0.17751776 -0.04268469 0.05022437 0.020067452
000070 ea a4 4d be be ac e6 bd 21 48 03 3e cf 3f d9 3d
       -0.20082441 -0.11263417 0.12820484 0.10607874

mlp_gin3.bias f4 [2]
000000 0d 2d 0e 3e 45 93 ca be
       0.13884373 -0.39565483

gin3.nn.weight f4 [2, 16]
000000 0c 1d a2 3c e3 89 80 3e 40 35 a4 3c b1 a5 9a bd
       0.019789241 0.251052 0.020044923 -0.075511344
000010 46 bf 01 3d 73 ef 87 bd e0 3e 13 be 64 1a 60 3e
       0.031676553 -0.06637468 -0.14379454 0.21885067
000020 0a 0d dc 3c ab a7 aa bd ba 00 0b 3d 0b 91 09 be
       0.026861686 -0.083327614 0.03393624 -0.13434236
000030 7f c6 8d bd 5b bd 52 bd 80 a1 00 bc 0e 3f 68 3e
       -0.06922626 -0.051450115 -0.007851005 0.22680303
000040 ea 60 c8 3d ba a8 49 3e f8 97 e2 3d 33 94 3b be
       0.0978411 0.1969327 0.11064142 -0.18318252
000050 5f 59 f0 3a 1c 4e 42 be a3 fb 39 be 48 e3 fd 3d
       0.0018337182 -0.18975109 -0.18162398 0.12396866
000060 37 c7 35 be 24 d6 2e bd 12 b8 4d 3d 7f 64 a4 3c
       -0.17751776 -0.04268469 0.05022437 0.020067452
000070 ea a4 4d be be ac e6 bd 21 48 03 3e cf 3f d9 3d
       -0.20082441 -0.11263417 0.12820484 0.10607874

gin3.nn.bias f4 [2]
000000 0d 2d 0e 3e 45 93 ca be
       0.13884373 -0.39565483
