formal/model_triangle.pth (torch, 5131 bytes, 12 tensors)

mlp_gin1.weight f4 [16, 11]
00000000: c1ab 5fbd f949 7d3b 6bef fc3c a092 f2bd
00000010: 8ec6 babe 9f98 b0be b527 ddbd 2749 dbba
00000020: ab2d f63e 4b8f 983d 0e78 65be f9fe 1dbd
00000030: de1f c03e 7ae6 2d3c 371d bc3d b3ee 6d3d
00000040: da45 d83c c168 5cbd b7cc 0bbe 3a77 853d
00000050: a9f3 a63e 7f3c 44bd e7c9 fc3c 952e 07be
00000060: e5ec 733e c098 043e e459 bdbe 4a4f 6dbd
00000070: 5060 10be 5818 5b3e b9f4 35be 0f94 38bd
00000080: 733a cabd b2d1 70bd 01aa 92bc db02 cfbd
00000090: 6b25 c8be 1415 0e3d e970 aebe f748 7ebd
000000a0: 3177 fcbd 2baf 793e d59d b1bd 12e9 85bc
000000b0: 784a 033d b90a 553d 9b42 10bd 5678 c23c
000000c0: c920 12bd a715 8bbe f9ee 023e c87d 13bc
000000d0: 21b4 be3d 11ba 1abd 9bed f2bb accd 94bd
000000e0: 2441 7f3d 868f 8f3d 2adb 2d3e 3592 813e
000000f0: 3fc8 15be 49a1 033e d20c 4e3e 559c 39be
00000100: 565c 36be 418c 24be 7eff 16be 7784 d03d
00000110: 8303 bfbd 15c6 14be 13aa 27be 0f77 4fbb
00000120: 5e38 69be ee5f 2f3d 49b1 5c3d 91ee 833d
00000130: 288c d83d c8ac 0cbe c5a3 adbd e386 9abd
00000140: c5aa 843e f83b 113e 4bc3 963e 6fda 8a3e
00000150: 7ed0 d1bc 5bbf 6bbd 750f 463e 7765 51bd
00000160: 12cd 123f ded1 18be 4b20 26be 9ae9 d9bd
00000170: 82ef a2bb fe5e 54be 22f6 fc3c 4289 ee3d
00000180: 6aff ba3e 47e5 aabe aa32 153e 7225 19bc
00000190: ba87 ee3d 00c6 37be 9fbe 803d c89b 053e
000001a0: 7a1b b5be 1d3a f43d 750c 9a3e 5ea7 a8bd
000001b0: 5334 883d b653 103e c7cc 333d 977e 34bc
000001c0: 76a5 173d cd32 f23c b04d 2ebc d8a5 baba
000001d0: 0403 9a3d 1aad 04bc 916d bcbc 431b af3d
000001e0: 6ef6 90bd 1c2e 243d 8694 72be 3469 83bc
000001f0: 03ff 1f3d 2f95 6fbd e83e b03d d9ae 25bd
00000200: d2c0 283e 76b2 113d ba26 563c 064f 9b3e
00000210: 9448 ddbd 1344 d0bc 007b a83d b57f 41be
00000220: 95e2 ddbd f675 ff3d 79c8 9f3e 97fa 37be
00000230: 3453 efbd f85f 0cbe 8440 803c 562f 6b3d
00000240: e42a 25be 3d88 cc3d d88a babd 73d0 f33c
00000250: ae76 c63d 1aa1 80bd 60d8 bbbe 1cc4 d13b
00000260: 7683 3abe 35d7 e3bd 237a 59bd 9031 a83d
00000270: 9135 9cbd 3a25 f8bc ce75 2a3d 1f78 733c
00000280: 984b c2bd b852 a73d 45db 2cbd f743 95bb
00000290: ca20 b33d bc90 843d c6f3 8b3e 6539 10be
000002a0: 561b d5be 3952 333e 4bc2 67be d8ac 633e
000002b0: ac2f 623e 54b2 413d aa23 0cbe f1e9 3cbe
-0.054607157 0.0038648827 0.030875882 -0.11844373 -0.3647961 -0.3449144 -0.10798589 -0.0016730175
0.48081717 0.07449206 -0.22409078 -0.03857324 0.37524313 0.010614032 0.0918526 0.05808897
0.026400495 -0.05381084 -0.13652311 0.06516881 0.32607773 -0.047909256 0.030857993 -0.13201363
0.23820837 0.12948895 -0.36982644 -0.057936944 -0.1409924 0.21396005 -0.17769136 -0.045063075
-0.098744296 -0.05879373 -0.01790333 -0.101079665 -0.39091048 0.03468807 -0.3407052 -0.062081303
-0.123274215 0.24383228 -0.08672682 -0.016346488 0.03205344 0.05201218 -0.03521977 0.023739021
-0.035675798 -0.27164957 0.12786473 -0.009002157 0.093117006 -0.037775103 -0.0074135787 -0.07265791
0.062317982 0.07009797 0.16978136 0.2530686 -0.14627169 0.12854494 0.20122078 -0.18126042
-0.17808661 -0.16069128 -0.147459 0.10181516 -0.09326842 -0.14528687 -0.16373472 -0.0031656658
-0.22775409 0.042816095 0.05388001 0.06441987 0.10573608 -0.13737786 -0.08478502 -0.07545259
0.25911537 0.14183033 0.29445872 0.27119777 -0.025612112 -0.057555538 0.19341834 -0.051122155
0.5734416 -0.14923808 -0.16223256 -0.10640259 -0.004972399 -0.20739362 0.030879084 0.116472736
0.3652299 -0.3337805 0.14570108 -0.009347307 0.116469815 -0.17946625 0.06286358 0.13047707
-0.35372525 0.11925147 0.3008763 -0.08235048 0.06650605 0.14094433 0.043896463 -0.0110165095
0.03702303 0.02956524 -0.010638639 -0.0014240099 0.075201064 -0.008097911 -0.023001464 0.08550122
-0.07078253 0.040083036 -0.2368947 -0.016041376 0.039061558 -0.058491882 0.086057484 -0.04044995
0.16479805 0.035570584 0.013070757 0.30333728 -0.10804859 -0.025423085 0.082265854 -0.18896373
-0.10834233 0.12473671 0.31207636 -0.17966686 -0.116857916 -0.13708484 0.015655763 0.05741819
-0.16129643 0.09986923 -0.091085136 0.029762482 0.09690605 -0.06280728 -0.3668852 0.006401552
-0.18214211 -0.11125032 -0.053094994 0.08212578 -0.076274045 -0.030291189 0.041616254 0.014860182
-0.094870746 0.08170074 -0.0422013 -0.004555221 0.087464884 0.064729184 0.27334422 -0.14084394
-0.41622418 0.17511834 -0.2263271 0.22233903 0.22088498 0.047289208 -0.1368548 -0.18448617

mlp_gin1.bias f4 [16]
00000000: c5c7 e33e d0d9 c23c 1f9d be3e 4cf8 89be
00000010: 1cf6 003f 5a2a 77be 4c15 d9be e350 a43e
00000020: 9405 96bd 1499 82be 6542 0b3f 07d7 a73e
00000030: 217a 1fbe 6996 9e3c 78c5 373f c84f 593e
0.4448835 0.023785502 0.3722925 -0.26947248 0.50375533 -0.2413725 -0.4239906 0.32092962
-0.07325283 -0.25507414 0.54398185 0.3278124 -0.15573932 0.01935883 0.7178569 0.2122184

gin1.nn.weight f4 [16, 11]
00000000: c1ab 5fbd f949 7d3b 6bef fc3c a092 f2bd
00000010: 8ec6 babe 9f98 b0be b527 ddbd 2749 dbba
00000020: ab2d f63e 4b8f 983d 0e78 65be f9fe 1dbd
00000030: de1f c03e 7ae6 2d3c 371d bc3d b3ee 6d3d
00000040: da45 d83c c168 5cbd b7cc 0bbe 3a77 853d
00000050: a9f3 a63e 7f3c 44bd e7c9 fc3c 952e 07be
00000060: e5ec 733e c098 043e e459 bdbe 4a4f 6dbd
00000070: 5060 10be 5818 5b3e b9f4 35be 0f94 38bd
00000080: 733a cabd b2d1 70bd 01aa 92bc db02 cfbd
00000090: 6b25 c8be 1415 0e3d e970 aebe f748 7ebd
000000a0: 3177 fcbd 2baf 793e d59d b1bd 12e9 85bc
000000b0: 784a 033d b90a 553d 9b42 10bd 5678 c23c
000000c0: c920 12bd a715 8bbe f9ee 023e c87d 13bc
000000d0: 21b4 be3d 11ba 1abd 9bed f2bb accd 94bd
000000e0: 2441 7f3d 868f 8f3d 2adb 2d3e 3592 813e
000000f0: 3fc8 15be 49a1 033e d20c 4e3e 559c 39be
00000100: 565c 36be 418c 24be 7eff 16be 7784 d03d
00000110: 8303 bfbd 15c6 14be 13aa 27be 0f77 4fbb
00000120: 5e38 69be ee5f 2f3d 49b1 5c3d 91ee 833d
00000130: 288c d83d c8ac 0cbe c5a3 adbd e386 9abd
00000140: c5aa 843e f83b 113e 4bc3 963e 6fda 8a3e
00000150: 7ed0 d1bc 5bbf 6bbd 750f 463e 7765 51bd
00000160: 12cd 123f ded1 18be 4b20 26be 9ae9 d9bd
00000170: 82ef a2bb fe5e 54be 22f6 fc3c 4289 ee3d
00000180: 6aff ba3e 47e5 aabe aa32 153e 7225 19bc
00000190: ba87 ee3d 00c6 37be 9fbe 803d c89b 053e
000001a0: 7a1b b5be 1d3a f43d 750c 9a3e 5ea7 a8bd
000001b0: 5334 883d b653 103e c7cc 333d 977e 34bc
000001c0: 76a5 173d cd32 f23c b04d 2ebc d8a5 baba
000001d0: 0403 9a3d 1aad 04bc 916d bcbc 431b af3d
000001e0: 6ef6 90bd 1c2e 243d 8694 72be 3469 83bc
000001f0: 03ff 1f3d 2f95 6fbd e83e b03d d9ae 25bd
00000200: d2c0 283e 76b2 113d ba26 563c 064f 9b3e
00000210: 9448 ddbd 1344 d0bc 007b a83d b57f 41be
00000220: 95e2 ddbd f675 ff3d 79c8 9f3e 97fa 37be
00000230: 3453 efbd f85f 0cbe 8440 803c 562f 6b3d
00000240: e42a 25be 3d88 cc3d d88a babd 73d0 f33c
00000250: ae76 c63d 1aa1 80bd 60d8 bbbe 1cc4 d13b
00000260: 7683 3abe 35d7 e3bd 237a 59bd 9031 a83d
00000270: 9135 9cbd 3a25 f8bc ce75 2a3d 1f78 733c
00000280: 984b c2bd b852 a73d 45db 2cbd f743 95bb
00000290: ca20 b33d bc90 843d c6f3 8b3e 6539 10be
000002a0: 561b d5be 3952 333e 4bc2 67be d8ac 633e
000002b0: ac2f 623e 54b2 413d aa23 0cbe f1e9 3cbe
-0.054607157 0.0038648827 0.030875882 -0.11844373 -0.3647961 -0.3449144 -0.10798589 -0.0016730175
0.48081717 0.07449206 -0.22409078 -0.03857324 0.37524313 0.010614032 0.0918526 0.05808897
0.026400495 -0.05381084 -0.13652311 0.06516881 0.32607773 -0.047909256 0.030857993 -0.13201363
0.23820837 0.12948895 -0.36982644 -0.057936944 -0.1409924 0.21396005 -0.17769136 -0.045063075
-0.098744296 -0.05879373 -0.01790333 -0.101079665 -0.39091048 0.03468807 -0.3407052 -0.062081303
-0.123274215 0.24383228 -0.08672682 -0.016346488 0.03205344 0.05201218 -0.03521977 0.023739021
-0.035675798 -0.27164957 0.12786473 -0.009002157 0.093117006 -0.037775103 -0.0074135787 -0.07265791
0.062317982 0.07009797 0.16978136 0.2530686 -0.14627169 0.12854494 0.20122078 -0.18126042
-0.17808661 -0.16069128 -0.147459 0.10181516 -0.09326842 -0.14528687 -0.16373472 -0.0031656658
-0.22775409 0.042816095 0.05388001 0.06441987 0.10573608 -0.13737786 -0.08478502 -0.07545259
0.25911537 0.14183033 0.29445872 0.27119777 -0.025612112 -0.057555538 0.19341834 -0.051122155
0.5734416 -0.14923808 -0.16223256 -0.10640259 -0.004972399 -0.20739362 0.030879084 0.116472736
0.3652299 -0.3337805 0.14570108 -0.009347307 0.116469815 -0.17946625 0.06286358 0.13047707
-0.35372525 0.11925147 0.3008763 -0.08235048 0.06650605 0.14094433 0.043896463 -0.0110165095
0.03702303 0.02956524 -0.010638639 -0.0014240099 0.075201064 -0.008097911 -0.023001464 0.08550122
-0.07078253 0.040083036 -0.2368947 -0.016041376 0.039061558 -0.058491882 0.086057484 -0.04044995
0.16479805 0.035570584 0.013070757 0.30333728 -0.10804859 -0.025423085 0.082265854 -0.18896373
-0.10834233 0.12473671 0.31207636 -0.17966686 -0.116857916 -0.13708484 0.015655763 0.05741819
-0.16129643 0.09986923 -0.091085136 0.029762482 0.09690605 -0.06280728 -0.3668852 0.006401552
-0.18214211 -0.11125032 -0.053094994 0.08212578 -0.076274045 -0.030291189 0.041616254 0.014860182
-0.094870746 0.08170074 -0.0422013 -0.004555221 0.087464884 0.064729184 0.27334422 -0.14084394
-0.41622418 0.17511834 -0.2263271 0.22233903 0.22088498 0.047289208 -0.1368548 -0.18448617

gin1.nn.bias f4 [16]
00000000: c5c7 e33e d0d9 c23c 1f9d be3e 4cf8 89be
00000010: 1cf6 003f 5a2a 77be 4c15 d9be e350 a43e
00000020: 9405 96bd 1499 82be 6542 0b3f 07d7 a73e
00000030: 217a 1fbe 6996 9e3c 78c5 373f c84f 593e
0.4448835 0.023785502 0.3722925 -0.26947248 0.50375533 -0.2413725 -0.4239906 0.32092962
-0.07325283 -0.25507414 0.54398185 0.3278124 -0.15573932 0.01935883 0.7178569 0.2122184

mlp_gin2.weight f4 [16, 16]
00000000: b6ff 1a3e b35b 47be 5ca3 7d3e c160 febe
00000010: c741 67bd 5e8b 2abe 64c5 713d 721d 99be
00000020: f0f4 153d e89a 10bc ffdc 213e 76ec b53d
00000030: 02e2 a33d 65fa 1dbe c52c 5f3d 1c97 26be
00000040: cf93 113e ac0e 803e be20 66be fccf 7abc
00000050: c8b6 f43d 4bcf 623e 80a5 2fbd 4eb1 e33d
00000060: 7629 21bd 5641 57be 8355 473d 2cbe 25be
00000070: 6d00 45be a43b c93c 6b34 89bd 0457 373e
00000080: e355 063e 8561 5c3e a309 d3bd a7b1 8cbe
00000090: 3963 d4bb f9c8 033c e22c 5bbc 5ba5 af3c
000000a0: ad78 293d 2ed5 023d 8851 ee3d fb1a 88be
000000b0: 1e20 9cbd 2dd4 90be e97b b9be 1995 0dbd
000000c0: 2296 5dbe 0779 19be cb38 5d3e 811f cc3d
000000d0: f609 4f3d b581 a6be ba0e 013d ced9 31be
000000e0: 4f19 623c a3ab 41be c825 ab3b d306 e8bd
000000f0: b4c5 0abe db8c 7cbe 994d 8ebe 1bdd a4be
00000100: ff56 69bf ac94 83bd 3a68 bd3d 0a66 89be
00000110: f0c2 96bd a692 6d3e 6878 6d3e d334 09be
00000120: 0b3c f03e 3f31 04bf 052f ed3c 3198 8dbe
00000130: ef19 4c3e e4a8 86be b88a 47be cf05 a6be
00000140: f839 113d 132c 8a3e 2504 ddbd 1c3d 0b3e
00000150: 61e4 583e eddc 4d3e 1333 623e 3fce 6f3d
00000160: bc34 6d3e 34cf 64be db8b 1d3c 3168 ae39
00000170: a607 973d 1054 6e3e 0558 2c3e 194a a53d
00000180: a83b a03d 8f52 b6bd ecd7 ef3d fd58 a23e
00000190: d5ff 793e 5053 06bf 848c 7dbd 2e23 cbbe
000001a0: 11be 8dbc 345c c33d 5749 1b3e 917b c6bd
000001b0: aaaa d5be 4ab0 13be 7f8a 063e 8d1f cbbd
000001c0: 42a9 b0be f368 b1bd f09d 693e 9e1b 213e
000001d0: c274 dbbd 8c97 5dbe 6b39 0bbf 943f 73be
000001e0: a1a3 23bc ad8b 313e e18e 4e3d 6bc7 b2be
000001f0: 6b12 0ebe 6aaf b03d eed3 9f3e ccb4 46be
00000200: 6b19 4abe e79a 1e3e 7e50 b5be acca 30bd
00000210: 8671 053e 26a8 4abe 44c3 9bbb e1a4 9cbd
00000220: 16e8 b23d 80c4 ddbd 6258 2cbe 0b9e 573e
00000230: 1f2d 073e ee3f 733d ea0d 453d 3364 673d
00000240: fdaf 12bc c422 06be 6ad4 203e b3d6 743a
00000250: 9358 5c3d 2edf 2dbd f44b 48be 2ca7 783c
00000260: 7ece 67be 7e66 663e 36eb 82be 9b60 7cbe
00000270: d03f 6abe 2db0 ebbd ab13 b93c dc7c 08be
00000280: 147c 40be eadf 233e 7683 4bbe 08db 5f3e
00000290: e035 79bc 383e 843d 16a6 813d d9c0 a6be
000002a0: 82e7 c6bd 1fdc c2bd e2dc c0bd bbb4 213e
000002b0: e87d 90bb fce0 f9bd 0fe2 e93d 64f8 b4be
000002c0: 678e 09bd 72d2 913c acd0 b23b 2f08 183c
000002d0: ca37 13be 9083 e63b 0278 253d 2626 4fbb
000002e0: fd89 e63b ec53 203d 2537 f4bd 660a 5fbc
000002f0: 365c c0ba 0bb5 bebc 1c6d eebd 7bcb 903b
00000300: 6f06 f3bd 4ee9 e13d ee1a 173e 5ace e1bd
00000310: 4624 ce3c d862 873e 549f 92be 3b0e 2c3e
00000320: f017 c2be efb0 67be 3dee c9bd 8403 c13d
00000330: 4da8 a8bc a167 1fbd 6278 67be 0d4b b5bd
00000340: 38b4 c7be 152d b93b 52d8 163e c1b5 3c3d
00000350: 24b8 01be 1f9d d3be 6a19 cebb 69c8 5d3c
00000360: fc75 14bd 4e0c 103d 826c 2abe 9132 41be
00000370: 67af 87be 12e8 5b3e b63c 103d 7949 1d3e
00000380: 5cfd 203d f346 023e 04fc 1bbe 6d85 e33d
00000390: 86d3 24be 9569 bc3b da62 9cbe 2881 90be
000003a0: 7a19 1fbe c07d df3d 6f8e 06be 2da7 763c
000003b0: f84a 2c3e fa50 673d f8dd 83be bb1e 74be
000003c0: ee8f f0bb 2dba d93c dbf5 03bd 8c7b 5d3e
000003d0: 667c 873e bc90 013e f3a5 ac3d 99bd e7bd
000003e0: 2823 523e b594 42bd e2bd 323e 0b4f 14be
000003f0: 2e89 2e3e fb1d 943d 6fa9 ef3c 097b 88be
0.15136608 -0.19468574 0.24769348 -0.49683192 -0.056459215 -0.16654727 0.059026137 -0.29905277
0.036610544 -0.008825995 0.1580696 0.08882992 0.08002092 -0.15427549 0.054486055 -0.16268581
0.14216541 0.25011194 -0.22473428 -0.015308376 0.11948925 0.22149388 -0.042882442 0.111178026
-0.03934618 -0.21021017 0.048665535 -0.16185826 -0.19238444 0.024564572 -0.06699451 0.17904288
0.131187 0.21521576 -0.103045724 -0.27479288 -0.006481555 0.008043521 -0.0133774 0.021441152
0.04137485 0.031941585 0.116366446 -0.26583084 -0.07623313 -0.28286877 -0.36227348 -0.03456602
-0.21639302 -0.14987575 0.21603696 0.099669464 0.05054661 -0.32520834 0.031508185 -0.17368242
0.013799979 -0.1891313 0.0052230097 -0.113294266 -0.1355198 -0.24663107 -0.27793577 -0.3219994
-0.9114837 -0.06424841 0.09248395 -0.26835662 -0.073614 0.23200473 0.23190463 -0.13399057
0.4692081 -0.51637644 0.028953085 -0.27655175 0.19931768 -0.26300728 -0.19486511 -0.32426307
0.035455674 0.2698675 -0.10791806 0.1359753 0.2118087 0.20103808 0.22089796 0.0585463
0.23164648 -0.22344667 0.009615864 0.00033265495 0.07374506 0.23274255 0.16830452 0.08070774
0.078238785 -0.089024656 0.11711106 0.31708518 0.24413998 -0.52470875 -0.061901584 -0.39675277
-0.017302545 0.09539071 0.15164696 -0.09691537 -0.4173177 -0.14422718 0.1313877 -0.09918127
-0.34504133 -0.086625956 0.22814155 0.15733191 -0.10715629 -0.21639842 -0.5438449 -0.23754722
-0.009987743 0.17338438 0.05042923 -0.3491777 -0.13874213 0.086272076 0.31216377 -0.19404906
-0.19736259 0.15488778 -0.35412973 -0.043162033 0.13031587 -0.19790706 -0.004753502 -0.07648636
0.08735673 -0.10828495 -0.1683059 0.21056382 0.13200806 0.05938714 0.048108973 0.05649204
-0.008953092 -0.130992 0.1570603 0.0009339854 0.05379541 -0.04244917 -0.19560224 0.015176576
-0.22637364 0.22500035 -0.25570077 -0.24646227 -0.22875905 -0.11508212 0.022592386 -0.1332888
-0.18797332 0.16003385 -0.19874367 0.21860898 -0.015210599 0.0645718 0.063305065 -0.32569006
-0.09712125 -0.09514641 -0.0941713 0.157916 -0.0044095404 -0.122011155 0.114200704 -0.35345757
-0.03358307 0.017800543 0.0054570045 0.009279295 -0.1437675 0.0070347264 0.04039765 -0.0031608432
0.0070354925 0.039142534 -0.119245805 -0.013613319 -0.0014675919 -0.023279687 -0.11641905 0.004418788
-0.118664615 0.110308275 0.14756367 -0.110256866 0.02516378 0.264426 -0.28637183 0.16802303
-0.37908888 -0.22626089 -0.098598935 0.09424499 -0.020588065 -0.038917188 -0.22604516 -0.088522054
-0.39004683 0.005651126 0.14730957 0.04607177 -0.126679 -0.4133081 -0.0062896507 0.013536551
-0.03624533 0.035167985 -0.16642955 -0.18866946 -0.2650101 0.21475247 0.03521415 0.15360059
0.039304122 0.12722377 -0.15232855 0.11109433 -0.16096315 0.005749891 -0.30544168 -0.28223538
-0.15537062 0.10912657 -0.13140272 0.015054506 0.16825473 0.05647371 -0.25755286 -0.23839848
-0.0073413765 0.026578033 -0.032216888 0.2162916 0.26462096 0.12652868 0.0843009 -0.1131546
0.20521224 -0.0475051 0.17455247 -0.14483277 0.17044517 0.07232281 0.029255597 -0.26656368

mlp_gin2.bias f4 [16]
00000000: 70e2 043f 86c8 aebe c174 f6bb 852f 8ebd
00000010: 2370 743f dddd da3e e45c 2e3f f1a8 c03e
00000020: c510 0cbe 7246 9dbe 448c 663d 2212 a53f
00000030: c268 e53e e512 bcbe f80c 71be f0fd 0cbf
0.51908016 -0.34137362 -0.0075212424 -0.069426574 0.9548361 0.42747393 0.6811049 0.37628892
-0.13678272 -0.30717808 0.05628611 1.2896159 0.44806486 -0.36733165 -0.23540103 -0.5507498

gin2.nn.weight f4 [16, 16]
00000000: b6ff 1a3e b35b 47be 5ca3 7d3e c160 febe
00000010: c741 67bd 5e8b 2abe 64c5 713d 721d 99be
00000020: f0f4 153d e89a 10bc ffdc 213e 76ec b53d
00000030: 02e2 a33d 65fa 1dbe c52c 5f3d 1c97 26be
00000040: cf93 113e ac0e 803e be20 66be fccf 7abc
00000050: c8b6 f43d 4bcf 623e 80a5 2fbd 4eb1 e33d
00000060: 7629 21bd 5641 57be 8355 473d 2cbe 25be
00000070: 6d00 45be a43b c93c 6b34 89bd 0457 373e
00000080: e355 063e 8561 5c3e a309 d3bd a7b1 8cbe
00000090: 3963 d4bb f9c8 033c e22c 5bbc 5ba5 af3c
000000a0: ad78 293d 2ed5 023d 8851 ee3d fb1a 88be
000000b0: 1e20 9cbd 2dd4 90be e97b b9be 1995 0dbd
000000c0: 2296 5dbe 0779 19be cb38 5d3e 811f cc3d
000000d0: f609 4f3d b581 a6be ba0e 013d ced9 31be
000000e0: 4f19 623c a3ab 41be c825 ab3b d306 e8bd
000000f0: b4c5 0abe db8c 7cbe 994d 8ebe 1bdd a4be
00000100: ff56 69bf ac94 83bd 3a68 bd3d 0a66 89be
00000110: f0c2 96bd a692 6d3e 6878 6d3e d334 09be
00000120: 0b3c f03e 3f31 04bf 052f ed3c 3198 8dbe
00000130: ef19 4c3e e4a8 86be b88a 47be cf05 a6be
00000140: f839 113d 132c 8a3e 2504 ddbd 1c3d 0b3e
00000150: 61e4 583e eddc 4d3e 1333 623e 3fce 6f3d
00000160: bc34 6d3e 34cf 64be db8b 1d3c 3168 ae39
00000170: a607 973d 1054 6e3e 0558 2c3e 194a a53d
00000180: a83b a03d 8f52 b6bd ecd7 ef3d fd58 a23e
00000190: d5ff 793e 5053 06bf 848c 7dbd 2e23 cbbe
000001a0: 11be 8dbc 345c c33d 5749 1b3e 917b c6bd
000001b0: aaaa d5be 4ab0 13be 7f8a 063e 8d1f cbbd
000001c0: 42a9 b0be f368 b1bd f09d 693e 9e1b 213e
000001d0: c274 dbbd 8c97 5dbe 6b39 0bbf 943f 73be
000001e0: a1a3 23bc ad8b 313e e18e 4e3d 6bc7 b2be
000001f0: 6b12 0ebe 6aaf b03d eed3 9f3e ccb4 46be
00000200: 6b19 4abe e79a 1e3e 7e50 b5be acca 30bd
00000210: 8671 053e 26a8 4abe 44c3 9bbb e1a4 9cbd
00000220: 16e8 b23d 80c4 ddbd 6258 2cbe 0b9e 573e
00000230: 1f2d 073e ee3f 733d ea0d 453d 3364 673d
00000240: fdaf 12bc c422 06be 6ad4 203e b3d6 743a
00000250: 9358 5c3d 2edf 2dbd f44b 48be 2ca7 783c
00000260: 7ece 67be 7e66 663e 36eb 82be 9b60 7cbe
00000270: d03f 6abe 2db0 ebbd ab13 b93c dc7c 08be
00000280: 147c 40be eadf 233e 7683 4bbe 08db 5f3e
00000290: e035 79bc 383e 843d 16a6 813d d9c0 a6be
000002a0: 82e7 c6bd 1fdc c2bd e2dc c0bd bbb4 213e
000002b0: e87d 90bb fce0 f9bd 0fe2 e93d 64f8 b4be
000002c0: 678e 09bd 72d2 913c acd0 b23b 2f08 183c
000002d0: ca37 13be 9083 e63b 0278 253d 2626 4fbb
000002e0: fd89 e63b ec53 203d 2537 f4bd 660a 5fbc
000002f0: 365c c0ba 0bb5 bebc 1c6d eebd 7bcb 903b
00000300: 6f06 f3bd 4ee9 e13d ee1a 173e 5ace e1bd
00000310: 4624 ce3c d862 873e 549f 92be 3b0e 2c3e
00000320: f017 c2be efb0 67be 3dee c9bd 8403 c13d
00000330: 4da8 a8bc a167 1fbd 6278 67be 0d4b b5bd
00000340: 38b4 c7be 152d b93b 52d8 163e c1b5 3c3d
00000350: 24b8 01be 1f9d d3be 6a19 cebb 69c8 5d3c
00000360: fc75 14bd 4e0c 103d 826c 2abe 9132 41be
00000370: 67af 87be 12e8 5b3e b63c 103d 7949 1d3e
00000380: 5cfd 203d f346 023e 04fc 1bbe 6d85 e33d
00000390: 86d3 24be 9569 bc3b da62 9cbe 2881 90be
000003a0: 7a19 1fbe c07d df3d 6f8e 06be 2da7 763c
000003b0: f84a 2c3e fa50 673d f8dd 83be bb1e 74be
000003c0: ee8f f0bb 2dba d93c dbf5 03bd 8c7b 5d3e
000003d0: 667c 873e bc90 013e f3a5 ac3d 99bd e7bd
000003e0: 2823 523e b594 42bd e2bd 323e 0b4f 14be
000003f0: 2e89 2e3e fb1d 943d 6fa9 ef3c 097b 88be
0.15136608 -0.19468574 0.24769348 -0.49683192 -0.056459215 -0.16654727 0.059026137 -0.29905277
0.036610544 -0.008825995 0.1580696 0.08882992 0.08002092 -0.15427549 0.054486055 -0.16268581
0.14216541 0.25011194 -0.22473428 -0.015308376 0.11948925 0.22149388 -0.042882442 0.111178026
-0.03934618 -0.21021017 0.048665535 -0.16185826 -0.19238444 0.024564572 -0.06699451 0.17904288
0.131187 0.21521576 -0.103045724 -0.27479288 -0.006481555 0.008043521 -0.0133774 0.021441152
0.04137485 0.031941585 0.116366446 -0.26583084 -0.07623313 -0.28286877 -0.36227348 -0.03456602
-0.21639302 -0.14987575 0.21603696 0.099669464 0.05054661 -0.32520834 0.031508185 -0.17368242
0.013799979 -0.1891313 0.0052230097 -0.113294266 -0.1355198 -0.24663107 -0.27793577 -0.3219994
-0.9114837 -0.06424841 0.09248395 -0.26835662 -0.073614 0.23200473 0.23190463 -0.13399057
0.4692081 -0.51637644 0.028953085 -0.27655175 0.19931768 -0.26300728 -0.19486511 -0.32426307
0.035455674 0.2698675 -0.10791806 0.1359753 0.2118087 0.20103808 0.22089796 0.0585463
0.23164648 -0.22344667 0.009615864 0.00033265495 0.07374506 0.23274255 0.16830452 0.08070774
0.078238785 -0.089024656 0.11711106 0.31708518 0.24413998 -0.52470875 -0.061901584 -0.39675277
-0.017302545 0.09539071 0.15164696 -0.09691537 -0.4173177 -0.14422718 0.1313877 -0.09918127
-0.34504133 -0.086625956 0.22814155 0.15733191 -0.10715629 -0.21639842 -0.5438449 -0.23754722
-0.009987743 0.17338438 0.05042923 -0.3491777 -0.13874213 0.086272076 0.31216377 -0.19404906
-0.19736259 0.15488778 -0.35412973 -0.043162033 0.13031587 -0.19790706 -0.004753502 -0.07648636
0.08735673 -0.10828495 -0.1683059 0.21056382 0.13200806 0.05938714 0.048108973 0.05649204
-0.008953092 -0.130992 0.1570603 0.0009339854 0.05379541 -0.04244917 -0.19560224 0.015176576
-0.22637364 0.22500035 -0.25570077 -0.24646227 -0.22875905 -0.11508212 0.022592386 -0.1332888
-0.18797332 0.16003385 -0.19874367 0.21860898 -0.015210599 0.0645718 0.063305065 -0.32569006
-0.09712125 -0.09514641 -0.0941713 0.157916 -0.0044095404 -0.122011155 0.114200704 -0.35345757
-0.03358307 0.017800543 0.0054570045 0.009279295 -0.1437675 0.0070347264 0.04039765 -0.0031608432
0.0070354925 0.039142534 -0.119245805 -0.013613319 -0.0014675919 -0.023279687 -0.11641905 0.004418788
-0.118664615 0.110308275 0.14756367 -0.110256866 0.02516378 0.264426 -0.28637183 0.16802303
-0.37908888 -0.22626089 -0.098598935 0.09424499 -0.020588065 -0.038917188 -0.22604516 -0.088522054
-0.39004683 0.005651126 0.14730957 0.04607177 -0.126679 -0.4133081 -0.0062896507 0.013536551
-0.03624533 0.035167985 -0.16642955 -0.18866946 -0.2650101 0.21475247 0.03521415 0.15360059
0.039304122 0.12722377 -0.15232855 0.11109433 -0.16096315 0.005749891 -0.30544168 -0.28223538
-0.15537062 0.10912657 -0.13140272 0.015054506 0.16825473 0.05647371 -0.25755286 -0.23839848
-0.0073413765 0.026578033 -0.032216888 0.2162916 0.26462096 0.12652868 0.0843009 -0.1131546
0.20521224 -0.0475051 0.17455247 -0.14483277 0.17044517 0.07232281 0.029255597 -0.26656368

gin2.nn.bias f4 [16]
00000000: 70e2 043f 86c8 aebe c174 f6bb 852f 8ebd
00000010: 2370 743f dddd da3e e45c 2e3f f1a8 c03e
00000020: c510 0cbe 7246 9dbe 448c 663d 2212 a53f
00000030: c268 e53e e512 bcbe f80c 71be f0fd 0cbf
0.51908016 -0.34137362 -0.0075212424 -0.069426574 0.9548361 0.42747393 0.6811049 0.37628892
-0.13678272 -0.30717808 0.05628611 1.2896159 0.44806486 -0.36733165 -0.23540103 -0.5507498

mlp_gin3.weight f4 [2, 16]
00000000: 2b35 1cbe 7edd bd3c 0949 443e f001 06be
00000010: db41 f43e 3208 0dbe 608c e53e 1d0d 68be
00000020: c342 6b3d 9cfb 26be ac2f 973e caf5 8e3f
00000030: 6319 563d 492f 803e a094 7cbe 0ba8 063e
00000040: 66ac c43d 68d7 72be abde a13d db38 cd3d
00000050: 2b7e 28bd cd80 813e 2676 9abe 97d4 693e
00000060: 8917 35be 6a4a 31be ef7d a8bd 01a7 90bf
00000070: ffb8 443e b05b 6ebe 58e6 5ebe 8bad 11be
-0.15254657 0.023176905 0.19168486 -0.13086677 0.47706494 -0.13772658 0.4483366 -0.22661252
0.057436716 -0.16306919 0.29528558 1.1168759 0.052270304 0.25036076 -0.24666071 0.13150041
0.09603195 -0.23714983 0.07903799 0.1002061 -0.04113595 0.2529358 -0.30168265 0.22835003
-0.17684759 -0.17313543 -0.08227145 -1.1300966 0.19211195 -0.23277164 -0.21767557 -0.14226358

mlp_gin3.bias f4 [2]
00000000: f72d fd3f ec0e e6bf
1.9779652 -1.7973304

gin3.nn.weight f4 [2, 16]
00000000: 2b35 1cbe 7edd bd3c 0949 443e f001 06be
00000010: db41 f43e 3208 0dbe 608c e53e 1d0d 68be
00000020: c342 6b3d 9cfb 26be ac2f 973e caf5 8e3f
00000030: 6319 563d 492f 803e a094 7cbe 0ba8 063e
00000040: 66ac c43d 68d7 72be abde a13d db38 cd3d
00000050: 2b7e 28bd cd80 813e 2676 9abe 97d4 693e
00000060: 8917 35be 6a4a 31be ef7d a8bd 01a7 90bf
00000070: ffb8 443e b05b 6ebe 58e6 5ebe 8bad 11be
-0.15254657 0.023176905 0.19168486 -0.13086677 0.47706494 -0.13772658 0.4483366 -0.22661252
0.057436716 -0.16306919 0.29528558 1.1168759 0.052270304 0.25036076 -0.24666071 0.13150041
0.09603195 -0.23714983 0.07903799 0.1002061 -0.04113595 0.2529358 -0.30168265 0.22835003
-0.17684759 -0.17313543 -0.08227145 -1.1300966 0.19211195 -0.23277164 -0.21767557 -0.14226358

gin3.nn.bias f4 [2]
00000000: f72d fd3f ec0e e6bf
1.9779652 -1.7973304
