formal/model_SG_org_hf=1.pickle.pth (torch, 5131 bytes, 12 tensors)

mlp_gin1.weight f4 [16, 11]
0	0x3d2044d5	0.039128143
1	0xbcaa5f45	-0.020797381
2	0xbc972e5f	-0.018454729
3	0xbe518b89	-0.20463385
4	0x3d88bc0f	0.06676494
5	0xbda3667c	-0.07978532
6	0xbdbf9a31	-0.093555816
7	0x3db682b2	0.08911647
8	0x3e39ca2a	0.18143526
9	0xbe2328d7	-0.15933548
10	0xbe044827	-0.12918149
11	0x3e875248	0.26429963
12	0xbe11b50a	-0.14229217
13	0x3de459df	0.11149954
14	0xbe117826	-0.14205989
15	0xbe12f8f9	-0.14352788
16	0xbdf94062	-0.12170483
17	0x3d923e80	0.07140827
18	0xbe095633	-0.13411789
19	0xbe659e2d	-0.2242362
20	0x3c888cfc	0.01666879
21	0x3e5fe0cb	0.21863095
22	0x3d8f9716	0.07011239
23	0x3d8084c0	0.0627532
24	0x3e1e1f0e	0.15441534
25	0xbd9bb90f	-0.076036565
26	0x3cda34d0	0.026636511
27	0x3e54dafc	0.20786661
28	0xbe6aaa1c	-0.22916454
29	0x3c21395f	0.0098403385
30	0xbedfae22	-0.4368754
31	0xbbf4080c	-0.0074472483
32	0x3b8340ae	0.004005513
33	0x3dc9ec56	0.09859531
34	0x3e80bd16	0.2514426
35	0xbe8a7d7a	-0.27048856
36	0xbda973d9	-0.08274049
37	0xbd7f17a0	-0.06227839
38	0xbe167468	-0.14692843
39	0x3e67b418	0.22627294
40	0xbdcfa758	-0.1013934
41	0x3efe5368	0.4967301
42	0x3cb954a7	0.022623373
43	0xbd3d78cb	-0.046257775
44	0x3db17a70	0.08665931
45	0xbd5a1b9b	-0.053248983
46	0x3e80c816	0.25152653
47	0xbe87f77d	-0.26556006
48	0x3eb08ea7	0.34483835
49	0x3e786dc0	0.24260616
50	0xbe933aa3	-0.28755674
51	0x3e947935	0.28998724
52	0x3b83287c	0.004002629
53	0x3acf0e52	0.0015797114
54	0xbe190ec2	-0.14947036
55	0x3d79ccc6	0.060986303
56	0x3e1633df	0.14668225
57	0x3e1c524e	0.15265772
58	0xbc5d1bbf	-0.013495385
59	0xbcdf44fa	-0.02725457
60	0x3e6d0fc8	0.23150551
61	0x3e144c25	0.14482172
62	0x3da6d9f0	0.08147037
63	0x3f03e276	0.51517427
64	0xbcd74136	-0.026276212
65	0xbed31d37	-0.41233227
66	0x3d80bf07	0.062864356
67	0xbd965e9f	-0.07342266
68	0x3e32981d	0.17440839
69	0xbe20e561	-0.15712501
70	0x3d36af60	0.044600844
71	0x3d1854f7	0.037190404
72	0x3e7dd2d4	0.24787456
73	0xbdf3231c	-0.11871931
74	0xbe16f69f	-0.14742516
75	0x3d8bbe73	0.06823435
76	0x3e41ffc6	0.18945226
77	0x3b89a947	0.0042010876
78	0x3cac73d1	0.02105132
79	0xbde11f65	-0.10992316
80	0x3dd05c68	0.10173875
81	0x3d5ef85f	0.054436084
82	0x3d025c5c	0.031826362
83	0x3d61c43d	0.055118788
84	0xbe15ac8c	-0.14616603
85	0x3d8a7936	0.067614004
86	0x3e24c5c7	0.16091071
87	0xbedf82b1	-0.43654397
88	0xbe19d483	-0.15022473
89	0xbe38167a	-0.17977324
90	0xbe127031	-0.1430061
91	0xbdc38365	-0.09546546
92	0xbd6f6086	-0.05844166
93	0x3cb0d5f3	0.021586394
94	0x3e0b97a8	0.13632071
95	0xbe65f98e	-0.22458479
96	0x3e482bb3	0.1954792
97	0x3d8a78fd	0.06761358
98	0xbe4a97ca	-0.19784465
99	0x3da3a4bd	0.07990406
100	0xbdb53eae	-0.08849846
101	0x3dd20224	0.102543145
102	0x3d30b46e	0.04314082
103	0x3c2a435a	0.010392034
104	0x3da08cdc	0.07839367
105	0x3d03c0be	0.032166235
106	0x3e060e27	0.13091336
107	0xbc6b662e	-0.014367623
108	0xbd899ed7	-0.067197494
109	0x3ea9e495	0.33182207
110	0x3c9bbbfb	0.019010535
111	0x3dfda588	0.12385088
112	0xbd2527ea	-0.04032127
113	0xbe1fef8b	-0.15618722
114	0x3da4b579	0.08042426
115	0xbd653696	-0.05596026
116	0x3e3d6751	0.18496443
117	0x3da5fc82	0.08104803
118	0xbce0b5cb	-0.027430436
119	0xbc6692f2	-0.01407312
120	0x3c1f50f8	0.009723894
121	0x3e8b3c39	0.27194384
122	0xbe484e1a	-0.19561043
123	0xbdd54a87	-0.104146056
124	0xbe40af70	-0.18816924
125	0x3e973833	0.29535064
126	0x3e114a88	0.14188588
127	0xbe034dde	-0.12822673
128	0x3d8d43ff	0.06897735
129	0xbe676caf	-0.22600053
130	0xbe008441	-0.12550451
131	0x3d90eedf	0.07076811
132	0xbe223445	-0.15840252
133	0x3c7bd452	0.015370445
134	0xbe1744f9	-0.14772405
135	0x3db8be5d	0.09020684
136	0xbe024a29	-0.12723602
137	0xbdf513ce	-0.11966668
138	0xbd8dfefc	-0.069334
139	0x3df715f5	0.12064735
140	0x3ee92ba2	0.45541102
141	0x3e3749ce	0.17899248
142	0xbe95d0de	-0.29260916
143	0xbd15424d	-0.036440182
144	0xbcd8135d	-0.02637642
145	0x3de4236e	0.1113957
146	0x3e0bdd4b	0.13658635
147	0xbe79757a	-0.2436122
148	0xbe6f74b0	-0.23384356
149	0x3d016b27	0.03159633
150	0xbe53dce2	-0.20689729
151	0x3d7c4058	0.0615848
152	0xbda9fd26	-0.08300237
153	0xbe419cc5	-0.18907459
154	0x3cbe20d2	0.02320901
155	0x3cc39e56	0.023879211
156	0x3dbc8adf	0.09206175
157	0xbdd4ed19	-0.10396785
158	0xbe969dcc	-0.29417264
159	0xbdc84673	-0.09779062
160	0xbd45c363	-0.04828204
161	0x3e2fdf13	0.1717494
162	0xbe05efcb	-0.13079755
163	0xbe3df3c6	-0.18550023
164	0x3e2e5f8d	0.17028637
165	0x3e811c56	0.2521693
166	0x3dfe40f7	0.12414735
167	0x3c9ded61	0.01927823
168	0xbe527b9f	-0.2055497
169	0xbe424d71	-0.18974854
170	0xbe424170	-0.18970275
171	0x3e941cd3	0.2892824
172	0x3ab91a2a	0.0014122177
173	0x3ed4d3a6	0.41567725
174	0x3ca732ee	0.020410027
175	0x3da49e57	0.080380134

mlp_gin1.bias f4 [16]
0	0xbe83561c	-0.25651634
1	0x3eda2aca	0.4261077
2	0x3e2c6dfe	0.16838834
3	0x3d7baa4b	0.0614417
4	0x3d990404	0.07471469
5	0xbe4b05ff	-0.19826506
6	0xbd0afed7	-0.03393444
7	0xbefe0f65	-0.4962112
8	0xbea91298	-0.33021998
9	0x3e4c51be	0.19953057
10	0xbe2e17af	-0.17001222
11	0xbec68e18	-0.38780284
12	0xbe0e1eef	-0.13878988
13	0xbe4658a8	-0.19369757
14	0x3cd5b022	0.026084963
15	0x3d7c2a5a	0.061563827

gin1.nn.weight f4 [16, 11]
0	0x3d2044d5	0.039128143
1	0xbcaa5f45	-0.020797381
2	0xbc972e5f	-0.018454729
3	0xbe518b89	-0.20463385
4	0x3d88bc0f	0.06676494
5	0xbda3667c	-0.07978532
6	0xbdbf9a31	-0.093555816
7	0x3db682b2	0.08911647
8	0x3e39ca2a	0.18143526
9	0xbe2328d7	-0.15933548
10	0xbe044827	-0.12918149
11	0x3e875248	0.26429963
12	0xbe11b50a	-0.14229217
13	0x3de459df	0.11149954
14	0xbe117826	-0.14205989
15	0xbe12f8f9	-0.14352788
16	0xbdf94062	-0.12170483
17	0x3d923e80	0.07140827
18	0xbe095633	-0.13411789
19	0xbe659e2d	-0.2242362
20	0x3c888cfc	0.01666879
21	0x3e5fe0cb	0.21863095
22	0x3d8f9716	0.07011239
23	0x3d8084c0	0.0627532
24	0x3e1e1f0e	0.15441534
25	0xbd9bb90f	-0.076036565
26	0x3cda34d0	0.026636511
27	0x3e54dafc	0.20786661
28	0xbe6aaa1c	-0.22916454
29	0x3c21395f	0.0098403385
30	0xbedfae22	-0.4368754
31	0xbbf4080c	-0.0074472483
32	0x3b8340ae	0.004005513
33	0x3dc9ec56	0.09859531
34	0x3e80bd16	0.2514426
35	0xbe8a7d7a	-0.27048856
36	0xbda973d9	-0.08274049
37	0xbd7f17a0	-0.06227839
38	0xbe167468	-0.14692843
39	0x3e67b418	0.22627294
40	0xbdcfa758	-0.1013934
41	0x3efe5368	0.4967301
42	0x3cb954a7	0.022623373
43	0xbd3d78cb	-0.046257775
44	0x3db17a70	0.08665931
45	0xbd5a1b9b	-0.053248983
46	0x3e80c816	0.25152653
47	0xbe87f77d	-0.26556006
48	0x3eb08ea7	0.34483835
49	0x3e786dc0	0.24260616
50	0xbe933aa3	-0.28755674
51	0x3e947935	0.28998724
52	0x3b83287c	0.004002629
53	0x3acf0e52	0.0015797114
54	0xbe190ec2	-0.14947036
55	0x3d79ccc6	0.060986303
56	0x3e1633df	0.14668225
57	0x3e1c524e	0.15265772
58	0xbc5d1bbf	-0.013495385
59	0xbcdf44fa	-0.02725457
60	0x3e6d0fc8	0.23150551
61	0x3e144c25	0.14482172
62	0x3da6d9f0	0.08147037
63	0x3f03e276	0.51517427
64	0xbcd74136	-0.026276212
65	0xbed31d37	-0.41233227
66	0x3d80bf07	0.062864356
67	0xbd965e9f	-0.07342266
68	0x3e32981d	0.17440839
69	0xbe20e561	-0.15712501
70	0x3d36af60	0.044600844
71	0x3d1854f7	0.037190404
72	0x3e7dd2d4	0.24787456
73	0xbdf3231c	-0.11871931
74	0xbe16f69f	-0.14742516
75	0x3d8bbe73	0.06823435
76	0x3e41ffc6	0.18945226
77	0x3b89a947	0.0042010876
78	0x3cac73d1	0.02105132
79	0xbde11f65	-0.10992316
80	0x3dd05c68	0.10173875
81	0x3d5ef85f	0.054436084
82	0x3d025c5c	0.031826362
83	0x3d61c43d	0.055118788
84	0xbe15ac8c	-0.14616603
85	0x3d8a7936	0.067614004
86	0x3e24c5c7	0.16091071
87	0xbedf82b1	-0.43654397
88	0xbe19d483	-0.15022473
89	0xbe38167a	-0.17977324
90	0xbe127031	-0.1430061
91	0xbdc38365	-0.09546546
92	0xbd6f6086	-0.05844166
93	0x3cb0d5f3	0.021586394
94	0x3e0b97a8	0.13632071
95	0xbe65f98e	-0.22458479
96	0x3e482bb3	0.1954792
97	0x3d8a78fd	0.06761358
98	0xbe4a97ca	-0.19784465
99	0x3da3a4bd	0.07990406
100	0xbdb53eae	-0.08849846
101	0x3dd20224	0.102543145
102	0x3d30b46e	0.04314082
103	0x3c2a435a	0.010392034
104	0x3da08cdc	0.07839367
105	0x3d03c0be	0.032166235
106	0x3e060e27	0.13091336
107	0xbc6b662e	-0.014367623
108	0xbd899ed7	-0.067197494
109	0x3ea9e495	0.33182207
110	0x3c9bbbfb	0.019010535
111	0x3dfda588	0.12385088
112	0xbd2527ea	-0.04032127
113	0xbe1fef8b	-0.15618722
114	0x3da4b579	0.08042426
115	0xbd653696	-0.05596026
116	0x3e3d6751	0.18496443
117	0x3da5fc82	0.08104803
118	0xbce0b5cb	-0.027430436
119	0xbc6692f2	-0.01407312
120	0x3c1f50f8	0.009723894
121	0x3e8b3c39	0.27194384
122	0xbe484e1a	-0.19561043
123	0xbdd54a87	-0.104146056
124	0xbe40af70	-0.18816924
125	0x3e973833	0.29535064
126	0x3e114a88	0.14188588
127	0xbe034dde	-0.12822673
128	0x3d8d43ff	0.06897735
129	0xbe676caf	-0.22600053
130	0xbe008441	-0.12550451
131	0x3d90eedf	0.07076811
132	0xbe223445	-0.15840252
133	0x3c7bd452	0.015370445
134	0xbe1744f9	-0.14772405
135	0x3db8be5d	0.09020684
136	0xbe024a29	-0.12723602
137	0xbdf513ce	-0.11966668
138	0xbd8dfefc	-0.069334
139	0x3df715f5	0.12064735
140	0x3ee92ba2	0.45541102
141	0x3e3749ce	0.17899248
142	0xbe95d0de	-0.29260916
143	0xbd15424d	-0.036440182
144	0xbcd8135d	-0.02637642
145	0x3de4236e	0.1113957
146	0x3e0bdd4b	0.13658635
147	0xbe79757a	-0.2436122
148	0xbe6f74b0	-0.23384356
149	0x3d016b27	0.03159633
150	0xbe53dce2	-0.20689729
151	0x3d7c4058	0.0615848
152	0xbda9fd26	-0.08300237
153	0xbe419cc5	-0.18907459
154	0x3cbe20d2	0.02320901
155	0x3cc39e56	0.023879211
156	0x3dbc8adf	0.09206175
157	0xbdd4ed19	-0.10396785
158	0xbe969dcc	-0.29417264
159	0xbdc84673	-0.09779062
160	0xbd45c363	-0.04828204
161	0x3e2fdf13	0.1717494
162	0xbe05efcb	-0.13079755
163	0xbe3df3c6	-0.18550023
164	0x3e2e5f8d	0.17028637
165	0x3e811c56	0.2521693
166	0x3dfe40f7	0.12414735
167	0x3c9ded61	0.01927823
168	0xbe527b9f	-0.2055497
169	0xbe424d71	-0.18974854
170	0xbe424170	-0.18970275
171	0x3e941cd3	0.2892824
172	0x3ab91a2a	0.0014122177
173	0x3ed4d3a6	0.41567725
174	0x3ca732ee	0.020410027
175	0x3da49e57	0.080380134

gin1.nn.bias f4 [16]
0	0xbe83561c	-0.25651634
1	0x3eda2aca	0.4261077
2	0x3e2c6dfe	0.16838834
3	0x3d7baa4b	0.0614417
4	0x3d990404	0.07471469
5	0xbe4b05ff	-0.19826506
6	0xbd0afed7	-0.03393444
7	0xbefe0f65	-0.4962112
8	0xbea91298	-0.33021998
9	0x3e4c51be	0.19953057
10	0xbe2e17af	-0.17001222
11	0xbec68e18	-0.38780284
12	0xbe0e1eef	-0.13878988
13	0xbe4658a8	-0.19369757
14	0x3cd5b022	0.026084963
15	0x3d7c2a5a	0.061563827

mlp_gin2.weight f4 [16, 16]
0	0xbd7f2e3a	-0.062299944
1	0xbdc93928	-0.09825355
2	0x3e528597	0.20558773
3	0x3c860849	0.016361373
4	0xbae4e76d	-0.001746399
5	0xbea393e6	-0.31948775
6	0x3df8276d	0.12116895
7	0xbd85da99	-0.06535835
8	0x3e130921	0.14358951
9	0xbe2050d9	-0.15655841
10	0x3dc05c64	0.09392622
11	0xbe71f66b	-0.23629157
12	0xbe76395d	-0.2404532
13	0xbe024d14	-0.12724715
14	0x3cc220c7	0.02369727
15	0xbe6282d4	-0.2212022
16	0xbd2070a8	-0.039169937
17	0xbd942288	-0.07233149
18	0x3d431f2c	0.04763715
19	0xbd04c49e	-0.03241407
20	0xbd5293db	-0.051410537
21	0x3922d252	0.00015527874
22	0xbe24f415	-0.16108735
23	0xbdf13298	-0.11777228
24	0x3cb8fd8d	0.02258184
25	0xbdbab999	-0.09117431
26	0xbc9ea7fd	-0.019367212
27	0x3d15ecb7	0.036602702
28	0xbb867a81	-0.004103959
29	0xbe56d9ec	-0.20981568
30	0xbe329b92	-0.17442158
31	0xbd9a9d75	-0.07549564
32	0xbe0e0e1e	-0.13872573
33	0x3c9cea60	0.019154727
34	0xbc9c825e	-0.019105133
35	0xbde3da76	-0.111256525
36	0xbe4359da	-0.19077244
37	0xbde871af	-0.113498084
38	0x3dcb8516	0.099374935
39	0x3e18475e	0.14870974
40	0xbe8d1ea6	-0.27562445
41	0xbdaae3ad	-0.08344207
42	0x3d8fe97c	0.070269555
43	0xbe64e512	-0.22353008
44	0x3df4e114	0.11956993
45	0x3dd482e5	0.10376529
46	0xbe4161c5	-0.18884952
47	0x3dc0e717	0.09419077
48	0x3db173b9	0.086646505
49	0x3e687e0e	0.22704336
50	0x3d8cd2c8	0.06876141
51	0x3e356e80	0.17717934
52	0xbe6b5bdc	-0.2298426
53	0xbe8d88e8	-0.27643514
54	0x3de69cb9	0.11260361
55	0x3e069e57	0.1314634
56	0x3dd293b8	0.10282081
57	0xbdd84f59	-0.10562009
58	0xbd15ffac	-0.03662078
59	0xbd3535ec	-0.044240877
60	0xbc2d12f0	-0.010563597
61	0x3e9481a7	0.29005167
62	0xbe552ce1	-0.20817901
63	0x3dd10d31	0.10207594
64	0xbe174aa9	-0.14774574
65	0x3ba63817	0.0050726044
66	0xbe459e26	-0.1929861
67	0x3eb074a4	0.3446399
68	0x3e0c8025	0.13720758
69	0x3e003f15	0.12524064
70	0x3e859b3e	0.26095003
71	0x3de0eb1b	0.10982343
72	0xbd81a15b	-0.06329604
73	0xbd1cb4b8	-0.038258284
74	0x3d1252de	0.03572356
75	0xbea0cc2a	-0.31405765
76	0xbd2ab968	-0.041680723
77	0xbda05b88	-0.07829958
78	0x3dd5a8e3	0.10432603
79	0xbeb16cde	-0.34653372
80	0x3cb2ef63	0.021842664
81	0xbe26055d	-0.16212983
82	0x3e5d84db	0.21632712
83	0x3dd90247	0.105961375
84	0xbe83a250	-0.25709772
85	0xbcb6e225	-0.022324631
86	0xbdc5fe39	-0.0966763
87	0xbe2ab984	-0.16672331
88	0x3d8570d2	0.065156594
89	0x3e277f12	0.16357067
90	0x3d2f41d6	0.042787395
91	0x3db63e14	0.08898559
92	0xbd4f51d8	-0.05061516
93	0x3e7908b7	0.2431973
94	0x3d885308	0.06656462
95	0xb974f310	-0.00023360201
96	0x3d48dc56	0.049038254
97	0xbd93cb42	-0.07216503
98	0x3ddb0c82	0.10695745
99	0x3d766ca0	0.060162187
100	0x3cf7ced4	0.03024999
101	0xbdd4086c	-0.10353169
102	0x3e653da0	0.2238679
103	0x3e61433c	0.21998304
104	0xbd7c911a	-0.061661817
105	0x3dc71f4b	0.097227655
106	0xbdad7ce3	-0.08471086
107	0x3def4f38	0.11685032
108	0x3e643e63	0.22289424
109	0xbe5c1f35	-0.2149628
110	0x3e216190	0.15759873
111	0xbe50f587	-0.20406161
112	0x3dc20ad5	0.09474722
113	0xbe6985c7	-0.22804938
114	0xbdc04995	-0.09389035
115	0xbe6ee129	-0.2332808
116	0x3d83a33a	0.06427617
117	0x3e3d9314	0.18513137
118	0xbde227e9	-0.110427685
119	0x3e052d54	0.13005573
120	0x3e14bb08	0.14524472
121	0x3dcb07fe	0.09913634
122	0xbdc6c91b	-0.097063266
123	0x3e0f1ea4	0.13976532
124	0xbd4d8082	-0.050171383
125	0x3d430315	0.04761036
126	0xbd73aa41	-0.05948854
127	0x3e2690fa	0.16266242
128	0x3deddbe2	0.11614205
129	0xbc922551	-0.01784006
130	0x3dcb48a3	0.09925964
131	0xbd60cd62	-0.05488337
132	0x3e0629d1	0.13101889
133	0xbae9da60	-0.001784157
134	0xbe822713	-0.25420436
135	0x3e1ffa77	0.15622889
136	0x3e925a04	0.285843
137	0xbe66c3c4	-0.22535616
138	0xbbb3e3c6	-0.005489799
139	0xbe195e88	-0.14977467
140	0xbdeb96d4	-0.115033776
141	0xbe1c79e5	-0.15280874
142	0xbe431419	-0.19050635
143	0xbe99280b	-0.29913363
144	0xbe9c6f52	-0.3055368
145	0xbe025d93	-0.12731008
146	0xbcb79287	-0.022408737
147	0xbc8efdcb	-0.017455002
148	0x3dadbb61	0.08483005
149	0xbe816b44	-0.2527715
150	0x3de4e9d2	0.1117741
151	0xbe23b049	-0.15985216
152	0xbe7721f2	-0.24134043
153	0xbe725898	-0.23666608
154	0xbe9369ea	-0.28791744
155	0xbe994d01	-0.29941562
156	0xbdbb9872	-0.09159936
157	0xbe64599b	-0.22299807
158	0xbe39eeb0	-0.18157458
159	0x3e03ee1f	0.12883805
160	0x3d0d68ce	0.034523778
161	0x3e8bdccb	0.2731689
162	0x3e0ab063	0.13543849
163	0xbdb318d0	-0.08744967
164	0x3e68fbf9	0.2275237
165	0xbd30f788	-0.043204814
166	0xbdba0fa7	-0.09085017
167	0xbcc26361	-0.023729028
168	0x3e70b019	0.23504676
169	0x3d13752c	0.036000416
170	0x3dc56a8d	0.096394636
171	0xbca16561	-0.019701662
172	0x3db44967	0.08803063
173	0xbcafd5d9	-0.021464275
174	0xbd182ec5	-0.037153978
175	0x3d8c0e12	0.06838621
176	0xbe278fa7	-0.16363393
177	0x3dde9b23	0.10869434
178	0x3cf7262d	0.03016957
179	0xbd4f90e0	-0.050675273
180	0xbd8d01f8	-0.06885141
181	0x3dc090ba	0.094026044
182	0xbe837314	-0.25673735
183	0x3d15806c	0.036499426
184	0xbe6e6475	-0.23280509
185	0xbe43c104	-0.19116598
186	0xbd40e721	-0.04709542
187	0xbe1f11ac	-0.15534085
188	0xbdda7395	-0.10666577
189	0xbe3fb015	-0.18719514
190	0x3c8ef3fe	0.017450329
191	0xbe754804	-0.23953253
192	0xbdb3847c	-0.08765504
193	0xbd0681fe	-0.032838814
194	0x3bf38fc4	0.0074329097
195	0xbe6520fb	-0.22375862
196	0x3e6c6cba	0.23088351
197	0x3e278777	0.1636027
198	0xb9476f68	-0.00019019621
199	0x3de16d64	0.11007193
200	0x3da2500f	0.07925426
201	0xbe44a7ce	-0.19204637
202	0xbdbf7bc4	-0.09349778
203	0x3e5f0f65	0.21783216
204	0xbd0f31c6	-0.034959577
205	0xbd73b9a2	-0.059503205
206	0x3dc3d84c	0.0956274
207	0x3e0d7516	0.13814196
208	0x3e1670bc	0.14691442
209	0xbe556c3e	-0.20842072
210	0x3d93fe3f	0.07226228
211	0xbe1026d3	-0.1407731
212	0x3ca67333	0.020318603
213	0x3e0d604c	0.13806266
214	0x3e2ae6c7	0.16689597
215	0xbe42f8c1	-0.19040205
216	0x3e02b7fc	0.12765497
217	0xbe758d5a	-0.23979703
218	0x3e1b0e1b	0.151421
219	0x3e382bba	0.1798543
220	0x3e0ba5bb	0.1363744
221	0x3c1afc49	0.0094595635
222	0x3d5e74ac	0.054310486
223	0xbd8dd428	-0.06925231
224	0x3d9da906	0.07698254
225	0x3dfd140c	0.12357339
226	0xbe802bff	-0.25033566
227	0xbd87176f	-0.065962665
228	0xbd8cd428	-0.06876403
229	0xbe95ccfe	-0.2925796
230	0xbe6cbe93	-0.23119573
231	0x3dd75be5	0.10515574
232	0xbe791754	-0.24325305
233	0xbd9d2cf3	-0.07674589
234	0x3d3dd01e	0.046341054
235	0xbe4f45a6	-0.20241413
236	0x3d07ac4f	0.03312331
237	0xbe73ef35	-0.23821719
238	0x3dcab59c	0.098979205
239	0xbe5a688c	-0.21328944
240	0xbd895221	-0.06705118
241	0x3d8b824b	0.06811961
242	0x3e1416d3	0.14461832
243	0x3d214b96	0.039378725
244	0xbe3f58df	-0.18686245
245	0x3e095dea	0.13414732
246	0xbd92af8f	-0.071623914
247	0x3e6d43b2	0.23170355
248	0xbd2dc123	-0.042420518
249	0x3d12ade3	0.035810363
250	0xbe01ff8f	-0.12695144
251	0xbb98e8e2	-0.0046664337
252	0xbdec9c7d	-0.11553285
253	0x3d1562ec	0.036471292
254	0xbe0744c3	-0.13209824
255	0xbdc823db	-0.09772464

mlp_gin2.bias f4 [16]
0	0x3ec7e970	0.39045286
1	0xbc08b72e	-0.008344455
2	0xbf04729a	-0.5173737
3	0x3ebc0713	0.36724147
4	0xbf7fe928	-0.99965143
5	0xc009799b	-2.1480472
6	0xbef2c941	-0.4741917
7	0xbeb748ba	-0.35797673
8	0xbf1ab4ad	-0.6043194
9	0xbea0bbb9	-0.3139322
10	0xc007cc67	-2.1218507
11	0xbe8bf638	-0.27336287
12	0x3f871393	1.0552849
13	0xbee6d3c2	-0.45083433
14	0xbd14f537	-0.036366668
15	0xbedee71e	-0.43535703

gin2.nn.weight f4 [16, 16]
0	0xbd7f2e3a	-0.062299944
1	0xbdc93928	-0.09825355
2	0x3e528597	0.20558773
3	0x3c860849	0.016361373
4	0xbae4e76d	-0.001746399
5	0xbea393e6	-0.31948775
6	0x3df8276d	0.12116895
7	0xbd85da99	-0.06535835
8	0x3e130921	0.14358951
9	0xbe2050d9	-0.15655841
10	0x3dc05c64	0.09392622
11	0xbe71f66b	-0.23629157
12	0xbe76395d	-0.2404532
13	0xbe024d14	-0.12724715
14	0x3cc220c7	0.02369727
15	0xbe6282d4	-0.2212022
16	0xbd2070a8	-0.039169937
17	0xbd942288	-0.07233149
18	0x3d431f2c	0.04763715
19	0xbd04c49e	-0.03241407
20	0xbd5293db	-0.051410537
21	0x3922d252	0.00015527874
22	0xbe24f415	-0.16108735
23	0xbdf13298	-0.11777228
24	0x3cb8fd8d	0.02258184
25	0xbdbab999	-0.09117431
26	0xbc9ea7fd	-0.019367212
27	0x3d15ecb7	0.036602702
28	0xbb867a81	-0.004103959
29	0xbe56d9ec	-0.20981568
30	0xbe329b92	-0.17442158
31	0xbd9a9d75	-0.07549564
32	0xbe0e0e1e	-0.13872573
33	0x3c9cea60	0.019154727
34	0xbc9c825e	-0.019105133
35	0xbde3da76	-0.111256525
36	0xbe4359da	-0.19077244
37	0xbde871af	-0.113498084
38	0x3dcb8516	0.099374935
39	0x3e18475e	0.14870974
40	0xbe8d1ea6	-0.27562445
41	0xbdaae3ad	-0.08344207
42	0x3d8fe97c	0.070269555
43	0xbe64e512	-0.22353008
44	0x3df4e114	0.11956993
45	0x3dd482e5	0.10376529
46	0xbe4161c5	-0.18884952
47	0x3dc0e717	0.09419077
48	0x3db173b9	0.086646505
49	0x3e687e0e	0.22704336
50	0x3d8cd2c8	0.06876141
51	0x3e356e80	0.17717934
52	0xbe6b5bdc	-0.2298426
53	0xbe8d88e8	-0.27643514
54	0x3de69cb9	0.11260361
55	0x3e069e57	0.1314634
56	0x3dd293b8	0.10282081
57	0xbdd84f59	-0.10562009
58	0xbd15ffac	-0.03662078
59	0xbd3535ec	-0.044240877
60	0xbc2d12f0	-0.010563597
61	0x3e9481a7	0.29005167
62	0xbe552ce1	-0.20817901
63	0x3dd10d31	0.10207594
64	0xbe174aa9	-0.14774574
65	0x3ba63817	0.0050726044
66	0xbe459e26	-0.1929861
67	0x3eb074a4	0.3446399
68	0x3e0c8025	0.13720758
69	0x3e003f15	0.12524064
70	0x3e859b3e	0.26095003
71	0x3de0eb1b	0.10982343
72	0xbd81a15b	-0.06329604
73	0xbd1cb4b8	-0.038258284
74	0x3d1252de	0.03572356
75	0xbea0cc2a	-0.31405765
76	0xbd2ab968	-0.041680723
77	0xbda05b88	-0.07829958
78	0x3dd5a8e3	0.10432603
79	0xbeb16cde	-0.34653372
80	0x3cb2ef63	0.021842664
81	0xbe26055d	-0.16212983
82	0x3e5d84db	0.21632712
83	0x3dd90247	0.105961375
84	0xbe83a250	-0.25709772
85	0xbcb6e225	-0.022324631
86	0xbdc5fe39	-0.0966763
87	0xbe2ab984	-0.16672331
88	0x3d8570d2	0.065156594
89	0x3e277f12	0.16357067
90	0x3d2f41d6	0.042787395
91	0x3db63e14	0.08898559
92	0xbd4f51d8	-0.05061516
93	0x3e7908b7	0.2431973
94	0x3d885308	0.06656462
95	0xb974f310	-0.00023360201
96	0x3d48dc56	0.049038254
97	0xbd93cb42	-0.07216503
98	0x3ddb0c82	0.10695745
99	0x3d766ca0	0.060162187
100	0x3cf7ced4	0.03024999
101	0xbdd4086c	-0.10353169
102	0x3e653da0	0.2238679
103	0x3e61433c	0.21998304
104	0xbd7c911a	-0.061661817
105	0x3dc71f4b	0.097227655
106	0xbdad7ce3	-0.08471086
107	0x3def4f38	0.11685032
108	0x3e643e63	0.22289424
109	0xbe5c1f35	-0.2149628
110	0x3e216190	0.15759873
111	0xbe50f587	-0.20406161
112	0x3dc20ad5	0.09474722
113	0xbe6985c7	-0.22804938
114	0xbdc04995	-0.09389035
115	0xbe6ee129	-0.2332808
116	0x3d83a33a	0.06427617
117	0x3e3d9314	0.18513137
118	0xbde227e9	-0.110427685
119	0x3e052d54	0.13005573
120	0x3e14bb08	0.14524472
121	0x3dcb07fe	0.09913634
122	0xbdc6c91b	-0.097063266
123	0x3e0f1ea4	0.13976532
124	0xbd4d8082	-0.050171383
125	0x3d430315	0.04761036
126	0xbd73aa41	-0.05948854
127	0x3e2690fa	0.16266242
128	0x3deddbe2	0.11614205
129	0xbc922551	-0.01784006
130	0x3dcb48a3	0.09925964
131	0xbd60cd62	-0.05488337
132	0x3e0629d1	0.13101889
133	0xbae9da60	-0.001784157
134	0xbe822713	-0.25420436
135	0x3e1ffa77	0.15622889
136	0x3e925a04	0.285843
137	0xbe66c3c4	-0.22535616
138	0xbbb3e3c6	-0.005489799
139	0xbe195e88	-0.14977467
140	0xbdeb96d4	-0.115033776
141	0xbe1c79e5	-0.15280874
142	0xbe431419	-0.19050635
143	0xbe99280b	-0.29913363
144	0xbe9c6f52	-0.3055368
145	0xbe025d93	-0.12731008
146	0xbcb79287	-0.022408737
147	0xbc8efdcb	-0.017455002
148	0x3dadbb61	0.08483005
149	0xbe816b44	-0.2527715
150	0x3de4e9d2	0.1117741
151	0xbe23b049	-0.15985216
152	0xbe7721f2	-0.24134043
153	0xbe725898	-0.23666608
154	0xbe9369ea	-0.28791744
155	0xbe994d01	-0.29941562
156	0xbdbb9872	-0.09159936
157	0xbe64599b	-0.22299807
158	0xbe39eeb0	-0.18157458
159	0x3e03ee1f	0.12883805
160	0x3d0d68ce	0.034523778
161	0x3e8bdccb	0.2731689
162	0x3e0ab063	0.13543849
163	0xbdb318d0	-0.08744967
164	0x3e68fbf9	0.2275237
165	0xbd30f788	-0.043204814
166	0xbdba0fa7	-0.09085017
167	0xbcc26361	-0.023729028
168	0x3e70b019	0.23504676
169	0x3d13752c	0.036000416
170	0x3dc56a8d	0.096394636
171	0xbca16561	-0.019701662
172	0x3db44967	0.08803063
173	0xbcafd5d9	-0.021464275
174	0xbd182ec5	-0.037153978
175	0x3d8c0e12	0.06838621
176	0xbe278fa7	-0.16363393
177	0x3dde9b23	0.10869434
178	0x3cf7262d	0.03016957
179	0xbd4f90e0	-0.050675273
180	0xbd8d01f8	-0.06885141
181	0x3dc090ba	0.094026044
182	0xbe837314	-0.25673735
183	0x3d15806c	0.036499426
184	0xbe6e6475	-0.23280509
185	0xbe43c104	-0.19116598
186	0xbd40e721	-0.04709542
187	0xbe1f11ac	-0.15534085
188	0xbdda7395	-0.10666577
189	0xbe3fb015	-0.18719514
190	0x3c8ef3fe	0.017450329
191	0xbe754804	-0.23953253
192	0xbdb3847c	-0.08765504
193	0xbd0681fe	-0.032838814
194	0x3bf38fc4	0.0074329097
195	0xbe6520fb	-0.22375862
196	0x3e6c6cba	0.23088351
197	0x3e278777	0.1636027
198	0xb9476f68	-0.00019019621
199	0x3de16d64	0.11007193
200	0x3da2500f	0.07925426
201	0xbe44a7ce	-0.19204637
202	0xbdbf7bc4	-0.09349778
203	0x3e5f0f65	0.21783216
204	0xbd0f31c6	-0.034959577
205	0xbd73b9a2	-0.059503205
206	0x3dc3d84c	0.0956274
207	0x3e0d7516	0.13814196
208	0x3e1670bc	0.14691442
209	0xbe556c3e	-0.20842072
210	0x3d93fe3f	0.07226228
211	0xbe1026d3	-0.1407731
212	0x3ca67333	0.020318603
213	0x3e0d604c	0.13806266
214	0x3e2ae6c7	0.16689597
215	0xbe42f8c1	-0.19040205
216	0x3e02b7fc	0.12765497
217	0xbe758d5a	-0.23979703
218	0x3e1b0e1b	0.151421
219	0x3e382bba	0.1798543
220	0x3e0ba5bb	0.1363744
221	0x3c1afc49	0.0094595635
222	0x3d5e74ac	0.054310486
223	0xbd8dd428	-0.06925231
224	0x3d9da906	0.07698254
225	0x3dfd140c	0.12357339
226	0xbe802bff	-0.25033566
227	0xbd87176f	-0.065962665
228	0xbd8cd428	-0.06876403
229	0xbe95ccfe	-0.2925796
230	0xbe6cbe93	-0.23119573
231	0x3dd75be5	0.10515574
232	0xbe791754	-0.24325305
233	0xbd9d2cf3	-0.07674589
234	0x3d3dd01e	0.046341054
235	0xbe4f45a6	-0.20241413
236	0x3d07ac4f	0.03312331
237	0xbe73ef35	-0.23821719
238	0x3dcab59c	0.098979205
239	0xbe5a688c	-0.21328944
240	0xbd895221	-0.06705118
241	0x3d8b824b	0.06811961
242	0x3e1416d3	0.14461832
243	0x3d214b96	0.039378725
244	0xbe3f58df	-0.18686245
245	0x3e095dea	0.13414732
246	0xbd92af8f	-0.071623914
247	0x3e6d43b2	0.23170355
248	0xbd2dc123	-0.042420518
249	0x3d12ade3	0.035810363
250	0xbe01ff8f	-0.12695144
251	0xbb98e8e2	-0.0046664337
252	0xbdec9c7d	-0.11553285
253	0x3d1562ec	0.036471292
254	0xbe0744c3	-0.13209824
255	0xbdc823db	-0.09772464

gin2.nn.bias f4 [16]
0	0x3ec7e970	0.39045286
1	0xbc08b72e	-0.008344455
2	0xbf04729a	-0.5173737
3	0x3ebc0713	0.36724147
4	0xbf7fe928	-0.99965143
5	0xc009799b	-2.1480472
6	0xbef2c941	-0.4741917
7	0xbeb748ba	-0.35797673
8	0xbf1ab4ad	-0.6043194
9	0xbea0bbb9	-0.3139322
10	0xc007cc67	-2.1218507
11	0xbe8bf638	-0.27336287
12	0x3f871393	1.0552849
13	0xbee6d3c2	-0.45083433
14	0xbd14f537	-0.036366668
15	0xbedee71e	-0.43535703

mlp_gin3.weight f4 [2, 16]
0	0x3db26d8e	0.08712302
1	0xbe3c62d7	-0.1839708
2	0xbe05b281	-0.13056375
3	0x3e561ffe	0.20910642
4	0xbe8ce90c	-0.2752155
5	0x3df02614	0.11726013
6	0x3e1cf321	0.15327121
7	0xbdd1baed	-0.102407314
8	0xbe4a546c	-0.19758767
9	0xbe157cf6	-0.1459845
10	0x3c500a8f	0.01269783
11	0xbbdf3a42	-0.006812365
12	0x3e1e81f0	0.15479255
13	0xbcf81c1b	-0.03028684
14	0xbd845c3d	-0.064629056
15	0xbdc7f9d2	-0.09764446
16	0xbd1bae1d	-0.038007844
17	0xbe3255d4	-0.17415553
18	0x3e0b170a	0.13583007
19	0x3e1e0301	0.15430833
20	0xbe0cb457	-0.13740669
21	0x3e84b08b	0.25915942
22	0x3e455574	0.19270879
23	0x3d314020	0.043274045
24	0xbb1dfe80	-0.0024107993
25	0xbd9e4db2	-0.07729663
26	0x3e4d6265	0.20057066
27	0xbc946ef1	-0.018119307
28	0xbdb5c4ce	-0.08875428
29	0x3dbea470	0.09308708
30	0x3c73c5e5	0.014878725
31	0x3d405a00	0.04696083

mlp_gin3.bias f4 [2]
0	0x3f4c8f77	0.7990641
1	0xbf503112	-0.81324875

gin3.nn.weight f4 [2, 16]
0	0x3db26d8e	0.08712302
1	0xbe3c62d7	-0.1839708
2	0xbe05b281	-0.13056375
3	0x3e561ffe	0.20910642
4	0xbe8ce90c	-0.2752155
5	0x3df02614	0.11726013
6	0x3e1cf321	0.15327121
7	0xbdd1baed	-0.102407314
8	0xbe4a546c	-0.19758767
9	0xbe157cf6	-0.1459845
10	0x3c500a8f	0.01269783
11	0xbbdf3a42	-0.006812365
12	0x3e1e81f0	0.15479255
13	0xbcf81c1b	-0.03028684
14	0xbd845c3d	-0.064629056
15	0xbdc7f9d2	-0.09764446
16	0xbd1bae1d	-0.038007844
17	0xbe3255d4	-0.17415553
18	0x3e0b170a	0.13583007
19	0x3e1e0301	0.15430833
20	0xbe0cb457	-0.13740669
21	0x3e84b08b	0.25915942
22	0x3e455574	0.19270879
23	0x3d314020	0.043274045
24	0xbb1dfe80	-0.0024107993
25	0xbd9e4db2	-0.07729663
26	0x3e4d6265	0.20057066
27	0xbc946ef1	-0.018119307
28	0xbdb5c4ce	-0.08875428
29	0x3dbea470	0.09308708
30	0x3c73c5e5	0.014878725
31	0x3d405a00	0.04696083

gin3.nn.bias f4 [2]
0	0x3f4c8f77	0.7990641
1	0xbf503112	-0.81324875
