formal/model_SG_org_hf=-1.pickle.pth (torch, 5131 bytes, 12 tensors)

mlp_gin1.weight f4 [16, 11]
000000 c0 e8 49 be 50 06 cf bc 07 52 d2 3d 20 c6 b7 3d
       -0.19717693 -0.025271565 0.10269552 0.08973336
000010 98 1a 83 bd 58 5e 51 be e7 62 9d be fb 29 18 be
       -0.06401557 -0.20446146 -0.3073952 -0.14859764
000020 a6 28 0a bb d6 7d fe bd bc 29 65 bd a1 22 eb be
       -0.0021081357 -0.12426345 -0.055948004 -0.45924857
000030 54 0d 1b 3d e8 a6 76 be 1a 1f 37 bd 37 23 af 3e
       0.037854508 -0.24087107 -0.044707395 0.34206554
000040 72 ea 22 3d 3d a4 d9 3d 75 f1 63 be 8f 65 0f 3f
       0.039774366 0.10627029 -0.22260077 0.5601434
000050 6f 68 99 bd 92 19 f4 3c f9 e9 b0 bd 22 a4 5a 3e
       -0.07490622 0.02979735 -0.08638377 0.21351674
000060 a7 d3 0f be 0e 20 73 be 70 b1 18 3e f3 9e 1a 3e
       -0.14045583 -0.23742697 0.14911437 0.15099697
000070 89 f3 6f be a0 55 bb bd 1f 4c 32 3d 72 38 c6 3b
       -0.23432745 -0.09147191 0.043529626 0.0060492093
000080 36 ed fe bd b5 39 7b be e0 3f d6 3d 10 e4 27 be
       -0.12447588 -0.24533732 0.10461402 -0.16395593
000090 bf 63 d7 bc 4d 3b d5 bd 2f 7d f2 3b 54 03 da bd
       -0.02629268 -0.10411701 0.007400177 -0.10645166
0000a0 3d 6b c8 3d 5d 71 b6 bd f8 7e 23 3e ee fa 3c be
       0.09786079 -0.08908341 0.15966403 -0.18455097
0000b0 5b 6f 70 3c f7 45 2f be fe 2c fc bd 48 1b 78 3e
       0.014674987 -0.17116533 -0.12313269 0.24229157
0000c0 22 22 88 be ef 07 64 be 16 d8 ab bd 7e cb 3b 3e
       -0.2658854 -0.22268651 -0.083908245 0.18339345
0000d0 3a 3b 49 3e c0 a0 45 be 33 2d 07 bd 43 a8 a8 3e
       0.196515 -0.19299603 -0.03300209 0.32940874
0000e0 89 23 43 3d b1 3b d5 3e be 12 e9 3c 69 d8 fe bd
       0.04764131 0.41647103 0.02845132 -0.12443621
0000f0 4f 1e 3e bd 6d ae e9 bb b9 1b ee bd cb 06 1b be
       -0.046415623 -0.007131389 -0.116263814 -0.1513931
000100 9a 02 06 bd fc e6 08 3a 8b 71 2d be 81 e4 57 3d
       -0.032717325 0.00052224076 -0.16937844 0.052708153
000110 cd dc 14 bd fe 12 ea bd da 40 59 3d 79 3b 65 3e
       -0.036343385 -0.11429404 0.053040363 0.22385968
000120 e8 0f 54 3e 05 79 69 3e 3e de 56 be ab f3 4e 3e
       0.20709193 0.22800072 -0.20983216 0.2021014
000130 0c 65 89 3e 15 fb a3 bd 3b 05 3a bd 8f 55 09 bf
       0.26834905 -0.080068745 -0.045415144 -0.5364618
000140 08 73 b9 3d d4 d2 b6 bd e7 ef 7d bb 4e 0f 10 be
       0.090551436 -0.08926931 -0.003874773 -0.14068338
000150 6e bf 1c be 5c 68 bd 3e 7f 1b 14 3e 1a 89 cf bb
       -0.153074 0.36993682 0.14463614 -0.0063334825
000160 71 2b 8a bc 0c 8a 93 be 1a 7b 4b 3d 4d ab c5 3c
       -0.016866418 -0.2881626 0.049677946 0.024129534
000170 1e 01 92 be 0d 03 9a 3e 65 67 9b 3e 04 4a 70 3d
       -0.28516477 0.30080453 0.3035232 0.058664337
000180 05 49 84 3b 7b 65 a3 be fc 02 82 be 6a 3e 0c 3e
       0.004037025 -0.3191336 -0.25392902 0.13695684
000190 9b 91 94 3c dc aa 96 3d a7 11 1e 3e 30 f4 16 be
       0.018135836 0.073568076 0.15436421 -0.14741588
0001a0 87 9a 07 3e 1e 8b 5f 3e dc 96 c4 3d 07 b4 f5 3d
       0.13242541 0.21830413 0.09599087 0.11997228
0001b0 5f 88 89 be 53 9e 79 be e7 cc 78 3e 60 10 f3 bd
       -0.26861855 -0.24376802 0.24296914 -0.11868358
0001c0 fc 71 67 be a0 71 8b be 5f 0d 44 bd 05 68 96 3d
       -0.22602075 -0.27235126 -0.047864314 0.07344059
0001d0 45 de 51 be bf 06 98 be a5 e7 c3 3e 14 32 35 be
       -0.20494945 -0.29692647 0.38262668 -0.17694885
0001e0 8d be 81 3d a5 3a a6 bd 5c d8 a5 bd 6c a4 15 3e
       0.06335173 -0.08116654 -0.08097908 0.14613503
0001f0 52 52 1b 3e 49 52 f2 be 67 b4 41 3e de d1 3a 3e
       0.15168121 -0.47328404 0.18916474 0.1824412
000200 2a 8a ab 3c fb d8 81 3e 06 ed 65 3e 7b d4 0c be
       0.020939905 0.25360855 0.22453699 -0.1375293
000210 2a 17 58 3d 1d 5a 32 bd c7 71 7b 3d 19 5a e7 3d
       0.052756466 -0.04354297 0.061387803 0.11296482
000220 2f 7f 2a be 0d 34 15 be 04 cd 2b be 65 a5 19 be
       -0.16650079 -0.14570637 -0.16777426 -0.150045
000230 48 9b cb 3d ff 4b 0a be bf 2f 07 be 3c 98 2a be
       0.09941727 -0.13505553 -0.13201807 -0.16659635
000240 de 70 33 3e 85 c0 98 be 67 d3 80 be e5 ad a6 bd
       0.17523524 -0.2983438 -0.25161287 -0.081386365
000250 20 1a a6 bd 65 73 06 3d 85 29 2d 3e 9a 94 9c 3e
       -0.08110452 0.032824893 0.1691037 0.30582124
000260 b0 38 3a bd 14 95 3e be 0a cf 20 be 9b d2 bd bd
       -0.045464218 -0.18611556 -0.15703979 -0.092686854
000270 40 72 13 be f3 ab 28 3e 1b 68 00 3d ae ac 71 3d
       -0.14399052 0.16471843 0.031349283 0.05900257
000280 dc 56 33 3d 01 8c 89 bd 5e d5 3e 3e ff 34 01 be
       0.043784007 -0.06716157 0.1863608 -0.12617873
000290 19 ad ae 3d 71 4e fd 3d 0b 19 91 3c 47 f7 85 3d
       0.085291095 0.12368477 0.017712137 0.06541305
0002a0 1f 5b 95 bd ad e2 0b 3e c2 ed 70 3d 4e a3 9b 3d
       -0.072927706 0.13660689 0.058820494 0.07599507
0002b0 59 90 29 be 29 18 b7 3d 8e a6 83 ba 78 ab ff 3d
       -0.1655897 0.08940155 -0.0010044144 0.12483877

mlp_gin1.bias f4 [16]
000000 d3 e8 2c 3e 75 e6 c0 bd 62 9e 71 be 08 21 2e be
       0.1688569 -0.09418956 -0.23595574 -0.17004788
000010 22 c2 a7 bc 18 17 6d 3f 28 47 0b 3f 4a 4d 99 3d
       -0.020478312 0.92613363 0.5440545 0.07485445
000020 5d dd dd 3d ca 61 01 3e 86 23 b1 3e 44 48 2f be
       0.10833237 0.1263496 0.34597415 -0.17117411
000030 b6 b7 4c bf d8 b4 6b 3c 89 52 cd 3e 5b 90 de be
       -0.7996782 0.014386378 0.40102032 -0.4346951

gin1.nn.weight f4 [16, 11]
000000 c0 e8 49 be 50 06 cf bc 07 52 d2 3d 20 c6 b7 3d
       -0.19717693 -0.025271565 0.10269552 0.08973336
000010 98 1a 83 bd 58 5e 51 be e7 62 9d be fb 29 18 be
       -0.06401557 -0.20446146 -0.3073952 -0.14859764
000020 a6 28 0a bb d6 7d fe bd bc 29 65 bd a1 22 eb be
       -0.0021081357 -0.12426345 -0.055948004 -0.45924857
000030 54 0d 1b 3d e8 a6 76 be 1a 1f 37 bd 37 23 af 3e
       0.037854508 -0.24087107 -0.044707395 0.34206554
000040 72 ea 22 3d 3d a4 d9 3d 75 f1 63 be 8f 65 0f 3f
       0.039774366 0.10627029 -0.22260077 0.5601434
000050 6f 68 99 bd 92 19 f4 3c f9 e9 b0 bd 22 a4 5a 3e
       -0.07490622 0.02979735 -0.08638377 0.21351674
000060 a7 d3 0f be 0e 20 73 be 70 b1 18 3e f3 9e 1a 3e
       -0.14045583 -0.23742697 0.14911437 0.15099697
000070 89 f3 6f be a0 55 bb bd 1f 4c 32 3d 72 38 c6 3b
       -0.23432745 -0.09147191 0.043529626 0.0060492093
000080 36 ed fe bd b5 39 7b be e0 3f d6 3d 10 e4 27 be
       -0.12447588 -0.24533732 0.10461402 -0.16395593
000090 bf 63 d7 bc 4d 3b d5 bd 2f 7d f2 3b 54 03 da bd
       -0.02629268 -0.10411701 0.007400177 -0.10645166
0000a0 3d 6b c8 3d 5d 71 b6 bd f8 7e 23 3e ee fa 3c be
       0.09786079 -0.08908341 0.15966403 -0.18455097
0000b0 5b 6f 70 3c f7 45 2f be fe 2c fc bd 48 1b 78 3e
       0.014674987 -0.17116533 -0.12313269 0.24229157
0000c0 22 22 88 be ef 07 64 be 16 d8 ab bd 7e cb 3b 3e
       -0.2658854 -0.22268651 -0.083908245 0.18339345
0000d0 3a 3b 49 3e c0 a0 45 be 33 2d 07 bd 43 a8 a8 3e
       0.196515 -0.19299603 -0.03300209 0.32940874
0000e0 89 23 43 3d b1 3b d5 3e be 12 e9 3c 69 d8 fe bd
       0.04764131 0.41647103 0.02845132 -0.12443621
0000f0 4f 1e 3e bd 6d ae e9 bb b9 1b ee bd cb 06 1b be
       -0.046415623 -0.007131389 -0.116263814 -0.1513931
000100 9a 02 06 bd fc e6 08 3a 8b 71 2d be 81 e4 57 3d
       -0.032717325 0.00052224076 -0.16937844 0.052708153
000110 cd dc 14 bd fe 12 ea bd da 40 59 3d 79 3b 65 3e
       -0.036343385 -0.11429404 0.053040363 0.22385968
000120 e8 0f 54 3e 05 79 69 3e 3e de 56 be ab f3 4e 3e
       0.20709193 0.22800072 -0.20983216 0.2021014
000130 0c 65 89 3e 15 fb a3 bd 3b 05 3a bd 8f 55 09 bf
       0.26834905 -0.080068745 -0.045415144 -0.5364618
000140 08 73 b9 3d d4 d2 b6 bd e7 ef 7d bb 4e 0f 10 be
       0.090551436 -0.08926931 -0.003874773 -0.14068338
000150 6e bf 1c be 5c 68 bd 3e 7f 1b 14 3e 1a 89 cf bb
       -0.153074 0.36993682 0.14463614 -0.0063334825
000160 71 2b 8a bc 0c 8a 93 be 1a 7b 4b 3d 4d ab c5 3c
       -0.016866418 -0.2881626 0.049677946 0.024129534
000170 1e 01 92 be 0d 03 9a 3e 65 67 9b 3e 04 4a 70 3d
       -0.28516477 0.30080453 0.3035232 0.058664337
000180 05 49 84 3b 7b 65 a3 be fc 02 82 be 6a 3e 0c 3e
       0.004037025 -0.3191336 -0.25392902 0.13695684
000190 9b 91 94 3c dc aa 96 3d a7 11 1e 3e 30 f4 16 be
       0.018135836 0.073568076 0.15436421 -0.14741588
0001a0 87 9a 07 3e 1e 8b 5f 3e dc 96 c4 3d 07 b4 f5 3d
       0.13242541 0.21830413 0.09599087 0.11997228
0001b0 5f 88 89 be 53 9e 79 be e7 cc 78 3e 60 10 f3 bd
       -0.26861855 -0.24376802 0.24296914 -0.11868358
0001c0 fc 71 67 be a0 71 8b be 5f 0d 44 bd 05 68 96 3d
       -0.22602075 -0.27235126 -0.047864314 0.07344059
0001d0 45 de 51 be bf 06 98 be a5 e7 c3 3e 14 32 35 be
       -0.20494945 -0.29692647 0.38262668 -0.17694885
0001e0 8d be 81 3d a5 3a a6 bd 5c d8 a5 bd 6c a4 15 3e
       0.06335173 -0.08116654 -0.08097908 0.14613503
0001f0 52 52 1b 3e 49 52 f2 be 67 b4 41 3e de d1 3a 3e
       0.15168121 -0.47328404 0.18916474 0.1824412
000200 2a 8a ab 3c fb d8 81 3e 06 ed 65 3e 7b d4 0c be
       0.020939905 0.25360855 0.22453699 -0.1375293
000210 2a 17 58 3d 1d 5a 32 bd c7 71 7b 3d 19 5a e7 3d
       0.052756466 -0.04354297 0.061387803 0.11296482
000220 2f 7f 2a be 0d 34 15 be 04 cd 2b be 65 a5 19 be
       -0.16650079 -0.14570637 -0.16777426 -0.150045
000230 48 9b cb 3d ff 4b 0a be bf 2f 07 be 3c 98 2a be
       0.09941727 -0.13505553 -0.13201807 -0.16659635
000240 de 70 33 3e 85 c0 98 be 67 d3 80 be e5 ad a6 bd
       0.17523524 -0.2983438 -0.25161287 -0.081386365
000250 20 1a a6 bd 65 73 06 3d 85 29 2d 3e 9a 94 9c 3e
       -0.08110452 0.032824893 0.1691037 0.30582124
000260 b0 38 3a bd 14 95 3e be 0a cf 20 be 9b d2 bd bd
       -0.045464218 -0.18611556 -0.15703979 -0.092686854
000270 40 72 13 be f3 ab 28 3e 1b 68 00 3d ae ac 71 3d
       -0.14399052 0.16471843 0.031349283 0.05900257
000280 dc 56 33 3d 01 8c 89 bd 5e d5 3e 3e ff 34 01 be
       0.043784007 -0.06716157 0.1863608 -0.12617873
000290 19 ad ae 3d 71 4e fd 3d 0b 19 91 3c 47 f7 85 3d
       0.085291095 0.12368477 0.017712137 0.06541305
0002a0 1f 5b 95 bd ad e2 0b 3e c2 ed 70 3d 4e a3 9b 3d
       -0.072927706 0.13660689 0.058820494 0.07599507
0002b0 59 90 29 be 29 18 b7 3d 8e a6 83 ba 78 ab ff 3d
       -0.1655897 0.08940155 -0.0010044144 0.12483877

gin1.nn.bias f4 [16]
000000 d3 e8 2c 3e 75 e6 c0 bd 62 9e 71 be 08 21 2e be
       0.1688569 -0.09418956 -0.23595574 -0.17004788
000010 22 c2 a7 bc 18 17 6d 3f 28 47 0b 3f 4a 4d 99 3d
       -0.020478312 0.92613363 0.5440545 0.07485445
000020 5d dd dd 3d ca 61 01 3e 86 23 b1 3e 44 48 2f be
       0.10833237 0.1263496 0.34597415 -0.17117411
000030 b6 b7 4c bf d8 b4 6b 3c 89 52 cd 3e 5b 90 de be
       -0.7996782 0.014386378 0.40102032 -0.4346951

mlp_gin2.weight f4 [16, 16]
000000 49 aa f9 bd f0 50 d4 bd 41 b6 03 3e 02 61 a8 3d
       -0.121906824 -0.10367 0.12862493 0.08221628
000010 7e 96 0c 3e ee 65 17 be 56 f1 2d be a2 83 99 be
       0.13729283 -0.14784977 -0.16986594 -0.2998324
000020 d6 47 84 be 90 02 bd 3d df 29 0b be 54 b5 57 3e
       -0.25836056 0.092290044 -0.13590191 0.21065265
000030 e1 d5 73 be a6 8e 80 bd 4a 66 1d 3e 62 04 83 3c
       -0.23812057 -0.06277208 0.15371051 0.0159933
000040 03 f5 9c bd 44 d8 4a be fe e7 a5 bd 85 12 3f 3e
       -0.0766392 -0.19809061 -0.081008896 0.18659408
000050 55 0f 90 3d a0 c7 91 3b e3 d5 53 bd 88 51 38 bd
       0.07034174 0.004448846 -0.05171765 -0.04499963
000060 23 e5 4c bd b7 75 ff bd de d9 78 bd e4 0b 4c bd
       -0.05002321 -0.12473624 -0.06075465 -0.049816027
000070 65 cd de 3d ef a0 94 bc dd ba 81 3e e8 eb 8b 3d
       0.1087902 -0.018143145 0.25337878 0.06832105
000080 64 96 44 3b 09 ff 83 3e 1e 5b 0c 3d 05 58 e8 3d
       0.0029996866 0.25780514 0.034266584 0.113449134
000090 2a 03 70 be 5a 8a 1c 3d 83 f7 0d be 65 3f d6 bd
       -0.23438707 0.03821788 -0.1386395 -0.1046131
0000a0 81 b7 d8 3c 6a 0d 99 3d 12 5e f4 bd db 85 27 3e
       0.026454689 0.07473262 -0.11932005 0.16359656
0000b0 10 1c 9b bd 70 d2 12 be a3 84 46 3e 67 98 fd 3d
       -0.07573712 -0.14338088 0.19386534 0.12382584
0000c0 04 ca c6 3c 59 39 93 3d 9e a5 3e bb ad e6 b4 3c
       0.02426625 0.071886726 -0.0029090415 0.022082651
0000d0 49 78 18 3e b4 ab 43 3e 73 a2 92 3e 63 dc 03 3e
       0.14889635 0.19108468 0.28639564 0.1287704
0000e0 59 d8 89 bc 67 e8 cf 3d a9 07 1f be d6 5d 77 3d
       -0.016826795 0.10151749 -0.15530266 0.060392223
0000f0 24 03 49 be a2 16 1d 3e 36 0d 77 3e 10 70 a0 bd
       -0.19630104 0.15340665 0.24126133 -0.07833874
000100 ab 1f 27 be 97 22 8c 3d 3f c9 17 3e 01 45 fa bd
       -0.16320674 0.06842535 0.14822863 -0.12220193
000110 da 2a 86 be 06 98 21 3e 1f 6f 3a be 9d 7d 28 3e
       -0.26204568 0.15780649 -0.18206452 0.16454168
000120 bc a7 4f be ba a3 a2 3d b8 c6 81 be 94 95 94 bd
       -0.2027883 0.079413846 -0.25346923 -0.07255092
000130 47 c3 0c 3e 81 98 18 3e f7 2f 39 bc 84 aa e3 bd
       0.13746367 0.14901926 -0.01130294 -0.11116508
000140 37 c0 c9 bd fe 56 ac 3c b5 45 81 be 63 7b 22 be
       -0.09851115 0.021037575 -0.25248495 -0.15867381
000150 02 5f a6 bd a3 66 30 3d 3a c2 cb bd c6 e2 25 3e
       -0.0812359 0.043066632 -0.09949155 0.16199788
000160 a7 6a 05 be 30 fd 86 be a1 95 ab bd 29 3d 26 3d
       -0.13028966 -0.26365042 -0.08378149 0.04058567
000170 f8 42 ff 3d 72 15 cd bd 87 17 99 be bd 88 7b 3d
       0.12463945 -0.10013856 -0.29900762 0.0614097
000180 6e 85 69 bc c0 37 10 be 2a 51 a8 3c 78 4e 6c 3e
       -0.0142530035 -0.14083767 0.020546515 0.23076808
000190 2c a3 9e bd be 97 cb 3a 17 16 37 3e fd 81 78 3e
       -0.07745966 0.0015532894 0.1787952 0.24268337
0001a0 97 31 b4 be aa c8 ca bd 5a e3 83 bd 2c 58 8d 3e
       -0.35194084 -0.09901555 -0.06439848 0.27606332
0001b0 ce 30 54 be d0 9b 17 be be 70 2a be db 67 5d bd
       -0.20721743 -0.14805532 -0.1664457 -0.054054122
0001c0 40 82 1e be 58 a7 80 bd e8 c0 83 3d 13 ec 70 be
       -0.15479374 -0.06281918 0.06433278 -0.23527555
0001d0 d1 3c 22 bd 9c d2 45 be 65 2f 3f bd 13 34 ca ba
       -0.03960878 -0.19318622 -0.04667606 -0.0015426896
0001e0 1a cb ef 3c 60 ee a1 3c 25 8f 6f bd 49 f0 5f bb
       0.029271651 0.019766986 -0.058486123 -0.003417032
0001f0 0e a1 ac 3e 3f 3f c8 bc 5f 50 ae bd 67 a1 46 3e
       0.33716625 -0.02444422 -0.08511423 0.19397508
000200 ce f7 42 3e 5a 18 b6 3d f8 b7 fb bd 95 ca 13 be
       0.19039842 0.088913634 -0.12290949 -0.14432748
000210 81 63 01 bd bb 56 5e 3d 65 b6 1a 3d be 79 75 be
       -0.031589035 0.05428193 0.0377716 -0.23972222
000220 ea 2a 14 be 45 8d 3f 3e e4 62 62 be 42 f6 8a be
       -0.14469495 0.18706234 -0.22108036 -0.27141005
000230 ac 0d 22 be fb c7 4d be c8 f4 3e bd 06 a3 00 3e
       -0.15825528 -0.20095818 -0.04662016 0.12562189
000240 f8 2e 2a bd 2a 5b 55 3e 77 6a 89 be 9c 73 54 be
       -0.0415487 0.20835558 -0.2683904 -0.20747226
000250 90 1f d2 3d 32 19 9c be 28 76 52 bd 45 80 a3 be
       0.10259926 -0.30487972 -0.051382214 -0.319338
000260 37 2c 48 be f6 b5 93 be 93 73 18 ba a1 6f 78 bd
       -0.19548117 -0.28849763 -0.0005815562 -0.060653333
000270 bb 12 93 be c2 c4 20 3d db da 41 3c 82 ab 70 bd
       -0.28725228 0.039250143 0.011831964 -0.058757313
000280 85 ed 79 be 6f 57 48 be 89 42 32 be ba e6 1d be
       -0.24407013 -0.19564603 -0.17408194 -0.15420046
000290 94 dd 60 bd 81 a3 95 be d6 cd 62 be 66 34 2e 3c
       -0.054898813 -0.29226306 -0.22148833 0.01063261
0002a0 08 f4 05 bd cc fb 11 3d 8d 4d c3 3d 0b ce 9b be
       -0.03270343 0.035640523 0.09536276 -0.30430636
0002b0 71 2e 0f be ba 19 4d be 0c 47 87 bd 50 1e 87 3d
       -0.1398256 -0.20029345 -0.06605348 0.065975785
0002c0 2b 0c 02 bd ff 06 20 bd 36 f1 e3 3d bd 18 4b be
       -0.031749886 -0.039069172 0.11129992 -0.19833656
0002d0 1e 91 6f bd f2 d7 2d 3d e8 05 08 3e f9 e2 9e 3d
       -0.058488004 0.04244227 0.13283503 0.07758135
0002e0 2e 4f 30 bd 02 a6 0e 3e de 98 32 be 1d 9b 0b be
       -0.04304426 0.13930514 -0.17441127 -0.1363339
0002f0 96 d8 a4 3d eb 82 99 3e 3e f4 34 be b0 71 00 3e
       0.08049123 0.29982695 -0.17671296 0.12543368
000300 35 f3 32 be 78 37 0d be d0 6c ee bd 6c 45 99 3d
       -0.17475589 -0.13790691 -0.11641848 0.07483944
000310 3e 12 d9 bd cc cf 1d be 95 fb 57 bd f6 1c 24 bc
       -0.105991825 -0.154113 -0.05273016 -0.01001667
000320 b9 de c7 bd 60 b7 72 be 4c 62 f4 bd 5d 5d 01 be
       -0.09759278 -0.23702765 -0.11932811 -0.12633272
000330 ff 42 f7 3d 57 e8 b4 bd 4b 36 fd 3d 5b 6b 85 be
       0.12073325 -0.08833378 0.12363871 -0.26058468
000340 cf 9e 0d be bb 43 e0 bd c0 cd c5 3d aa 1a c4 bb
       -0.13830112 -0.109504186 0.09658384 -0.005984624
000350 69 a2 14 3e fc 19 9e be ec b3 a2 3d 6a 68 ce bd
       0.1451508 -0.308792 0.079444736 -0.10078509
000360 ac ab 2d 3e 77 ea 41 3e 5d eb b7 bd 02 3c 45 3e
       0.16960019 0.18937097 -0.08980439 0.19261172
000370 33 d5 02 3e 3e f5 cb bd 6b e5 59 be 17 96 a1 bd
       0.12776642 -0.099588856 -0.21278922 -0.078899555
000380 05 1b 85 be 15 e4 8b be 1d c4 ad 3c c9 eb 05 be
       -0.25997177 -0.2732245 0.021211678 -0.13078226
000390 c1 f3 08 3e 9a 09 97 bd 85 77 90 bd ce 1f 83 be
       0.13374235 -0.07374878 -0.070540465 -0.25610203
0003a0 25 74 c2 3c 82 c6 82 be c3 7d b1 bc 09 48 9c bd
       0.023737023 -0.25542074 -0.021666413 -0.07630927
0003b0 29 ce 95 be f2 67 ee 3d ff d8 2b 3e a7 24 42 3e
       -0.2925885 0.1164092 0.16781996 0.18959294
0003c0 ce 5d 25 be 17 b3 4c 3e 5b 30 62 3e 8f 8e 15 be
       -0.16149065 0.19990192 0.22088759 -0.14605163
0003d0 90 f1 39 bd 50 ff 13 3e 0a bf ba 3d 20 bb d8 3d
       -0.045396388 0.14452863 0.09118469 0.10582566
0003e0 1e 48 43 3e 42 c2 d7 bd ab 02 37 3c c1 ac fb bd
       0.1907048 -0.105350986 0.01117007 -0.122888096
0003f0 f3 cb 3d 3d 17 6c 13 bc 70 e6 13 be b0 df 14 3e
       0.04633708 -0.008997939 -0.14443374 0.14538455

mlp_gin2.bias f4 [16]
000000 7d d7 ed bc b7 ba e5 3f ea 95 2e 3e 5a 67 29 be
       -0.029033417 1.7947606 0.17049375 -0.16543332
000010 02 8d 31 3e 84 60 27 be 26 20 a5 3e df 69 31 40
       0.17338946 -0.16345412 0.3225109 2.7720869
000020 29 39 3b 3e a5 97 19 bc 82 81 80 be 37 5c 71 3e
       0.18283524 -0.009374534 -0.25098807 0.23570333
000030 7f a2 2d bd db 0b 2e bd ca 80 5d 3d 2b 2d c6 3d
       -0.042391296 -0.042491775 0.0540779 0.09676584

gin2.nn.weight f4 [16, 16]
000000 49 aa f9 bd f0 50 d4 bd 41 b6 03 3e 02 61 a8 3d
       -0.121906824 -0.10367 0.12862493 0.08221628
000010 7e 96 0c 3e ee 65 17 be 56 f1 2d be a2 83 99 be
       0.13729283 -0.14784977 -0.16986594 -0.2998324
000020 d6 47 84 be 90 02 bd 3d df 29 0b be 54 b5 57 3e
       -0.25836056 0.092290044 -0.13590191 0.21065265
000030 e1 d5 73 be a6 8e 80 bd 4a 66 1d 3e 62 04 83 3c
       -0.23812057 -0.06277208 0.15371051 0.0159933
000040 03 f5 9c bd 44 d8 4a be fe e7 a5 bd 85 12 3f 3e
       -0.0766392 -0.19809061 -0.081008896 0.18659408
000050 55 0f 90 3d a0 c7 91 3b e3 d5 53 bd 88 51 38 bd
       0.07034174 0.004448846 -0.05171765 -0.04499963
000060 23 e5 4c bd b7 75 ff bd de d9 78 bd e4 0b 4c bd
       -0.05002321 -0.12473624 -0.06075465 -0.049816027
000070 65 cd de 3d ef a0 94 bc dd ba 81 3e e8 eb 8b 3d
       0.1087902 -0.018143145 0.25337878 0.06832105
000080 64 96 44 3b 09 ff 83 3e 1e 5b 0c 3d 05 58 e8 3d
       0.0029996866 0.25780514 0.034266584 0.113449134
000090 2a 03 70 be 5a 8a 1c 3d 83 f7 0d be 65 3f d6 bd
       -0.23438707 0.03821788 -0.1386395 -0.1046131
0000a0 81 b7 d8 3c 6a 0d 99 3d 12 5e f4 bd db 85 27 3e
       0.026454689 0.07473262 -0.11932005 0.16359656
0000b0 10 1c 9b bd 70 d2 12 be a3 84 46 3e 67 98 fd 3d
       -0.07573712 -0.14338088 0.19386534 0.12382584
0000c0 04 ca c6 3c 59 39 93 3d 9e a5 3e bb ad e6 b4 3c
       0.02426625 0.071886726 -0.0029090415 0.022082651
0000d0 49 78 18 3e b4 ab 43 3e 73 a2 92 3e 63 dc 03 3e
       0.14889635 0.19108468 0.28639564 0.1287704
0000e0 59 d8 89 bc 67 e8 cf 3d a9 07 1f be d6 5d 77 3d
       -0.016826795 0.10151749 -0.15530266 0.060392223
0000f0 24 03 49 be a2 16 1d 3e 36 0d 77 3e 10 70 a0 bd
       -0.19630104 0.15340665 0.24126133 -0.07833874
000100 ab 1f 27 be 97 22 8c 3d 3f c9 17 3e 01 45 fa bd
       -0.16320674 0.06842535 0.14822863 -0.12220193
000110 da 2a 86 be 06 98 21 3e 1f 6f 3a be 9d 7d 28 3e
       -0.26204568 0.15780649 -0.18206452 0.16454168
000120 bc a7 4f be ba a3 a2 3d b8 c6 81 be 94 95 94 bd
       -0.2027883 0.079413846 -0.25346923 -0.07255092
000130 47 c3 0c 3e 81 98 18 3e f7 2f 39 bc 84 aa e3 bd
       0.13746367 0.14901926 -0.01130294 -0.11116508
000140 37 c0 c9 bd fe 56 ac 3c b5 45 81 be 63 7b 22 be
       -0.09851115 0.021037575 -0.25248495 -0.15867381
000150 02 5f a6 bd a3 66 30 3d 3a c2 cb bd c6 e2 25 3e
       -0.0812359 0.043066632 -0.09949155 0.16199788
000160 a7 6a 05 be 30 fd 86 be a1 95 ab bd 29 3d 26 3d
       -0.13028966 -0.26365042 -0.08378149 0.04058567
000170 f8 42 ff 3d 72 15 cd bd 87 17 99 be bd 88 7b 3d
       0.12463945 -0.10013856 -0.29900762 0.0614097
000180 6e 85 69 bc c0 37 10 be 2a 51 a8 3c 78 4e 6c 3e
       -0.0142530035 -0.14083767 0.020546515 0.23076808
000190 2c a3 9e bd be 97 cb 3a 17 16 37 3e fd 81 78 3e
       -0.07745966 0.0015532894 0.1787952 0.24268337
0001a0 97 31 b4 be aa c8 ca bd 5a e3 83 bd 2c 58 8d 3e
       -0.35194084 -0.09901555 -0.06439848 0.27606332
0001b0 ce 30 54 be d0 9b 17 be be 70 2a be db 67 5d bd
       -0.20721743 -0.14805532 -0.1664457 -0.054054122
0001c0 40 82 1e be 58 a7 80 bd e8 c0 83 3d 13 ec 70 be
       -0.15479374 -0.06281918 0.06433278 -0.23527555
0001d0 d1 3c 22 bd 9c d2 45 be 65 2f 3f bd 13 34 ca ba
       -0.03960878 -0.19318622 -0.04667606 -0.0015426896
0001e0 1a cb ef 3c 60 ee a1 3c 25 8f 6f bd 49 f0 5f bb
       0.029271651 0.019766986 -0.058486123 -0.003417032
0001f0 0e a1 ac 3e 3f 3f c8 bc 5f 50 ae bd 67 a1 46 3e
       0.33716625 -0.02444422 -0.08511423 0.19397508
000200 ce f7 42 3e 5a 18 b6 3d f8 b7 fb bd 95 ca 13 be
       0.19039842 0.088913634 -0.12290949 -0.14432748
000210 81 63 01 bd bb 56 5e 3d 65 b6 1a 3d be 79 75 be
       -0.031589035 0.05428193 0.0377716 -0.23972222
000220 ea 2a 14 be 45 8d 3f 3e e4 62 62 be 42 f6 8a be
       -0.14469495 0.18706234 -0.22108036 -0.27141005
000230 ac 0d 22 be fb c7 4d be c8 f4 3e bd 06 a3 00 3e
       -0.15825528 -0.20095818 -0.04662016 0.12562189
000240 f8 2e 2a bd 2a 5b 55 3e 77 6a 89 be 9c 73 54 be
       -0.0415487 0.20835558 -0.2683904 -0.20747226
000250 90 1f d2 3d 32 19 9c be 28 76 52 bd 45 80 a3 be
       0.10259926 -0.30487972 -0.051382214 -0.319338
000260 37 2c 48 be f6 b5 93 be 93 73 18 ba a1 6f 78 bd
       -0.19548117 -0.28849763 -0.0005815562 -0.060653333
000270 bb 12 93 be c2 c4 20 3d db da 41 3c 82 ab 70 bd
       -0.28725228 0.039250143 0.011831964 -0.058757313
000280 85 ed 79 be 6f 57 48 be 89 42 32 be ba e6 1d be
       -0.24407013 -0.19564603 -0.17408194 -0.15420046
000290 94 dd 60 bd 81 a3 95 be d6 cd 62 be 66 34 2e 3c
       -0.054898813 -0.29226306 -0.22148833 0.01063261
0002a0 08 f4 05 bd cc fb 11 3d 8d 4d c3 3d 0b ce 9b be
       -0.03270343 0.035640523 0.09536276 -0.30430636
0002b0 71 2e 0f be ba 19 4d be 0c 47 87 bd 50 1e 87 3d
       -0.1398256 -0.20029345 -0.06605348 0.065975785
0002c0 2b 0c 02 bd ff 06 20 bd 36 f1 e3 3d bd 18 4b be
       -0.031749886 -0.039069172 0.11129992 -0.19833656
0002d0 1e 91 6f bd f2 d7 2d 3d e8 05 08 3e f9 e2 9e 3d
       -0.058488004 0.04244227 0.13283503 0.07758135
0002e0 2e 4f 30 bd 02 a6 0e 3e de 98 32 be 1d 9b 0b be
       -0.04304426 0.13930514 -0.17441127 -0.1363339
0002f0 96 d8 a4 3d eb 82 99 3e 3e f4 34 be b0 71 00 3e
       0.08049123 0.29982695 -0.17671296 0.12543368
000300 35 f3 32 be 78 37 0d be d0 6c ee bd 6c 45 99 3d
       -0.17475589 -0.13790691 -0.11641848 0.07483944
000310 3e 12 d9 bd cc cf 1d be 95 fb 57 bd f6 1c 24 bc
       -0.105991825 -0.154113 -0.05273016 -0.01001667
000320 b9 de c7 bd 60 b7 72 be 4c 62 f4 bd 5d 5d 01 be
       -0.09759278 -0.23702765 -0.11932811 -0.12633272
000330 ff 42 f7 3d 57 e8 b4 bd 4b 36 fd 3d 5b 6b 85 be
       0.12073325 -0.08833378 0.12363871 -0.26058468
000340 cf 9e 0d be bb 43 e0 bd c0 cd c5 3d aa 1a c4 bb
       -0.13830112 -0.109504186 0.09658384 -0.005984624
000350 69 a2 14 3e fc 19 9e be ec b3 a2 3d 6a 68 ce bd
       0.1451508 -0.308792 0.079444736 -0.10078509
000360 ac ab 2d 3e 77 ea 41 3e 5d eb b7 bd 02 3c 45 3e
       0.16960019 0.18937097 -0.08980439 0.19261172
000370 33 d5 02 3e 3e f5 cb bd 6b e5 59 be 17 96 a1 bd
       0.12776642 -0.099588856 -0.21278922 -0.078899555
000380 05 1b 85 be 15 e4 8b be 1d c4 ad 3c c9 eb 05 be
       -0.25997177 -0.2732245 0.021211678 -0.13078226
000390 c1 f3 08 3e 9a 09 97 bd 85 77 90 bd ce 1f 83 be
       0.13374235 -0.07374878 -0.070540465 -0.25610203
0003a0 25 74 c2 3c 82 c6 82 be c3 7d b1 bc 09 48 9c bd
       0.023737023 -0.25542074 -0.021666413 -0.07630927
0003b0 29 ce 95 be f2 67 ee 3d ff d8 2b 3e a7 24 42 3e
       -0.2925885 0.1164092 0.16781996 0.18959294
0003c0 ce 5d 25 be 17 b3 4c 3e 5b 30 62 3e 8f 8e 15 be
       -0.16149065 0.19990192 0.22088759 -0.14605163
0003d0 90 f1 39 bd 50 ff 13 3e 0a bf ba 3d 20 bb d8 3d
       -0.045396388 0.14452863 0.09118469 0.10582566
0003e0 1e 48 43 3e 42 c2 d7 bd ab 02 37 3c c1 ac fb bd
       0.1907048 -0.105350986 0.01117007 -0.122888096
0003f0 f3 cb 3d 3d 17 6c 13 bc 70 e6 13 be b0 df 14 3e
       0.04633708 -0.008997939 -0.14443374 0.14538455

gin2.nn.bias f4 [16]
000000 7d d7 ed bc b7 ba e5 3f ea 95 2e 3e 5a 67 29 be
       -0.029033417 1.7947606 0.17049375 -0.16543332
000010 02 8d 31 3e 84 60 27 be 26 20 a5 3e df 69 31 40
       0.17338946 -0.16345412 0.3225109 2.7720869
000020 29 39 3b 3e a5 97 19 bc 82 81 80 be 37 5c 71 3e
       0.18283524 -0.009374534 -0.25098807 0.23570333
000030 7f a2 2d bd db 0b 2e bd ca 80 5d 3d 2b 2d c6 3d
       -0.042391296 -0.042491775 0.0540779 0.09676584

mlp_gin3.weight f4 [2, 16]
000000 e5 e2 a9 3d e2 04 f5 ba 21 be 07 3e 71 c0 dc bd
       0.0829523 -0.0018693472 0.13256122 -0.10778893
000010 1f 55 34 3e 05 eb ca bc 3c ec 66 bd 25 3c fd 3e
       0.17610596 -0.02477027 -0.056377634 0.4945995
000020 b1 a3 8f 3d b5 29 29 be 86 ff 3b bd 6a 14 a2 3c
       0.070136435 -0.16519816 -0.045897983 0.019785125
000030 40 72 f6 3d 71 67 46 3e 8d 28 89 bd 26 e2 ca bd
       0.1203351 0.19375397 -0.066971876 -0.09906416
000040 44 b0 56 be ef 3b 84 be 6a 67 e6 bb 95 eb 8e 3d
       -0.20965677 -0.25826976 -0.007031371 0.069785275
000050 df 97 27 be 10 02 22 bd f0 b4 14 be 6e 53 f7 bd
       -0.16366528 -0.03955275 -0.14522147 -0.1207646
000060 91 4c 29 be 97 16 c8 3d 69 cb b6 3d ed 2f 23 be
       -0.16533114 0.09769934 0.08925516 -0.15936251
000070 03 f0 f2 3d dc 15 87 3d 43 ca 55 be 16 52 52 bd
       0.11862185 0.06595966 -0.20877938 -0.051347815

mlp_gin3.bias f4 [2]
000000 71 9b 0c 3f 0b 4b 3e bf
       0.54924685 -0.74333256

gin3.nn.weight f4 [2, 16]
000000 e5 e2 a9 3d e2 04 f5 ba 21 be 07 3e 71 c0 dc bd
       0.0829523 -0.0018693472 0.13256122 -0.10778893
000010 1f 55 34 3e 05 eb ca bc 3c ec 66 bd 25 3c fd 3e
       0.17610596 -0.02477027 -0.056377634 0.4945995
000020 b1 a3 8f 3d b5 29 29 be 86 ff 3b bd 6a 14 a2 3c
       0.070136435 -0.16519816 -0.045897983 0.019785125
000030 40 72 f6 3d 71 67 46 3e 8d 28 89 bd 26 e2 ca bd
       0.1203351 0.19375397 -0.066971876 -0.09906416
000040 44 b0 56 be ef 3b 84 be 6a 67 e6 bb 95 eb 8e 3d
       -0.20965677 -0.25826976 -0.007031371 0.069785275
000050 df 97 27 be 10 02 22 bd f0 b4 14 be 6e 53 f7 bd
       -0.16366528 -0.03955275 -0.14522147 -0.1207646
000060 91 4c 29 be 97 16 c8 3d 69 cb b6 3d ed 2f 23 be
       -0.16533114 0.09769934 0.08925516 -0.15936251
000070 03 f0 f2 3d dc 15 87 3d 43 ca 55 be 16 52 52 bd
       0.11862185 0.06595966 -0.20877938 -0.051347815

gin3.nn.bias f4 [2]
000000 71 9b 0c 3f 0b 4b 3e bf
       0.54924685 -0.74333256
