formal/model_homophily.pth (torch, 5131 bytes, 12 tensors)

mlp_gin1.weight f4 [16, 11]
-0.046881426 -0.35302857 0.1365467 -0.3610875 0.26501134 0.28155273 0.1059387 -0.002391539
0.46871555 -0.17918614 -0.1033051 -0.0934999 0.1863195 -0.17707966 0.11647843 -0.19896415
-0.065898396 0.230617 0.17041484 0.2652188 -0.2728674 -0.23560394 0.3669735 0.021543333
-0.20945126 -0.048573807 0.037528817 -0.050306708 0.28781947 -0.06130153 0.14239275 0.035630405
-0.37542537 -0.054824263 -0.1579065 -0.18761484 0.19173142 -0.27530205 -0.1121901 0.019563446
-0.20540258 0.027078839 0.13526805 -0.042037293 -0.2229905 -0.005683805 0.2465682 0.011762625
-0.19826134 0.036250778 0.24024868 0.066366985 -0.22356355 -0.061199497 -0.022960374 0.11869721
0.17867056 -0.16745032 -0.1890248 -0.05411515 -0.014484279 0.18726265 -0.1313707 -0.13097766
0.008315877 -0.13540322 0.50014573 0.030911746 0.21642569 -0.27352723 -0.21262062 -0.19247523
0.2432192 0.35003346 0.23190741 0.12097096 0.08731737 0.06378758 0.19302478 0.111863576
-0.097928405 0.00078770623 0.14431886 -0.17884378 -0.23940307 -0.08715956 -0.04527302 0.17792325
-0.33578074 -0.17832169 0.0074963374 -0.14341572 0.21527335 -0.12577333 0.13824074 -0.094396785
-0.10830296 -0.23216484 0.05786941 0.0034103824 0.049735937 -0.05408215 -0.08924235 -0.2049186
0.014121069 0.27257657 -0.053028494 -0.1827001 0.008958926 -0.20037542 0.37181702 -0.1449318
-0.042535916 0.104906134 -0.18750618 -0.21805857 0.25561598 0.047548603 -0.0123018315 0.38147342
0.009102206 -0.050311532 -0.024013527 -0.109352075 -0.11587683 -0.2590198 -0.114112385 0.16834943
-0.08874027 -0.06522738 0.14733526 -0.22245087 -0.03134621 -0.20734584 0.19457062 0.2354846
-0.12695095 -0.23205584 0.24472286 0.06313383 0.16399175 0.2219555 0.10969286 0.0736728
0.04996842 0.013600666 0.13800956 0.016218942 0.08901254 -0.060127165 0.0727412 -0.113307856
0.19882102 0.057691794 -0.24363565 -0.03966125 0.2338689 -0.15734234 -0.012309888 -0.0080325715
-0.052142095 0.035457406 0.141098 0.24611129 -0.31498262 -0.14141558 0.09238965 -0.2679014
-0.06159953 0.23323359 -0.29547283 0.25716573 0.13009416 -0.059474308 -0.22526786 -0.25132996
00000000: bd06 40bd 29c0 b4be e6d2 0b3e 76e0 b8be
00000010: 91af 873e ae27 903e 64f6 d83d 5ebb 1cbb
00000020: 7cfb ef3e 927c 37be a091 d3bd e07c bfbd
00000030: 8aca 3e3e 5f54 35be 3e8c ee3d 42bd 4bbe
00000040: bdf5 86bd dd26 6c3e 3a81 2e3e c2ca 873e
00000050: 47b5 8bbe 2942 71be f3e3 bb3e a57b b03c
00000060: 647a 56be 54f5 46bd d1b7 193d 680e 4ebd
00000070: 135d 933e 5017 7bbd 68cf 113e 30f1 113d
00000080: c137 c0be 688f 60bd 3eb2 21be 1b1e 40be
00000090: 3e55 443e 64f4 8cbe ecc3 e5bd 8543 a03c
000000a0: 0e55 52be 71d4 dd3c b583 0a3e 4c2f 2cbd
000000b0: 9f57 64be 363f babb 607c 7c3e 06b8 403c
000000c0: 0505 4bbe b27b 143d c003 763e 6aeb 873d
000000d0: d8ed 64be 53ac 7abd 6517 bcbc 8617 f33d
000000e0: 6af5 363e 1978 2bbe b88f 41be d9a7 5dbd
000000f0: 784f 6dbc c8c1 3f3e 0a86 06be 021f 06be
00000100: 513f 083c 24a7 0abe 8d09 003f a13a fd3c
00000110: b29e 5d3e c30b 8cbe 38b9 59be 3a18 45be
00000120: 740e 793e 9637 b33e 2379 6d3e 9fbf f73d
00000130: 73d3 b23d 10a3 823d 4aa8 453e bb18 e53d
00000140: b08e c8bd 127e 4e3a 53c8 133e d322 37be
00000150: 1426 75be b680 b2bd 3470 39bd 8331 363e
00000160: 74eb abbe f699 36be d6a3 f53b 92db 12be
00000170: 9e70 5c3e b9ca 00be fb8e 0d3e 1a53 c1bd
00000180: f1cd ddbd 9fbc 6dbe 7908 6d3d b980 5f3b
00000190: e9b7 4b3d 3f85 5dbd b1c4 b6bd 2ed6 51be
000001a0: 0e5c 673c 288f 8b3e 6834 59bd bc15 3bbe
000001b0: 76c8 123c 372f 4dbe cd5e be3e 0069 14be
000001c0: 243a 2ebd 07d9 d63d 9f01 40be bf4a 5fbe
000001d0: 19e0 823e 53c2 423d 9f8d 49bc 7c50 c33e
000001e0: 6b21 153c 7713 4ebd 04b8 c4bc fbf3 dfbd
000001f0: d550 edbd 3e9e 84be c1b3 e9bd cb63 2c3e
00000200: 75bd b5bd ef95 85bd 0edf 163e 29ca 63be
00000210: e264 00bd 7852 54be 853d 473e e022 713e
00000220: 6eff 01be 0ca0 6dbe a198 7a3e 4f4c 813d
00000230: 74ed 273e 4d48 633e a6a6 e03d c4e1 963d
00000240: b0ab 4c3d 54d5 5e3c 6152 0d3e 96dd 843c
00000250: 354c b63d e747 76bd 57f9 943d f30d e8bd
00000260: bd97 4b3e 3b4e 6c3d a07b 79be d673 22bd
00000270: 547b 6f3e 5a1e 21be 6aaf 49bc 0c9b 03bc
00000280: f392 55bd c93b 113d fe7b 103e 9904 7c3e
00000290: 6745 a1be 3fcf 10be c936 bd3d 5f2a 89be
000002a0: ca4f 7cbd c9d4 6e3e 3748 97be 3aab 833e
000002b0: 6737 053e 559b 73bd 9eac 66be 52ae 80be

mlp_gin1.bias f4 [16]
0.34907365 -0.19542605 -0.07261967 -0.17059527 0.26595008 0.11503731 -0.017843716 -0.06399307
0.055591248 -0.18554656 0.24627407 0.14273664 -0.06623108 -0.30845797 0.08922787 -0.20889743
00000000: c8b9 b23e c41d 48be 9fb9 94bd 87b0 2ebe
00000010: 9c2a 883e ae98 eb3d fc2c 92bc cc0e 83bd
00000020: a6b3 633d ebff 3dbe 452f 7c3e 8e29 123e
00000030: 29a4 87bd 34ee 9dbe 1abd b63d 35e9 55be

gin1.nn.weight f4 [16, 11]
-0.046881426 -0.35302857 0.1365467 -0.3610875 0.26501134 0.28155273 0.1059387 -0.002391539
0.46871555 -0.17918614 -0.1033051 -0.0934999 0.1863195 -0.17707966 0.11647843 -0.19896415
-0.065898396 0.230617 0.17041484 0.2652188 -0.2728674 -0.23560394 0.3669735 0.021543333
-0.20945126 -0.048573807 0.037528817 -0.050306708 0.28781947 -0.06130153 0.14239275 0.035630405
-0.37542537 -0.054824263 -0.1579065 -0.18761484 0.19173142 -0.27530205 -0.1121901 0.019563446
-0.20540258 0.027078839 0.13526805 -0.042037293 -0.2229905 -0.005683805 0.2465682 0.011762625
-0.19826134 0.036250778 0.24024868 0.066366985 -0.22356355 -0.061199497 -0.022960374 0.11869721
0.17867056 -0.16745032 -0.1890248 -0.05411515 -0.014484279 0.18726265 -0.1313707 -0.13097766
0.008315877 -0.13540322 0.50014573 0.030911746 0.21642569 -0.27352723 -0.21262062 -0.19247523
0.2432192 0.35003346 0.23190741 0.12097096 0.08731737 0.06378758 0.19302478 0.111863576
-0.097928405 0.00078770623 0.14431886 -0.17884378 -0.23940307 -0.08715956 -0.04527302 0.17792325
-0.33578074 -0.17832169 0.0074963374 -0.14341572 0.21527335 -0.12577333 0.13824074 -0.094396785
-0.10830296 -0.23216484 0.05786941 0.0034103824 0.049735937 -0.05408215 -0.08924235 -0.2049186
0.014121069 0.27257657 -0.053028494 -0.1827001 0.008958926 -0.20037542 0.37181702 -0.1449318
-0.042535916 0.104906134 -0.18750618 -0.21805857 0.25561598 0.047548603 -0.0123018315 0.38147342
0.009102206 -0.050311532 -0.024013527 -0.109352075 -0.11587683 -0.2590198 -0.114112385 0.16834943
-0.08874027 -0.06522738 0.14733526 -0.22245087 -0.03134621 -0.20734584 0.19457062 0.2354846
-0.12695095 -0.23205584 0.24472286 0.06313383 0.16399175 0.2219555 0.10969286 0.0736728
0.04996842 0.013600666 0.13800956 0.016218942 0.08901254 -0.060127165 0.0727412 -0.113307856
0.19882102 0.057691794 -0.24363565 -0.03966125 0.2338689 -0.15734234 -0.012309888 -0.0080325715
-0.052142095 0.035457406 0.141098 0.24611129 -0.31498262 -0.14141558 0.09238965 -0.2679014
-0.06159953 0.23323359 -0.29547283 0.25716573 0.13009416 -0.059474308 -0.22526786 -0.25132996
00000000: bd06 40bd 29c0 b4be e6d2 0b3e 76e0 b8be
00000010: 91af 873e ae27 903e 64f6 d83d 5ebb 1cbb
00000020: 7cfb ef3e 927c 37be a091 d3bd e07c bfbd
00000030: 8aca 3e3e 5f54 35be 3e8c ee3d 42bd 4bbe
00000040: bdf5 86bd dd26 6c3e 3a81 2e3e c2ca 873e
00000050: 47b5 8bbe 2942 71be f3e3 bb3e a57b b03c
00000060: 647a 56be 54f5 46bd d1b7 193d 680e 4ebd
00000070: 135d 933e 5017 7bbd 68cf 113e 30f1 113d
00000080: c137 c0be 688f 60bd 3eb2 21be 1b1e 40be
00000090: 3e55 443e 64f4 8cbe ecc3 e5bd 8543 a03c
000000a0: 0e55 52be 71d4 dd3c b583 0a3e 4c2f 2cbd
000000b0: 9f57 64be 363f babb 607c 7c3e 06b8 403c
000000c0: 0505 4bbe b27b 143d c003 763e 6aeb 873d
000000d0: d8ed 64be 53ac 7abd 6517 bcbc 8617 f33d
000000e0: 6af5 363e 1978 2bbe b88f 41be d9a7 5dbd
000000f0: 784f 6dbc c8c1 3f3e 0a86 06be 021f 06be
00000100: 513f 083c 24a7 0abe 8d09 003f a13a fd3c
00000110: b29e 5d3e c30b 8cbe 38b9 59be 3a18 45be
00000120: 740e 793e 9637 b33e 2379 6d3e 9fbf f73d
00000130: 73d3 b23d 10a3 823d 4aa8 453e bb18 e53d
00000140: b08e c8bd 127e 4e3a 53c8 133e d322 37be
00000150: 1426 75be b680 b2bd 3470 39bd 8331 363e
00000160: 74eb abbe f699 36be d6a3 f53b 92db 12be
00000170: 9e70 5c3e b9ca 00be fb8e 0d3e 1a53 c1bd
00000180: f1cd ddbd 9fbc 6dbe 7908 6d3d b980 5f3b
00000190: e9b7 4b3d 3f85 5dbd b1c4 b6bd 2ed6 51be
000001a0: 0e5c 673c 288f 8b3e 6834 59bd bc15 3bbe
000001b0: 76c8 123c 372f 4dbe cd5e be3e 0069 14be
000001c0: 243a 2ebd 07d9 d63d 9f01 40be bf4a 5fbe
000001d0: 19e0 823e 53c2 423d 9f8d 49bc 7c50 c33e
000001e0: 6b21 153c 7713 4ebd 04b8 c4bc fbf3 dfbd
000001f0: d550 edbd 3e9e 84be c1b3 e9bd cb63 2c3e
00000200: 75bd b5bd ef95 85bd 0edf 163e 29ca 63be
00000210: e264 00bd 7852 54be 853d 473e e022 713e
00000220: 6eff 01be 0ca0 6dbe a198 7a3e 4f4c 813d
00000230: 74ed 273e 4d48 633e a6a6 e03d c4e1 963d
00000240: b0ab 4c3d 54d5 5e3c 6152 0d3e 96dd 843c
00000250: 354c b63d e747 76bd 57f9 943d f30d e8bd
00000260: bd97 4b3e 3b4e 6c3d a07b 79be d673 22bd
00000270: 547b 6f3e 5a1e 21be 6aaf 49bc 0c9b 03bc
00000280: f392 55bd c93b 113d fe7b 103e 9904 7c3e
00000290: 6745 a1be 3fcf 10be c936 bd3d 5f2a 89be
000002a0: ca4f 7cbd c9d4 6e3e 3748 97be 3aab 833e
000002b0: 6737 053e 559b 73bd 9eac 66be 52ae 80be

gin1.nn.bias f4 [16]
0.34907365 -0.19542605 -0.07261967 -0.17059527 0.26595008 0.11503731 -0.017843716 -0.06399307
0.055591248 -0.18554656 0.24627407 0.14273664 -0.06623108 -0.30845797 0.08922787 -0.20889743
00000000: c8b9 b23e c41d 48be 9fb9 94bd 87b0 2ebe
00000010: 9c2a 883e ae98 eb3d fc2c 92bc cc0e 83bd
00000020: a6b3 633d ebff 3dbe 452f 7c3e 8e29 123e
00000030: 29a4 87bd 34ee 9dbe 1abd b63d 35e9 55be

mlp_gin2.weight f4 [16, 16]
-0.23972155 -0.25423148 0.07843904 -0.019248664 -0.25056338 -0.028692404 0.035457164 0.18242836
-0.3074971 -0.29291922 0.039551873 0.08155932 0.13934143 0.022097444 -0.16549467 -0.08223152
-0.14729305 -0.30261558 0.049819116 -0.016158981 0.047227893 -0.18002406 0.090821356 -0.24372794
-0.057370517 -0.33196363 -0.20801516 -0.019402612 0.02929474 -0.038417045 -0.19222786 0.021805175
0.030680567 -0.25241175 -0.19959365 0.046719834 0.24252476 -0.121451184 -0.13227636 -0.1427689
-0.14568207 -0.15029834 -0.07495385 -0.18982369 -0.11421358 0.117570296 -0.24080947 -0.040225606
0.016522547 -0.2496758 0.027891759 -0.038224664 0.08658859 0.10527289 -0.1022531 -0.093577735
-0.2952656 0.0642999 -0.102905385 0.015063675 -0.18500815 -0.09957661 -0.009434144 0.064255975
-0.05757705 0.12000038 0.19218327 -0.24147357 -0.083279 -0.12009463 0.097490154 -0.044548772
-0.24127854 -0.16430618 -0.2565151 0.262291 0.16155277 -0.28601035 -0.20476541 0.19068854
-0.23673558 0.096059784 -0.16501781 0.23565651 0.15429266 -0.027932486 -0.075880766 0.12650873
0.022192653 0.12990536 0.04198006 -0.095454045 -0.04632803 0.07767065 0.008733592 -0.011720414
-0.09349259 -0.042219218 -0.19142157 0.044688378 0.0018773839 -0.01698285 -0.29830027 -0.123438366
-0.26306382 0.08677758 -0.102381445 -0.28686634 0.0076033273 0.090283245 -0.19279312 -0.22083582
-0.1852593 -0.04044444 -0.0011955167 -0.049273033 0.20373861 0.14841856 -0.13662736 0.10001481
0.06922933 0.16174869 0.116823085 0.18383819 -0.28856716 -0.23929544 -0.25146547 -0.06387577
-0.25172865 -0.18947724 0.23870647 -0.14161928 -0.23132282 -0.13171634 -0.00055947236 -0.0136515135
0.040843807 -0.30852434 -0.18446523 -0.03842427 0.12588914 -0.16611391 0.13710804 -0.15428655
0.04425245 -0.08865461 -0.059501063 0.28387305 -0.19877225 0.040412504 -0.2967094 0.11083595
-0.09300024 0.1858529 -0.042512313 -0.12532054 0.07459729 -0.1772474 0.0068071242 -0.26533926
-0.1763448 0.13209353 -0.23472856 -0.055438455 -0.22149915 -0.15627016 -0.32305714 0.10958356
-0.08540329 -0.016606852 0.034756903 0.081350505 -0.068469316 0.23964705 -0.20220974 0.17460936
-0.1731404 -0.21328217 -0.04986259 0.009748083 -0.247693 -0.28084326 -0.012021383 -0.12547004
0.07012009 -0.06372334 -0.2880472 0.15888183 -0.15014595 0.1428172 0.051288757 -0.115356624
-0.14721541 -0.014945461 0.06633726 0.093933046 0.10016168 0.092547856 -0.1244881 -0.14203283
-0.080740355 -0.10302003 0.058492966 0.1518958 -0.18301485 0.082250856 0.14633498 -0.31624493
0.26166132 0.0025812697 -0.24333537 -0.04108573 0.08744414 -0.112384036 0.062448215 -0.092534766
0.15161423 0.00013705023 0.025294797 -0.03254854 0.027538963 -0.065661825 0.08729143 0.1159735
0.03856723 -0.043435954 -0.08325171 -0.066411525 -0.16382723 -0.037003364 -0.061026745 -0.117699035
-0.19671948 -0.07324562 0.027138222 -0.15105397 -0.115335286 0.17109357 -0.21704483 -0.16081129
-0.04146511 -0.28585473 0.1274457 -0.091043785 -0.25997657 0.13432404 0.0005903151 -0.09268986
-0.25241557 0.08288004 0.1439774 0.21719378 -0.31650913 -0.14542268 -0.24028762 -0.10380515
00000000: 9179 75be a12a 82be a6a4 a03d 60af 9dbc
00000010: d849 80be 550c ebbc 883b 113d 80ce 3a3e
00000020: 4370 9dbe 82f9 95be 2501 223d 9308 a73d
00000030: 85af 0e3e b305 b53c 6f77 29be 0069 a8bd
00000040: fdd3 16be 6ef0 9abe 210f 4c3d d75f 84bc
00000050: 0972 413d 3a58 38be 8c00 ba3d d193 79be
00000060: 59fd 6abd 23f7 a9be ed01 55be 3af2 9ebc
00000070: 86fb ef3c 315b 1dbd 61d7 44be c4a0 b23c
00000080: d055 fb3c 1d3c 81be 4762 4cbe 4c5d 3f3d
00000090: 6958 783e 66bb f8bd 7473 07be 0332 12be
000000a0: ae2d 15be cfe7 19be 6781 99bd 2461 42be
000000b0: cfe8 e9bd b2c8 f03d c296 76be 9bc3 24bd
000000c0: 4b5a 873c 03ab 7fbe 427d e43c 7791 1cbd
000000d0: 5c55 b13d 5099 d73d 136a d1bd afa5 bfbd
000000e0: 0d2d 97be aaaf 833d 0fc0 d2bd a2cd 763c
000000f0: c772 3dbe d2ee cbbd ab91 1abc a398 833d
00000100: ead5 6bbd c2c2 f53d b1cb 443e d944 77be
00000110: 2e8e aabd 2cf4 f5bd eba8 c73d c678 36bd
00000120: b911 77be e13f 28be f255 83be 024b 863e
00000130: 176e 253e f36f 92be 06ae 51be db43 433e
00000140: d06a 72be feba c43d 6efa 28be f14f 713e
00000150: e5fe 1d3e abd2 e4bc 6067 9bbd 818b 013e
00000160: 5ecd b53c e905 053e 49f3 2b3d 697d c3bd
00000170: 76c2 3dbd ca11 9f3d 5717 0f3c fb06 40bc
00000180: 0b79 bfbd 0fee 2cbd 0404 44be 290b 373d
00000190: 8d12 f63a 9e1f 8bbc d0ba 98be 41cd fcbd
000001a0: 4db0 86be 72b8 b13d 5dad d1bd 25e0 92be
000001b0: 5525 f93b 6ce6 b83d 8f6b 45be c922 62be
000001c0: 9db4 3dbe 12a9 25bd e2b2 9cba 85d2 49bd
000001d0: dba0 503e 09fb 173e 0be8 0bbe 91d4 cc3d
000001e0: 1bc8 8d3d 73a1 253e f140 ef3d 1440 3c3e
000001f0: 13bf 93be dd09 75be 15c0 80be 4dd1 82bd
00000200: 94e2 80be 5206 42be 786f 743e a504 11be
00000210: e4df 6cbe a6e0 06be 8ea9 12ba 99aa 5fbc
00000220: d64b 273d e7f6 9dbe 74e4 3cbe c462 1dbd
00000230: 15e9 003e c419 2abe 0d66 0c3e 4bfd 1dbe
00000240: 0f42 353d 8c90 b5bd 63b7 73bd cf57 913e
00000250: f48a 4bbe 9587 253d 4bea 97be f5fd e23d
00000260: e976 bebd 3950 3e3e 6421 2ebd 0754 00be
00000270: 77c6 983d 5880 35be 4c0e df3b 8cda 87be
00000280: bb93 34be 8743 073e af5c 70be 6f13 63bd
00000290: acd0 62be 4905 20be bf67 a5be 586d e03d
000002a0: ece7 aebd 180b 88bc 415d 0e3d 189b a63d
000002b0: a439 8cbd 0966 753e 1210 4fbe cccc 323e
000002c0: b84b 31be a466 5abe b73c 4cbd 6cb6 1f3c
000002d0: 3ca3 7dbe b0ca 8fbe 56f5 44bc 387b 00be
000002e0: 1f9b 8f3d 6281 82bd ec7a 93be ebb1 223e
000002f0: dcbf 19be ac3e 123e 2914 523d 1840 ecbd
00000300: a3bf 16be cfdd 74bc d4db 873d f85f c03d
00000310: 9121 cd3d bb89 bd3d 9ef3 febd 0e71 11be
00000320: 335b a5bd 2afc d2bd 5296 6f3d 938a 1b3e
00000330: 3f68 3bbe 2373 a83d d6d8 153e dbea a1be
00000340: 79f8 853e 852a 293b e82c 79be 8349 28bd
00000350: ea15 b33d 9a29 e6bd b3c9 7f3d de82 bdbd
00000360: c340 1b3e 24b5 0f39 0937 cf3c 9e51 05bd
00000370: 6499 e13c b579 86bd d9c5 b23d 8483 ed3d
00000380: acf8 1d3d e6e9 31bd df7f aabd c402 88bd
00000390: 53c2 27be d790 17bd 2ef7 79bd 310c f1bd
000003a0: d570 49be cd01 96bd fa50 de3c e4ad 1abe
000003b0: e834 ecbd 2733 2f3e 0041 5ebe b7ab 24be
000003c0: 52d7 29bd 8d5b 92be 2081 023e 2a75 babd
000003d0: a61b 85be 3e8c 093e 60bf 1a3a 2ed4 bdbd
000003e0: 9d3c 81be 03bd a93d d06e 133e 0c68 5e3e
000003f0: 7c0d a2be afe9 14be f50d 76be cb97 d4bd

mlp_gin2.bias f4 [16]
0.11837269 -0.15306938 -0.0044379462 -0.20072155 -0.017181704 -0.22788009 -0.017373815 -0.08971921
-0.24319237 0.013489861 -0.33018732 -0.06960144 0.07806116 -0.071152635 -0.19189599 -0.08052175
00000000: 626d f23d 38be 1cbe 316c 91bb f389 4dbe
00000010: a5c0 8cbc 6659 69be 8853 8ebc b5be b7bd
00000020: 6c07 79be 9404 5d3c 500e a9be 338b 8ebd
00000030: 88de 9f3d 79b8 91bd 6280 44be 96e8 a4bd

gin2.nn.weight f4 [16, 16]
-0.23972155 -0.25423148 0.07843904 -0.019248664 -0.25056338 -0.028692404 0.035457164 0.18242836
-0.3074971 -0.29291922 0.039551873 0.08155932 0.13934143 0.022097444 -0.16549467 -0.08223152
-0.14729305 -0.30261558 0.049819116 -0.016158981 0.047227893 -0.18002406 0.090821356 -0.24372794
-0.057370517 -0.33196363 -0.20801516 -0.019402612 0.02929474 -0.038417045 -0.19222786 0.021805175
0.030680567 -0.25241175 -0.19959365 0.046719834 0.24252476 -0.121451184 -0.13227636 -0.1427689
-0.14568207 -0.15029834 -0.07495385 -0.18982369 -0.11421358 0.117570296 -0.24080947 -0.040225606
0.016522547 -0.2496758 0.027891759 -0.038224664 0.08658859 0.10527289 -0.1022531 -0.093577735
-0.2952656 0.0642999 -0.102905385 0.015063675 -0.18500815 -0.09957661 -0.009434144 0.064255975
-0.05757705 0.12000038 0.19218327 -0.24147357 -0.083279 -0.12009463 0.097490154 -0.044548772
-0.24127854 -0.16430618 -0.2565151 0.262291 0.16155277 -0.28601035 -0.20476541 0.19068854
-0.23673558 0.096059784 -0.16501781 0.23565651 0.15429266 -0.027932486 -0.075880766 0.12650873
0.022192653 0.12990536 0.04198006 -0.095454045 -0.04632803 0.07767065 0.008733592 -0.011720414
-0.09349259 -0.042219218 -0.19142157 0.044688378 0.0018773839 -0.01698285 -0.29830027 -0.123438366
-0.26306382 0.08677758 -0.102381445 -0.28686634 0.0076033273 0.090283245 -0.19279312 -0.22083582
-0.1852593 -0.04044444 -0.0011955167 -0.049273033 0.20373861 0.14841856 -0.13662736 0.10001481
0.06922933 0.16174869 0.116823085 0.18383819 -0.28856716 -0.23929544 -0.25146547 -0.06387577
-0.25172865 -0.18947724 0.23870647 -0.14161928 -0.23132282 -0.13171634 -0.00055947236 -0.0136515135
0.040843807 -0.30852434 -0.18446523 -0.03842427 0.12588914 -0.16611391 0.13710804 -0.15428655
0.04425245 -0.08865461 -0.059501063 0.28387305 -0.19877225 0.040412504 -0.2967094 0.11083595
-0.09300024 0.1858529 -0.042512313 -0.12532054 0.07459729 -0.1772474 0.0068071242 -0.26533926
-0.1763448 0.13209353 -0.23472856 -0.055438455 -0.22149915 -0.15627016 -0.32305714 0.10958356
-0.08540329 -0.016606852 0.034756903 0.081350505 -0.068469316 0.23964705 -0.20220974 0.17460936
-0.1731404 -0.21328217 -0.04986259 0.009748083 -0.247693 -0.28084326 -0.012021383 -0.12547004
0.07012009 -0.06372334 -0.2880472 0.15888183 -0.15014595 0.1428172 0.051288757 -0.115356624
-0.14721541 -0.014945461 0.06633726 0.093933046 0.10016168 0.092547856 -0.1244881 -0.14203283
-0.080740355 -0.10302003 0.058492966 0.1518958 -0.18301485 0.082250856 0.14633498 -0.31624493
0.26166132 0.0025812697 -0.24333537 -0.04108573 0.08744414 -0.112384036 0.062448215 -0.092534766
0.15161423 0.00013705023 0.025294797 -0.03254854 0.027538963 -0.065661825 0.08729143 0.1159735
0.03856723 -0.043435954 -0.08325171 -0.066411525 -0.16382723 -0.037003364 -0.061026745 -0.117699035
-0.19671948 -0.07324562 0.027138222 -0.15105397 -0.115335286 0.17109357 -0.21704483 -0.16081129
-0.04146511 -0.28585473 0.1274457 -0.091043785 -0.25997657 0.13432404 0.0005903151 -0.09268986
-0.25241557 0.08288004 0.1439774 0.21719378 -0.31650913 -0.14542268 -0.24028762 -0.10380515
00000000: 9179 75be a12a 82be a6a4 a03d 60af 9dbc
00000010: d849 80be 550c ebbc 883b 113d 80ce 3a3e
00000020: 4370 9dbe 82f9 95be 2501 223d 9308 a73d
00000030: 85af 0e3e b305 b53c 6f77 29be 0069 a8bd
00000040: fdd3 16be 6ef0 9abe 210f 4c3d d75f 84bc
00000050: 0972 413d 3a58 38be 8c00 ba3d d193 79be
00000060: 59fd 6abd 23f7 a9be ed01 55be 3af2 9ebc
00000070: 86fb ef3c 315b 1dbd 61d7 44be c4a0 b23c
00000080: d055 fb3c 1d3c 81be 4762 4cbe 4c5d 3f3d
00000090: 6958 783e 66bb f8bd 7473 07be 0332 12be
000000a0: ae2d 15be cfe7 19be 6781 99bd 2461 42be
000000b0: cfe8 e9bd b2c8 f03d c296 76be 9bc3 24bd
000000c0: 4b5a 873c 03ab 7fbe 427d e43c 7791 1cbd
000000d0: 5c55 b13d 5099 d73d 136a d1bd afa5 bfbd
000000e0: 0d2d 97be aaaf 833d 0fc0 d2bd a2cd 763c
000000f0: c772 3dbe d2ee cbbd ab91 1abc a398 833d
00000100: ead5 6bbd c2c2 f53d b1cb 443e d944 77be
00000110: 2e8e aabd 2cf4 f5bd eba8 c73d c678 36bd
00000120: b911 77be e13f 28be f255 83be 024b 863e
00000130: 176e 253e f36f 92be 06ae 51be db43 433e
00000140: d06a 72be feba c43d 6efa 28be f14f 713e
00000150: e5fe 1d3e abd2 e4bc 6067 9bbd 818b 013e
00000160: 5ecd b53c e905 053e 49f3 2b3d 697d c3bd
00000170: 76c2 3dbd ca11 9f3d 5717 0f3c fb06 40bc
00000180: 0b79 bfbd 0fee 2cbd 0404 44be 290b 373d
00000190: 8d12 f63a 9e1f 8bbc d0ba 98be 41cd fcbd
000001a0: 4db0 86be 72b8 b13d 5dad d1bd 25e0 92be
000001b0: 5525 f93b 6ce6 b83d 8f6b 45be c922 62be
000001c0: 9db4 3dbe 12a9 25bd e2b2 9cba 85d2 49bd
000001d0: dba0 503e 09fb 173e 0be8 0bbe 91d4 cc3d
000001e0: 1bc8 8d3d 73a1 253e f140 ef3d 1440 3c3e
000001f0: 13bf 93be dd09 75be 15c0 80be 4dd1 82bd
00000200: 94e2 80be 5206 42be 786f 743e a504 11be
00000210: e4df 6cbe a6e0 06be 8ea9 12ba 99aa 5fbc
00000220: d64b 273d e7f6 9dbe 74e4 3cbe c462 1dbd
00000230: 15e9 003e c419 2abe 0d66 0c3e 4bfd 1dbe
00000240: 0f42 353d 8c90 b5bd 63b7 73bd cf57 913e
00000250: f48a 4bbe 9587 253d 4bea 97be f5fd e23d
00000260: e976 bebd 3950 3e3e 6421 2ebd 0754 00be
00000270: 77c6 983d 5880 35be 4c0e df3b 8cda 87be
00000280: bb93 34be 8743 073e af5c 70be 6f13 63bd
00000290: acd0 62be 4905 20be bf67 a5be 586d e03d
000002a0: ece7 aebd 180b 88bc 415d 0e3d 189b a63d
000002b0: a439 8cbd 0966 753e 1210 4fbe cccc 323e
000002c0: b84b 31be a466 5abe b73c 4cbd 6cb6 1f3c
000002d0: 3ca3 7dbe b0ca 8fbe 56f5 44bc 387b 00be
000002e0: 1f9b 8f3d 6281 82bd ec7a 93be ebb1 223e
000002f0: dcbf 19be ac3e 123e 2914 523d 1840 ecbd
00000300: a3bf 16be cfdd 74bc d4db 873d f85f c03d
00000310: 9121 cd3d bb89 bd3d 9ef3 febd 0e71 11be
00000320: 335b a5bd 2afc d2bd 5296 6f3d 938a 1b3e
00000330: 3f68 3bbe 2373 a83d d6d8 153e dbea a1be
00000340: 79f8 853e 852a 293b e82c 79be 8349 28bd
00000350: ea15 b33d 9a29 e6bd b3c9 7f3d de82 bdbd
00000360: c340 1b3e 24b5 0f39 0937 cf3c 9e51 05bd
00000370: 6499 e13c b579 86bd d9c5 b23d 8483 ed3d
00000380: acf8 1d3d e6e9 31bd df7f aabd c402 88bd
00000390: 53c2 27be d790 17bd 2ef7 79bd 310c f1bd
000003a0: d570 49be cd01 96bd fa50 de3c e4ad 1abe
000003b0: e834 ecbd 2733 2f3e 0041 5ebe b7ab 24be
000003c0: 52d7 29bd 8d5b 92be 2081 023e 2a75 babd
000003d0: a61b 85be 3e8c 093e 60bf 1a3a 2ed4 bdbd
000003e0: 9d3c 81be 03bd a93d d06e 133e 0c68 5e3e
000003f0: 7c0d a2be afe9 14be f50d 76be cb97 d4bd

gin2.nn.bias f4 [16]
0.11837269 -0.15306938 -0.0044379462 -0.20072155 -0.017181704 -0.22788009 -0.017373815 -0.08971921
-0.24319237 0.013489861 -0.33018732 -0.06960144 0.07806116 -0.071152635 -0.19189599 -0.08052175
00000000: 626d f23d 38be 1cbe 316c 91bb f389 4dbe
00000010: a5c0 8cbc 6659 69be 8853 8ebc b5be b7bd
00000020: 6c07 79be 9404 5d3c 500e a9be 338b 8ebd
00000030: 88de 9f3d 79b8 91bd 6280 44be 96e8 a4bd

mlp_gin3.weight f4 [2, 16]
0.03308535 0.21458586 0.0019332286 -0.03980058 0.10306274 -0.022456048 -0.119940124 -0.001827549
-0.05395976 0.068022974 -0.08204985 0.09647301 0.029826997 -0.03683402 -0.056688897 0.10138398
-0.03379986 0.15888907 0.09666589 -0.13380633 0.14811185 0.016648557 -0.11378994 0.026376814
0.14947623 0.10805553 -0.017726343 0.027473452 -0.03500191 -0.011930044 0.00054447376 0.16391954
00000000: 8184 073d 65bc 5b3e 6364 fd3a ef05 23bd
00000010: 8f12 d33d bff5 b7bc 2ba3 f5bd 5e8a efba
00000020: e904 5dbd a14f 8b3d c009 a8bd a493 c53d
00000030: bf57 f43c 45df 16bd 9e32 68bd 67a2 cf3d
00000040: b971 0abd d1b3 223e c4f8 c53d 8704 09be
00000050: a2aa 173e 8e62 883c b30a e9bd 3014 d83c
00000060: 4c10 193e 384c dd3d d636 91bc 0110 e13c
00000070: 2a5e 0fbd 3b76 43bc 04bb 0e3a 86da 273e

mlp_gin3.bias f4 [2]
0.26877505 -0.010340822
00000000: e29c 893e 8d6c 29bc

gin3.nn.weight f4 [2, 16]
0.03308535 0.21458586 0.0019332286 -0.03980058 0.10306274 -0.022456048 -0.119940124 -0.001827549
-0.05395976 0.068022974 -0.08204985 0.09647301 0.029826997 -0.03683402 -0.056688897 0.10138398
-0.03379986 0.15888907 0.09666589 -0.13380633 0.14811185 0.016648557 -0.11378994 0.026376814
0.14947623 0.10805553 -0.017726343 0.027473452 -0.03500191 -0.011930044 0.00054447376 0.16391954
00000000: 8184 073d 65bc 5b3e 6364 fd3a ef05 23bd
00000010: 8f12 d33d bff5 b7bc 2ba3 f5bd 5e8a efba
00000020: e904 5dbd a14f 8b3d c009 a8bd a493 c53d
00000030: bf57 f43c 45df 16bd 9e32 68bd 67a2 cf3d
00000040: b971 0abd d1b3 223e c4f8 c53d 8704 09be
00000050: a2aa 173e 8e62 883c b30a e9bd 3014 d83c
00000060: 4c10 193e 384c dd3d d636 91bc 0110 e13c
00000070: 2a5e 0fbd 3b76 43bc 04bb 0e3a 86da 273e

gin3.nn.bias f4 [2]
0.26877505 -0.010340822
00000000: e29c 893e 8d6c 29bc
