formal/realworld/benzene/model_weights/GIN_benzene.pth (torch, 14468 bytes, 14 tensors)

mlp1.weight f4 [32, 14]
00000000: f01c a23d 28a2 a33d 6af1 b53d 03ce 093e
00000010: ed75 8abb e56a ea3d 073c e4bc fdf3 bf3b
00000020: cf25 0000 3179 0000 3adc e93c fdd4 0080
00000030: 3cb6 0080 d925 0000 bbc3 493d 5895 a1be
00000040: ffe0 81be 577d 9fbe 5ddf 99be cc7f 82be
00000050: 6dfc 99be ba2f 99be 1061 0080 9883 0080
00000060: cb88 90bd 6310 0000 ca0b 0080 fb01 0000
00000070: 61cc 0ab8 b006 0000 ee09 0000 5e38 0000
00000080: 4e33 0080 a9fd 0080 d230 0000 0346 0080
00000090: f777 0180 18fa 0000 2039 0080 32c7 0180
000000a0: fc71 0000 165b 0000 5be7 47bc dce6 84be
000000b0: 7a97 9bbd e533 4abe cbad 84be a504 7b3d
000000c0: 58e9 81be 7492 84be 2189 0080 e77e 0100
000000d0: cef3 cbbd 8123 0080 5328 0080 81cc 0000
000000e0: 0c05 33be bd4c a13b cd08 bb3e ca46 603e
000000f0: fe74 8c3e 3ace 813d d5f9 92ba 5905 3dbc
00000100: 2527 0180 fe31 0180 8c62 4b3d fecd 0000
00000110: a93b 0080 e11b 0100 4f09 9dbd 7601 913d
00000120: 4a3b 813d 4439 43be 0081 9dbd 3604 153c
00000130: 50ea 92bd 5b4d 49be fd93 0080 bff9 0000
00000140: 7651 9a3b 4019 0000 ead9 0180 bea0 0080
00000150: 813d b5bd 9988 b4bd 20bf bcbd bde5 573e
00000160: f842 84be 5cae 72bd f62f 64bd 99e5 f4bc
00000170: 31a7 0000 275f 0080 fa2d c8bc 3606 0000
00000180: 3eb4 0080 121b 0080 ef1d 433e 9498 d2be
00000190: c64f 0abe 15ee f1bd d11d 11be d39c 393e
000001a0: af44 e7bb e368 393c 2b71 0080 e5b8 0080
000001b0: 8f78 983d aafb 0000 7423 0180 1494 0080
000001c0: 767b 41be 18cc 20bf 2270 973e f68a 44be
000001d0: 284a a53e d330 d23d 14bf 7d3e 3af7 093e
000001e0: 55fd 0000 136a 0000 6c04 4cbd 94cb 0000
000001f0: d809 0000 f410 0000 add5 8ebd 385d ac3e
00000200: 407c 47be 57c6 56bd 3d6e 0abd 1005 6a3c
00000210: b946 94bc d897 c1ba 4507 0000 318e 0080
00000220: 8491 dcba ef0a 0000 b616 0080 d963 0080
00000230: 591e 36be eeb3 493a 2120 0d3e 1113 46be
00000240: 5ca5 4a3e da42 683b 6eef 8cbb a052 7bbd
00000250: 5b0b 0080 f15a 0080 ec07 193d 4c1a 0080
00000260: 6395 0080 5693 e927 d428 033e 396d d33d
00000270: 7072 d83d 8a30 693c b55c d83d b4ed eaaf
00000280: b670 d83d 1941 d63d f76c 0000 3743 f92a
00000290: 1114 0000 f3ba 0100 4a65 0080 b193 0080
000002a0: 2c9e b2bd baf7 073d 9f31 6b3d cb63 c03e
000002b0: 2b73 da3d 9d6e 25bd 4bc6 073e 655c 0e3e
000002c0: 0e18 9331 d83c 0000 4f14 1cbd 6bb4 0080
000002d0: 3200 0080 4681 0080 0b88 e3bd 4ae3 443e
000002e0: aea8 053e 6adb 59bd c705 7fbe 0d1d 4dbd
000002f0: 1708 68bd ffc5 77bd ef25 0000 b6f6 0080
00000300: f243 5abc 8a8d 0080 e61e 0000 3958 0000
00000310: 9864 193e bbad 03bb eeb4 163e 6634 9c3d
00000320: 1dfd 063e 598c 243c db7d 803d a00e a73d
00000330: ef05 0280 d9b5 0a80 085b 6a3d cf7e 0080
00000340: 9a85 0080 cfe0 0180 8308 73be 5895 113e
00000350: acae c53e d3a7 8c3e 7a85 d93e 29bc 193d
00000360: aff3 40bc 0964 c2bd 0d69 0080 c111 0080
00000370: b475 923d b937 0000 5674 0080 2c6f 0000
00000380: cb15 d4bc 5456 b6bb 61fb 71ba fb34 913a
00000390: ea30 bba5 9479 4690 2c1a 0080 0426 0000
000003a0: efdb 0080 3c58 0180 bf14 0080 9060 0080
000003b0: c46c 0000 838e 0000 de2a 8cbe 3706 9a3d
000003c0: ec16 293e 43a9 b73e 4ff4 a33e 5469 c03b
000003d0: 1d00 71bc bb55 98bd 3551 0000 f89b 0080
000003e0: ad77 0a3d b857 0000 d92a 0000 b22a 0000
000003f0: 5c80 723d d0ba a73d c390 ec3c 8cbb e5bd
0.07915676 0.07989913 0.08883937 0.13457493 -0.0042254836 0.1144617 -0.027860655 0.005857943
1.3563e-41 4.3475e-41 0.028547395 -7.6406e-41 -6.5373e-41 1.3577e-41 0.04925893 -0.31559253
-0.2536697 -0.31150314 -0.30053225 -0.25488126 -0.30075398 -0.29919225 -3.482e-41 -4.7207e-41
-0.07057341 5.878e-42 -4.229e-42 7.1e-43 -3.3092107e-05 2.399e-42 3.562e-42 2.0221e-41
-1.8405e-41 -9.0996e-41 1.7513e-41 -2.5115e-41 -1.34871e-40 8.9717e-41 -2.0493e-41 -1.63293e-40
4.089e-41 3.2675e-41 -0.012201156 -0.25957382 -0.07597251 -0.19746359 -0.25913844 0.061283726
-0.2537334 -0.25892985 -4.9193e-41 1.3736e-40 -0.099586114 -1.2736e-41 -1.4466e-41 7.3362e-41
-0.17482394 0.004922478 0.36530152 0.21902004 0.27433008 0.06338163 -0.0011213372 -0.0115369195
-1.05878e-40 -1.0977e-40 0.04965453 7.3896e-41 -2.1402e-41 1.01837e-40 -0.07667791 0.07080357
0.063101366 -0.19064814 -0.076906204 0.009095242 -0.07173598 -0.19658415 -5.3088e-41 8.9592e-41
0.004709418 9.058e-42 -1.70008e-40 -5.7663e-41 -0.088496216 -0.088151164 -0.09216142 0.21083732
-0.25832343 -0.059248313 -0.0557098 -0.029894637 5.9977e-41 -3.4134e-41 -0.024435986 2.228e-42
-6.4659e-41 -9.711e-42 0.19054388 -0.41132033 -0.13506994 -0.11812989 -0.1417153 0.1812623
-0.0070577483 0.011316511 -4.0597e-41 -6.6328e-41 0.0744487 9.028e-41 -1.04554e-40 -5.312e-41
-0.18894753 -0.6281142 0.29577738 -0.19193634 0.3228314 0.10263219 0.24779922 0.13473216
9.0878e-41 3.8052e-41 -0.049808905 7.303e-41 3.531e-42 6.082e-42 -0.06974349 0.3366487
-0.19480991 -0.052435245 -0.033796538 0.014283434 -0.01810013 -0.0014769984 2.608e-42 -5.1009e-41
-0.0016828035 3.922e-42 -8.147e-42 -3.5819e-41 -0.17785014 0.0007694353 0.13781787 -0.19343211
0.19789642 0.0035440237 -0.004301003 -0.061358094 -4.074e-42 -3.2624e-41 0.03736107 -9.434e-42
-5.359e-41 6.4830233e-15 0.12808543 0.10323567 0.10568702 0.014232764 0.105645575 -4.273325e-10
0.10568373 0.10461635 3.9089e-41 4.4277925e-13 7.198e-42 1.589e-40 -3.6336e-41 -5.2982e-41
-0.08721575 0.033195235 0.05742037 0.37576136 0.10666498 -0.040388692 0.13259237 0.13902433
4.280998e-09 2.1827e-41 -0.038105305 -6.4722e-41 -7e-44 -4.6375e-41 -0.111099325 0.19227329
0.13052627 -0.053187765 -0.24904548 -0.050076533 -0.05664834 -0.06049156 1.3608e-41 -8.8503e-41
-0.0133218635 -5.0775e-41 1.1084e-41 3.1648e-41 0.1497978 -0.0020092565 0.14717457 0.07627182
0.13182493 0.010043227 0.06274005 0.08157086 -1.858e-40 -9.8359e-40 0.05721572 -4.549e-41
-4.7927e-41 -1.72482e-40 -0.23733716 0.14217126 0.38609827 0.2747179 0.42484647 0.03753296
-0.011776849 -0.094917364 -3.7685e-41 -6.369e-42 0.07151356 1.999e-41 -4.1733e-41 3.9881e-41
-0.025889298 -0.0055644903 -0.0009230879 0.0011078411 -3.2472474e-16 -3.9142275e-29 -9.389e-42 1.3637e-41
-7.8897e-41 -1.23488e-40 -7.442e-42 -3.464e-41 3.9018e-41 5.1124e-41 -0.27376455 0.07520717
0.1651265 0.35871324 0.3202233 0.005871931 -0.0147095 -0.07438227 2.9132e-41 -5.5951e-41
0.033805538 3.1468e-41 1.5371e-41 1.5316e-41 0.059204444 0.081899285 0.028877622 -0.11217412

mlp1.bias f4 [32]
00000000: 4dec 09be e89f 143e 184b 01ad df2e 8a3e
00000010: 928c 4ebe e4ab 903e 3727 af3e 21d3 1e3d
00000020: 9e3c 5f3e 04ad 4ebe 70c3 103d 506f fcbe
00000030: 2fd0 e63d 4d0a c33e 1b78 98be eceb 1ebe
00000040: 4887 a2bc 83d6 c53d 5ed6 f3bd d18f 80be
00000050: 8c01 8a3d c6e0 d6bd 7e88 9ebe 68a7 8bbd
00000060: 25ec 8cbe 44f1 37be 1643 ef3d 7145 90bd
00000070: 8fae e3be b798 9fbd 278b 34be 4639 83bd
-0.13469048 0.14514124 -7.349475e-12 0.26988885 -0.20170811 0.28256142 0.34209606 0.038775567
0.21800467 -0.20183188 0.035342634 -0.49303675 0.112701766 0.38093796 -0.29779133 -0.15519685
-0.019839898 0.096600555 -0.11906122 -0.25109723 0.06738576 -0.10492091 -0.3096351 -0.068190396
-0.27523914 -0.1796313 0.116827175 -0.07044495 -0.44469115 -0.077928 -0.17631207 -0.064074084

conv1.nn.weight f4 [32, 14]
00000000: f01c a23d 28a2 a33d 6af1 b53d 03ce 093e
00000010: ed75 8abb e56a ea3d 073c e4bc fdf3 bf3b
00000020: cf25 0000 3179 0000 3adc e93c fdd4 0080
00000030: 3cb6 0080 d925 0000 bbc3 493d 5895 a1be
00000040: ffe0 81be 577d 9fbe 5ddf 99be cc7f 82be
00000050: 6dfc 99be ba2f 99be 1061 0080 9883 0080
00000060: cb88 90bd 6310 0000 ca0b 0080 fb01 0000
00000070: 61cc 0ab8 b006 0000 ee09 0000 5e38 0000
00000080: 4e33 0080 a9fd 0080 d230 0000 0346 0080
00000090: f777 0180 18fa 0000 2039 0080 32c7 0180
000000a0: fc71 0000 165b 0000 5be7 47bc dce6 84be
000000b0: 7a97 9bbd e533 4abe cbad 84be a504 7b3d
000000c0: 58e9 81be 7492 84be 2189 0080 e77e 0100
000000d0: cef3 cbbd 8123 0080 5328 0080 81cc 0000
000000e0: 0c05 33be bd4c a13b cd08 bb3e ca46 603e
000000f0: fe74 8c3e 3ace 813d d5f9 92ba 5905 3dbc
00000100: 2527 0180 fe31 0180 8c62 4b3d fecd 0000
00000110: a93b 0080 e11b 0100 4f09 9dbd 7601 913d
00000120: 4a3b 813d 4439 43be 0081 9dbd 3604 153c
00000130: 50ea 92bd 5b4d 49be fd93 0080 bff9 0000
00000140: 7651 9a3b 4019 0000 ead9 0180 bea0 0080
00000150: 813d b5bd 9988 b4bd 20bf bcbd bde5 573e
00000160: f842 84be 5cae 72bd f62f 64bd 99e5 f4bc
00000170: 31a7 0000 275f 0080 fa2d c8bc 3606 0000
00000180: 3eb4 0080 121b 0080 ef1d 433e 9498 d2be
00000190: c64f 0abe 15ee f1bd d11d 11be d39c 393e
000001a0: af44 e7bb e368 393c 2b71 0080 e5b8 0080
000001b0: 8f78 983d aafb 0000 7423 0180 1494 0080
000001c0: 767b 41be 18cc 20bf 2270 973e f68a 44be
000001d0: 284a a53e d330 d23d 14bf 7d3e 3af7 093e
000001e0: 55fd 0000 136a 0000 6c04 4cbd 94cb 0000
000001f0: d809 0000 f410 0000 add5 8ebd 385d ac3e
00000200: 407c 47be 57c6 56bd 3d6e 0abd 1005 6a3c
00000210: b946 94bc d897 c1ba 4507 0000 318e 0080
00000220: 8491 dcba ef0a 0000 b616 0080 d963 0080
00000230: 591e 36be eeb3 493a 2120 0d3e 1113 46be
00000240: 5ca5 4a3e da42 683b 6eef 8cbb a052 7bbd
00000250: 5b0b 0080 f15a 0080 ec07 193d 4c1a 0080
00000260: 6395 0080 5693 e927 d428 033e 396d d33d
00000270: 7072 d83d 8a30 693c b55c d83d b4ed eaaf
00000280: b670 d83d 1941 d63d f76c 0000 3743 f92a
00000290: 1114 0000 f3ba 0100 4a65 0080 b193 0080
000002a0: 2c9e b2bd baf7 073d 9f31 6b3d cb63 c03e
000002b0: 2b73 da3d 9d6e 25bd 4bc6 073e 655c 0e3e
000002c0: 0e18 9331 d83c 0000 4f14 1cbd 6bb4 0080
000002d0: 3200 0080 4681 0080 0b88 e3bd 4ae3 443e
000002e0: aea8 053e 6adb 59bd c705 7fbe 0d1d 4dbd
000002f0: 1708 68bd ffc5 77bd ef25 0000 b6f6 0080
00000300: f243 5abc 8a8d 0080 e61e 0000 3958 0000
00000310: 9864 193e bbad 03bb eeb4 163e 6634 9c3d
00000320: 1dfd 063e 598c 243c db7d 803d a00e a73d
00000330: ef05 0280 d9b5 0a80 085b 6a3d cf7e 0080
00000340: 9a85 0080 cfe0 0180 8308 73be 5895 113e
00000350: acae c53e d3a7 8c3e 7a85 d93e 29bc 193d
00000360: aff3 40bc 0964 c2bd 0d69 0080 c111 0080
00000370: b475 923d b937 0000 5674 0080 2c6f 0000
00000380: cb15 d4bc 5456 b6bb 61fb 71ba fb34 913a
00000390: ea30 bba5 9479 4690 2c1a 0080 0426 0000
000003a0: efdb 0080 3c58 0180 bf14 0080 9060 0080
000003b0: c46c 0000 838e 0000 de2a 8cbe 3706 9a3d
000003c0: ec16 293e 43a9 b73e 4ff4 a33e 5469 c03b
000003d0: 1d00 71bc bb55 98bd 3551 0000 f89b 0080
000003e0: ad77 0a3d b857 0000 d92a 0000 b22a 0000
000003f0: 5c80 723d d0ba a73d c390 ec3c 8cbb e5bd
0.07915676 0.07989913 0.08883937 0.13457493 -0.0042254836 0.1144617 -0.027860655 0.005857943
1.3563e-41 4.3475e-41 0.028547395 -7.6406e-41 -6.5373e-41 1.3577e-41 0.04925893 -0.31559253
-0.2536697 -0.31150314 -0.30053225 -0.25488126 -0.30075398 -0.29919225 -3.482e-41 -4.7207e-41
-0.07057341 5.878e-42 -4.229e-42 7.1e-43 -3.3092107e-05 2.399e-42 3.562e-42 2.0221e-41
-1.8405e-41 -9.0996e-41 1.7513e-41 -2.5115e-41 -1.34871e-40 8.9717e-41 -2.0493e-41 -1.63293e-40
4.089e-41 3.2675e-41 -0.012201156 -0.25957382 -0.07597251 -0.19746359 -0.25913844 0.061283726
-0.2537334 -0.25892985 -4.9193e-41 1.3736e-40 -0.099586114 -1.2736e-41 -1.4466e-41 7.3362e-41
-0.17482394 0.004922478 0.36530152 0.21902004 0.27433008 0.06338163 -0.0011213372 -0.0115369195
-1.05878e-40 -1.0977e-40 0.04965453 7.3896e-41 -2.1402e-41 1.01837e-40 -0.07667791 0.07080357
0.063101366 -0.19064814 -0.076906204 0.009095242 -0.07173598 -0.19658415 -5.3088e-41 8.9592e-41
0.004709418 9.058e-42 -1.70008e-40 -5.7663e-41 -0.088496216 -0.088151164 -0.09216142 0.21083732
-0.25832343 -0.059248313 -0.0557098 -0.029894637 5.9977e-41 -3.4134e-41 -0.024435986 2.228e-42
-6.4659e-41 -9.711e-42 0.19054388 -0.41132033 -0.13506994 -0.11812989 -0.1417153 0.1812623
-0.0070577483 0.011316511 -4.0597e-41 -6.6328e-41 0.0744487 9.028e-41 -1.04554e-40 -5.312e-41
-0.18894753 -0.6281142 0.29577738 -0.19193634 0.3228314 0.10263219 0.24779922 0.13473216
9.0878e-41 3.8052e-41 -0.049808905 7.303e-41 3.531e-42 6.082e-42 -0.06974349 0.3366487
-0.19480991 -0.052435245 -0.033796538 0.014283434 -0.01810013 -0.0014769984 2.608e-42 -5.1009e-41
-0.0016828035 3.922e-42 -8.147e-42 -3.5819e-41 -0.17785014 0.0007694353 0.13781787 -0.19343211
0.19789642 0.0035440237 -0.004301003 -0.061358094 -4.074e-42 -3.2624e-41 0.03736107 -9.434e-42
-5.359e-41 6.4830233e-15 0.12808543 0.10323567 0.10568702 0.014232764 0.105645575 -4.273325e-10
0.10568373 0.10461635 3.9089e-41 4.4277925e-13 7.198e-42 1.589e-40 -3.6336e-41 -5.2982e-41
-0.08721575 0.033195235 0.05742037 0.37576136 0.10666498 -0.040388692 0.13259237 0.13902433
4.280998e-09 2.1827e-41 -0.038105305 -6.4722e-41 -7e-44 -4.6375e-41 -0.111099325 0.19227329
0.13052627 -0.053187765 -0.24904548 -0.050076533 -0.05664834 -0.06049156 1.3608e-41 -8.8503e-41
-0.0133218635 -5.0775e-41 1.1084e-41 3.1648e-41 0.1497978 -0.0020092565 0.14717457 0.07627182
0.13182493 0.010043227 0.06274005 0.08157086 -1.858e-40 -9.8359e-40 0.05721572 -4.549e-41
-4.7927e-41 -1.72482e-40 -0.23733716 0.14217126 0.38609827 0.2747179 0.42484647 0.03753296
-0.011776849 -0.094917364 -3.7685e-41 -6.369e-42 0.07151356 1.999e-41 -4.1733e-41 3.9881e-41
-0.025889298 -0.0055644903 -0.0009230879 0.0011078411 -3.2472474e-16 -3.9142275e-29 -9.389e-42 1.3637e-41
-7.8897e-41 -1.23488e-40 -7.442e-42 -3.464e-41 3.9018e-41 5.1124e-41 -0.27376455 0.07520717
0.1651265 0.35871324 0.3202233 0.005871931 -0.0147095 -0.07438227 2.9132e-41 -5.5951e-41
0.033805538 3.1468e-41 1.5371e-41 1.5316e-41 0.059204444 0.081899285 0.028877622 -0.11217412

conv1.nn.bias f4 [32]
00000000: 4dec 09be e89f 143e 184b 01ad df2e 8a3e
00000010: 928c 4ebe e4ab 903e 3727 af3e 21d3 1e3d
00000020: 9e3c 5f3e 04ad 4ebe 70c3 103d 506f fcbe
00000030: 2fd0 e63d 4d0a c33e 1b78 98be eceb 1ebe
00000040: 4887 a2bc 83d6 c53d 5ed6 f3bd d18f 80be
00000050: 8c01 8a3d c6e0 d6bd 7e88 9ebe 68a7 8bbd
00000060: 25ec 8cbe 44f1 37be 1643 ef3d 7145 90bd
00000070: 8fae e3be b798 9fbd 278b 34be 4639 83bd
-0.13469048 0.14514124 -7.349475e-12 0.26988885 -0.20170811 0.28256142 0.34209606 0.038775567
0.21800467 -0.20183188 0.035342634 -0.49303675 0.112701766 0.38093796 -0.29779133 -0.15519685
-0.019839898 0.096600555 -0.11906122 -0.25109723 0.06738576 -0.10492091 -0.3096351 -0.068190396
-0.27523914 -0.1796313 0.116827175 -0.07044495 -0.44469115 -0.077928 -0.17631207 -0.064074084

mlp2.weight f4 [32, 32]
00000000: ef32 a1b2 9c78 61a2 8809 0000 5344 aba5
00000010: b539 0000 b737 1b8f 3109 0080 2918 84b4
00000020: 4f2b 0000 1c32 0000 7750 0000 1c4a 0080
00000030: 512c 0080 9aee 55a1 0940 8597 8225 0000
00000040: 4bf3 0000 3214 0000 783d 7a9e 7d17 0080
00000050: 3303 0000 2b03 0000 59a7 5c95 8ce8 3ca6
00000060: 2c47 0ab1 c3ca 0e8d d4e0 a9a9 231d 0000
00000070: 4c24 0000 51ae f0a2 c40e a5ad f101 60b2
00000080: df1b 483e 0513 90bc 8516 0000 969a a4bd
00000090: 2539 3f3e c592 7bbe fac9 4bbe 9ad9 fe3d
000000a0: 6667 b2be 3d6f 373c 7882 7dbd df8a 09bf
000000b0: 5c0b 233c 518f b7be d855 5c3d 2aff 353e
000000c0: ab21 fc3a 81da 273d ba63 24bd 5d89 f73d
000000d0: 95f5 813c 657f aebe 70ba dabc e9ad 523e
000000e0: 84ec ff3d d838 c5bc fac6 afbd 7074 3cbd
000000f0: befd 09bf daa8 fa3c aa40 603e a14f 243e
00000100: 8ced b73d d668 34be 3326 0000 0f38 5fbe
00000110: 6f24 9d3d 55ab f43a 1f13 5d3e ce01 46be
00000120: 2211 57bd 5983 02be 8183 1dbd 1983 963c
00000130: 4940 3b3e 454b f43d 6ee3 40be fc4e ee3d
00000140: e889 c8b1 444b 523d 7904 403e 8ad4 05bd
00000150: 6c04 813d 547f acbc 393f 193c abe8 81bd
00000160: 38ed debd 009e b7bc cd4e 4d3e c1e1 8ebc
00000170: a6f0 703b 5dac 1fbc 2086 63bc d2ed c93d
00000180: 4d88 e33d 48fb fa3d 0a0e 0080 bb70 793d
00000190: 8ffc 24be c66a 6fbc 1b86 0e3e 7e83 b9bd
000001a0: e93e 153e b537 8abe 09bb 64bd 71a3 193f
000001b0: a384 a13b ba1a 2b3e f62f c13c 6441 35be
000001c0: 8ac6 1dbb 7346 49be 07f3 eebd 9104 0ebe
000001d0: b53a 47be 0562 653e 4ab3 0fbe e45d e4bd
000001e0: 88a4 4fbe e48b dfbd 1da1 2a3e f5fe c0bd
000001f0: 3744 123f 15b8 a83d 4f63 b33c 560e 083e
00000200: 952a 5cba af37 87b0 fadf 0080 da73 a4b6
00000210: 9455 69b5 25c6 2fba ad7f bfb6 6b31 85ba
00000220: 751f 86b6 88fc 43af 8611 7f9a e102 0000
00000230: 79b1 49b6 9c10 84bb c86c 62b8 a493 cdb7
00000240: a711 0000 a773 e9b6 3c07 c9b8 ccd8 9db6
00000250: 029b 45b6 7473 88b0 50ea 74b8 c9cb 33b9
00000260: 42bf 08bb bf8d 62a6 2c63 50ba 5125 12b6
00000270: d628 0080 a4b6 2cb6 246a 26b9 4f4e 41bb
00000280: c86d a83d 203d a7bc dd0a 0000 90cf fa3c
00000290: e0a5 523e 8db5 13be 7e9a 2a3b 9cf4 323e
000002a0: f44c b8be ff96 87bc 59d8 46bc c554 c3be
000002b0: 0fbe 713d e0f3 91be cec0 b13d 4468 9f3e
000002c0: 6bf7 1d3a 6dba 603e c241 44bc 06ed 3b3e
000002d0: d8f0 0f3e 8ef0 8cbe de8a b33d 4633 363d
000002e0: a471 a13d 0c46 933d 7076 b83d fc78 873d
000002f0: ee0b 0abf 3b27 07be 1a00 8c3b 5710 e43d
00000300: 4822 05be 5b15 c0be 6824 0080 c8ad 36be
00000310: 8440 c7bd deb0 bc3c 7d18 d73d 1784 3cbe
00000320: 5a7e 293e 49d3 1e3e 0e7d 23bd ec11 5b3d
00000330: 20f4 0f3d d14e 163e a97d 1e3a 734a c2bd
00000340: 6334 341d 37d4 1ebd 1b21 953e cbb9 a7bd
00000350: b924 dabc 127a b83d dea2 73be 3ebc 843e
00000360: 8b02 9abd 4ac0 8abe dd6f 9b3e 5f1d 8dbc
00000370: 5216 923d 45b1 0bbe 8baf 98bd e0d1 89bb
00000380: 41f2 f3bd 48aa 0cbe 2e0c 0000 e721 d6bc
00000390: bb2f a33e 7a18 90be f077 83be 0135 a43d
000003a0: c9f4 b0be d900 293c bba3 d93d e62e 39bf
000003b0: 89be bbbd 87a8 f0be dfe5 243e 1d8f c53e
000003c0: e193 d53b 6b81 b43d 0f28 903d 0e8a 5ebd
000003d0: efcd a03d d0de 68be 7f15 9a3d 0af1 e23d
000003e0: cffc 543e 4eeb 2e3d dea7 df3d 00d8 94bc
000003f0: 336d 4abf cd0d 013e 459e 603e 3122 3c3e
-1.8766029e-08 -3.0557036e-18 3.419e-42 -2.971007e-16 2.0701e-41 -7.65282e-30 -3.297e-42 -2.4604495e-07
1.5536e-41 1.7976e-41 2.8865e-41 -2.6585e-41 -1.5898e-41 -7.2482994e-19 -8.611088e-25 1.3455e-41
8.7277e-41 7.245e-42 -1.3247601e-20 -8.426e-42 1.148e-42 1.136e-42 -4.456066e-26 -6.554076e-16
-2.01221e-09 -4.4001194e-31 -7.544109e-14 1.0452e-41 1.3021e-41 -6.5236695e-18 -1.8764885e-11 -1.30389575e-08
0.19541882 -0.017587194 8.078e-42 -0.080372974 0.18674143 -0.24567707 -0.19901267 0.12443848
-0.34844512 0.011195955 -0.061892003 -0.53727525 0.009951439 -0.3585153 0.053792804 0.17773119
0.0019236108 0.040979866 -0.04013417 0.12086747 0.015864173 -0.3408157 -0.026700228 0.20574154
0.12496284 -0.024074957 -0.08582874 -0.04600948 -0.53902805 0.030598093 0.21899667 0.16046001
0.08980855 -0.17618117 1.3703e-41 -0.21798728 0.07672965 0.0018666784 0.21589325 -0.19336626
-0.052506573 -0.12745418 -0.03845549 0.01837306 0.18286242 0.11928419 -0.18836758 0.11636159
-5.836444e-09 0.05134131 0.18751706 -0.032673396 0.062996715 -0.021056809 0.009353452 -0.06343206
-0.1088509 -0.022414207 0.20049591 -0.017441632 0.0036764531 -0.009745684 -0.013886958 0.09859814
0.11109982 0.12254959 -5.036e-42 0.060898524 -0.16111968 -0.014612859 0.13918345 -0.09058283
0.1457478 -0.26995626 -0.055842433 0.60015017 0.0049291416 0.16709414 0.02358244 -0.17700726
-0.0024074637 -0.1965578 -0.116674475 -0.1386893 -0.19455989 0.22400673 -0.14033237 -0.11150721
-0.20277607 -0.10915354 0.16663022 -0.09423629 0.5713534 0.08238236 0.02189794 0.13286719
-0.0008398679 -9.838369e-10 -8.0348e-41 -4.9010678e-06 -8.6923797e-07 -0.0006705246 -5.707107e-06 -0.0010161822
-3.9971733e-06 -1.7824864e-10 -5.274692e-23 1.033e-42 -3.0054637e-06 -0.0040303003 -5.398391e-05 -2.4506655e-05
6.332e-42 -6.957405e-06 -9.5857744e-05 -4.704203e-06 -2.9445514e-06 -9.928116e-10 -5.8392354e-05 -0.00017146686
-0.0020865952 -7.8601603e-16 -0.0007949348 -2.1777416e-06 -1.4649e-41 -2.5736308e-06 -0.00015870534 -0.0029496138
0.08224064 -0.020414889 3.897e-42 0.030616552 0.20571089 -0.14424725 0.0026032026 0.17476124
-0.3599621 -0.016551493 -0.012136542 -0.38150612 0.059019145 -0.28506374 0.08679353 0.31134236
0.0006025943 0.21946116 -0.0119785685 0.18352136 0.14056718 -0.2752728 0.08766721 0.044482492
0.07883003 0.07191095 0.09006965 0.06614873 -0.53924453 -0.13198559 0.004272473 0.11135929
-0.13001359 -0.37516293 -1.306e-41 -0.1783973 -0.09729102 0.023033556 0.10502718 -0.18409763
0.16552106 0.15510286 -0.039914183 0.05348389 0.035144925 0.14678504 0.00060459465 -0.09486856
2.3849885e-21 -0.038776603 0.2912682 -0.08189734 -0.026628839 0.09007658 -0.23792598 0.25924867
-0.07520016 -0.2709983 0.30358782 -0.01722592 0.071331635 -0.13641842 -0.07455357 -0.0042059273
-0.11911441 -0.13736832 4.369e-42 -0.026139213 0.31872353 -0.28143674 -0.25677443 0.08017922
-0.34561756 0.0103151435 0.10626932 -0.72337186 -0.09167201 -0.47003576 0.16103314 0.3858575
0.0065178727 0.08813747 0.070388906 -0.054330878 0.07851779 -0.22741246 0.07523631 0.11081131
0.20799564 0.042704873 0.1092069 -0.018169403 -0.79072875 0.12602921 0.21935375 0.18372418

mlp2.bias f4 [32]
00000000: bade adad c883 82be dcd9 083e c90e 8b3e
00000010: 7cb7 73bb 3444 73be 1e82 29be c05e 7cbe
00000020: 5f35 793d b9af 363d 79b8 403e 1cf7 73bd
00000030: 1eae 9f3d 44ae 10be 23d5 16b9 e71f 073d
00000040: 8819 923d cb5b 71bd a1b8 7e3e 0b1f 1e3d
00000050: 0edc f2bc 7f2a df3e d5e4 7ebd 0b6e 40bd
00000060: 9908 223f f845 f23c 741f b93d d434 66b1
00000070: b0ca 76bd f1c4 2b3d 7450 cebd 2244 b6bb
-1.9766733e-11 -0.25491166 0.13364357 0.27159718 -0.0037188223 -0.23756486 -0.16553542 -0.2464552
0.060841914 0.044601176 0.1882037 -0.059561834 0.07796882 -0.14128977 -0.00014384514 0.03298941
0.07133776 -0.05892543 0.24875118 0.038603824 -0.029645946 0.4358711 -0.06222995 -0.046979945
0.6329437 0.02957438 0.09039202 -3.3499434e-09 -0.06025189 0.041935865 -0.10073939 -0.0055623213

conv2.nn.weight f4 [32, 32]
00000000: ef32 a1b2 9c78 61a2 8809 0000 5344 aba5
00000010: b539 0000 b737 1b8f 3109 0080 2918 84b4
00000020: 4f2b 0000 1c32 0000 7750 0000 1c4a 0080
00000030: 512c 0080 9aee 55a1 0940 8597 8225 0000
00000040: 4bf3 0000 3214 0000 783d 7a9e 7d17 0080
00000050: 3303 0000 2b03 0000 59a7 5c95 8ce8 3ca6
00000060: 2c47 0ab1 c3ca 0e8d d4e0 a9a9 231d 0000
00000070: 4c24 0000 51ae f0a2 c40e a5ad f101 60b2
00000080: df1b 483e 0513 90bc 8516 0000 969a a4bd
00000090: 2539 3f3e c592 7bbe fac9 4bbe 9ad9 fe3d
000000a0: 6667 b2be 3d6f 373c 7882 7dbd df8a 09bf
000000b0: 5c0b 233c 518f b7be d855 5c3d 2aff 353e
000000c0: ab21 fc3a 81da 273d ba63 24bd 5d89 f73d
000000d0: 95f5 813c 657f aebe 70ba dabc e9ad 523e
000000e0: 84ec ff3d d838 c5bc fac6 afbd 7074 3cbd
000000f0: befd 09bf daa8 fa3c aa40 603e a14f 243e
00000100: 8ced b73d d668 34be 3326 0000 0f38 5fbe
00000110: 6f24 9d3d 55ab f43a 1f13 5d3e ce01 46be
00000120: 2211 57bd 5983 02be 8183 1dbd 1983 963c
00000130: 4940 3b3e 454b f43d 6ee3 40be fc4e ee3d
00000140: e889 c8b1 444b 523d 7904 403e 8ad4 05bd
00000150: 6c04 813d 547f acbc 393f 193c abe8 81bd
00000160: 38ed debd 009e b7bc cd4e 4d3e c1e1 8ebc
00000170: a6f0 703b 5dac 1fbc 2086 63bc d2ed c93d
00000180: 4d88 e33d 48fb fa3d 0a0e 0080 bb70 793d
00000190: 8ffc 24be c66a 6fbc 1b86 0e3e 7e83 b9bd
000001a0: e93e 153e b537 8abe 09bb 64bd 71a3 193f
000001b0: a384 a13b ba1a 2b3e f62f c13c 6441 35be
000001c0: 8ac6 1dbb 7346 49be 07f3 eebd 9104 0ebe
000001d0: b53a 47be 0562 653e 4ab3 0fbe e45d e4bd
000001e0: 88a4 4fbe e48b dfbd 1da1 2a3e f5fe c0bd
000001f0: 3744 123f 15b8 a83d 4f63 b33c 560e 083e
00000200: 952a 5cba af37 87b0 fadf 0080 da73 a4b6
00000210: 9455 69b5 25c6 2fba ad7f bfb6 6b31 85ba
00000220: 751f 86b6 88fc 43af 8611 7f9a e102 0000
00000230: 79b1 49b6 9c10 84bb c86c 62b8 a493 cdb7
00000240: a711 0000 a773 e9b6 3c07 c9b8 ccd8 9db6
00000250: 029b 45b6 7473 88b0 50ea 74b8 c9cb 33b9
00000260: 42bf 08bb bf8d 62a6 2c63 50ba 5125 12b6
00000270: d628 0080 a4b6 2cb6 246a 26b9 4f4e 41bb
00000280: c86d a83d 203d a7bc dd0a 0000 90cf fa3c
00000290: e0a5 523e 8db5 13be 7e9a 2a3b 9cf4 323e
000002a0: f44c b8be ff96 87bc 59d8 46bc c554 c3be
000002b0: 0fbe 713d e0f3 91be cec0 b13d 4468 9f3e
000002c0: 6bf7 1d3a 6dba 603e c241 44bc 06ed 3b3e
000002d0: d8f0 0f3e 8ef0 8cbe de8a b33d 4633 363d
000002e0: a471 a13d 0c46 933d 7076 b83d fc78 873d
000002f0: ee0b 0abf 3b27 07be 1a00 8c3b 5710 e43d
00000300: 4822 05be 5b15 c0be 6824 0080 c8ad 36be
00000310: 8440 c7bd deb0 bc3c 7d18 d73d 1784 3cbe
00000320: 5a7e 293e 49d3 1e3e 0e7d 23bd ec11 5b3d
00000330: 20f4 0f3d d14e 163e a97d 1e3a 734a c2bd
00000340: 6334 341d 37d4 1ebd 1b21 953e cbb9 a7bd
00000350: b924 dabc 127a b83d dea2 73be 3ebc 843e
00000360: 8b02 9abd 4ac0 8abe dd6f 9b3e 5f1d 8dbc
00000370: 5216 923d 45b1 0bbe 8baf 98bd e0d1 89bb
00000380: 41f2 f3bd 48aa 0cbe 2e0c 0000 e721 d6bc
00000390: bb2f a33e 7a18 90be f077 83be 0135 a43d
000003a0: c9f4 b0be d900 293c bba3 d93d e62e 39bf
000003b0: 89be bbbd 87a8 f0be dfe5 243e 1d8f c53e
000003c0: e193 d53b 6b81 b43d 0f28 903d 0e8a 5ebd
000003d0: efcd a03d d0de 68be 7f15 9a3d 0af1 e23d
000003e0: cffc 543e 4eeb 2e3d dea7 df3d 00d8 94bc
000003f0: 336d 4abf cd0d 013e 459e 603e 3122 3c3e
-1.8766029e-08 -3.0557036e-18 3.419e-42 -2.971007e-16 2.0701e-41 -7.65282e-30 -3.297e-42 -2.4604495e-07
1.5536e-41 1.7976e-41 2.8865e-41 -2.6585e-41 -1.5898e-41 -7.2482994e-19 -8.611088e-25 1.3455e-41
8.7277e-41 7.245e-42 -1.3247601e-20 -8.426e-42 1.148e-42 1.136e-42 -4.456066e-26 -6.554076e-16
-2.01221e-09 -4.4001194e-31 -7.544109e-14 1.0452e-41 1.3021e-41 -6.5236695e-18 -1.8764885e-11 -1.30389575e-08
0.19541882 -0.017587194 8.078e-42 -0.080372974 0.18674143 -0.24567707 -0.19901267 0.12443848
-0.34844512 0.011195955 -0.061892003 -0.53727525 0.009951439 -0.3585153 0.053792804 0.17773119
0.0019236108 0.040979866 -0.04013417 0.12086747 0.015864173 -0.3408157 -0.026700228 0.20574154
0.12496284 -0.024074957 -0.08582874 -0.04600948 -0.53902805 0.030598093 0.21899667 0.16046001
0.08980855 -0.17618117 1.3703e-41 -0.21798728 0.07672965 0.0018666784 0.21589325 -0.19336626
-0.052506573 -0.12745418 -0.03845549 0.01837306 0.18286242 0.11928419 -0.18836758 0.11636159
-5.836444e-09 0.05134131 0.18751706 -0.032673396 0.062996715 -0.021056809 0.009353452 -0.06343206
-0.1088509 -0.022414207 0.20049591 -0.017441632 0.0036764531 -0.009745684 -0.013886958 0.09859814
0.11109982 0.12254959 -5.036e-42 0.060898524 -0.16111968 -0.014612859 0.13918345 -0.09058283
0.1457478 -0.26995626 -0.055842433 0.60015017 0.0049291416 0.16709414 0.02358244 -0.17700726
-0.0024074637 -0.1965578 -0.116674475 -0.1386893 -0.19455989 0.22400673 -0.14033237 -0.11150721
-0.20277607 -0.10915354 0.16663022 -0.09423629 0.5713534 0.08238236 0.02189794 0.13286719
-0.0008398679 -9.838369e-10 -8.0348e-41 -4.9010678e-06 -8.6923797e-07 -0.0006705246 -5.707107e-06 -0.0010161822
-3.9971733e-06 -1.7824864e-10 -5.274692e-23 1.033e-42 -3.0054637e-06 -0.0040303003 -5.398391e-05 -2.4506655e-05
6.332e-42 -6.957405e-06 -9.5857744e-05 -4.704203e-06 -2.9445514e-06 -9.928116e-10 -5.8392354e-05 -0.00017146686
-0.0020865952 -7.8601603e-16 -0.0007949348 -2.1777416e-06 -1.4649e-41 -2.5736308e-06 -0.00015870534 -0.0029496138
0.08224064 -0.020414889 3.897e-42 0.030616552 0.20571089 -0.14424725 0.0026032026 0.17476124
-0.3599621 -0.016551493 -0.012136542 -0.38150612 0.059019145 -0.28506374 0.08679353 0.31134236
0.0006025943 0.21946116 -0.0119785685 0.18352136 0.14056718 -0.2752728 0.08766721 0.044482492
0.07883003 0.07191095 0.09006965 0.06614873 -0.53924453 -0.13198559 0.004272473 0.11135929
-0.13001359 -0.37516293 -1.306e-41 -0.1783973 -0.09729102 0.023033556 0.10502718 -0.18409763
0.16552106 0.15510286 -0.039914183 0.05348389 0.035144925 0.14678504 0.00060459465 -0.09486856
2.3849885e-21 -0.038776603 0.2912682 -0.08189734 -0.026628839 0.09007658 -0.23792598 0.25924867
-0.07520016 -0.2709983 0.30358782 -0.01722592 0.071331635 -0.13641842 -0.07455357 -0.0042059273
-0.11911441 -0.13736832 4.369e-42 -0.026139213 0.31872353 -0.28143674 -0.25677443 0.08017922
-0.34561756 0.0103151435 0.10626932 -0.72337186 -0.09167201 -0.47003576 0.16103314 0.3858575
0.0065178727 0.08813747 0.070388906 -0.054330878 0.07851779 -0.22741246 0.07523631 0.11081131
0.20799564 0.042704873 0.1092069 -0.018169403 -0.79072875 0.12602921 0.21935375 0.18372418

conv2.nn.bias f4 [32]
00000000: bade adad c883 82be dcd9 083e c90e 8b3e
00000010: 7cb7 73bb 3444 73be 1e82 29be c05e 7cbe
00000020: 5f35 793d b9af 363d 79b8 403e 1cf7 73bd
00000030: 1eae 9f3d 44ae 10be 23d5 16b9 e71f 073d
00000040: 8819 923d cb5b 71bd a1b8 7e3e 0b1f 1e3d
00000050: 0edc f2bc 7f2a df3e d5e4 7ebd 0b6e 40bd
00000060: 9908 223f f845 f23c 741f b93d d434 66b1
00000070: b0ca 76bd f1c4 2b3d 7450 cebd 2244 b6bb
-1.9766733e-11 -0.25491166 0.13364357 0.27159718 -0.0037188223 -0.23756486 -0.16553542 -0.2464552
0.060841914 0.044601176 0.1882037 -0.059561834 0.07796882 -0.14128977 -0.00014384514 0.03298941
0.07133776 -0.05892543 0.24875118 0.038603824 -0.029645946 0.4358711 -0.06222995 -0.046979945
0.6329437 0.02957438 0.09039202 -3.3499434e-09 -0.06025189 0.041935865 -0.10073939 -0.0055623213

mlp3.weight f4 [32, 32]
00000000: 0108 9228 78fe 5d3e ba51 6bbe 9057 05be
00000010: e16f 3caf d5ee d73d 60c6 90be 072e d03e
00000020: 681e 903e 7c88 6c3d 7703 bb3d f309 fabe
00000030: c726 7c3e ed47 293e 2aba 93b5 a365 a3be
00000040: 7353 87be 0571 babe bcee 58be 921e 413e
00000050: 286f 4e3e 9ac8 cf3d 9985 853e 18e3 1dbe
00000060: f784 73bf 8d7c 35bd cc5c 2abe 7575 932c
00000070: edc8 a3be a797 cd3d 1608 b23e 9d9d ad2b
00000080: 3fef 388e bccd 633e dfaf 493d 31ee a5be
00000090: c600 0080 d7aa 123e 9322 4a3d a897 8d3e
000000a0: bb02 9dbe 28b8 583e 9f83 0dbf b715 13be
000000b0: 80e1 4a3d 12d6 613e 9cd3 fd33 5a1a 973d
000000c0: 653a 913c 23a5 4b3d 4f12 e3be cd82 7dbe
000000d0: 85ba c3be 92f4 0cbf 44ed 6a3d a731 ac3d
000000e0: 311b d8be 8b33 073e 0cc4 a0be 0c10 56ab
000000f0: 10b2 1e3d f6bd eebb 5fd1 9d3e 6297 6ba8
00000100: 9bbc 982a 4451 a63e 3e56 7fbe 6978 66be
00000110: a7d6 aeb0 52b8 733e 3706 88be c97b ab3e
00000120: baa2 3d3e c386 24be 65a7 fd3d 14b0 b1be
00000130: d67a c33e fc98 aa3d 2b7c 34b6 f57f 1abe
00000140: 2a50 19be c23f 83be afcf 02be 565c 553e
00000150: 9748 303e cf14 9ebc 3e4b af3e c68b 0dbe
00000160: 5754 78bf 4773 d8bc a61c 13be 7509 482f
00000170: 3936 86be 442c f63d 8931 973e 76a0 7f2b
00000180: 7346 082d 703d 103e c173 4fbe f163 99be
00000190: 1852 c4b3 57cc 3c3e e96b b1be e931 ba3e
000001a0: 2b8f 9c3e 2849 23be 52a2 163e d47f d3be
000001b0: dd99 ac3e 4639 043e b588 3bb7 afd1 4dbe
000001c0: e081 78be 3787 98be 7a41 63be 8c7b d03d
000001d0: d846 d23d 3c5b 5b3e 623b ef3e fb04 58be
000001e0: d1ac 8ebf 0396 c9bc 1e37 48be bbfd 8931
000001f0: 7c4a b4be d989 413e 4bfa a13e 52ca dc34
00000200: f803 0000 8d1c 17be 8024 69bc 9877 76bb
00000210: 42c7 af2f daf5 ee3c befb 7fbd b6b4 1cbe
00000220: cc0f febc eccf a7bd 8488 afbc 42b2 5dbc
00000230: 5e78 cabd 573b 7abd d357 061f de47 b3bd
00000240: 7b63 40bd a571 be3d 1db9 dabd 0ec8 b73a
00000250: d0ef 633e 8636 06bd b845 c9bd 4eb9 36be
00000260: 594f d63b b9f0 bc3d eb15 7cbe a710 0080
00000270: 5886 babd e743 a33e 7433 a5bd f75e 6ab0
00000280: 8ed8 e9af 8413 51be ecda 2b3c d2f6 6c3e
00000290: 2889 5737 d082 013c 7f43 f8bb 1fc6 b7be
000002a0: 2763 503e a592 f1bd 79ac 063e 3ff3 2c3d
000002b0: 8e34 4738 d445 a33d 4e74 0539 00b2 02be
000002c0: b386 6fbd f0e6 2fbd 88e6 c73d 129e 563e
000002d0: 2863 b0bc 95aa 903e 3724 aebe 9c41 903d
000002e0: 4e46 a53e fbde 163e 38bf 0bbc f6d4 23b1
000002f0: 570b 0b3e e486 1cbe 45f3 37be dd0d ebb6
00000300: 603d 0200 c8db 39a0 f2c8 8809 50e1 8b9f
00000310: 023c 0180 a2a2 c09d b906 0000 2689 88a2
00000320: 72aa 118f bfb5 8ca7 3be2 6baf 76dd 878d
00000330: 83f6 348e 1032 dcaf fc64 0080 0b1f f38d
00000340: 00a6 d49c 7627 0080 34b9 14a4 c9fa 8eab
00000350: 0c12 0080 74d3 4eb2 480c 0080 5319 0000
00000360: a8f0 8a9e b01d 48a5 aa73 80a0 b85d 0080
00000370: 8e09 0000 a7c8 2d0a f9a1 9600 08ec 0080
00000380: dc8f be82 9371 aa3c cb11 b83c c54b 8fbd
00000390: b8a5 211d e554 54bd 27f9 613d 50af a9bd
000003a0: 6428 193e d3c4 a23d 273c 7cbb 9eb7 b2bc
000003b0: f2bf da3d d358 403e f737 e82c 14d2 ab3d
000003c0: 6958 c03d 51b8 d43b 23ca a8bc 2ea1 d3bd
000003d0: 7ebf 30be 1786 ea3d d601 52bb 2f81 713d
000003e0: 7428 c33d b63c b33d b271 893c 5675 3e0a
000003f0: a069 b23d 6b03 bbbe d1e3 883d 5bb9 ca0f
1.6212727e-14 0.21679103 -0.22980395 -0.13021684 -1.7138248e-10 0.105436005 -0.28276348 0.40660116
0.28148198 0.05774735 0.0913152 -0.48835716 0.24624167 0.16531344 -1.1006534e-06 -0.3191348
-0.26430854 -0.36414352 -0.2118482 0.18859318 0.2015959 0.101456836 0.2607849 -0.1541866
-0.95124763 -0.044308234 -0.16636962 4.1910316e-12 -0.31989232 0.10038691 0.34771794 1.2336136e-12
-2.2794944e-30 0.2224645 0.04923999 -0.32408288 -2.77e-43 0.14322983 0.04934938 0.27654767
-0.30666146 0.21164 -0.5527896 -0.14363752 0.04953146 0.22054318 1.1819722e-07 0.07378073
0.01772804 0.049718034 -0.44349906 -0.24756928 -0.3822824 -0.55060685 0.05735518 0.08407908
-0.42208245 0.13203256 -0.31399572 -7.605034e-13 0.038744032 -0.0072858287 0.308238 -1.30779465e-14
2.7131495e-13 0.32483876 -0.24935243 -0.2250687 -1.2721174e-09 0.23800781 -0.26567242 0.33492878
0.18519107 -0.16067033 0.123854436 -0.3470465 0.38179654 0.08329961 -2.6894365e-06 -0.15087874
-0.14971986 -0.2563458 -0.12774538 0.20836005 0.17215191 -0.019297032 0.34237093 -0.1382285
-0.9700369 -0.026422156 -0.14366397 1.8193254e-10 -0.26213244 0.12020162 0.2952998 9.0816883e-13
7.746348e-12 0.14085937 -0.20259 -0.29959062 -9.141894e-08 0.18437324 -0.3465264 0.36366203
0.30577978 -0.15945876 0.14710358 -0.41308463 0.33711138 0.12912473 -1.1177898e-05 -0.20099519
-0.24268293 -0.2979066 -0.22192946 0.10179815 0.102674186 0.21421522 0.46724993 -0.2109565
-1.1146489 -0.024607664 -0.19552276 4.0160706e-09 -0.35213077 0.18900241 0.3163627 4.11254e-07
1.424e-42 -0.14756985 -0.014229894 -0.0037607905 3.1973896e-10 0.029169966 -0.06249594 -0.15303311
-0.031013392 -0.08193955 -0.0214274 -0.0135312695 -0.098862395 -0.061091747 2.844825e-20 -0.08753942
-0.046969872 0.0929902 -0.10679839 0.0014021413 0.2225945 -0.03276684 -0.09827751 -0.17844126
0.0065402207 0.09225602 -0.24617736 -5.974e-42 -0.09107655 0.31887743 -0.080664545 -8.526366e-10
-4.2536324e-10 -0.20417601 0.010489207 0.2314103 1.2846933e-05 0.007904723 -0.0075764055 -0.35893342
0.20350324 -0.11795548 0.1315173 0.042224165 4.7494243e-05 0.07972303 0.00012727195 -0.12763214
-0.05847807 -0.04294485 0.09760767 0.20958737 -0.021531656 0.28255144 -0.34012005 0.07043764
0.322802 0.14733498 -0.008529477 -2.3840676e-09 0.13578545 -0.15285832 -0.17963894 -7.0051597e-06
2.05688e-40 -1.5742829e-19 3.2929777e-33 -5.924154e-20 -1.13362e-40 -5.0990135e-21 2.412e-42 -3.7008085e-18
-7.1818785e-30 -3.9054855e-15 -2.1453499e-10 -8.373332e-31 -2.2305404e-30 -4.0053338e-10 -3.6226e-41 -1.4983505e-30
-1.4071893e-21 -1.4156e-41 -3.2249257e-17 -1.0159314e-12 -6.474e-42 -1.2038857e-08 -4.406e-42 9.085e-42
-1.4710851e-20 -1.7357293e-16 -2.1760584e-19 -3.362e-41 3.428e-42 8.3673855e-33 1.3833429e-38 -8.4672e-41
-2.8000562e-37 0.02080611 0.022469422 -0.06996874 2.1393847e-21 -0.051838774 0.05516925 -0.08285391
0.14956814 0.079476975 -0.0038488002 -0.021816071 0.10681142 0.18783884 6.60005e-12 0.083896786
0.09391863 0.006491699 -0.020604199 -0.10333477 -0.17260548 0.11451357 -0.0032044551 0.05896109
0.095292 0.08751814 0.016777847 9.170236e-33 0.087115526 -0.36526045 0.066840775 1.9990134e-29

mlp3.bias f4 [32]
00000000: 202d 57be 7ebb 6dbe bfb3 b1bd 87ce 5bbd
00000010: 3f87 80bd 0715 bc3e 8f4f d4a3 84e3 353e
00000020: 44f3 823d b213 923d 84fe 43be 246a 78be
00000030: b1a7 66be b9c3 5f1e 8497 f2bd ef91 ccbd
00000040: c420 0080 af32 15b9 8cc4 713e a158 92b8
00000050: 92a1 573e 6ea6 59be fa92 7dbe 3b90 2d93
00000060: 971e 813e a70a ab3e 662e 2c11 8584 efa3
00000070: 4dda 76b8 0906 95bc 988c 973e 23ed 783e
-0.21013308 -0.23216054 -0.08676862 -0.053663757 -0.06275796 0.36734793 -2.301878e-17 0.17762572
0.063940555 0.07132663 -0.19140059 -0.2425924 -0.22524907 1.1845996e-20 -0.118453056 -0.09988772
-1.1754e-41 -0.00014228628 0.23610133 -6.978331e-05 0.21057728 -0.21254894 -0.24763098 -2.1906781e-27
0.2521865 0.33406565 1.3582705e-28 -2.5968556e-17 -5.885428e-05 -0.018191354 0.29599452 0.2430921

conv3.nn.weight f4 [32, 32]
00000000: 0108 9228 78fe 5d3e ba51 6bbe 9057 05be
00000010: e16f 3caf d5ee d73d 60c6 90be 072e d03e
00000020: 681e 903e 7c88 6c3d 7703 bb3d f309 fabe
00000030: c726 7c3e ed47 293e 2aba 93b5 a365 a3be
00000040: 7353 87be 0571 babe bcee 58be 921e 413e
00000050: 286f 4e3e 9ac8 cf3d 9985 853e 18e3 1dbe
00000060: f784 73bf 8d7c 35bd cc5c 2abe 7575 932c
00000070: edc8 a3be a797 cd3d 1608 b23e 9d9d ad2b
00000080: 3fef 388e bccd 633e dfaf 493d 31ee a5be
00000090: c600 0080 d7aa 123e 9322 4a3d a897 8d3e
000000a0: bb02 9dbe 28b8 583e 9f83 0dbf b715 13be
000000b0: 80e1 4a3d 12d6 613e 9cd3 fd33 5a1a 973d
000000c0: 653a 913c 23a5 4b3d 4f12 e3be cd82 7dbe
000000d0: 85ba c3be 92f4 0cbf 44ed 6a3d a731 ac3d
000000e0: 311b d8be 8b33 073e 0cc4 a0be 0c10 56ab
000000f0: 10b2 1e3d f6bd eebb 5fd1 9d3e 6297 6ba8
00000100: 9bbc 982a 4451 a63e 3e56 7fbe 6978 66be
00000110: a7d6 aeb0 52b8 733e 3706 88be c97b ab3e
00000120: baa2 3d3e c386 24be 65a7 fd3d 14b0 b1be
00000130: d67a c33e fc98 aa3d 2b7c 34b6 f57f 1abe
00000140: 2a50 19be c23f 83be afcf 02be 565c 553e
00000150: 9748 303e cf14 9ebc 3e4b af3e c68b 0dbe
00000160: 5754 78bf 4773 d8bc a61c 13be 7509 482f
00000170: 3936 86be 442c f63d 8931 973e 76a0 7f2b
00000180: 7346 082d 703d 103e c173 4fbe f163 99be
00000190: 1852 c4b3 57cc 3c3e e96b b1be e931 ba3e
000001a0: 2b8f 9c3e 2849 23be 52a2 163e d47f d3be
000001b0: dd99 ac3e 4639 043e b588 3bb7 afd1 4dbe
000001c0: e081 78be 3787 98be 7a41 63be 8c7b d03d
000001d0: d846 d23d 3c5b 5b3e 623b ef3e fb04 58be
000001e0: d1ac 8ebf 0396 c9bc 1e37 48be bbfd 8931
000001f0: 7c4a b4be d989 413e 4bfa a13e 52ca dc34
00000200: f803 0000 8d1c 17be 8024 69bc 9877 76bb
00000210: 42c7 af2f daf5 ee3c befb 7fbd b6b4 1cbe
00000220: cc0f febc eccf a7bd 8488 afbc 42b2 5dbc
00000230: 5e78 cabd 573b 7abd d357 061f de47 b3bd
00000240: 7b63 40bd a571 be3d 1db9 dabd 0ec8 b73a
00000250: d0ef 633e 8636 06bd b845 c9bd 4eb9 36be
00000260: 594f d63b b9f0 bc3d eb15 7cbe a710 0080
00000270: 5886 babd e743 a33e 7433 a5bd f75e 6ab0
00000280: 8ed8 e9af 8413 51be ecda 2b3c d2f6 6c3e
00000290: 2889 5737 d082 013c 7f43 f8bb 1fc6 b7be
000002a0: 2763 503e a592 f1bd 79ac 063e 3ff3 2c3d
000002b0: 8e34 4738 d445 a33d 4e74 0539 00b2 02be
000002c0: b386 6fbd f0e6 2fbd 88e6 c73d 129e 563e
000002d0: 2863 b0bc 95aa 903e 3724 aebe 9c41 903d
000002e0: 4e46 a53e fbde 163e 38bf 0bbc f6d4 23b1
000002f0: 570b 0b3e e486 1cbe 45f3 37be dd0d ebb6
00000300: 603d 0200 c8db 39a0 f2c8 8809 50e1 8b9f
00000310: 023c 0180 a2a2 c09d b906 0000 2689 88a2
00000320: 72aa 118f bfb5 8ca7 3be2 6baf 76dd 878d
00000330: 83f6 348e 1032 dcaf fc64 0080 0b1f f38d
00000340: 00a6 d49c 7627 0080 34b9 14a4 c9fa 8eab
00000350: 0c12 0080 74d3 4eb2 480c 0080 5319 0000
00000360: a8f0 8a9e b01d 48a5 aa73 80a0 b85d 0080
00000370: 8e09 0000 a7c8 2d0a f9a1 9600 08ec 0080
00000380: dc8f be82 9371 aa3c cb11 b83c c54b 8fbd
00000390: b8a5 211d e554 54bd 27f9 613d 50af a9bd
000003a0: 6428 193e d3c4 a23d 273c 7cbb 9eb7 b2bc
000003b0: f2bf da3d d358 403e f737 e82c 14d2 ab3d
000003c0: 6958 c03d 51b8 d43b 23ca a8bc 2ea1 d3bd
000003d0: 7ebf 30be 1786 ea3d d601 52bb 2f81 713d
000003e0: 7428 c33d b63c b33d b271 893c 5675 3e0a
000003f0: a069 b23d 6b03 bbbe d1e3 883d 5bb9 ca0f
1.6212727e-14 0.21679103 -0.22980395 -0.13021684 -1.7138248e-10 0.105436005 -0.28276348 0.40660116
0.28148198 0.05774735 0.0913152 -0.48835716 0.24624167 0.16531344 -1.1006534e-06 -0.3191348
-0.26430854 -0.36414352 -0.2118482 0.18859318 0.2015959 0.101456836 0.2607849 -0.1541866
-0.95124763 -0.044308234 -0.16636962 4.1910316e-12 -0.31989232 0.10038691 0.34771794 1.2336136e-12
-2.2794944e-30 0.2224645 0.04923999 -0.32408288 -2.77e-43 0.14322983 0.04934938 0.27654767
-0.30666146 0.21164 -0.5527896 -0.14363752 0.04953146 0.22054318 1.1819722e-07 0.07378073
0.01772804 0.049718034 -0.44349906 -0.24756928 -0.3822824 -0.55060685 0.05735518 0.08407908
-0.42208245 0.13203256 -0.31399572 -7.605034e-13 0.038744032 -0.0072858287 0.308238 -1.30779465e-14
2.7131495e-13 0.32483876 -0.24935243 -0.2250687 -1.2721174e-09 0.23800781 -0.26567242 0.33492878
0.18519107 -0.16067033 0.123854436 -0.3470465 0.38179654 0.08329961 -2.6894365e-06 -0.15087874
-0.14971986 -0.2563458 -0.12774538 0.20836005 0.17215191 -0.019297032 0.34237093 -0.1382285
-0.9700369 -0.026422156 -0.14366397 1.8193254e-10 -0.26213244 0.12020162 0.2952998 9.0816883e-13
7.746348e-12 0.14085937 -0.20259 -0.29959062 -9.141894e-08 0.18437324 -0.3465264 0.36366203
0.30577978 -0.15945876 0.14710358 -0.41308463 0.33711138 0.12912473 -1.1177898e-05 -0.20099519
-0.24268293 -0.2979066 -0.22192946 0.10179815 0.102674186 0.21421522 0.46724993 -0.2109565
-1.1146489 -0.024607664 -0.19552276 4.0160706e-09 -0.35213077 0.18900241 0.3163627 4.11254e-07
1.424e-42 -0.14756985 -0.014229894 -0.0037607905 3.1973896e-10 0.029169966 -0.06249594 -0.15303311
-0.031013392 -0.08193955 -0.0214274 -0.0135312695 -0.098862395 -0.061091747 2.844825e-20 -0.08753942
-0.046969872 0.0929902 -0.10679839 0.0014021413 0.2225945 -0.03276684 -0.09827751 -0.17844126
0.0065402207 0.09225602 -0.24617736 -5.974e-42 -0.09107655 0.31887743 -0.080664545 -8.526366e-10
-4.2536324e-10 -0.20417601 0.010489207 0.2314103 1.2846933e-05 0.007904723 -0.0075764055 -0.35893342
0.20350324 -0.11795548 0.1315173 0.042224165 4.7494243e-05 0.07972303 0.00012727195 -0.12763214
-0.05847807 -0.04294485 0.09760767 0.20958737 -0.021531656 0.28255144 -0.34012005 0.07043764
0.322802 0.14733498 -0.008529477 -2.3840676e-09 0.13578545 -0.15285832 -0.17963894 -7.0051597e-06
2.05688e-40 -1.5742829e-19 3.2929777e-33 -5.924154e-20 -1.13362e-40 -5.0990135e-21 2.412e-42 -3.7008085e-18
-7.1818785e-30 -3.9054855e-15 -2.1453499e-10 -8.373332e-31 -2.2305404e-30 -4.0053338e-10 -3.6226e-41 -1.4983505e-30
-1.4071893e-21 -1.4156e-41 -3.2249257e-17 -1.0159314e-12 -6.474e-42 -1.2038857e-08 -4.406e-42 9.085e-42
-1.4710851e-20 -1.7357293e-16 -2.1760584e-19 -3.362e-41 3.428e-42 8.3673855e-33 1.3833429e-38 -8.4672e-41
-2.8000562e-37 0.02080611 0.022469422 -0.06996874 2.1393847e-21 -0.051838774 0.05516925 -0.08285391
0.14956814 0.079476975 -0.0038488002 -0.021816071 0.10681142 0.18783884 6.60005e-12 0.083896786
0.09391863 0.006491699 -0.020604199 -0.10333477 -0.17260548 0.11451357 -0.0032044551 0.05896109
0.095292 0.08751814 0.016777847 9.170236e-33 0.087115526 -0.36526045 0.066840775 1.9990134e-29

conv3.nn.bias f4 [32]
00000000: 202d 57be 7ebb 6dbe bfb3 b1bd 87ce 5bbd
00000010: 3f87 80bd 0715 bc3e 8f4f d4a3 84e3 353e
00000020: 44f3 823d b213 923d 84fe 43be 246a 78be
00000030: b1a7 66be b9c3 5f1e 8497 f2bd ef91 ccbd
00000040: c420 0080 af32 15b9 8cc4 713e a158 92b8
00000050: 92a1 573e 6ea6 59be fa92 7dbe 3b90 2d93
00000060: 971e 813e a70a ab3e 662e 2c11 8584 efa3
00000070: 4dda 76b8 0906 95bc 988c 973e 23ed 783e
-0.21013308 -0.23216054 -0.08676862 -0.053663757 -0.06275796 0.36734793 -2.301878e-17 0.17762572
0.063940555 0.07132663 -0.19140059 -0.2425924 -0.22524907 1.1845996e-20 -0.118453056 -0.09988772
-1.1754e-41 -0.00014228628 0.23610133 -6.978331e-05 0.21057728 -0.21254894 -0.24763098 -2.1906781e-27
0.2521865 0.33406565 1.3582705e-28 -2.5968556e-17 -5.885428e-05 -0.018191354 0.29599452 0.2430921

lin.weight f4 [2, 32]
00000000: 7956 14bf 4b63 7f3f ce6a 02bf b624 19bf
00000010: 0160 c93e 526d d63e b70b 293a f973 d83d
00000020: 1040 793d 23b7 e5be 16e7 69bf 842f 593f
00000030: 2a47 23bf f042 2036 9a17 2fbf f572 0dbf
00000040: a041 f530 fb33 afb8 4866 823e 5c53 91bc
00000050: df06 733e 8aba d3be bee0 863f 3e7b dab9
00000060: a82c 513e 086e 173e 2626 cab6 ff63 2739
00000070: aff2 b9ba 5f90 d5be 0a62 803e 19bd 983e
00000080: 67ae 113f 7690 82bf 4887 363f 372f 423f
00000090: 4f77 c9be 4bc4 e6be 9d0b 29ba 7ef7 47be
000000a0: 1424 053c 1ef0 d23e 6078 283f 49b3 56bf
000000b0: ca81 f13e c742 20b6 f96d ec3e 2866 1f3f
000000c0: 7541 f5b0 f533 af38 c68a 99be 5853 913c
000000d0: a8cf 4bbe 7a07 433e af01 89bf 677b da39
000000e0: b327 70be 5ee5 63be 851d 86b6 b863 27b9
000000f0: fdf2 b93a 96ad e93e e75e f2bd 954c d0bd
-0.57944447 0.99760884 -0.5094422 -0.5982164 0.39331058 0.4188028 0.0006448584 0.10568995
0.06085211 -0.44866285 -0.91368234 0.8483813 -0.6378046 2.388082e-06 -0.6839539 -0.55253536
1.7844748e-09 -8.3543324e-05 0.2546866 -0.017739944 0.2373309 -0.41353256 1.0537336 -0.00041672023
0.20427191 0.14788067 -6.02451e-06 0.00015963613 -0.0014186705 -0.4171171 0.25074798 0.2983177
0.5690674 -1.0200336 0.7130017 0.75853294 -0.39348838 -0.45071635 -0.0006448569 -0.19528005
0.0081262775 0.4119882 0.6580868 -0.8386732 0.47169334 -2.3880727e-06 0.46177652 0.62265253
-1.78447e-09 8.354328e-05 -0.29988688 0.017739937 -0.19903433 0.19045821 -1.0703639 0.00041672142
-0.23452644 -0.22255465 -3.9969477e-06 -0.00015963509 0.0014186796 0.45640248 -0.118345074 -0.10170857

lin.bias f4 [2]
00000000: 96a2 013e a266 86be
0.12659678 -0.26250178
