formal/realworld/GAT_mutag.pth (torch, 15611 bytes, 17 tensors)

conv1.att_src f4 [1, 1, 32]
0	0xbebe96a6	-0.3722431
1	0xbd4f3950	-0.050591767
2	0xbed97199	-0.4246948
3	0x3e8f0d9d	0.27940074
4	0x3d738bac	0.059459373
5	0xbef621f6	-0.48072785
6	0xbe1c9a33	-0.15293197
7	0x3dfd6f53	0.12374749
8	0xbdb90060	-0.09033275
9	0xbc961324	-0.018319674
10	0x3ec8da56	0.39229077
11	0xbea45d54	-0.32102454
12	0x3ea79bce	0.32736057
13	0x3eda69d7	0.42658874
14	0x3ed02339	0.40651873
15	0x3e885017	0.26623604
16	0xbee08b3d	-0.4385623
17	0xbec64096	-0.3872115
18	0x3eaf275c	0.34209716
19	0xbe2d7261	-0.16938163
20	0xbe66fb39	-0.22556771
21	0xbd807943	-0.06273129
22	0xbe42c98a	-0.19022194
23	0x3df47fbe	0.119384274
24	0xbdbebdf5	-0.09313575
25	0xbe96a054	-0.29419196
26	0x3eddcb64	0.43319237
27	0x3ea6d3d5	0.3258349
28	0x3e5498c0	0.20761395
29	0xbeb1a740	-0.34697914
30	0x3d068f40	0.032851458
31	0x3e5570d2	0.20843819

conv1.att_dst f4 [1, 1, 32]
0	0xbd8fc83d	-0.07020614
1	0x3ea30ae4	0.31844246
2	0x3de3763a	0.11106534
3	0x3e110908	0.14163601
4	0x3e1eb062	0.15496972
5	0x3e6e26fd	0.2325706
6	0x3efb0e7c	0.49034488
7	0x3ec87727	0.39153406
8	0x3ed72269	0.4201844
9	0xbe145ce5	-0.14488561
10	0xbc9c50dc	-0.019081526
11	0x3e6c3e6d	0.23070689
12	0xbd54a885	-0.051918525
13	0xbebdb321	-0.37050727
14	0xbe98f05f	-0.2987089
15	0x3e10ef98	0.14153898
16	0x3d295ce0	0.041348338
17	0xbd7d40e3	-0.06182946
18	0xbd0c1a56	-0.034204803
19	0xbd916391	-0.07099069
20	0x3e576795	0.21035607
21	0x3e11e734	0.14248353
22	0xbd672cca	-0.0564392
23	0xbed383e6	-0.41311568
24	0xbebab7be	-0.3646831
25	0x3e1179ee	0.14206669
26	0xbd939ec7	-0.07208019
27	0xbe6f8fa3	-0.23394637
28	0x3e74e353	0.23914842
29	0x3eb7586e	0.35809654
30	0x3a9f3d94	0.0012149089
31	0xbe3b65ac	-0.18300503

conv1.bias f4 [32]
0	0x3d7554ab	0.0598952
1	0x3c1a000d	0.009399426
2	0x3d7780ca	0.060425557
3	0xbca61c16	-0.020277064
4	0x3d873d64	0.06603506
5	0x3d4439ec	0.0479068
6	0x3d8159e9	0.06315977
7	0x3d5dd008	0.054153472
8	0xbc53f04a	-0.012935707
9	0x3d9ef55d	0.07761643
10	0xbb9f9263	-0.0048697456
11	0x3ca81b15	0.020520726
12	0x3d88d9c1	0.06682158
13	0x3d9a8820	0.07545495
14	0x3e1a5ea2	0.15075162
15	0x3d17b9c8	0.03704241
16	0x3d5680f6	0.05236908
17	0x3d262f87	0.04057267
18	0x3d55879b	0.052131277
19	0x3d850540	0.06495142
20	0x3d59f8dd	0.05321585
21	0xbd5c5227	-0.053789284
22	0xbd2148e1	-0.039376143
23	0x3d645f20	0.05575478
24	0x3cdb12d2	0.026742373
25	0x3c03fc2f	0.008055731
26	0xbd5838db	-0.052788597
27	0x3d480e96	0.048842035
28	0x3d9ff3e8	0.07810193
29	0x3d4db89f	0.050224897
30	0x3dbc323e	0.091892704
31	0x3e15d1b3	0.14630775

conv1.lin_src.weight f4 [32, 14]
0	0x3ec8b258	0.39198565
1	0xbdf98d91	-0.12185205
2	0xbe264a57	-0.16239296
3	0xbdcd6314	-0.10028663
4	0x3ec4ed19	0.3846214
5	0xbdec7a6c	-0.115467876
6	0xbe421ffc	-0.18957514
7	0xbe058b9c	-0.13041538
8	0xbe6d5459	-0.23176707
9	0xbe072e27	-0.132012
10	0x3c15a03a	0.009132439
11	0x3a0852bb	0.0005200316
12	0x32640623	1.3272742e-08
13	0x220f9a02	1.9461645e-18
14	0x3ec2a171	0.38013795
15	0xbd96fa6f	-0.07371985
16	0x3dc47b13	0.09593787
17	0x3da349bb	0.07973047
18	0x3ee3a60c	0.4446262
19	0xbd135183	-0.035966408
20	0xbd52318c	-0.051316783
21	0xbe76dbc6	-0.24107274
22	0xbd96bb64	-0.07359961
23	0x3dc81af5	0.09770767
24	0x26884706	9.456147e-16
25	0x3bd103f6	0.006378646
26	0x3c21e621	0.009881527
27	0x3982202c	0.00024819502
28	0x3ec6d79a	0.38836366
29	0x3e880328	0.26564908
30	0xbf0e8b2f	-0.5568113
31	0x3dd20acf	0.10255968
32	0xbddeb76c	-0.10874829
33	0xbf07d290	-0.5305567
34	0xbe1a37d6	-0.15060362
35	0x3be70215	0.0070498087
36	0xbe18fa8e	-0.14939329
37	0xbe130395	-0.14356835
38	0x399c0ada	0.00029762724
39	0x27d34178	5.8635246e-15
40	0x3bed1ac5	0.007235857
41	0xb8b4f7c7	-8.629221e-05
42	0x3ea522a8	0.32253003
43	0x3e1341e1	0.143806
44	0x3e02e871	0.12783982
45	0x3e1d8696	0.15383372
46	0x3d65e335	0.056124885
47	0x3bfd633e	0.007732778
48	0x3e4f691d	0.20254941
49	0xbdf59eb5	-0.119931616
50	0x3e87c9cb	0.26521143
51	0x3dae998e	0.08525382
52	0xbbe2e8c7	-0.006924722
53	0xb442f4d3	-1.8156724e-07
54	0x36198151	2.2874049e-06
55	0xa1c8cea8	-1.3607229e-18
56	0x3ecf16d5	0.40447107
57	0xbe513fa9	-0.2043444
58	0xbf1b1fb3	-0.60595244
59	0x3e385507	0.18001185
60	0x3d05d385	0.032672424
61	0x3db33018	0.087494075
62	0x3dd2ac30	0.102867484
63	0x3d7add06	0.06124594
64	0x3e8f216d	0.2795519
65	0xbe8b30c5	-0.27185646
66	0xab557d25	-7.5846474e-13
67	0x2437752b	3.9781045e-17
68	0xb874bd6e	-5.8350553e-05
69	0x3889c41f	6.5691995e-05
70	0xbe0e8e19	-0.13921393
71	0x3eb0fdaa	0.3456853
72	0xbe5bb65f	-0.21456288
73	0x3ec7a6db	0.38994488
74	0xbeaa59b7	-0.33271572
75	0xbea84d2c	-0.32871377
76	0x3daf2aec	0.085531086
77	0x3d875e2c	0.06609759
78	0xbe6448c7	-0.22293387
79	0xbe73fc9c	-0.23826832
80	0x202e1ba6	1.4747521e-19
81	0xbb47e997	-0.003050422
82	0xbaa3f85d	-0.0012509931
83	0x22a799db	4.542834e-18
84	0x3e48fa6a	0.19626775
85	0x3dbce557	0.092234306
86	0xbeb6d072	-0.35705906
87	0x3f1d866a	0.61533225
88	0xbe253dd6	-0.1613687
89	0xbea274d6	-0.31729764
90	0xbe4cfe8f	-0.20018981
91	0x3d3de7db	0.046363693
92	0x3e2ee2f1	0.17078759
93	0xbe81a3cc	-0.2532028
94	0xa6137c37	-5.1169213e-16
95	0x2810839d	8.022145e-15
96	0x250b85a1	1.2101603e-16
97	0x3b4ad812	0.0030951542
98	0x3e5df638	0.21675956
99	0xbe1f459d	-0.15553899
100	0xbd81cb67	-0.06337624
101	0x3d9318ab	0.071824394
102	0x3edde256	0.43336743
103	0x3e85f0d9	0.26160315
104	0x3e15ebee	0.14640781
105	0xbeaa3739	-0.33245257
106	0x3b3f05dc	0.002914778
107	0x3e085408	0.13313305
108	0x3b925361	0.004465506
109	0xbbd62e11	-0.0065362533
110	0x20c61ab4	3.3560175e-19
111	0xa38a8ef5	-1.5022535e-17
112	0xbe627417	-0.22114597
113	0x3dc8666a	0.09785159
114	0xbec63889	-0.38715008
115	0x3b33d764	0.0027441615
116	0x3ef9a80c	0.48761022
117	0xbe56af4c	-0.20965308
118	0xbe0a10ce	-0.13482973
119	0x3d34c93f	0.044137236
120	0xbe190f78	-0.14947307
121	0xbbbd1402	-0.0057702074
122	0x27959b96	4.1524494e-15
123	0x2dfb9aff	2.8604228e-11
124	0x332238e8	3.777032e-08
125	0x35969620	1.1219563e-06
126	0xbec628e4	-0.38703072
127	0x3e1e67cd	0.15469284
128	0xbd389aba	-0.045069434
129	0x3c3c46f1	0.011491523
130	0x3e8e7951	0.27826932
131	0x3ebd5d3a	0.3698519
132	0xbe1acaa7	-0.15116368
133	0x3dac1aba	0.08403535
134	0xbe0995b0	-0.13436007
135	0xbd5e10cc	-0.054215237
136	0xb84bb243	-4.856499e-05
137	0xa1b5affb	-1.2311619e-18
138	0x39e2ac18	0.000432343
139	0x3764404e	1.3604831e-05
140	0xbed57428	-0.41690183
141	0x3d91aa44	0.07112554
142	0x3d904a1e	0.07045387
143	0x3d18c805	0.03730013
144	0x3e46dd05	0.1942025
145	0x3ee4e2ff	0.44704434
146	0xbd4ca212	-0.04995925
147	0x3e7652b7	0.2405499
148	0x3d2e0692	0.042486735
149	0x3e62eb10	0.22159982
150	0x2b628cf2	8.048693e-13
151	0x2c062e6d	1.9068317e-12
152	0xbaa32b44	-0.0012448807
153	0xb43dc163	-1.767235e-07
154	0x3e9ee5ac	0.310346
155	0x3d163081	0.03666735
156	0xbec29a7e	-0.38008493
157	0xbd746577	-0.059667077
158	0xbe47811b	-0.19482844
159	0xbe898b7f	-0.2686424
160	0x3cea18c1	0.028576257
161	0xbdaec856	-0.08534305
162	0xbd4c01b6	-0.04980632
163	0xbe5ca23f	-0.21546267
164	0x20ab4012	2.9010925e-19
165	0x27e291a6	6.2885513e-15
166	0x323abc9b	1.0869509e-08
167	0xac05a626	-1.8992668e-12
168	0xbd49461a	-0.04913912
169	0x3ec2383b	0.37933525
170	0x3e8375b5	0.2567574
171	0xbe85946e	-0.26089805
172	0xbddaf98a	-0.10692127
173	0x3eba9575	0.36442152
174	0x3dbb0c68	0.09133226
175	0xbba3b1b2	-0.004995548
176	0xbdea1244	-0.11429265
177	0x3ebf8cf3	0.37412223
178	0x3b324680	0.0027202666
179	0xb6fec393	-7.5925577e-06
180	0x21ab1cf0	1.159507e-18
181	0x9f818f14	-5.487033e-20
182	0x3e976b86	0.2957422
183	0x3cc82e97	0.024436278
184	0xba08f66c	-0.0005224708
185	0xbf407f51	-0.7519427
186	0x3d1d6f02	0.038435943
187	0x3ea9f5be	0.331953
188	0x3d99ce9b	0.0751011
189	0xbe6f854b	-0.23390691
190	0xbe2eec06	-0.17082223
191	0x3e4f16b8	0.2022351
192	0x3b510e4b	0.0031899388
193	0xa2024a35	-1.765757e-18
194	0x3b8f9430	0.004381679
195	0x3b10918a	0.0022059404
196	0xbe25dd57	-0.16197716
197	0xbe864091	-0.26221135
198	0x3e29bb44	0.16575342
199	0xbe98966d	-0.29802266
200	0x3ec84c2f	0.39120623
201	0x3e83fbcd	0.25778046
202	0x3ea038c2	0.31293303
203	0xbe99eec0	-0.30064964
204	0xbdb65fe9	-0.08905012
205	0x3e881f96	0.26586598
206	0x25122fd2	1.2679684e-16
207	0xb98bf44a	-0.00026694156
208	0x31447132	2.8586098e-09
209	0xaa32b7d4	-1.5873354e-13
210	0xbdb9ee72	-0.09078683
211	0x3e16aeea	0.14715162
212	0xbdfb0bc5	-0.12258104
213	0xbea114d8	-0.31461215
214	0x3dfffa1e	0.12498878
215	0x3ef94bbc	0.48690593
216	0x3e79234b	0.2432987
217	0xbea72d04	-0.32651532
218	0xbdf85355	-0.12125269
219	0x3e160f5d	0.14654298
220	0x367c05de	3.7554341e-06
221	0xb606c85d	-2.0084183e-06
222	0xa7a80e7f	-4.6645084e-15
223	0x39cde534	0.00039271417
224	0xbe7a5f8b	-0.24450509
225	0x3e01d780	0.12679863
226	0xbe7af5fa	-0.24507895
227	0x3d6b6030	0.05746478
228	0xbe5c830d	-0.21534367
229	0xbedb5d16	-0.42844456
230	0xbdf2825e	-0.11841272
231	0x3e0e6b1e	0.1390805
232	0xbe484970	-0.19559264
233	0xbe547681	-0.2074833
234	0xb224f144	-9.600914e-09
235	0xb5671348	-8.6082264e-07
236	0xb8cde211	-9.81727e-05
237	0xb56577db	-8.548356e-07
238	0xbe846600	-0.2585907
239	0x3e97287d	0.29523078
240	0x3c368dd9	0.011142218
241	0x3ddb38b0	0.10704172
242	0xbea2696c	-0.31721056
243	0xbe9f5146	-0.31116694
244	0xbe5ee56c	-0.21767205
245	0x3e9aed89	0.3025935
246	0xbe521902	-0.20517352
247	0xbe05ef51	-0.13079573
248	0x3b55fb9d	0.0032651194
249	0xbbe604b4	-0.0070196036
250	0x373b4861	1.1162921e-05
251	0xa504d9fe	-1.1523034e-16
252	0x3e7c2a0c	0.24625415
253	0x3e528df0	0.20561957
254	0xbd8c2305	-0.06842617
255	0xbee29474	-0.44253886

conv1.lin_dst.weight f4 [32, 14]
0	0x3ec8b258	0.39198565
1	0xbdf98d91	-0.12185205
2	0xbe264a57	-0.16239296
3	0xbdcd6314	-0.10028663
4	0x3ec4ed19	0.3846214
5	0xbdec7a6c	-0.115467876
6	0xbe421ffc	-0.18957514
7	0xbe058b9c	-0.13041538
8	0xbe6d5459	-0.23176707
9	0xbe072e27	-0.132012
10	0x3c15a03a	0.009132439
11	0x3a0852bb	0.0005200316
12	0x32640623	1.3272742e-08
13	0x220f9a02	1.9461645e-18
14	0x3ec2a171	0.38013795
15	0xbd96fa6f	-0.07371985
16	0x3dc47b13	0.09593787
17	0x3da349bb	0.07973047
18	0x3ee3a60c	0.4446262
19	0xbd135183	-0.035966408
20	0xbd52318c	-0.051316783
21	0xbe76dbc6	-0.24107274
22	0xbd96bb64	-0.07359961
23	0x3dc81af5	0.09770767
24	0x26884706	9.456147e-16
25	0x3bd103f6	0.006378646
26	0x3c21e621	0.009881527
27	0x3982202c	0.00024819502
28	0x3ec6d79a	0.38836366
29	0x3e880328	0.26564908
30	0xbf0e8b2f	-0.5568113
31	0x3dd20acf	0.10255968
32	0xbddeb76c	-0.10874829
33	0xbf07d290	-0.5305567
34	0xbe1a37d6	-0.15060362
35	0x3be70215	0.0070498087
36	0xbe18fa8e	-0.14939329
37	0xbe130395	-0.14356835
38	0x399c0ada	0.00029762724
39	0x27d34178	5.8635246e-15
40	0x3bed1ac5	0.007235857
41	0xb8b4f7c7	-8.629221e-05
42	0x3ea522a8	0.32253003
43	0x3e1341e1	0.143806
44	0x3e02e871	0.12783982
45	0x3e1d8696	0.15383372
46	0x3d65e335	0.056124885
47	0x3bfd633e	0.007732778
48	0x3e4f691d	0.20254941
49	0xbdf59eb5	-0.119931616
50	0x3e87c9cb	0.26521143
51	0x3dae998e	0.08525382
52	0xbbe2e8c7	-0.006924722
53	0xb442f4d3	-1.8156724e-07
54	0x36198151	2.2874049e-06
55	0xa1c8cea8	-1.3607229e-18
56	0x3ecf16d5	0.40447107
57	0xbe513fa9	-0.2043444
58	0xbf1b1fb3	-0.60595244
59	0x3e385507	0.18001185
60	0x3d05d385	0.032672424
61	0x3db33018	0.087494075
62	0x3dd2ac30	0.102867484
63	0x3d7add06	0.06124594
64	0x3e8f216d	0.2795519
65	0xbe8b30c5	-0.27185646
66	0xab557d25	-7.5846474e-13
67	0x2437752b	3.9781045e-17
68	0xb874bd6e	-5.8350553e-05
69	0x3889c41f	6.5691995e-05
70	0xbe0e8e19	-0.13921393
71	0x3eb0fdaa	0.3456853
72	0xbe5bb65f	-0.21456288
73	0x3ec7a6db	0.38994488
74	0xbeaa59b7	-0.33271572
75	0xbea84d2c	-0.32871377
76	0x3daf2aec	0.085531086
77	0x3d875e2c	0.06609759
78	0xbe6448c7	-0.22293387
79	0xbe73fc9c	-0.23826832
80	0x202e1ba6	1.4747521e-19
81	0xbb47e997	-0.003050422
82	0xbaa3f85d	-0.0012509931
83	0x22a799db	4.542834e-18
84	0x3e48fa6a	0.19626775
85	0x3dbce557	0.092234306
86	0xbeb6d072	-0.35705906
87	0x3f1d866a	0.61533225
88	0xbe253dd6	-0.1613687
89	0xbea274d6	-0.31729764
90	0xbe4cfe8f	-0.20018981
91	0x3d3de7db	0.046363693
92	0x3e2ee2f1	0.17078759
93	0xbe81a3cc	-0.2532028
94	0xa6137c37	-5.1169213e-16
95	0x2810839d	8.022145e-15
96	0x250b85a1	1.2101603e-16
97	0x3b4ad812	0.0030951542
98	0x3e5df638	0.21675956
99	0xbe1f459d	-0.15553899
100	0xbd81cb67	-0.06337624
101	0x3d9318ab	0.071824394
102	0x3edde256	0.43336743
103	0x3e85f0d9	0.26160315
104	0x3e15ebee	0.14640781
105	0xbeaa3739	-0.33245257
106	0x3b3f05dc	0.002914778
107	0x3e085408	0.13313305
108	0x3b925361	0.004465506
109	0xbbd62e11	-0.0065362533
110	0x20c61ab4	3.3560175e-19
111	0xa38a8ef5	-1.5022535e-17
112	0xbe627417	-0.22114597
113	0x3dc8666a	0.09785159
114	0xbec63889	-0.38715008
115	0x3b33d764	0.0027441615
116	0x3ef9a80c	0.48761022
117	0xbe56af4c	-0.20965308
118	0xbe0a10ce	-0.13482973
119	0x3d34c93f	0.044137236
120	0xbe190f78	-0.14947307
121	0xbbbd1402	-0.0057702074
122	0x27959b96	4.1524494e-15
123	0x2dfb9aff	2.8604228e-11
124	0x332238e8	3.777032e-08
125	0x35969620	1.1219563e-06
126	0xbec628e4	-0.38703072
127	0x3e1e67cd	0.15469284
128	0xbd389aba	-0.045069434
129	0x3c3c46f1	0.011491523
130	0x3e8e7951	0.27826932
131	0x3ebd5d3a	0.3698519
132	0xbe1acaa7	-0.15116368
133	0x3dac1aba	0.08403535
134	0xbe0995b0	-0.13436007
135	0xbd5e10cc	-0.054215237
136	0xb84bb243	-4.856499e-05
137	0xa1b5affb	-1.2311619e-18
138	0x39e2ac18	0.000432343
139	0x3764404e	1.3604831e-05
140	0xbed57428	-0.41690183
141	0x3d91aa44	0.07112554
142	0x3d904a1e	0.07045387
143	0x3d18c805	0.03730013
144	0x3e46dd05	0.1942025
145	0x3ee4e2ff	0.44704434
146	0xbd4ca212	-0.04995925
147	0x3e7652b7	0.2405499
148	0x3d2e0692	0.042486735
149	0x3e62eb10	0.22159982
150	0x2b628cf2	8.048693e-13
151	0x2c062e6d	1.9068317e-12
152	0xbaa32b44	-0.0012448807
153	0xb43dc163	-1.767235e-07
154	0x3e9ee5ac	0.310346
155	0x3d163081	0.03666735
156	0xbec29a7e	-0.38008493
157	0xbd746577	-0.059667077
158	0xbe47811b	-0.19482844
159	0xbe898b7f	-0.2686424
160	0x3cea18c1	0.028576257
161	0xbdaec856	-0.08534305
162	0xbd4c01b6	-0.04980632
163	0xbe5ca23f	-0.21546267
164	0x20ab4012	2.9010925e-19
165	0x27e291a6	6.2885513e-15
166	0x323abc9b	1.0869509e-08
167	0xac05a626	-1.8992668e-12
168	0xbd49461a	-0.04913912
169	0x3ec2383b	0.37933525
170	0x3e8375b5	0.2567574
171	0xbe85946e	-0.26089805
172	0xbddaf98a	-0.10692127
173	0x3eba9575	0.36442152
174	0x3dbb0c68	0.09133226
175	0xbba3b1b2	-0.004995548
176	0xbdea1244	-0.11429265
177	0x3ebf8cf3	0.37412223
178	0x3b324680	0.0027202666
179	0xb6fec393	-7.5925577e-06
180	0x21ab1cf0	1.159507e-18
181	0x9f818f14	-5.487033e-20
182	0x3e976b86	0.2957422
183	0x3cc82e97	0.024436278
184	0xba08f66c	-0.0005224708
185	0xbf407f51	-0.7519427
186	0x3d1d6f02	0.038435943
187	0x3ea9f5be	0.331953
188	0x3d99ce9b	0.0751011
189	0xbe6f854b	-0.23390691
190	0xbe2eec06	-0.17082223
191	0x3e4f16b8	0.2022351
192	0x3b510e4b	0.0031899388
193	0xa2024a35	-1.765757e-18
194	0x3b8f9430	0.004381679
195	0x3b10918a	0.0022059404
196	0xbe25dd57	-0.16197716
197	0xbe864091	-0.26221135
198	0x3e29bb44	0.16575342
199	0xbe98966d	-0.29802266
200	0x3ec84c2f	0.39120623
201	0x3e83fbcd	0.25778046
202	0x3ea038c2	0.31293303
203	0xbe99eec0	-0.30064964
204	0xbdb65fe9	-0.08905012
205	0x3e881f96	0.26586598
206	0x25122fd2	1.2679684e-16
207	0xb98bf44a	-0.00026694156
208	0x31447132	2.8586098e-09
209	0xaa32b7d4	-1.5873354e-13
210	0xbdb9ee72	-0.09078683
211	0x3e16aeea	0.14715162
212	0xbdfb0bc5	-0.12258104
213	0xbea114d8	-0.31461215
214	0x3dfffa1e	0.12498878
215	0x3ef94bbc	0.48690593
216	0x3e79234b	0.2432987
217	0xbea72d04	-0.32651532
218	0xbdf85355	-0.12125269
219	0x3e160f5d	0.14654298
220	0x367c05de	3.7554341e-06
221	0xb606c85d	-2.0084183e-06
222	0xa7a80e7f	-4.6645084e-15
223	0x39cde534	0.00039271417
224	0xbe7a5f8b	-0.24450509
225	0x3e01d780	0.12679863
226	0xbe7af5fa	-0.24507895
227	0x3d6b6030	0.05746478
228	0xbe5c830d	-0.21534367
229	0xbedb5d16	-0.42844456
230	0xbdf2825e	-0.11841272
231	0x3e0e6b1e	0.1390805
232	0xbe484970	-0.19559264
233	0xbe547681	-0.2074833
234	0xb224f144	-9.600914e-09
235	0xb5671348	-8.6082264e-07
236	0xb8cde211	-9.81727e-05
237	0xb56577db	-8.548356e-07
238	0xbe846600	-0.2585907
239	0x3e97287d	0.29523078
240	0x3c368dd9	0.011142218
241	0x3ddb38b0	0.10704172
242	0xbea2696c	-0.31721056
243	0xbe9f5146	-0.31116694
244	0xbe5ee56c	-0.21767205
245	0x3e9aed89	0.3025935
246	0xbe521902	-0.20517352
247	0xbe05ef51	-0.13079573
248	0x3b55fb9d	0.0032651194
249	0xbbe604b4	-0.0070196036
250	0x373b4861	1.1162921e-05
251	0xa504d9fe	-1.1523034e-16
252	0x3e7c2a0c	0.24625415
253	0x3e528df0	0.20561957
254	0xbd8c2305	-0.06842617
255	0xbee29474	-0.44253886

conv2.att_src f4 [1, 1, 32]
0	0x3bc84436	0.006111647
1	0x3d95a4c3	0.073068164
2	0xbe5487e2	-0.2075496
3	0xbe9b6803	-0.30352792
4	0xbe3d5c5c	-0.18492264
5	0x3f16f420	0.58966255
6	0xbe9b583e	-0.3034076
7	0x3e8e0f5f	0.27746102
8	0xbe966103	-0.2937089
9	0x3e99ffc8	0.30077958
10	0xbd00c73d	-0.03144001
11	0xbf052ab9	-0.52018315
12	0xbeec3d25	-0.461404
13	0x3df07c2f	0.11742436
14	0xbea3847e	-0.3193702
15	0x3eeb6aa9	0.45979813
16	0xbe49212d	-0.19641562
17	0xbf037277	-0.51346534
18	0x3e481356	0.19538626
19	0x3ddb0d3d	0.106958844
20	0x3df0e950	0.11763251
21	0x3dff0ff5	0.124542154
22	0xbcb861b6	-0.02250753
23	0x3e5b3176	0.21405587
24	0xbeee81e4	-0.46583474
25	0xbe836e38	-0.25670028
26	0xbe195223	-0.14972739
27	0x3db5e3ab	0.08881315
28	0xbe882a2a	-0.2659467
29	0x3e69ac8b	0.22819726
30	0x3d84c375	0.06482593
31	0x3ecb6edc	0.39733016

conv2.att_dst f4 [1, 1, 32]
0	0x3e4dd841	0.20102026
1	0x3c736c95	0.014857431
2	0x3def50af	0.11685311
3	0x3d5210bd	0.051285494
4	0x3d963df5	0.07336036
5	0xbea19649	-0.3155997
6	0x3e443f3e	0.1916475
7	0x3e4d88ad	0.20071669
8	0x3dccf22c	0.10007128
9	0xbd61f7e1	-0.055168036
10	0x3d979355	0.07401148
11	0xbc07bdfc	-0.008285042
12	0x3e676687	0.22597705
13	0x3e5edb26	0.21763286
14	0x3e87e9ec	0.26545656
15	0x3e901eb2	0.2814842
16	0x3e9305b0	0.28715277
17	0x3e80ee29	0.25181702
18	0x3e4e596d	0.201513
19	0x3eb09d6b	0.344951
20	0x3dbcf793	0.092269085
21	0xbe06c3d2	-0.13160637
22	0x3e886d33	0.26645812
23	0xbeb8494c	-0.3599342
24	0xbdc67fbe	-0.09692334
25	0x3e8cea59	0.27522543
26	0x3e29f0a8	0.1659571
27	0x3e5bcf2d	0.2146575
28	0x3e5d42c7	0.21607505
29	0x3ef20583	0.4726983
30	0x3f40f9fc	0.75381446
31	0xbec78ca3	-0.38974485

conv2.bias f4 [32]
0	0x3d4b4c0e	0.04963308
1	0x3ccc464c	0.024935864
2	0x3d470783	0.048591148
3	0x3cace6a9	0.021106081
4	0x3d982665	0.07429198
5	0x3de4c6b2	0.111707106
6	0x3cec3f9b	0.028838923
7	0xbb84b217	-0.0040495503
8	0x3d1dc99f	0.03852236
9	0x3d6ff897	0.058586683
10	0x3d583836	0.052787982
11	0x3d9f3d3a	0.0777535
12	0x3d591866	0.053001784
13	0x3d2863f2	0.04111094
14	0x3d4621b5	0.04837199
15	0x3ce5661a	0.028002787
16	0x3d5381c9	0.051637445
17	0xbc07affd	-0.008281705
18	0x3bf5e9c8	0.0075046755
19	0x3d3df762	0.0463785
20	0x3d73d0b2	0.0595252
21	0xbcb9518f	-0.022621898
22	0xbc11808a	-0.008880744
23	0xbcf9fca0	-0.030515969
24	0x3dba45c4	0.09095338
25	0x3badec94	0.0053077433
26	0x3d42b0e5	0.04753198
27	0x3d385d07	0.045010593
28	0xbcf2ed32	-0.02965412
29	0xbbfa37e2	-0.0076360563
30	0xbe1b861d	-0.15187879
31	0x3e0793f0	0.13240027

conv2.lin_src.weight f4 [32, 32]
0	0x3e7741ba	0.24146166
1	0xbd4c3178	-0.049851865
2	0x3e14e0da	0.14538899
3	0x3e6b688f	0.22989105
4	0x3d7ee9c2	0.062234648
5	0xbdbaa109	-0.09112746
6	0xbd0e8488	-0.03479436
7	0x3e4bdc69	0.19908299
8	0x3e88b2fc	0.26699054
9	0x3dd06456	0.101753876
10	0x3e13dde3	0.14440112
11	0x3e0fdf08	0.14049923
12	0x3d02b10f	0.031907137
13	0x3efe54aa	0.4967397
14	0x3e4b19d7	0.19834076
15	0x3de6a68c	0.11262235
16	0xbbe75138	-0.0070592426
17	0x3b1b9942	0.0023742472
18	0x3ede2006	0.43383807
19	0xbd45d2b7	-0.048296656
20	0x3e60304d	0.21893425
21	0x3e830180	0.25587082
22	0x3e0a9854	0.13534671
23	0x3e9f3a75	0.31099287
24	0x3c8c2f4b	0.017112395
25	0x3e2533c1	0.16133024
26	0xbd4ee6f6	-0.05051323
27	0x3dde8d8e	0.10866843
28	0xbe56a1dc	-0.20960182
29	0x3e490205	0.19629677
30	0xbd8e00d0	-0.06933749
31	0x3da13572	0.07871522
32	0x3e24026a	0.16016546
33	0x3d46e3aa	0.04855696
34	0x3eb0fc46	0.3456747
35	0x3df73388	0.12070376
36	0x3e62fe3d	0.22167297
37	0xbcf3b64b	-0.02975001
38	0x3eaef515	0.34171358
39	0x3e3d9982	0.1851559
40	0xbe76d375	-0.24104102
41	0xbeaa7ad4	-0.33296835
42	0x3de35fed	0.11102281
43	0xbe52ab03	-0.20573048
44	0xbe576673	-0.21035175
45	0x3e0caa04	0.13736731
46	0x3e03e1e2	0.12879136
47	0xbd24fbf2	-0.040279336
48	0x3b8caf98	0.0042933933
49	0xbe15aeb4	-0.14617425
50	0x3e615f67	0.2200905
51	0x3e4ac46a	0.19801489
52	0x3daa2fc7	0.08309894
53	0xbdf4dc8c	-0.119561285
54	0x3e4c56c5	0.19954975
55	0x3e9aa280	0.30202103
56	0xbded5491	-0.115883954
57	0x3cd623c6	0.026140105
58	0xbc2be26d	-0.010490996
59	0x3d0e1a41	0.034693006
60	0x3cb83ab8	0.022488937
61	0xbeaf46a1	-0.34233573
62	0x3d8a67fb	0.06758114
63	0xbd76efbc	-0.060287222
64	0xbd130143	-0.035889875
65	0xbe2c4c34	-0.16825944
66	0x3e518400	0.2046051
67	0xbda7479e	-0.08167957
68	0x3e9d26c3	0.30693635
69	0xbda8e25a	-0.08246298
70	0x3e0b7148	0.13617432
71	0x3e8f47ea	0.27984554
72	0xbe280853	-0.16409425
73	0xbe6318cc	-0.22177428
74	0x3c540504	0.012940649
75	0x3ea6f436	0.32608193
76	0xbec0ad2e	-0.37632126
77	0xbe6bd4a3	-0.23030333
78	0xbe39e386	-0.181532
79	0xbe97ef50	-0.29674768
80	0x3ae723a0	0.0017634518
81	0xbe103fd3	-0.14086847
82	0xbe1133e3	-0.1417995
83	0x3df0eb83	0.1176367
84	0x3e2eea76	0.17081627
85	0xbdc76996	-0.09736936
86	0x3e1b22ab	0.15149944
87	0x3e991116	0.29895848
88	0xbed36671	-0.41289094
89	0x3d98042a	0.07422669
90	0x3d36e7a2	0.044654496
91	0x3e92f42d	0.28701916
92	0x3ea9b4af	0.33145663
93	0xbe2a9923	-0.1665998
94	0x3d916756	0.07099788
95	0xbe74242a	-0.2384192
96	0xbe0e992e	-0.13925621
97	0xbd8de70e	-0.06928836
98	0x3e674718	0.22585714
99	0xbd9c026a	-0.07617648
100	0x3e9e48df	0.3091497
101	0xbdb6cd11	-0.08925832
102	0x3e290561	0.16505958
103	0x3e81cec3	0.2535306
104	0x3d3d79f7	0.046258893
105	0xbdbed3cc	-0.09317741
106	0xbe0bba38	-0.13645256
107	0x3d650991	0.055917326
108	0xbdf2a163	-0.11847188
109	0xbe3d2fe4	-0.184753
110	0x3d2e551e	0.042561643
111	0xbe362149	-0.17786135
112	0xbd77b0fa	-0.060471512
113	0xbe3f1738	-0.18661201
114	0x3e140aef	0.14457296
115	0x3e1a39db	0.15061133
116	0x3de82076	0.113343164
117	0xbe5679c1	-0.20944883
118	0xbc90aa2f	-0.017659275
119	0x3e1a007e	0.1503925
120	0xbe92831e	-0.2861566
121	0x3e2d39f0	0.16916633
122	0x3bcdfa84	0.0062859673
123	0x3d805f3e	0.06268166
124	0x3e0c0a21	0.13675739
125	0xbde450aa	-0.11148198
126	0x3d2ec807	0.04267123
127	0xbe7893de	-0.24275157
128	0x3de50e55	0.11184374
129	0x3df68c8a	0.120385244
130	0xbe1f0be6	-0.15531883
131	0x3e5a4d99	0.21318664
132	0x3ea3e62f	0.32011554
133	0x3cd7ebd1	0.026357563
134	0xbbdb0819	-0.006684315
135	0x3c7b32f5	0.015331973
136	0x3ddcfa69	0.107899494
137	0xbdf16b12	-0.11788
138	0xbe474c30	-0.19462657
139	0x3e86925e	0.26283544
140	0xbe30d9ad	-0.17270537
141	0xbec136ae	-0.3773703
142	0xbe2015aa	-0.15633264
143	0xbe355b51	-0.17710616
144	0xbd34fb50	-0.044184983
145	0x3ce07448	0.027399197
146	0x3cf27f32	0.029601667
147	0xbda7e2c0	-0.08197546
148	0xbca2cea5	-0.019873926
149	0x3e256d8a	0.16155067
150	0x3c2ee959	0.010675752
151	0xbd8fa7f2	-0.07014455
152	0x3d3c2fa6	0.04594388
153	0xbd6bf820	-0.057609677
154	0x3db9ac9a	0.09066124
155	0x3e47c43d	0.19508453
156	0x3e9268e2	0.28595644
157	0xbe5f3c6f	-0.21800397
158	0x3d96b6ad	0.073590614
159	0xbdce9ba3	-0.10088279
160	0xbe4a524a	-0.19757953
161	0xbe6195e5	-0.22029836
162	0xbe3e5c08	-0.18589795
163	0xbde96b3d	-0.11397407
164	0xbea8fc04	-0.33004773
165	0x3e128e02	0.14311984
166	0xbe9274f1	-0.28604844
167	0xbe24a9f9	-0.16080464
168	0xbdba217c	-0.09088418
169	0xbde3f652	-0.11130966
170	0xba045b81	-0.00050490355
171	0xbdd75796	-0.105147526
172	0x3e92dac8	0.28682542
173	0x3e3bebb5	0.18351634
174	0xbd87c201	-0.066288
175	0x3e15f5b7	0.14644514
176	0x3de65d7a	0.11248298
177	0x3db4a6f8	0.08820909
178	0x3e0acffc	0.13555902
179	0xbe9b8d38	-0.3038118
180	0xbe60c356	-0.21949515
181	0x3d5ce79f	0.05393183
182	0x3e9469d0	0.2898698
183	0xbe6343bc	-0.22193807
184	0x3e56dbb5	0.20982249
185	0xbe2f5a3b	-0.17124264
186	0xbb5e0c25	-0.003388175
187	0xbdc77d4a	-0.09740694
188	0xbe01649e	-0.12636039
189	0xbd6fc970	-0.058541715
190	0x3d8305dc	0.06397602
191	0x3e70dbff	0.23521422
192	0x3decf416	0.11569993
193	0x3e6186b8	0.22024047
194	0x3e8470d4	0.2586733
195	0x3e926370	0.2859149
196	0x3d829217	0.06375521
197	0xbd1a35b1	-0.03764886
198	0x3eca42cd	0.3950409
199	0x3e88023f	0.26564214
200	0xbe8aa74d	-0.27080765
201	0xbce1700d	-0.02751925
202	0xbe9274d9	-0.28604773
203	0x3e0b4b32	0.13602903
204	0xbea2e0ad	-0.3181204
205	0xbebbbfae	-0.36669677
206	0xba70112a	-0.0009157831
207	0xbe070d22	-0.13188604
208	0xbdc38402	-0.09546663
209	0xbe0b0c89	-0.13579
210	0x3e0dd731	0.1385162
211	0x3d81717e	0.06320475
212	0xbd6d6187	-0.057954337
213	0xbe3a4b50	-0.18192792
214	0xbe474a9c	-0.19462055
215	0x3e8d6e55	0.2762324
216	0xbe046591	-0.1292937
217	0x3d974965	0.07387046
218	0x3b191c7b	0.0023362923
219	0xbdd84647	-0.10560279
220	0x3ea10304	0.31447613
221	0xbe7a83d1	-0.24464346
222	0x3d3ea32d	0.046542335
223	0xbd9044f2	-0.070444
224	0x3ea1ddf1	0.3161464
225	0xbe717d7d	-0.23583026
226	0x3dcbafdc	0.09945652
227	0x3e1f5ffd	0.1556396
228	0xbdad33e0	-0.0845716
229	0xbe11a628	-0.1422354
230	0x3db6c166	0.089236066
231	0x3e55b468	0.20869601
232	0x3e94da98	0.29073024
233	0x3eddb53e	0.4330234
234	0x3e4a1f6f	0.19738553
235	0x3e6154c9	0.22004999
236	0x3dcc274f	0.09968435
237	0x3e7073d0	0.23481679
238	0x3e1ae4a7	0.15126286
239	0x3ec3c8ef	0.38239238
240	0x3dce2c97	0.100670986
241	0x3e1e3e76	0.15453514
242	0x3e19ede6	0.15032157
243	0xbd816cf2	-0.06319608
244	0x3e630e42	0.22173408
245	0x3d45601d	0.048187364
246	0xbaeb0f56	-0.0017933648
247	0x3da5eb8d	0.08101568
248	0x3e481211	0.19538142
249	0x3edab1e4	0.42713845
250	0xbdc45dfc	-0.095882386
251	0xbea4f1da	-0.32215768
252	0xbe15904c	-0.14605826
253	0x3ebdd6e5	0.37078014
254	0xbe018a8d	-0.12650509
255	0x3e360c7a	0.17778197

conv2.lin_dst.weight f4 [32, 32]
0	0x3e7741ba	0.24146166
1	0xbd4c3178	-0.049851865
2	0x3e14e0da	0.14538899
3	0x3e6b688f	0.22989105
4	0x3d7ee9c2	0.062234648
5	0xbdbaa109	-0.09112746
6	0xbd0e8488	-0.03479436
7	0x3e4bdc69	0.19908299
8	0x3e88b2fc	0.26699054
9	0x3dd06456	0.101753876
10	0x3e13dde3	0.14440112
11	0x3e0fdf08	0.14049923
12	0x3d02b10f	0.031907137
13	0x3efe54aa	0.4967397
14	0x3e4b19d7	0.19834076
15	0x3de6a68c	0.11262235
16	0xbbe75138	-0.0070592426
17	0x3b1b9942	0.0023742472
18	0x3ede2006	0.43383807
19	0xbd45d2b7	-0.048296656
20	0x3e60304d	0.21893425
21	0x3e830180	0.25587082
22	0x3e0a9854	0.13534671
23	0x3e9f3a75	0.31099287
24	0x3c8c2f4b	0.017112395
25	0x3e2533c1	0.16133024
26	0xbd4ee6f6	-0.05051323
27	0x3dde8d8e	0.10866843
28	0xbe56a1dc	-0.20960182
29	0x3e490205	0.19629677
30	0xbd8e00d0	-0.06933749
31	0x3da13572	0.07871522
32	0x3e24026a	0.16016546
33	0x3d46e3aa	0.04855696
34	0x3eb0fc46	0.3456747
35	0x3df73388	0.12070376
36	0x3e62fe3d	0.22167297
37	0xbcf3b64b	-0.02975001
38	0x3eaef515	0.34171358
39	0x3e3d9982	0.1851559
40	0xbe76d375	-0.24104102
41	0xbeaa7ad4	-0.33296835
42	0x3de35fed	0.11102281
43	0xbe52ab03	-0.20573048
44	0xbe576673	-0.21035175
45	0x3e0caa04	0.13736731
46	0x3e03e1e2	0.12879136
47	0xbd24fbf2	-0.040279336
48	0x3b8caf98	0.0042933933
49	0xbe15aeb4	-0.14617425
50	0x3e615f67	0.2200905
51	0x3e4ac46a	0.19801489
52	0x3daa2fc7	0.08309894
53	0xbdf4dc8c	-0.119561285
54	0x3e4c56c5	0.19954975
55	0x3e9aa280	0.30202103
56	0xbded5491	-0.115883954
57	0x3cd623c6	0.026140105
58	0xbc2be26d	-0.010490996
59	0x3d0e1a41	0.034693006
60	0x3cb83ab8	0.022488937
61	0xbeaf46a1	-0.34233573
62	0x3d8a67fb	0.06758114
63	0xbd76efbc	-0.060287222
64	0xbd130143	-0.035889875
65	0xbe2c4c34	-0.16825944
66	0x3e518400	0.2046051
67	0xbda7479e	-0.08167957
68	0x3e9d26c3	0.30693635
69	0xbda8e25a	-0.08246298
70	0x3e0b7148	0.13617432
71	0x3e8f47ea	0.27984554
72	0xbe280853	-0.16409425
73	0xbe6318cc	-0.22177428
74	0x3c540504	0.012940649
75	0x3ea6f436	0.32608193
76	0xbec0ad2e	-0.37632126
77	0xbe6bd4a3	-0.23030333
78	0xbe39e386	-0.181532
79	0xbe97ef50	-0.29674768
80	0x3ae723a0	0.0017634518
81	0xbe103fd3	-0.14086847
82	0xbe1133e3	-0.1417995
83	0x3df0eb83	0.1176367
84	0x3e2eea76	0.17081627
85	0xbdc76996	-0.09736936
86	0x3e1b22ab	0.15149944
87	0x3e991116	0.29895848
88	0xbed36671	-0.41289094
89	0x3d98042a	0.07422669
90	0x3d36e7a2	0.044654496
91	0x3e92f42d	0.28701916
92	0x3ea9b4af	0.33145663
93	0xbe2a9923	-0.1665998
94	0x3d916756	0.07099788
95	0xbe74242a	-0.2384192
96	0xbe0e992e	-0.13925621
97	0xbd8de70e	-0.06928836
98	0x3e674718	0.22585714
99	0xbd9c026a	-0.07617648
100	0x3e9e48df	0.3091497
101	0xbdb6cd11	-0.08925832
102	0x3e290561	0.16505958
103	0x3e81cec3	0.2535306
104	0x3d3d79f7	0.046258893
105	0xbdbed3cc	-0.09317741
106	0xbe0bba38	-0.13645256
107	0x3d650991	0.055917326
108	0xbdf2a163	-0.11847188
109	0xbe3d2fe4	-0.184753
110	0x3d2e551e	0.042561643
111	0xbe362149	-0.17786135
112	0xbd77b0fa	-0.060471512
113	0xbe3f1738	-0.18661201
114	0x3e140aef	0.14457296
115	0x3e1a39db	0.15061133
116	0x3de82076	0.113343164
117	0xbe5679c1	-0.20944883
118	0xbc90aa2f	-0.017659275
119	0x3e1a007e	0.1503925
120	0xbe92831e	-0.2861566
121	0x3e2d39f0	0.16916633
122	0x3bcdfa84	0.0062859673
123	0x3d805f3e	0.06268166
124	0x3e0c0a21	0.13675739
125	0xbde450aa	-0.11148198
126	0x3d2ec807	0.04267123
127	0xbe7893de	-0.24275157
128	0x3de50e55	0.11184374
129	0x3df68c8a	0.120385244
130	0xbe1f0be6	-0.15531883
131	0x3e5a4d99	0.21318664
132	0x3ea3e62f	0.32011554
133	0x3cd7ebd1	0.026357563
134	0xbbdb0819	-0.006684315
135	0x3c7b32f5	0.015331973
136	0x3ddcfa69	0.107899494
137	0xbdf16b12	-0.11788
138	0xbe474c30	-0.19462657
139	0x3e86925e	0.26283544
140	0xbe30d9ad	-0.17270537
141	0xbec136ae	-0.3773703
142	0xbe2015aa	-0.15633264
143	0xbe355b51	-0.17710616
144	0xbd34fb50	-0.044184983
145	0x3ce07448	0.027399197
146	0x3cf27f32	0.029601667
147	0xbda7e2c0	-0.08197546
148	0xbca2cea5	-0.019873926
149	0x3e256d8a	0.16155067
150	0x3c2ee959	0.010675752
151	0xbd8fa7f2	-0.07014455
152	0x3d3c2fa6	0.04594388
153	0xbd6bf820	-0.057609677
154	0x3db9ac9a	0.09066124
155	0x3e47c43d	0.19508453
156	0x3e9268e2	0.28595644
157	0xbe5f3c6f	-0.21800397
158	0x3d96b6ad	0.073590614
159	0xbdce9ba3	-0.10088279
160	0xbe4a524a	-0.19757953
161	0xbe6195e5	-0.22029836
162	0xbe3e5c08	-0.18589795
163	0xbde96b3d	-0.11397407
164	0xbea8fc04	-0.33004773
165	0x3e128e02	0.14311984
166	0xbe9274f1	-0.28604844
167	0xbe24a9f9	-0.16080464
168	0xbdba217c	-0.09088418
169	0xbde3f652	-0.11130966
170	0xba045b81	-0.00050490355
171	0xbdd75796	-0.105147526
172	0x3e92dac8	0.28682542
173	0x3e3bebb5	0.18351634
174	0xbd87c201	-0.066288
175	0x3e15f5b7	0.14644514
176	0x3de65d7a	0.11248298
177	0x3db4a6f8	0.08820909
178	0x3e0acffc	0.13555902
179	0xbe9b8d38	-0.3038118
180	0xbe60c356	-0.21949515
181	0x3d5ce79f	0.05393183
182	0x3e9469d0	0.2898698
183	0xbe6343bc	-0.22193807
184	0x3e56dbb5	0.20982249
185	0xbe2f5a3b	-0.17124264
186	0xbb5e0c25	-0.003388175
187	0xbdc77d4a	-0.09740694
188	0xbe01649e	-0.12636039
189	0xbd6fc970	-0.058541715
190	0x3d8305dc	0.06397602
191	0x3e70dbff	0.23521422
192	0x3decf416	0.11569993
193	0x3e6186b8	0.22024047
194	0x3e8470d4	0.2586733
195	0x3e926370	0.2859149
196	0x3d829217	0.06375521
197	0xbd1a35b1	-0.03764886
198	0x3eca42cd	0.3950409
199	0x3e88023f	0.26564214
200	0xbe8aa74d	-0.27080765
201	0xbce1700d	-0.02751925
202	0xbe9274d9	-0.28604773
203	0x3e0b4b32	0.13602903
204	0xbea2e0ad	-0.3181204
205	0xbebbbfae	-0.36669677
206	0xba70112a	-0.0009157831
207	0xbe070d22	-0.13188604
208	0xbdc38402	-0.09546663
209	0xbe0b0c89	-0.13579
210	0x3e0dd731	0.1385162
211	0x3d81717e	0.06320475
212	0xbd6d6187	-0.057954337
213	0xbe3a4b50	-0.18192792
214	0xbe474a9c	-0.19462055
215	0x3e8d6e55	0.2762324
216	0xbe046591	-0.1292937
217	0x3d974965	0.07387046
218	0x3b191c7b	0.0023362923
219	0xbdd84647	-0.10560279
220	0x3ea10304	0.31447613
221	0xbe7a83d1	-0.24464346
222	0x3d3ea32d	0.046542335
223	0xbd9044f2	-0.070444
224	0x3ea1ddf1	0.3161464
225	0xbe717d7d	-0.23583026
226	0x3dcbafdc	0.09945652
227	0x3e1f5ffd	0.1556396
228	0xbdad33e0	-0.0845716
229	0xbe11a628	-0.1422354
230	0x3db6c166	0.089236066
231	0x3e55b468	0.20869601
232	0x3e94da98	0.29073024
233	0x3eddb53e	0.4330234
234	0x3e4a1f6f	0.19738553
235	0x3e6154c9	0.22004999
236	0x3dcc274f	0.09968435
237	0x3e7073d0	0.23481679
238	0x3e1ae4a7	0.15126286
239	0x3ec3c8ef	0.38239238
240	0x3dce2c97	0.100670986
241	0x3e1e3e76	0.15453514
242	0x3e19ede6	0.15032157
243	0xbd816cf2	-0.06319608
244	0x3e630e42	0.22173408
245	0x3d45601d	0.048187364
246	0xbaeb0f56	-0.0017933648
247	0x3da5eb8d	0.08101568
248	0x3e481211	0.19538142
249	0x3edab1e4	0.42713845
250	0xbdc45dfc	-0.095882386
251	0xbea4f1da	-0.32215768
252	0xbe15904c	-0.14605826
253	0x3ebdd6e5	0.37078014
254	0xbe018a8d	-0.12650509
255	0x3e360c7a	0.17778197

conv3.att_src f4 [1, 1, 32]
0	0x3dd1745f	0.10227274
1	0x3ec3e01c	0.3825692
2	0xbe0917f9	-0.13388051
3	0xbdda6e8e	-0.10665618
4	0x3e9e7595	0.30949083
5	0x3cbda7e5	0.023151347
6	0x3eae1a0b	0.34004244
7	0xbe336f28	-0.17522871
8	0xbe22c370	-0.15894866
9	0xbe92ad03	-0.28647622
10	0xbe99cf0e	-0.30040783
11	0xbc665c70	-0.014060125
12	0x3cab7b21	0.020932736
13	0x3de683a8	0.1125558
14	0xbe1e14d1	-0.15437628
15	0x3df68e0d	0.12038813
16	0xbe2de072	-0.1698015
17	0xbea96101	-0.3308182
18	0x3e63b42e	0.22236702
19	0xbe822bc5	-0.25424019
20	0x3eac27b8	0.33624053
21	0x3c22563f	0.009908258
22	0xbec6e597	-0.38847038
23	0x3d85278f	0.06501686
24	0xbdc432fa	-0.095800355
25	0xbef803ca	-0.4844039
26	0xbe641d81	-0.2227688
27	0x3df1e109	0.118105
28	0xbe108708	-0.1411401
29	0xbe8f8583	-0.2803155
30	0xbd9f7496	-0.07785909
31	0x3e3ddbc5	0.18540867

conv3.att_dst f4 [1, 1, 32]
0	0x3f047876	0.5174631
1	0xbea02c13	-0.31283626
2	0x3e17d595	0.14827569
3	0xbde9889f	-0.114030115
4	0xbeb405f6	-0.35160798
5	0x3ce40f95	0.027839461
6	0x3e7e4a75	0.2483309
7	0x3e821640	0.254076
8	0xbf130ab1	-0.5743819
9	0x3eb81272	0.35951573
10	0x3ef78b86	0.48348635
11	0x3e47bc9e	0.19505545
12	0x3e7143f2	0.23561075
13	0x3e50af39	0.20379342
14	0x3d0d1351	0.03444225
15	0x3e9c2d50	0.3050332
16	0x3e989411	0.29800466
17	0x3d83ea39	0.06441159
18	0x3eddc915	0.43317476
19	0x3eaacce0	0.33359432
20	0xbd004ba4	-0.031322137
21	0x3dd96062	0.10614087
22	0x3ea9bc74	0.3315159
23	0x3caf8c7d	0.021429295
24	0xbef29299	-0.4737747
25	0x3e30ef3b	0.17278759
26	0x3e34cf1e	0.17657134
27	0x3e76f6a0	0.24117517
28	0x3e39bebd	0.18139167
29	0x3ecb522a	0.39711124
30	0x3e27666f	0.16347669
31	0x3e503e67	0.20336305

conv3.bias f4 [32]
0	0x3cb76330	0.022386163
1	0x3d6c45ce	0.05768376
2	0x3c918e43	0.017768031
3	0x3d0d9dff	0.034574505
4	0xbb79afb5	-0.0038099114
5	0x3d81604d	0.06317196
6	0x3dafdb34	0.085867316
7	0x3c7a99a5	0.015295421
8	0x00000000	0.0
9	0x3cdcba87	0.026944412
10	0x3c87d3ae	0.016580429
11	0x3d0766de	0.033057086
12	0xbd911c94	-0.07085529
13	0x3d985e24	0.07439831
14	0x3cface86	0.030616056
15	0x3cb89db7	0.022536142
16	0xbaeb1a5e	-0.0017936935
17	0xbcc0bd82	-0.023527864
18	0xbcc36ecd	-0.023856545
19	0x3cd9680a	0.026538868
20	0x3a093460	0.000523394
21	0xbc0f37ea	-0.008741358
22	0x3ce143e1	0.027498187
23	0x3c2f094b	0.010683368
24	0x9e95e64a	-1.5871234e-20
25	0x3cfe0d7d	0.031012291
26	0x3d023d47	0.03179672
27	0x3d3c2fad	0.045943905
28	0x3d38b900	0.045098305
29	0x3d163f92	0.03668172
30	0xbb29ba2c	-0.002589832
31	0x3d5300c0	0.051514387

conv3.lin_src.weight f4 [32, 32]
0	0xbe1f4fac	-0.15557736
1	0x3ea6da2e	0.32588333
2	0xbdf8ca72	-0.121479884
3	0xbb3ff893	-0.002929245
4	0x3e4c8176	0.1997126
5	0x3dcbd47f	0.0995264
6	0xbcc1a446	-0.023637902
7	0xbc3dafe2	-0.011577578
8	0x3c7f9f8a	0.015602002
9	0xbe630ef0	-0.22173667
10	0xbde79ac8	-0.11308819
11	0x3e278006	0.16357431
12	0x3e2f8129	0.17139114
13	0x3e979ce5	0.2961189
14	0xbe38bfc6	-0.18041906
15	0x3ea610cf	0.324347
16	0xbe30ed7f	-0.17278098
17	0x3e3ede30	0.18639445
18	0xbcf4527d	-0.02982449
19	0x3e6af288	0.22944081
20	0x3e83bcd2	0.25729996
21	0x3c8f205c	0.017471485
22	0x3e54849d	0.20753713
23	0x39afe48c	0.00033548882
24	0x3d94f8c9	0.072740145
25	0x3bfb659e	0.007672026
26	0x3e1318a8	0.14364874
27	0x3e11d85a	0.14242688
28	0xbd5ce1f5	-0.053926427
29	0xbdb7937e	-0.08963679
30	0x3e2b1618	0.16707647
31	0x3e83edb7	0.257673
32	0x3c3f4cb8	0.011676006
33	0xbe5207a5	-0.20510729
34	0xbec83509	-0.39102963
35	0xbe8411cb	-0.25794825
36	0xbe9b5822	-0.30340677
37	0xbe108591	-0.14113452
38	0xbebf8eeb	-0.37413725
39	0x3e9e7e80	0.30955887
40	0x3dbdfdd6	0.09276931
41	0x3e73f15d	0.23822542
42	0x3e818cd8	0.25302768
43	0x3dd1b908	0.1024037
44	0xbec39308	-0.38198113
45	0xbe82a73f	-0.25518224
46	0xbeca5587	-0.39518377
47	0xbdd74274	-0.10510722
48	0x3ebaacf0	0.36460066
49	0xbea2c136	-0.31788033
50	0x3e82d5c9	0.2555373
51	0x3e78b07d	0.24286075
52	0xbe8bf30f	-0.27333876
53	0x3e53441b	0.20631449
54	0x3e411f14	0.18859512
55	0xb949b707	-0.00019237037
56	0xbdad717b	-0.0846891
57	0xbe164ae1	-0.14677002
58	0xbe78b98f	-0.24289535
59	0xbe661384	-0.22468382
60	0x3d755d84	0.059903637
61	0x3eaa72d6	0.33290738
62	0xbe32e632	-0.17470625
63	0xbea0e114	-0.3142172
64	0x3e3abdb2	0.18236426
65	0x3e924930	0.28571463
66	0x3e976ba0	0.295743
67	0xbd5baf4d	-0.053633977
68	0xbe4930b9	-0.19647492
69	0x3b9e75b8	0.0048358105
70	0x3dfaf1c6	0.12253146
71	0x3da78fc1	0.08181716
72	0xbdda6713	-0.10664191
73	0xbe651035	-0.22369464
74	0xbe3bd68c	-0.18343562
75	0x3ea27ab7	0.3173425
76	0xbdd2ccbe	-0.10292958
77	0xbe1f56e1	-0.15560485
78	0xbe3aaa72	-0.18229082
79	0xbd85ad39	-0.0652718
80	0x3e2e2e63	0.17009883
81	0x3e948ec7	0.2901518
82	0xbe499b4a	-0.19688144
83	0x3c7e2977	0.015512816
84	0xbde358b7	-0.111009054
85	0x3d10e99d	0.03537904
86	0x3d96431f	0.07337021
87	0x3897d8cb	7.240622e-05
88	0xbbcc3a8b	-0.006232565
89	0xbd5525e7	-0.0520381
90	0x3eb4de06	0.3532564
91	0x3e5b84e9	0.2143742
92	0xbd874240	-0.06604433
93	0xbea47af7	-0.32125065
94	0x3e2757d7	0.16342102
95	0x3d882393	0.0664741
96	0xbca478d6	-0.02007715
97	0xbd3adac8	-0.045618802
98	0x3cc27e8e	0.023741987
99	0x3d9c7e2d	0.076412536
100	0xbb485bfb	-0.0030572403
101	0xbc44911e	-0.011997489
102	0xbe1e3f6d	-0.15453883
103	0x3d898db9	0.067164846
104	0x3cb27df0	0.021788567
105	0x3bc39cb7	0.0059696096
106	0xbbfd8475	-0.0077367374
107	0x3c800d32	0.015631292
108	0xbc966db8	-0.018362865
109	0xbd2e714a	-0.04258851
110	0xbe0ce247	-0.13758193
111	0xbcfa6a2a	-0.030568201
112	0x3dba243f	0.09088945
113	0xbcf88b5d	-0.030339891
114	0x3c8a8d55	0.016913095
115	0x3d6a8ef7	0.05726525
116	0xbce331be	-0.02773368
117	0xbd658b2f	-0.05604094
118	0x3d10af94	0.035323694
119	0x3a764fd0	0.0009396048
120	0x3cc5f156	0.02416293
121	0x3cd07dea	0.025450666
122	0x3c1432d7	0.009045324
123	0xbda50fb7	-0.08059638
124	0x3d02355e	0.031789176
125	0x3ce47efb	0.02789258
126	0x3c0949d6	0.00837942
127	0xbd13c7e1	-0.03607929
128	0xbe8e70d5	-0.2782046
129	0xbda51c70	-0.08062065
130	0xbddb1ffe	-0.106994614
131	0xbdd1b889	-0.102402754
132	0xbd0f8bb5	-0.035045344
133	0xbd5443de	-0.051822536
134	0xbdaf4693	-0.08558383
135	0xbe6af612	-0.22945431
136	0xbdd2e9c9	-0.10298497
137	0xbe11e823	-0.1424871
138	0xbe123770	-0.1427896
139	0xbe99d0fd	-0.30042258
140	0xbdd68aac	-0.10475668
141	0xbd82b485	-0.063820876
142	0xbd4d221a	-0.05008135
143	0xbd313104	-0.043259636
144	0xbe66cd83	-0.22539334
145	0xbe0a0c11	-0.13481165
146	0xbe2cc19b	-0.1687073
147	0xbe825628	-0.25456357
148	0xbc9e52c3	-0.019326573
149	0x3d25afca	0.04045085
150	0xbe1fb286	-0.15595445
151	0xb9186051	-0.0001453173
152	0xbca0b4f4	-0.019617535
153	0xbdd9d1b3	-0.106357
154	0xbdf28384	-0.11841491
155	0xbd137a58	-0.036005348
156	0xbd10565d	-0.035238612
157	0xbe487e4b	-0.19579427
158	0xbde194b0	-0.11014688
159	0xbdaa4da7	-0.08315592
160	0x3d16321f	0.036668893
161	0xbe4218b7	-0.1895474
162	0xbdb20781	-0.086928375
163	0xbe5ce0bd	-0.21570106
164	0xbe735579	-0.23763074
165	0xbe47b855	-0.19503911
166	0x3d93f562	0.072245374
167	0x3e5a4f64	0.21319348
168	0xbe701da8	-0.23448813
169	0x3ed366da	0.41289407
170	0x3e778c45	0.24174602
171	0x3e822705	0.25420395
172	0xbe3b3bb7	-0.18284498
173	0xbe297554	-0.16548663
174	0xbd05b602	-0.03264428
175	0xbd39a596	-0.04532393
176	0x3e36afe7	0.17840539
177	0x3d7be8b9	0.06150124
178	0x3e0af208	0.1356889
179	0x3e47d122	0.19513372
180	0xbd30d98b	-0.043176215
181	0x3e834b52	0.25643402
182	0x3e2d1029	0.16900696
183	0xbab0ce4b	-0.0013489214
184	0xbe641f41	-0.22277547
185	0xbded1671	-0.11576546
186	0x3d0d4803	0.034492504
187	0xbdb27ff5	-0.08715812
188	0x3d910f00	0.07082939
189	0x3e8314ca	0.25601798
190	0xbd371923	-0.044701707
191	0xbec41c19	-0.38302687
192	0x3e8d3c69	0.27585152
193	0xbc1edf28	-0.009696759
194	0xbe5e001c	-0.21679729
195	0xbdc0dc60	-0.09417033
196	0xbe2f505e	-0.17120501
197	0xbe54832f	-0.20753168
198	0xbb206889	-0.002447637
199	0x3eafb8d7	0.3432071
200	0x3ce34b5e	0.027745899
201	0x3ee51267	0.44740602
202	0x3e7b68e3	0.2455173
203	0x3de28f73	0.11062517
204	0xbdaa00ee	-0.083009586
205	0xbe65a8fd	-0.22427745
206	0xbdcec789	-0.10096652
207	0xbc2a3957	-0.010389647
208	0x3e85ad55	0.26108804
209	0xbe3b0a3a	-0.1826562
210	0x3e88075c	0.26568115
211	0xbd98223a	-0.07428403
212	0xbd071853	-0.03298218
213	0x3e95fc85	0.2929422
214	0x3dc2eece	0.09518205
215	0xb94e40a8	-0.00019669777
216	0xbea38b95	-0.3194243
217	0xbe772e5e	-0.24138781
218	0xbdc41080	-0.095734596
219	0x3e193a1f	0.14963578
220	0x3cf59106	0.02997638
221	0x3e64feb9	0.22362794
222	0xbe525ce0	-0.20543242
223	0xbed1f851	-0.41009763
224	0x3e098fd3	0.13433771
225	0x3db8f9ce	0.090320215
226	0xbe917156	-0.2840678
227	0xbe88184c	-0.26581037
228	0xbe3bc2e9	-0.18336071
229	0xbe429475	-0.19001944
230	0xbd2b01c5	-0.041749734
231	0x3e17fd59	0.14842738
232	0xbdd33a4c	-0.103138536
233	0x3e929674	0.28630412
234	0x3db89b49	0.09013993
235	0x3e7406fb	0.23830788
236	0xbe116f2b	-0.14202563
237	0xbc899405	-0.016794214
238	0xbe8e6c13	-0.2781683
239	0xbe21832c	-0.15772694
240	0x3ec2a0cb	0.380133
241	0x3e1b66f0	0.15175986
242	0x3e8bf22e	0.27333206
243	0x3ea61758	0.32439685
244	0xbe8dedcc	-0.27720487
245	0x3e3886c7	0.18020163
246	0x3e80f74e	0.25188679
247	0xba506f18	-0.00079511246
248	0xbe2495c6	-0.16072759
249	0xbe0544d4	-0.13014537
250	0x3e111915	0.14169724
251	0xbc44185c	-0.011968698
252	0x3d657411	0.056018893
253	0x3e96eac3	0.29475984
254	0xbe19c2ee	-0.15015766
255	0xbebf5b16	-0.3737418

conv3.lin_dst.weight f4 [32, 32]
0	0xbe1f4fac	-0.15557736
1	0x3ea6da2e	0.32588333
2	0xbdf8ca72	-0.121479884
3	0xbb3ff893	-0.002929245
4	0x3e4c8176	0.1997126
5	0x3dcbd47f	0.0995264
6	0xbcc1a446	-0.023637902
7	0xbc3dafe2	-0.011577578
8	0x3c7f9f8a	0.015602002
9	0xbe630ef0	-0.22173667
10	0xbde79ac8	-0.11308819
11	0x3e278006	0.16357431
12	0x3e2f8129	0.17139114
13	0x3e979ce5	0.2961189
14	0xbe38bfc6	-0.18041906
15	0x3ea610cf	0.324347
16	0xbe30ed7f	-0.17278098
17	0x3e3ede30	0.18639445
18	0xbcf4527d	-0.02982449
19	0x3e6af288	0.22944081
20	0x3e83bcd2	0.25729996
21	0x3c8f205c	0.017471485
22	0x3e54849d	0.20753713
23	0x39afe48c	0.00033548882
24	0x3d94f8c9	0.072740145
25	0x3bfb659e	0.007672026
26	0x3e1318a8	0.14364874
27	0x3e11d85a	0.14242688
28	0xbd5ce1f5	-0.053926427
29	0xbdb7937e	-0.08963679
30	0x3e2b1618	0.16707647
31	0x3e83edb7	0.257673
32	0x3c3f4cb8	0.011676006
33	0xbe5207a5	-0.20510729
34	0xbec83509	-0.39102963
35	0xbe8411cb	-0.25794825
36	0xbe9b5822	-0.30340677
37	0xbe108591	-0.14113452
38	0xbebf8eeb	-0.37413725
39	0x3e9e7e80	0.30955887
40	0x3dbdfdd6	0.09276931
41	0x3e73f15d	0.23822542
42	0x3e818cd8	0.25302768
43	0x3dd1b908	0.1024037
44	0xbec39308	-0.38198113
45	0xbe82a73f	-0.25518224
46	0xbeca5587	-0.39518377
47	0xbdd74274	-0.10510722
48	0x3ebaacf0	0.36460066
49	0xbea2c136	-0.31788033
50	0x3e82d5c9	0.2555373
51	0x3e78b07d	0.24286075
52	0xbe8bf30f	-0.27333876
53	0x3e53441b	0.20631449
54	0x3e411f14	0.18859512
55	0xb949b707	-0.00019237037
56	0xbdad717b	-0.0846891
57	0xbe164ae1	-0.14677002
58	0xbe78b98f	-0.24289535
59	0xbe661384	-0.22468382
60	0x3d755d84	0.059903637
61	0x3eaa72d6	0.33290738
62	0xbe32e632	-0.17470625
63	0xbea0e114	-0.3142172
64	0x3e3abdb2	0.18236426
65	0x3e924930	0.28571463
66	0x3e976ba0	0.295743
67	0xbd5baf4d	-0.053633977
68	0xbe4930b9	-0.19647492
69	0x3b9e75b8	0.0048358105
70	0x3dfaf1c6	0.12253146
71	0x3da78fc1	0.08181716
72	0xbdda6713	-0.10664191
73	0xbe651035	-0.22369464
74	0xbe3bd68c	-0.18343562
75	0x3ea27ab7	0.3173425
76	0xbdd2ccbe	-0.10292958
77	0xbe1f56e1	-0.15560485
78	0xbe3aaa72	-0.18229082
79	0xbd85ad39	-0.0652718
80	0x3e2e2e63	0.17009883
81	0x3e948ec7	0.2901518
82	0xbe499b4a	-0.19688144
83	0x3c7e2977	0.015512816
84	0xbde358b7	-0.111009054
85	0x3d10e99d	0.03537904
86	0x3d96431f	0.07337021
87	0x3897d8cb	7.240622e-05
88	0xbbcc3a8b	-0.006232565
89	0xbd5525e7	-0.0520381
90	0x3eb4de06	0.3532564
91	0x3e5b84e9	0.2143742
92	0xbd874240	-0.06604433
93	0xbea47af7	-0.32125065
94	0x3e2757d7	0.16342102
95	0x3d882393	0.0664741
96	0xbca478d6	-0.02007715
97	0xbd3adac8	-0.045618802
98	0x3cc27e8e	0.023741987
99	0x3d9c7e2d	0.076412536
100	0xbb485bfb	-0.0030572403
101	0xbc44911e	-0.011997489
102	0xbe1e3f6d	-0.15453883
103	0x3d898db9	0.067164846
104	0x3cb27df0	0.021788567
105	0x3bc39cb7	0.0059696096
106	0xbbfd8475	-0.0077367374
107	0x3c800d32	0.015631292
108	0xbc966db8	-0.018362865
109	0xbd2e714a	-0.04258851
110	0xbe0ce247	-0.13758193
111	0xbcfa6a2a	-0.030568201
112	0x3dba243f	0.09088945
113	0xbcf88b5d	-0.030339891
114	0x3c8a8d55	0.016913095
115	0x3d6a8ef7	0.05726525
116	0xbce331be	-0.02773368
117	0xbd658b2f	-0.05604094
118	0x3d10af94	0.035323694
119	0x3a764fd0	0.0009396048
120	0x3cc5f156	0.02416293
121	0x3cd07dea	0.025450666
122	0x3c1432d7	0.009045324
123	0xbda50fb7	-0.08059638
124	0x3d02355e	0.031789176
125	0x3ce47efb	0.02789258
126	0x3c0949d6	0.00837942
127	0xbd13c7e1	-0.03607929
128	0xbe8e70d5	-0.2782046
129	0xbda51c70	-0.08062065
130	0xbddb1ffe	-0.106994614
131	0xbdd1b889	-0.102402754
132	0xbd0f8bb5	-0.035045344
133	0xbd5443de	-0.051822536
134	0xbdaf4693	-0.08558383
135	0xbe6af612	-0.22945431
136	0xbdd2e9c9	-0.10298497
137	0xbe11e823	-0.1424871
138	0xbe123770	-0.1427896
139	0xbe99d0fd	-0.30042258
140	0xbdd68aac	-0.10475668
141	0xbd82b485	-0.063820876
142	0xbd4d221a	-0.05008135
143	0xbd313104	-0.043259636
144	0xbe66cd83	-0.22539334
145	0xbe0a0c11	-0.13481165
146	0xbe2cc19b	-0.1687073
147	0xbe825628	-0.25456357
148	0xbc9e52c3	-0.019326573
149	0x3d25afca	0.04045085
150	0xbe1fb286	-0.15595445
151	0xb9186051	-0.0001453173
152	0xbca0b4f4	-0.019617535
153	0xbdd9d1b3	-0.106357
154	0xbdf28384	-0.11841491
155	0xbd137a58	-0.036005348
156	0xbd10565d	-0.035238612
157	0xbe487e4b	-0.19579427
158	0xbde194b0	-0.11014688
159	0xbdaa4da7	-0.08315592
160	0x3d16321f	0.036668893
161	0xbe4218b7	-0.1895474
162	0xbdb20781	-0.086928375
163	0xbe5ce0bd	-0.21570106
164	0xbe735579	-0.23763074
165	0xbe47b855	-0.19503911
166	0x3d93f562	0.072245374
167	0x3e5a4f64	0.21319348
168	0xbe701da8	-0.23448813
169	0x3ed366da	0.41289407
170	0x3e778c45	0.24174602
171	0x3e822705	0.25420395
172	0xbe3b3bb7	-0.18284498
173	0xbe297554	-0.16548663
174	0xbd05b602	-0.03264428
175	0xbd39a596	-0.04532393
176	0x3e36afe7	0.17840539
177	0x3d7be8b9	0.06150124
178	0x3e0af208	0.1356889
179	0x3e47d122	0.19513372
180	0xbd30d98b	-0.043176215
181	0x3e834b52	0.25643402
182	0x3e2d1029	0.16900696
183	0xbab0ce4b	-0.0013489214
184	0xbe641f41	-0.22277547
185	0xbded1671	-0.11576546
186	0x3d0d4803	0.034492504
187	0xbdb27ff5	-0.08715812
188	0x3d910f00	0.07082939
189	0x3e8314ca	0.25601798
190	0xbd371923	-0.044701707
191	0xbec41c19	-0.38302687
192	0x3e8d3c69	0.27585152
193	0xbc1edf28	-0.009696759
194	0xbe5e001c	-0.21679729
195	0xbdc0dc60	-0.09417033
196	0xbe2f505e	-0.17120501
197	0xbe54832f	-0.20753168
198	0xbb206889	-0.002447637
199	0x3eafb8d7	0.3432071
200	0x3ce34b5e	0.027745899
201	0x3ee51267	0.44740602
202	0x3e7b68e3	0.2455173
203	0x3de28f73	0.11062517
204	0xbdaa00ee	-0.083009586
205	0xbe65a8fd	-0.22427745
206	0xbdcec789	-0.10096652
207	0xbc2a3957	-0.010389647
208	0x3e85ad55	0.26108804
209	0xbe3b0a3a	-0.1826562
210	0x3e88075c	0.26568115
211	0xbd98223a	-0.07428403
212	0xbd071853	-0.03298218
213	0x3e95fc85	0.2929422
214	0x3dc2eece	0.09518205
215	0xb94e40a8	-0.00019669777
216	0xbea38b95	-0.3194243
217	0xbe772e5e	-0.24138781
218	0xbdc41080	-0.095734596
219	0x3e193a1f	0.14963578
220	0x3cf59106	0.02997638
221	0x3e64feb9	0.22362794
222	0xbe525ce0	-0.20543242
223	0xbed1f851	-0.41009763
224	0x3e098fd3	0.13433771
225	0x3db8f9ce	0.090320215
226	0xbe917156	-0.2840678
227	0xbe88184c	-0.26581037
228	0xbe3bc2e9	-0.18336071
229	0xbe429475	-0.19001944
230	0xbd2b01c5	-0.041749734
231	0x3e17fd59	0.14842738
232	0xbdd33a4c	-0.103138536
233	0x3e929674	0.28630412
234	0x3db89b49	0.09013993
235	0x3e7406fb	0.23830788
236	0xbe116f2b	-0.14202563
237	0xbc899405	-0.016794214
238	0xbe8e6c13	-0.2781683
239	0xbe21832c	-0.15772694
240	0x3ec2a0cb	0.380133
241	0x3e1b66f0	0.15175986
242	0x3e8bf22e	0.27333206
243	0x3ea61758	0.32439685
244	0xbe8dedcc	-0.27720487
245	0x3e3886c7	0.18020163
246	0x3e80f74e	0.25188679
247	0xba506f18	-0.00079511246
248	0xbe2495c6	-0.16072759
249	0xbe0544d4	-0.13014537
250	0x3e111915	0.14169724
251	0xbc44185c	-0.011968698
252	0x3d657411	0.056018893
253	0x3e96eac3	0.29475984
254	0xbe19c2ee	-0.15015766
255	0xbebf5b16	-0.3737418

lin.weight f4 [2, 32]
0	0x3e2d86d4	0.16945964
1	0xbecfaf03	-0.4056321
2	0x3db5567e	0.08854388
3	0xbd8b9ba4	-0.068167955
4	0xbc9aee67	-0.018912507
5	0xbed48d5e	-0.41514105
6	0xbea6a18d	-0.32545128
7	0xbe4b6332	-0.19862059
8	0xb511dbe2	-5.433668e-07
9	0x3e21fa7e	0.15818211
10	0x3e62b93f	0.22140978
11	0xbeb8eb89	-0.361172
12	0xbe7a164b	-0.24422567
13	0xbe8fb31a	-0.2806633
14	0x3e73c2c4	0.23804766
15	0xbee11c91	-0.43967107
16	0x3e139e12	0.14415768
17	0x3ca55ee9	0.020186858
18	0xbe044e2d	-0.12920447
19	0x3ddb99f9	0.10722727
20	0xbd200fe3	-0.03907765
21	0xbe1ee8f9	-0.1551856
22	0x3e086440	0.13319492
23	0x3e3dec5b	0.18547194
24	0x2b84a1ca	9.42407e-13
25	0x3de80762	0.11329533
26	0x3e0a33ab	0.13496272
27	0xbecd13ee	-0.40054268
28	0x3dd8b908	0.10582167
29	0x3e55412c	0.20825642
30	0xbea20a4d	-0.31648484
31	0xbed84fe6	-0.42248458
32	0xbd0bf7e3	-0.03417195
33	0x3ec8e05a	0.39233667
34	0xbe4400fa	-0.19140998
35	0x3dd405e3	0.10352685
36	0xbc824f6a	-0.015907008
37	0x3eaffd63	0.34373006
38	0x3ec787c3	0.38970765
39	0x3edf61c9	0.43629292
40	0xa2d0a9f9	-5.655848e-18
41	0x3d7468b4	0.059670165
42	0xbc579b9d	-0.01315966
43	0x3ec7e16a	0.39039165
44	0x3dd1604d	0.10223446
45	0x3ecb3a29	0.3969281
46	0xbe2749af	-0.16336702
47	0x3e72068a	0.23635307
48	0xbd8ba852	-0.06819214
49	0xbceac155	-0.028656641
50	0x3e8624e0	0.26200008
51	0x3b95f182	0.004575909
52	0xbdc4cd96	-0.09609525
53	0x3e2049a8	0.15653098
54	0xbcd4fb91	-0.025998862
55	0x3daa2ec0	0.08309698
56	0x2c0b0375	1.9755007e-12
57	0xbe4d082d	-0.2002265
58	0xbe038ba0	-0.12846231
59	0x3e89d75a	0.26922113
60	0xbda7fa61	-0.08202053
61	0xbd8f59c8	-0.06999546
62	0x3e54501d	0.20733686
63	0x3e2fc4e8	0.17164958

lin.bias f4 [2]
0	0x3ddc65bc	0.10761592
1	0x3e0264f6	0.12733826
