formal/realworld/GIN_mutag.pth (torch, 14276 bytes, 14 tensors)

mlp1.weight f4 [32, 14]
000000 2b e9 82 be b6 6f 09 be 73 37 39 3e b4 95 f2 bd
       -0.25568518 -0.1342152 0.18087558 -0.1184496
000010 d9 32 f0 3d 8a 27 65 bb ac c9 e6 bc 06 5e 84 be
       0.117284484 -0.0034966194 -0.028172337 -0.25852984
000020 4a 29 d7 bc 0b 23 49 27 1e 15 fb b9 7e 80 80 39
       -0.026264805 2.791335e-15 -0.00047890184 0.00024509797
000030 99 e5 de ba 52 23 76 27 0e 8e 2b be fc 6e b4 be
       -0.0017005681 3.4158505e-15 -0.16753408 -0.35240924
000040 86 b4 98 ba 61 e7 49 3e 28 81 4b 3e 45 45 ed 3d
       -0.001165048 0.1971717 0.19873488 0.11585478
000050 18 6d c9 3d 40 20 99 be bb f4 f2 bd 9b 8d a9 3b
       0.09835261 -0.29907417 -0.11863085 0.0051743514
000060 41 04 46 af 5d c9 54 b8 d9 56 81 bb 86 3b a1 26
       -1.8009506e-10 -5.0732273e-05 -0.0039471206 1.1187753e-15
000070 a5 44 c5 bc 60 40 2f be f4 2c e6 bd 1f 78 28 bd
       -0.024080584 -0.17114401 -0.11239043 -0.04113018
000080 d1 4a fe 3d f0 f5 8a bd 68 cb 9a 3e 56 3b 3d be
       0.12416614 -0.0678519 0.30233312 -0.18479666
000090 98 13 67 3d 6f 4b 96 3e dc ea a1 bb c4 a2 ed 38
       0.05641517 0.29354426 -0.0049413275 0.00011331358
0000a0 56 f2 65 b8 32 4b 13 29 c1 bd 51 be 6c 8b 05 3e
       -5.4823548e-05 3.270578e-14 -0.20482542 0.13041466
0000b0 34 5d 2d 3e 1b 95 56 3e f4 85 87 3e 06 b9 75 37
       0.16930085 0.20955317 0.26469386 1.4646217e-05
0000c0 20 57 db 3c d8 6f cf bd cb d4 2a be 54 6a a7 2a
       0.026774943 -0.101287544 -0.16682737 2.973894e-13
0000d0 ae ac e5 37 21 e4 7a bb 64 58 cc b4 ae 17 d7 b9
       2.7379338e-05 -0.0038282948 -3.8062274e-07 -0.00041025638
0000e0 b7 5e ce 3c 6d f0 08 3e 67 3a d1 bd 19 79 5e be
       0.025191648 0.13372965 -0.102162175 -0.21725883
0000f0 d2 3f 97 bd df c6 9c 3e f5 a2 54 3e f0 cc 14 bd
       -0.0738522 0.30620477 0.20765288 -0.036328256
000100 69 70 15 3e 33 bd a5 3e e5 87 a1 3b 20 a8 99 a5
       0.14593662 0.3237091 0.00492953 -2.6655195e-16
000110 74 3c c2 2d 89 89 44 3b 72 1a 0b 3e b6 9d 96 bd
       2.2082093e-11 0.0029989204 0.13584307 -0.073543
000120 d2 c4 a0 be 65 73 e6 be 14 27 11 3e fa e2 a6 be
       -0.31400162 -0.45009914 0.14175063 -0.32595044
000130 b4 7d 91 3c f8 0a f8 3d cb 1d 47 3e c3 86 8f be
       0.017760135 0.12111467 0.19444959 -0.28032503
000140 0d 6f 3f ba 08 bb 63 bb d1 2f ff a8 3e 46 46 2c
       -0.00073026196 -0.003474893 -2.8331424e-14 2.8176485e-12
000150 9c 2d ba 3c d4 7e 23 3e 8f 9d f5 bc d2 8d 6d 3e
       0.022726826 0.1596635 -0.029982356 0.23198631
000160 2a 75 1b be b3 84 0a be bb 22 7b 3e 02 23 8a be
       -0.15181413 -0.13527183 0.24524967 -0.26979834
000170 f2 91 2b 3e e8 40 8c bd 36 fa f3 b7 fb 80 1a b3
       0.16754892 -0.068483174 -2.908437e-05 -3.5973226e-08
000180 59 9a 64 ad b4 24 1e 28 a8 d5 56 bd 74 d6 d4 3d
       -1.29945716e-11 8.778721e-15 -0.052449852 0.10392466
000190 fd b4 95 3e 3f c8 69 be fa e1 38 be d5 27 37 3e
       0.29239646 -0.22830294 -0.18054953 0.17886288
0001a0 14 0f 94 3e 7a cc 65 be c8 4e bb 3d d7 0a de 3d
       0.28917754 -0.22441283 0.09145886 0.10841911
0001b0 b4 3f c7 29 5b 33 0d ba 36 50 36 af 85 e9 16 34
       8.848426e-14 -0.00053863757 -1.65813e-10 1.4054793e-07
0001c0 c5 14 73 3e 59 f2 60 be f4 49 54 3d 2c 20 33 3e
       0.23738392 -0.21967448 0.05182834 0.17492741
0001d0 12 d0 e7 3d df 6f e4 3d 63 b9 b8 bd f0 48 df 3d
       0.11318983 0.1115415 -0.09019735 0.109025836
0001e0 76 64 43 3d 81 9b a6 3d a4 cc 06 ae a6 45 12 2c
       0.04770323 0.08135129 -3.064983e-11 2.078651e-12
0001f0 46 d0 01 3a 43 96 e0 b4 0f 5c ec bd 75 89 68 3e
       0.00049519946 -4.183258e-07 -0.11540996 0.22708686
000200 82 b4 04 be 5a 3a 42 bc 3c 80 1c 3e a7 85 01 b3
       -0.12959483 -0.011854732 0.15283293 -3.015671e-08
000210 20 20 be a9 f2 55 7a 3b 0a 49 b0 3d 66 5d 38 aa
       -8.443268e-14 0.00381982 0.08607681 -1.6374887e-13
000220 bf 36 af 29 fc 9d ad 2a d7 a5 95 b8 a7 3c 91 b6
       7.781058e-14 3.0840597e-13 -7.135764e-05 -4.3283976e-06
000230 91 b8 53 3b 87 66 99 3d 68 b4 71 3e 23 61 83 bd
       0.0032306055 0.07490259 0.23603976 -0.06415012
000240 25 5c 89 bd 0e 1d 59 ba e2 01 be 3b 2a 9e 0d 3e
       -0.06707028 -0.00082822226 0.0057985643 0.13829866
000250 a3 16 36 be 4b 6a 01 3c 8d d6 8d 27 74 d1 65 a9
       -0.17782073 0.007898877 3.936798e-15 -5.1029886e-14
000260 7c 66 b2 ad 37 d6 f5 2c 6d c3 17 3d 41 bc d1 be
       -2.028177e-11 6.9871014e-12 0.037051607 -0.4096394
000270 a7 15 5d 3e 99 0e 2d be cf b4 85 bd be 7e 8f bc
       0.21590291 -0.169001 -0.06528627 -0.01751649
000280 57 fa 8b 3e 3b 89 32 3b ac e9 4e bc 77 11 86 3d
       0.27339432 0.002724244 -0.012628954 0.065463
000290 28 08 51 b7 2c 20 1c a8 6c 5d 7a b9 a0 6e ac 28
       -1.245927e-05 -8.666716e-15 -0.0002387666 1.9143812e-14
0002a0 44 50 9a bd 99 9b c8 bd f1 7b 29 3e 12 11 90 bd
       -0.07534841 -0.09795303 0.16551186 -0.07034506
0002b0 14 2e 9e 3d 37 ed dc ba df 6f a2 3a ba 4e 0d 3e
       0.077236325 -0.0016855364 0.0012392959 0.13799563
0002c0 e2 b9 64 bc 24 81 9c a8 b7 14 50 2b 3a 87 31 33
       -0.013960334 -1.7375485e-14 7.392519e-13 4.133401e-08
0002d0 f5 05 9d 3a 54 0a f2 a9 3b bb 26 be 41 4e 9b 3d
       0.0011979925 -1.07487505e-13 -0.1628236 0.07583285
0002e0 c8 b1 d6 3d a9 57 90 bd da 45 7d 3d 6f 87 ad bb
       0.10483128 -0.0704797 0.061834194 -0.005295686
0002f0 6a f1 b1 bc 87 67 c9 3c 5c 2f 9f bd da ac 58 3e
       -0.02172156 0.024585498 -0.07772705 0.21159688
000300 a3 45 eb 2a ff b6 a9 a8 a0 6d 34 2b ac 19 34 3b
       4.1792706e-13 -1.8842131e-14 6.410098e-13 0.0027481122
000310 cc d9 a9 be 9c 76 9f 3d c3 08 09 3e 20 b0 0b be
       -0.33173978 0.07786295 0.13382249 -0.13641405
000320 4e 45 c7 3d 27 a6 a8 28 b0 aa 11 bd 9a 3f 52 bd
       0.09730016 1.8723804e-14 -0.03556317 -0.051330186
000330 05 a7 c7 3d 3b 8b 3a 3e 88 6f 5a bb e6 0c f2 29
       0.09748653 0.18217175 -0.0033330638 1.07491964e-13
000340 c6 47 f5 b8 32 17 b6 bb d4 10 1e 3d 20 cf 3c bc
       -0.00011695879 -0.0055569643 0.038590267 -0.011523992
000350 fe 31 14 be af bc d9 3d 2c d8 05 bd bf 88 91 3e
       -0.14472196 0.10631692 -0.03267686 0.2842464
000360 9c d3 91 bd 84 97 6b be cc 2f 6b bb f9 74 15 3e
       -0.071204394 -0.23007017 -0.0035886643 0.14595403
000370 29 6a 93 bb 30 4b 4f 39 1b 70 0b 38 7d f4 ee b5
       -0.0044987393 0.00019769068 3.324459e-05 -1.7803537e-06
000380 cf bd 47 3e e5 ee 4b 3e 5c eb aa 3c 74 c7 f4 bd
       0.19506 0.1991535 0.020864181 -0.11952105
000390 4a d7 2b 3e de ef 1c be 4b 9d 90 bd e7 b1 16 3e
       0.16781345 -0.15325877 -0.07061251 0.14716302
0003a0 39 52 6f 3d 2c 6e 53 bc c6 0e 54 38 11 e9 98 28
       0.058428023 -0.012904685 5.0558498e-05 1.6976466e-14
0003b0 5e 2c fb ba 4b 35 fb ab 82 5f 7d 3c fa 30 12 bd
       -0.0019163003 -1.7849414e-12 0.015464665 -0.03569124
0003c0 0a 41 95 be 7f e2 1e be fa 60 11 be 7d c9 94 be
       -0.29151183 -0.15516089 -0.1419715 -0.29059973
0003d0 50 27 5e be 90 49 af be 3c 7e 52 3e 97 ef 77 be
       -0.21694684 -0.3423581 0.20555967 -0.2421249
0003e0 c0 b2 81 ab 57 be 79 bb 85 72 2d ac 54 86 20 a9
       -9.215614e-13 -0.0038107836 -2.464835e-12 -3.5643648e-14
0003f0 e9 aa a8 be 83 35 66 bd 9c 2b 25 3e db aa b2 bd
       -0.32942894 -0.056203377 0.16129917 -0.08723994

mlp1.bias f4 [32]
000000 be 75 19 3e c7 68 4d bd 40 ac bb 3d 75 e4 e0 bc
       0.14986321 -0.05014875 0.091637135 -0.027452687
000010 42 c8 e6 bd 96 40 00 be 32 9a 85 3e 21 37 8d 3e
       -0.11268665 -0.12524638 0.26094204 0.27581123
000020 e6 b6 3f be ee 1f be ba 76 e2 44 be 74 2e 00 3e
       -0.18722114 -0.0014505365 -0.19227013 0.1251772
000030 a3 e5 b0 bd 3b 04 b2 3d 37 ff 80 3e 38 96 1b be
       -0.0863755 0.08692213 0.25194713 -0.15194023
000040 dc 6d 02 3d 5d 10 6f 3e d5 15 6b 3e e9 a6 80 3e
       0.03184305 0.23346086 0.22957547 0.25127342
000050 a9 9c ea bd d0 34 04 bd 38 67 28 bd 96 e9 1c 3d
       -0.11455662 -0.03227693 -0.041114062 0.038308702
000060 08 d6 04 bc 2c 01 35 3e 7b fc 3d 3d e3 1d 5c 3e
       -0.00810767 0.17676228 0.046383362 0.21495776
000070 7a 59 44 be 70 cc 77 3e c3 06 59 be e1 08 78 3e
       -0.19174758 0.2419908 -0.21193986 0.24222137

conv1.nn.weight f4 [32, 14]
000000 2b e9 82 be b6 6f 09 be 73 37 39 3e b4 95 f2 bd
       -0.25568518 -0.1342152 0.18087558 -0.1184496
000010 d9 32 f0 3d 8a 27 65 bb ac c9 e6 bc 06 5e 84 be
       0.117284484 -0.0034966194 -0.028172337 -0.25852984
000020 4a 29 d7 bc 0b 23 49 27 1e 15 fb b9 7e 80 80 39
       -0.026264805 2.791335e-15 -0.00047890184 0.00024509797
000030 99 e5 de ba 52 23 76 27 0e 8e 2b be fc 6e b4 be
       -0.0017005681 3.4158505e-15 -0.16753408 -0.35240924
000040 86 b4 98 ba 61 e7 49 3e 28 81 4b 3e 45 45 ed 3d
       -0.001165048 0.1971717 0.19873488 0.11585478
000050 18 6d c9 3d 40 20 99 be bb f4 f2 bd 9b 8d a9 3b
       0.09835261 -0.29907417 -0.11863085 0.0051743514
000060 41 04 46 af 5d c9 54 b8 d9 56 81 bb 86 3b a1 26
       -1.8009506e-10 -5.0732273e-05 -0.0039471206 1.1187753e-15
000070 a5 44 c5 bc 60 40 2f be f4 2c e6 bd 1f 78 28 bd
       -0.024080584 -0.17114401 -0.11239043 -0.04113018
000080 d1 4a fe 3d f0 f5 8a bd 68 cb 9a 3e 56 3b 3d be
       0.12416614 -0.0678519 0.30233312 -0.18479666
000090 98 13 67 3d 6f 4b 96 3e dc ea a1 bb c4 a2 ed 38
       0.05641517 0.29354426 -0.0049413275 0.00011331358
0000a0 56 f2 65 b8 32 4b 13 29 c1 bd 51 be 6c 8b 05 3e
       -5.4823548e-05 3.270578e-14 -0.20482542 0.13041466
0000b0 34 5d 2d 3e 1b 95 56 3e f4 85 87 3e 06 b9 75 37
       0.16930085 0.20955317 0.26469386 1.4646217e-05
0000c0 20 57 db 3c d8 6f cf bd cb d4 2a be 54 6a a7 2a
       0.026774943 -0.101287544 -0.16682737 2.973894e-13
0000d0 ae ac e5 37 21 e4 7a bb 64 58 cc b4 ae 17 d7 b9
       2.7379338e-05 -0.0038282948 -3.8062274e-07 -0.00041025638
0000e0 b7 5e ce 3c 6d f0 08 3e 67 3a d1 bd 19 79 5e be
       0.025191648 0.13372965 -0.102162175 -0.21725883
0000f0 d2 3f 97 bd df c6 9c 3e f5 a2 54 3e f0 cc 14 bd
       -0.0738522 0.30620477 0.20765288 -0.036328256
000100 69 70 15 3e 33 bd a5 3e e5 87 a1 3b 20 a8 99 a5
       0.14593662 0.3237091 0.00492953 -2.6655195e-16
000110 74 3c c2 2d 89 89 44 3b 72 1a 0b 3e b6 9d 96 bd
       2.2082093e-11 0.0029989204 0.13584307 -0.073543
000120 d2 c4 a0 be 65 73 e6 be 14 27 11 3e fa e2 a6 be
       -0.31400162 -0.45009914 0.14175063 -0.32595044
000130 b4 7d 91 3c f8 0a f8 3d cb 1d 47 3e c3 86 8f be
       0.017760135 0.12111467 0.19444959 -0.28032503
000140 0d 6f 3f ba 08 bb 63 bb d1 2f ff a8 3e 46 46 2c
       -0.00073026196 -0.003474893 -2.8331424e-14 2.8176485e-12
000150 9c 2d ba 3c d4 7e 23 3e 8f 9d f5 bc d2 8d 6d 3e
       0.022726826 0.1596635 -0.029982356 0.23198631
000160 2a 75 1b be b3 84 0a be bb 22 7b 3e 02 23 8a be
       -0.15181413 -0.13527183 0.24524967 -0.26979834
000170 f2 91 2b 3e e8 40 8c bd 36 fa f3 b7 fb 80 1a b3
       0.16754892 -0.068483174 -2.908437e-05 -3.5973226e-08
000180 59 9a 64 ad b4 24 1e 28 a8 d5 56 bd 74 d6 d4 3d
       -1.29945716e-11 8.778721e-15 -0.052449852 0.10392466
000190 fd b4 95 3e 3f c8 69 be fa e1 38 be d5 27 37 3e
       0.29239646 -0.22830294 -0.18054953 0.17886288
0001a0 14 0f 94 3e 7a cc 65 be c8 4e bb 3d d7 0a de 3d
       0.28917754 -0.22441283 0.09145886 0.10841911
0001b0 b4 3f c7 29 5b 33 0d ba 36 50 36 af 85 e9 16 34
       8.848426e-14 -0.00053863757 -1.65813e-10 1.4054793e-07
0001c0 c5 14 73 3e 59 f2 60 be f4 49 54 3d 2c 20 33 3e
       0.23738392 -0.21967448 0.05182834 0.17492741
0001d0 12 d0 e7 3d df 6f e4 3d 63 b9 b8 bd f0 48 df 3d
       0.11318983 0.1115415 -0.09019735 0.109025836
0001e0 76 64 43 3d 81 9b a6 3d a4 cc 06 ae a6 45 12 2c
       0.04770323 0.08135129 -3.064983e-11 2.078651e-12
0001f0 46 d0 01 3a 43 96 e0 b4 0f 5c ec bd 75 89 68 3e
       0.00049519946 -4.183258e-07 -0.11540996 0.22708686
000200 82 b4 04 be 5a 3a 42 bc 3c 80 1c 3e a7 85 01 b3
       -0.12959483 -0.011854732 0.15283293 -3.015671e-08
000210 20 20 be a9 f2 55 7a 3b 0a 49 b0 3d 66 5d 38 aa
       -8.443268e-14 0.00381982 0.08607681 -1.6374887e-13
000220 bf 36 af 29 fc 9d ad 2a d7 a5 95 b8 a7 3c 91 b6
       7.781058e-14 3.0840597e-13 -7.135764e-05 -4.3283976e-06
000230 91 b8 53 3b 87 66 99 3d 68 b4 71 3e 23 61 83 bd
       0.0032306055 0.07490259 0.23603976 -0.06415012
000240 25 5c 89 bd 0e 1d 59 ba e2 01 be 3b 2a 9e 0d 3e
       -0.06707028 -0.00082822226 0.0057985643 0.13829866
000250 a3 16 36 be 4b 6a 01 3c 8d d6 8d 27 74 d1 65 a9
       -0.17782073 0.007898877 3.936798e-15 -5.1029886e-14
000260 7c 66 b2 ad 37 d6 f5 2c 6d c3 17 3d 41 bc d1 be
       -2.028177e-11 6.9871014e-12 0.037051607 -0.4096394
000270 a7 15 5d 3e 99 0e 2d be cf b4 85 bd be 7e 8f bc
       0.21590291 -0.169001 -0.06528627 -0.01751649
000280 57 fa 8b 3e 3b 89 32 3b ac e9 4e bc 77 11 86 3d
       0.27339432 0.002724244 -0.012628954 0.065463
000290 28 08 51 b7 2c 20 1c a8 6c 5d 7a b9 a0 6e ac 28
       -1.245927e-05 -8.666716e-15 -0.0002387666 1.9143812e-14
0002a0 44 50 9a bd 99 9b c8 bd f1 7b 29 3e 12 11 90 bd
       -0.07534841 -0.09795303 0.16551186 -0.07034506
0002b0 14 2e 9e 3d 37 ed dc ba df 6f a2 3a ba 4e 0d 3e
       0.077236325 -0.0016855364 0.0012392959 0.13799563
0002c0 e2 b9 64 bc 24 81 9c a8 b7 14 50 2b 3a 87 31 33
       -0.013960334 -1.7375485e-14 7.392519e-13 4.133401e-08
0002d0 f5 05 9d 3a 54 0a f2 a9 3b bb 26 be 41 4e 9b 3d
       0.0011979925 -1.07487505e-13 -0.1628236 0.07583285
0002e0 c8 b1 d6 3d a9 57 90 bd da 45 7d 3d 6f 87 ad bb
       0.10483128 -0.0704797 0.061834194 -0.005295686
0002f0 6a f1 b1 bc 87 67 c9 3c 5c 2f 9f bd da ac 58 3e
       -0.02172156 0.024585498 -0.07772705 0.21159688
000300 a3 45 eb 2a ff b6 a9 a8 a0 6d 34 2b ac 19 34 3b
       4.1792706e-13 -1.8842131e-14 6.410098e-13 0.0027481122
000310 cc d9 a9 be 9c 76 9f 3d c3 08 09 3e 20 b0 0b be
       -0.33173978 0.07786295 0.13382249 -0.13641405
000320 4e 45 c7 3d 27 a6 a8 28 b0 aa 11 bd 9a 3f 52 bd
       0.09730016 1.8723804e-14 -0.03556317 -0.051330186
000330 05 a7 c7 3d 3b 8b 3a 3e 88 6f 5a bb e6 0c f2 29
       0.09748653 0.18217175 -0.0033330638 1.07491964e-13
000340 c6 47 f5 b8 32 17 b6 bb d4 10 1e 3d 20 cf 3c bc
       -0.00011695879 -0.0055569643 0.038590267 -0.011523992
000350 fe 31 14 be af bc d9 3d 2c d8 05 bd bf 88 91 3e
       -0.14472196 0.10631692 -0.03267686 0.2842464
000360 9c d3 91 bd 84 97 6b be cc 2f 6b bb f9 74 15 3e
       -0.071204394 -0.23007017 -0.0035886643 0.14595403
000370 29 6a 93 bb 30 4b 4f 39 1b 70 0b 38 7d f4 ee b5
       -0.0044987393 0.00019769068 3.324459e-05 -1.7803537e-06
000380 cf bd 47 3e e5 ee 4b 3e 5c eb aa 3c 74 c7 f4 bd
       0.19506 0.1991535 0.020864181 -0.11952105
000390 4a d7 2b 3e de ef 1c be 4b 9d 90 bd e7 b1 16 3e
       0.16781345 -0.15325877 -0.07061251 0.14716302
0003a0 39 52 6f 3d 2c 6e 53 bc c6 0e 54 38 11 e9 98 28
       0.058428023 -0.012904685 5.0558498e-05 1.6976466e-14
0003b0 5e 2c fb ba 4b 35 fb ab 82 5f 7d 3c fa 30 12 bd
       -0.0019163003 -1.7849414e-12 0.015464665 -0.03569124
0003c0 0a 41 95 be 7f e2 1e be fa 60 11 be 7d c9 94 be
       -0.29151183 -0.15516089 -0.1419715 -0.29059973
0003d0 50 27 5e be 90 49 af be 3c 7e 52 3e 97 ef 77 be
       -0.21694684 -0.3423581 0.20555967 -0.2421249
0003e0 c0 b2 81 ab 57 be 79 bb 85 72 2d ac 54 86 20 a9
       -9.215614e-13 -0.0038107836 -2.464835e-12 -3.5643648e-14
0003f0 e9 aa a8 be 83 35 66 bd 9c 2b 25 3e db aa b2 bd
       -0.32942894 -0.056203377 0.16129917 -0.08723994

conv1.nn.bias f4 [32]
000000 be 75 19 3e c7 68 4d bd 40 ac bb 3d 75 e4 e0 bc
       0.14986321 -0.05014875 0.091637135 -0.027452687
000010 42 c8 e6 bd 96 40 00 be 32 9a 85 3e 21 37 8d 3e
       -0.11268665 -0.12524638 0.26094204 0.27581123
000020 e6 b6 3f be ee 1f be ba 76 e2 44 be 74 2e 00 3e
       -0.18722114 -0.0014505365 -0.19227013 0.1251772
000030 a3 e5 b0 bd 3b 04 b2 3d 37 ff 80 3e 38 96 1b be
       -0.0863755 0.08692213 0.25194713 -0.15194023
000040 dc 6d 02 3d 5d 10 6f 3e d5 15 6b 3e e9 a6 80 3e
       0.03184305 0.23346086 0.22957547 0.25127342
000050 a9 9c ea bd d0 34 04 bd 38 67 28 bd 96 e9 1c 3d
       -0.11455662 -0.03227693 -0.041114062 0.038308702
000060 08 d6 04 bc 2c 01 35 3e 7b fc 3d 3d e3 1d 5c 3e
       -0.00810767 0.17676228 0.046383362 0.21495776
000070 7a 59 44 be 70 cc 77 3e c3 06 59 be e1 08 78 3e
       -0.19174758 0.2419908 -0.21193986 0.24222137

mlp2.weight f4 [32, 32]
000000 29 1f 9a 3e 67 5c 88 3e a5 33 38 3e 25 fe 2f 3e
       0.30101898 0.26632997 0.17988451 0.17186792
000010 06 e6 b9 bd 1c 41 7b bd b6 93 38 3d fb ad 0a be
       -0.090770766 -0.06134139 0.045062743 -0.13542931
000020 79 64 5d bd 85 73 81 be 39 30 a0 bd 25 03 b5 3d
       -0.054050896 -0.25283447 -0.07821698 0.088384904
000030 1a b9 9c bd 4b c0 a1 3d 30 ef a8 3e c3 df e6 bc
       -0.07652493 0.07898005 0.32994986 -0.02818287
000040 e7 98 c6 be e4 69 46 be e4 a4 9f 3e ec 39 e1 3d
       -0.3878853 -0.19376332 0.3118049 0.10997376
000050 28 d5 4a 3e bc d4 1b be 49 6d bd be ae d1 bc be
       0.19807875 -0.1521787 -0.3699744 -0.36878723
000060 9c aa a0 be 7f b3 0a be a4 5f a3 bd aa ac 61 3e
       -0.31380165 -0.13545035 -0.079772264 0.22038522
000070 9a 67 05 3d 0a 5c 81 bc d3 5a 84 be 4d f7 a3 bd
       0.032569505 -0.015790958 -0.25850543 -0.08006153
000080 a4 00 1b bb b4 c6 28 be 49 13 6a be ff 5e f2 3c
       -0.0023651505 -0.16482049 -0.22858919 0.029586313
000090 1f 1d 64 be 94 2d 83 3e 34 93 fc 3d 45 ad 03 3d
       -0.22276734 0.2562071 0.12332764 0.032147665
0000a0 95 c4 fd bd 5d 62 05 3d 56 da 12 3b 95 f0 ad 3d
       -0.12391011 0.03256451 0.002240797 0.08493153
0000b0 ec 9a 19 3d e3 45 b2 3c 2b 87 1c 3c 03 5a 42 be
       0.03750126 0.02176184 0.009553711 -0.18979649
0000c0 b4 fb 15 be e1 70 c4 3d 14 4b a5 bc 2e e7 06 3e
       -0.14646798 0.095918424 -0.020177402 0.13174126
0000d0 c1 1e bb 3d 2c 37 b7 3d 50 f2 56 bd 36 df 0e be
       0.09136725 0.0894607 -0.05247718 -0.13952336
0000e0 a2 25 4f bd 2f 1a 05 3e 88 23 33 be 73 ee 87 3d
       -0.050573 0.1299827 -0.17494023 0.066372775
0000f0 db 96 5b 3d a6 96 17 3d b5 b6 29 3d 68 a8 03 3e
       0.053610664 0.037008904 0.04143401 0.1285721
000100 af 85 84 3e 74 e1 ae 3c e0 8d ce 3c de 68 15 bd
       0.25883242 0.021347739 0.025214136 -0.036476962
000110 13 54 76 3e 86 06 bc bd 5e 82 22 bc e9 55 67 3e
       0.2405551 -0.09180932 -0.009918777 0.22591366
000120 28 c6 0a 3e da b6 f0 3c 86 d5 99 bd d5 6f f0 3d
       0.13552153 0.029384065 -0.075114295 0.1174008
000130 b7 b2 b0 bd ed 90 8f 3e e9 d2 58 3e 30 25 39 3e
       -0.08627837 0.28040257 0.21174206 0.18080592
000140 0e f5 de 3d cc d9 01 be 91 22 0a 3e 27 b0 83 bc
       0.10886584 -0.12680739 0.13489749 -0.016075207
000150 1b 74 e6 bc 09 8d 4e be 98 88 16 bd 7e 4e cc 3d
       -0.028131535 -0.20170988 -0.03675136 0.09975909
000160 fc 09 92 3e 41 e9 34 3d 4e 9d a1 3c 04 f9 e5 3d
       0.28523242 0.04416776 0.019728329 0.112291366
000170 10 c1 4a bd 45 02 94 bc 30 93 5f be ed 1d 05 3d
       -0.049500525 -0.018067488 -0.21833491 0.032499243
000180 aa d7 14 be 16 d7 a4 be 1e cf 8e be b5 c9 df be
       -0.14535394 -0.32195348 -0.27892393 -0.43708578
000190 b2 49 0a be 06 2a ac 3d f3 e1 bd bd ec 37 a9 be
       -0.13504675 0.08406453 -0.09271612 -0.33050478
0001a0 8a df 52 bc f0 60 85 be 8a c7 5d be 18 5c e5 3b
       -0.012870679 -0.2605052 -0.2165815 0.006999504
0001b0 57 dd 32 bb da 0a 02 be 01 90 6c be 36 e3 28 bd
       -0.0027292573 -0.12699452 -0.23101808 -0.04123231
0001c0 d3 f5 ff 3c b2 db 08 3e 8f 67 fc bd f3 65 09 be
       0.031245148 0.13365057 -0.1232444 -0.13417797
0001d0 bc ef d5 3b bd de 8a bd 2d 3a 40 be 21 b9 32 be
       0.0065288227 -0.06780765 -0.18772192 -0.17453434
0001e0 2c a8 c5 bd 1b 1c 54 3e 62 99 08 be f8 38 1e be
       -0.09651217 0.20713846 -0.13339761 -0.1545142
0001f0 db 5b 53 3e 5d 80 8d be 0e eb ac bc 33 00 1e be
       0.20640509 -0.27636996 -0.021108177 -0.15429763
000200 6e 26 77 3e c0 92 9b 3b 1f 02 53 ba 72 a6 d7 3d
       0.24135754 0.0047477186 -0.00080493273 0.10529794
000210 7f 06 ef 3c 69 9e 7f be 5c 64 fd bd 6d 8a 76 3e
       0.029177902 -0.24962772 -0.12372658 0.24076243
000220 f3 16 99 3c 69 cf 22 3e 6f 45 21 bd b6 c7 2f b9
       0.0186877 0.15899433 -0.039372858 -0.00016763699
000230 6d af 22 be 84 22 47 3e d8 2c 06 3e 77 cd 1b 3e
       -0.15887232 0.1944676 0.13103044 0.15215097
000240 5c ec 09 3e 01 01 f5 bd 52 3e 0f 3e 25 b7 2e 3d
       0.1346907 -0.11963082 0.13988617 0.04265513
000250 4e 00 e8 3d a4 bd 3f be 82 e1 2b bc 11 22 92 3d
       0.11328183 -0.18724686 -0.010490777 0.07135404
000260 c6 5e 9f 3d 77 a7 00 be cc 51 ab 3c 28 ab 2f 3e
       0.077817485 -0.12563883 0.020913027 0.17155135
000270 02 b3 5d 3e 4b 53 23 3e 10 f8 a2 be 02 d0 cd bd
       0.21650317 0.15949742 -0.31829882 -0.1004944
000280 1e fe 43 37 9a a2 63 be 12 05 a2 be 25 7f 35 be
       1.1682072e-05 -0.22229996 -0.31644493 -0.17724283
000290 8b 1a 7c be c4 cb ce 3d 26 56 da 3d 5d e0 22 be
       -0.246195 0.10097459 0.10660963 -0.159059
0002a0 9e d9 bb bd 8a ee 4d bd b7 43 90 bd cf d1 08 be
       -0.091723666 -0.050276317 -0.070441656 -0.13361286
0002b0 6e 15 51 3a f8 44 48 bd 24 17 02 be 83 50 53 3c
       0.00079759106 -0.0488939 -0.1270414 0.012897613
0002c0 bf de 16 be d5 6a c1 3c 72 a8 74 bd 5b e0 7a be
       -0.14733408 0.023610512 -0.059730954 -0.24499647
0002d0 9a cf b0 3d 66 83 1f 3d e3 94 d3 bd 7f 65 0d be
       0.08633347 0.03894367 -0.10331132 -0.13808249
0002e0 f4 c1 f9 bd 22 e9 44 3e 32 f5 9e bc 82 71 c4 bd
       -0.12195197 0.19229558 -0.019404028 -0.095919624
0002f0 78 82 4a 3e 24 f5 1d be ce c5 f1 bb dd 7a af bd
       0.19776332 -0.15425545 -0.0073783165 -0.08568356
000300 79 ca 11 be 5b 8f 92 bd a2 e2 f2 3d 13 9c e0 3d
       -0.14237393 -0.07156249 0.11859633 0.10967269
000310 2f b7 86 be ad 89 40 bd 45 0c b5 bc 89 be 09 bd
       -0.26311633 -0.047006298 -0.022100577 -0.033628974
000320 a7 db ff 3d 8d 86 50 3e e8 42 b6 bd d7 c5 04 be
       0.12493067 0.20363827 -0.0889948 -0.12966095
000330 ad d4 90 3d 7f 8a c9 3c 50 27 e7 bd 2b 4e cd bd
       0.07071815 0.024602173 -0.11286795 -0.10024675
000340 6f e1 d4 3d 80 29 58 3e d0 02 e7 bd 19 cc 11 be
       0.103945605 0.21109581 -0.11279833 -0.14238013
000350 2f 33 fb 3d 84 3f fb bb 5f 98 d6 3c c1 e5 7c be
       0.12265622 -0.0076674838 0.026195703 -0.24697019
000360 64 78 2e bd ff 82 d8 3b 86 cf 05 be cb 8f f5 bd
       -0.042595282 0.006607413 -0.13067445 -0.11990317
000370 8e 4a 96 bd 57 fa ad bd 38 1b 4a 3e 2b 47 d4 3d
       -0.07338439 -0.08495014 0.19736946 0.10365137
000380 07 cd a8 be a7 cb 8b be 9d d9 96 3c e0 3e 7c 3d
       -0.32968923 -0.27303812 0.018414313 0.0615834
000390 8d 45 a7 3d df 1e 01 be 59 db 29 3e cd 6d f2 3d
       0.08167563 -0.12609433 0.1658758 0.11837349
0003a0 07 31 21 be 38 1a cb 3b 88 f9 0d 3e db 9b c8 3d
       -0.15741359 0.006198194 0.1386472 0.09795352
0003b0 4c ed 7e 3d c7 8e 19 bd 0e e2 dc bd 95 6f 2a be
       0.062238023 -0.03748968 -0.10785304 -0.16644128
0003c0 d3 f4 a0 bd 47 39 90 3c 8b cb 7e be d8 b6 55 3e
       -0.078591965 0.017605437 -0.24882333 0.2087053
0003d0 3c ab de 3d 73 f9 0c 3e 96 f0 11 3e 7b a1 df 3d
       0.10872504 0.13767032 0.14251933 0.10919472
0003e0 6f 8c 3b bd 9b e9 b9 3c 26 fb cd bd 6e dd 53 3e
       -0.045788225 0.0226944 -0.100576684 0.20689937
0003f0 21 88 1e be b8 a2 40 bc 10 5c d9 3d fa ab 05 3e
       -0.15481617 -0.011757545 0.10613263 0.13053885

mlp2.bias f4 [32]
000000 e3 4a 07 ba f5 b7 2a bc d7 ad bd 3d 21 67 31 3d
       -0.00051610003 -0.010419835 0.09261673 0.043311242
000010 5d ed 78 bd 0f fc aa bd 9d 81 f8 3d 58 a3 9d 3d
       -0.060773242 -0.083488576 0.12134097 0.07697171
000020 33 67 d8 bd e1 83 28 bb 1d 36 bf bd 9d 5c 2b 3e
       -0.10566559 -0.0025713372 -0.09336493 0.16734548
000030 ce b0 33 39 bc 90 f4 3d 2d 43 0d 3e 42 cf 04 3e
       0.00017136635 0.119416684 0.13795157 0.12969688
000040 fe 54 2b 3c 4f 34 35 bd 42 8e 22 bd bc b5 2e be
       0.010457275 -0.04423934 -0.03968645 -0.17061514
000050 09 f8 03 bd 5a 16 9c 3d e2 f6 e5 bc 01 64 60 bd
       -0.032218967 0.07621451 -0.028071824 -0.05478287
000060 0b b1 ba aa 46 d2 a5 3d 7a 5f 00 3e 4b 61 0f 3d
       -3.3163085e-13 0.08096747 0.12536421 0.035004895
000070 2b 94 26 bd f9 3b 0d 3e 1f c1 61 3d 24 dc 78 36
       -0.040668648 0.13792409 0.055115815 3.7083018e-06

conv2.nn.weight f4 [32, 32]
000000 29 1f 9a 3e 67 5c 88 3e a5 33 38 3e 25 fe 2f 3e
       0.30101898 0.26632997 0.17988451 0.17186792
000010 06 e6 b9 bd 1c 41 7b bd b6 93 38 3d fb ad 0a be
       -0.090770766 -0.06134139 0.045062743 -0.13542931
000020 79 64 5d bd 85 73 81 be 39 30 a0 bd 25 03 b5 3d
       -0.054050896 -0.25283447 -0.07821698 0.088384904
000030 1a b9 9c bd 4b c0 a1 3d 30 ef a8 3e c3 df e6 bc
       -0.07652493 0.07898005 0.32994986 -0.02818287
000040 e7 98 c6 be e4 69 46 be e4 a4 9f 3e ec 39 e1 3d
       -0.3878853 -0.19376332 0.3118049 0.10997376
000050 28 d5 4a 3e bc d4 1b be 49 6d bd be ae d1 bc be
       0.19807875 -0.1521787 -0.3699744 -0.36878723
000060 9c aa a0 be 7f b3 0a be a4 5f a3 bd aa ac 61 3e
       -0.31380165 -0.13545035 -0.079772264 0.22038522
000070 9a 67 05 3d 0a 5c 81 bc d3 5a 84 be 4d f7 a3 bd
       0.032569505 -0.015790958 -0.25850543 -0.08006153
000080 a4 00 1b bb b4 c6 28 be 49 13 6a be ff 5e f2 3c
       -0.0023651505 -0.16482049 -0.22858919 0.029586313
000090 1f 1d 64 be 94 2d 83 3e 34 93 fc 3d 45 ad 03 3d
       -0.22276734 0.2562071 0.12332764 0.032147665
0000a0 95 c4 fd bd 5d 62 05 3d 56 da 12 3b 95 f0 ad 3d
       -0.12391011 0.03256451 0.002240797 0.08493153
0000b0 ec 9a 19 3d e3 45 b2 3c 2b 87 1c 3c 03 5a 42 be
       0.03750126 0.02176184 0.009553711 -0.18979649
0000c0 b4 fb 15 be e1 70 c4 3d 14 4b a5 bc 2e e7 06 3e
       -0.14646798 0.095918424 -0.020177402 0.13174126
0000d0 c1 1e bb 3d 2c 37 b7 3d 50 f2 56 bd 36 df 0e be
       0.09136725 0.0894607 -0.05247718 -0.13952336
0000e0 a2 25 4f bd 2f 1a 05 3e 88 23 33 be 73 ee 87 3d
       -0.050573 0.1299827 -0.17494023 0.066372775
0000f0 db 96 5b 3d a6 96 17 3d b5 b6 29 3d 68 a8 03 3e
       0.053610664 0.037008904 0.04143401 0.1285721
000100 af 85 84 3e 74 e1 ae 3c e0 8d ce 3c de 68 15 bd
       0.25883242 0.021347739 0.025214136 -0.036476962
000110 13 54 76 3e 86 06 bc bd 5e 82 22 bc e9 55 67 3e
       0.2405551 -0.09180932 -0.009918777 0.22591366
000120 28 c6 0a 3e da b6 f0 3c 86 d5 99 bd d5 6f f0 3d
       0.13552153 0.029384065 -0.075114295 0.1174008
000130 b7 b2 b0 bd ed 90 8f 3e e9 d2 58 3e 30 25 39 3e
       -0.08627837 0.28040257 0.21174206 0.18080592
000140 0e f5 de 3d cc d9 01 be 91 22 0a 3e 27 b0 83 bc
       0.10886584 -0.12680739 0.13489749 -0.016075207
000150 1b 74 e6 bc 09 8d 4e be 98 88 16 bd 7e 4e cc 3d
       -0.028131535 -0.20170988 -0.03675136 0.09975909
000160 fc 09 92 3e 41 e9 34 3d 4e 9d a1 3c 04 f9 e5 3d
       0.28523242 0.04416776 0.019728329 0.112291366
000170 10 c1 4a bd 45 02 94 bc 30 93 5f be ed 1d 05 3d
       -0.049500525 -0.018067488 -0.21833491 0.032499243
000180 aa d7 14 be 16 d7 a4 be 1e cf 8e be b5 c9 df be
       -0.14535394 -0.32195348 -0.27892393 -0.43708578
000190 b2 49 0a be 06 2a ac 3d f3 e1 bd bd ec 37 a9 be
       -0.13504675 0.08406453 -0.09271612 -0.33050478
0001a0 8a df 52 bc f0 60 85 be 8a c7 5d be 18 5c e5 3b
       -0.012870679 -0.2605052 -0.2165815 0.006999504
0001b0 57 dd 32 bb da 0a 02 be 01 90 6c be 36 e3 28 bd
       -0.0027292573 -0.12699452 -0.23101808 -0.04123231
0001c0 d3 f5 ff 3c b2 db 08 3e 8f 67 fc bd f3 65 09 be
       0.031245148 0.13365057 -0.1232444 -0.13417797
0001d0 bc ef d5 3b bd de 8a bd 2d 3a 40 be 21 b9 32 be
       0.0065288227 -0.06780765 -0.18772192 -0.17453434
0001e0 2c a8 c5 bd 1b 1c 54 3e 62 99 08 be f8 38 1e be
       -0.09651217 0.20713846 -0.13339761 -0.1545142
0001f0 db 5b 53 3e 5d 80 8d be 0e eb ac bc 33 00 1e be
       0.20640509 -0.27636996 -0.021108177 -0.15429763
000200 6e 26 77 3e c0 92 9b 3b 1f 02 53 ba 72 a6 d7 3d
       0.24135754 0.0047477186 -0.00080493273 0.10529794
000210 7f 06 ef 3c 69 9e 7f be 5c 64 fd bd 6d 8a 76 3e
       0.029177902 -0.24962772 -0.12372658 0.24076243
000220 f3 16 99 3c 69 cf 22 3e 6f 45 21 bd b6 c7 2f b9
       0.0186877 0.15899433 -0.039372858 -0.00016763699
000230 6d af 22 be 84 22 47 3e d8 2c 06 3e 77 cd 1b 3e
       -0.15887232 0.1944676 0.13103044 0.15215097
000240 5c ec 09 3e 01 01 f5 bd 52 3e 0f 3e 25 b7 2e 3d
       0.1346907 -0.11963082 0.13988617 0.04265513
000250 4e 00 e8 3d a4 bd 3f be 82 e1 2b bc 11 22 92 3d
       0.11328183 -0.18724686 -0.010490777 0.07135404
000260 c6 5e 9f 3d 77 a7 00 be cc 51 ab 3c 28 ab 2f 3e
       0.077817485 -0.12563883 0.020913027 0.17155135
000270 02 b3 5d 3e 4b 53 23 3e 10 f8 a2 be 02 d0 cd bd
       0.21650317 0.15949742 -0.31829882 -0.1004944
000280 1e fe 43 37 9a a2 63 be 12 05 a2 be 25 7f 35 be
       1.1682072e-05 -0.22229996 -0.31644493 -0.17724283
000290 8b 1a 7c be c4 cb ce 3d 26 56 da 3d 5d e0 22 be
       -0.246195 0.10097459 0.10660963 -0.159059
0002a0 9e d9 bb bd 8a ee 4d bd b7 43 90 bd cf d1 08 be
       -0.091723666 -0.050276317 -0.070441656 -0.13361286
0002b0 6e 15 51 3a f8 44 48 bd 24 17 02 be 83 50 53 3c
       0.00079759106 -0.0488939 -0.1270414 0.012897613
0002c0 bf de 16 be d5 6a c1 3c 72 a8 74 bd 5b e0 7a be
       -0.14733408 0.023610512 -0.059730954 -0.24499647
0002d0 9a cf b0 3d 66 83 1f 3d e3 94 d3 bd 7f 65 0d be
       0.08633347 0.03894367 -0.10331132 -0.13808249
0002e0 f4 c1 f9 bd 22 e9 44 3e 32 f5 9e bc 82 71 c4 bd
       -0.12195197 0.19229558 -0.019404028 -0.095919624
0002f0 78 82 4a 3e 24 f5 1d be ce c5 f1 bb dd 7a af bd
       0.19776332 -0.15425545 -0.0073783165 -0.08568356
000300 79 ca 11 be 5b 8f 92 bd a2 e2 f2 3d 13 9c e0 3d
       -0.14237393 -0.07156249 0.11859633 0.10967269
000310 2f b7 86 be ad 89 40 bd 45 0c b5 bc 89 be 09 bd
       -0.26311633 -0.047006298 -0.022100577 -0.033628974
000320 a7 db ff 3d 8d 86 50 3e e8 42 b6 bd d7 c5 04 be
       0.12493067 0.20363827 -0.0889948 -0.12966095
000330 ad d4 90 3d 7f 8a c9 3c 50 27 e7 bd 2b 4e cd bd
       0.07071815 0.024602173 -0.11286795 -0.10024675
000340 6f e1 d4 3d 80 29 58 3e d0 02 e7 bd 19 cc 11 be
       0.103945605 0.21109581 -0.11279833 -0.14238013
000350 2f 33 fb 3d 84 3f fb bb 5f 98 d6 3c c1 e5 7c be
       0.12265622 -0.0076674838 0.026195703 -0.24697019
000360 64 78 2e bd ff 82 d8 3b 86 cf 05 be cb 8f f5 bd
       -0.042595282 0.006607413 -0.13067445 -0.11990317
000370 8e 4a 96 bd 57 fa ad bd 38 1b 4a 3e 2b 47 d4 3d
       -0.07338439 -0.08495014 0.19736946 0.10365137
000380 07 cd a8 be a7 cb 8b be 9d d9 96 3c e0 3e 7c 3d
       -0.32968923 -0.27303812 0.018414313 0.0615834
000390 8d 45 a7 3d df 1e 01 be 59 db 29 3e cd 6d f2 3d
       0.08167563 -0.12609433 0.1658758 0.11837349
0003a0 07 31 21 be 38 1a cb 3b 88 f9 0d 3e db 9b c8 3d
       -0.15741359 0.006198194 0.1386472 0.09795352
0003b0 4c ed 7e 3d c7 8e 19 bd 0e e2 dc bd 95 6f 2a be
       0.062238023 -0.03748968 -0.10785304 -0.16644128
0003c0 d3 f4 a0 bd 47 39 90 3c 8b cb 7e be d8 b6 55 3e
       -0.078591965 0.017605437 -0.24882333 0.2087053
0003d0 3c ab de 3d 73 f9 0c 3e 96 f0 11 3e 7b a1 df 3d
       0.10872504 0.13767032 0.14251933 0.10919472
0003e0 6f 8c 3b bd 9b e9 b9 3c 26 fb cd bd 6e dd 53 3e
       -0.045788225 0.0226944 -0.100576684 0.20689937
0003f0 21 88 1e be b8 a2 40 bc 10 5c d9 3d fa ab 05 3e
       -0.15481617 -0.011757545 0.10613263 0.13053885

conv2.nn.bias f4 [32]
000000 e3 4a 07 ba f5 b7 2a bc d7 ad bd 3d 21 67 31 3d
       -0.00051610003 -0.010419835 0.09261673 0.043311242
000010 5d ed 78 bd 0f fc aa bd 9d 81 f8 3d 58 a3 9d 3d
       -0.060773242 -0.083488576 0.12134097 0.07697171
000020 33 67 d8 bd e1 83 28 bb 1d 36 bf bd 9d 5c 2b 3e
       -0.10566559 -0.0025713372 -0.09336493 0.16734548
000030 ce b0 33 39 bc 90 f4 3d 2d 43 0d 3e 42 cf 04 3e
       0.00017136635 0.119416684 0.13795157 0.12969688
000040 fe 54 2b 3c 4f 34 35 bd 42 8e 22 bd bc b5 2e be
       0.010457275 -0.04423934 -0.03968645 -0.17061514
000050 09 f8 03 bd 5a 16 9c 3d e2 f6 e5 bc 01 64 60 bd
       -0.032218967 0.07621451 -0.028071824 -0.05478287
000060 0b b1 ba aa 46 d2 a5 3d 7a 5f 00 3e 4b 61 0f 3d
       -3.3163085e-13 0.08096747 0.12536421 0.035004895
000070 2b 94 26 bd f9 3b 0d 3e 1f c1 61 3d 24 dc 78 36
       -0.040668648 0.13792409 0.055115815 3.7083018e-06

mlp3.weight f4 [32, 32]
000000 30 d0 0e 3f 08 39 38 bc 1a d8 9c 3d 85 8b 05 be
       0.5578642 -0.011244066 0.076584056 -0.13041504
000010 52 bc 29 3e 55 e7 5d bd b8 46 f8 bd ca 4c cb bd
       0.16575745 -0.054175694 -0.121228635 -0.09926756
000020 80 4c 7a 3e b5 61 02 b7 49 8a 6d be 73 6c 4f 3d
       0.24443245 -7.771353e-06 -0.23197283 0.050640535
000030 c2 6e 77 be 37 c6 20 be f0 eb c0 bd 00 e8 6c 3d
       -0.24163345 -0.15700613 -0.094200015 0.05783844
000040 9e e1 92 3e 4f a3 86 3d 0a c7 e2 bc b0 e6 c4 bd
       0.28687757 0.065741174 -0.0276828 -0.09614313
000050 bb 3a 51 bb ab a3 ac 3c ca 27 13 be 52 fd a1 3d
       -0.0031925875 0.021074137 -0.14370647 0.07909645
000060 11 f2 91 38 b9 27 11 3d 20 82 1f be c2 77 f4 3d
       6.959227e-05 0.035438273 -0.15576982 0.119369045
000070 2e ff 84 3e c7 c1 11 3c 75 3d 4d 3e fe eb bb b7
       0.25975937 0.008896298 0.20042975 -2.240203e-05
000080 9c 34 0e bc 0c fc 84 3d ee 52 89 3d f0 38 bd bc
       -0.008679535 0.064933866 0.06705271 -0.023098439
000090 fa 47 49 bc bb 3f 3f bc f3 8b e0 3c 3b 5e 3e bd
       -0.012285227 -0.011672909 0.027410483 -0.046476584
0000a0 82 05 53 3d cd d6 46 b4 3a 03 7c 3c 2f 05 4e 3c
       0.051518925 -1.8518331e-07 0.015381629 0.012574478
0000b0 ab a0 7a bc 85 b8 b6 3d ea 4c bc bd 5d 6a ee 3a
       -0.015297095 0.08921913 -0.09194358 0.0018189658
0000c0 f9 a4 23 3c 27 af 0c 3e 00 11 fa 3c 67 44 96 3d
       0.009988063 0.1373869 0.030525684 0.073372655
0000d0 37 69 5e ab e3 40 13 bc b4 d6 a9 b8 c6 4a 83 bc
       -7.901626e-13 -0.008987638 -8.0985395e-05 -0.016026866
0000e0 35 77 21 28 62 bf 9c bc 0e 92 fa bb 8d e1 32 bd
       8.963144e-15 -0.019134227 -0.0076468056 -0.043672133
0000f0 a2 c7 e9 bd a6 75 c7 bd 14 c4 0a ba 8b 79 af 37
       -0.1141503 -0.097392365 -0.00052935 2.0918224e-05
000100 67 9b a1 be c0 f8 49 bd b8 b0 c3 bc b4 de a4 3e
       -0.31563875 -0.049309492 -0.023887977 0.3220116
000110 10 60 ea bc 1c ca e6 3d 0b a7 3d 3e b5 2e 68 3e
       -0.02861026 0.11269018 0.18520753 0.22674067
000120 5a db 4d 3d 64 9b 98 35 bd 14 59 3e f9 a1 95 bd
       0.050258018 1.1370107e-06 0.21199317 -0.073062845
000130 5b b0 70 3e fe dc 05 3e 6e fc e5 3d 5d 97 95 bc
       0.23504774 0.13072583 0.11229788 -0.018260652
000140 f1 dc 84 bd 82 44 0b be bb b0 50 3e e4 85 01 3e
       -0.06487454 -0.13600352 0.20379917 0.12648731
000150 78 64 86 3b 38 20 e8 3d 6c 4c 10 3e 5a 34 c9 bd
       0.0041013323 0.1133427 0.14091653 -0.098244384
000160 30 46 23 29 7a 86 9e 3b 79 52 71 3e f9 bc 02 3e
       3.625415e-14 0.004837808 0.23566617 0.127674
000170 ef 1f 5e be 69 59 3f 3d 86 61 ef bc 13 45 08 35
       -0.21691869 0.046716128 -0.029221307 5.0764464e-07
000180 fa 5e 05 3f 00 5e 9f bd 7c 14 54 3e 53 cd 5f be
       0.5209805 -0.07781601 0.20710939 -0.21855669
000190 b8 d5 5c 3e fd c3 74 be f6 b1 32 be 2b 05 91 be
       0.21565902 -0.23902889 -0.17450699 -0.28324255
0001a0 60 80 63 3e 1e 18 08 b7 9a 55 79 bd fe 78 d7 3d
       0.2221694 -8.111847e-06 -0.06087265 0.10521124
0001b0 9e 16 8d be 10 c7 9a be 22 42 a4 bd a0 07 53 3e
       -0.27556318 -0.30229998 -0.08020426 0.20608377
0001c0 0b eb 45 3e 51 b4 88 bd 33 95 ce bd a9 cf fe bd
       0.19327943 -0.066750176 -0.10087051 -0.12441952
0001d0 5b 2d c3 bc 1f 73 45 be 06 e1 11 be 4d dc 59 3e
       -0.023825338 -0.19282196 -0.14245996 0.21275444
0001e0 e3 36 3d 38 b0 d6 27 3e 5f b5 79 be ee 41 e0 3d
       4.511223e-05 0.1639049 -0.24385594 0.10950075
0001f0 dd 3c 5d 3e 63 c3 17 3e 02 73 08 bd f1 2e d7 b5
       0.21605249 0.14820628 -0.033312805 -1.603241e-06
000200 d9 96 16 34 df 1d 30 bb c1 77 db bb fc af a1 bb
       1.4024717e-07 -0.0026873273 -0.0066976254 -0.004934309
000210 79 cf 84 bb 5e 8a 2e bb ba 82 ab bb 74 69 3f 3b
       -0.004053053 -0.0026632766 -0.0052340897 0.0029207142
000220 8b 49 a5 bc 11 74 60 36 1b f3 0b 39 a4 75 d8 bb
       -0.02017667 3.344616e-06 0.00013346637 -0.0066058207
000230 8e ed 38 3a c0 b7 de 3a 2c 15 67 bc 8b 16 1e 3b
       0.00070544414 0.0016992018 -0.014104169 0.0024122323
000240 07 69 6b ba 61 6b 21 bc 7f 48 ac bc 5f 2c 0d bb
       -0.0008980189 -0.009852261 -0.021030663 -0.002154134
000250 96 99 c8 ac 3b 3a fc bb 98 ac 01 bc fa 5e 29 bb
       -5.7013934e-12 -0.0076973713 -0.007914685 -0.0025843964
000260 ea 98 1e a8 80 82 43 39 b4 d2 4d 3a 08 df bf bb
       -8.80392e-15 0.00018645264 0.00078515266 -0.005855445
000270 9a 60 95 3b b9 d2 b4 bc cf 42 c1 bb 71 67 a6 2f
       0.004558635 -0.022073137 -0.005897857 3.0268724e-10
000280 4a 34 0b 3f 69 7f 89 3d 53 d0 33 3e f7 52 7e be
       0.5437666 0.06713755 0.17559938 -0.24836336
000290 ad e0 84 3e c6 0b 94 bd 92 3b 12 be 21 75 27 be
       0.25952664 -0.07228808 -0.14280537 -0.16353275
0002a0 c3 ed 3a 3e d5 f1 d2 35 6a 1f 19 be 42 91 63 3e
       0.18254761 1.5716602e-06 -0.1495339 0.2222338
0002b0 fe b7 6d be 7b 54 40 bd 1d ee b5 3d 73 72 bd 3d
       -0.23214719 -0.046955567 0.08883307 0.09250345
0002c0 eb 99 af 3d 41 23 0d be 96 88 e3 3d 23 3b 4a be
       0.085742794 -0.1378298 0.11110036 -0.19749121
0002d0 76 7e 34 3c 67 fd a0 bd 55 d3 70 be ea d2 a5 3e
       0.011016479 -0.07860833 -0.23518117 0.32387477
0002e0 61 3c c0 29 d6 cd 3b 3e eb 60 4b be b5 8f 51 3e
       8.536987e-14 0.18340239 -0.1986119 0.20464976
0002f0 a6 e1 5a bd c8 03 ac 3d 03 18 70 3e 27 62 2f b6
       -0.05343785 0.08399159 0.2344666 -2.6134164e-06
000300 0a 6c 38 be db f3 45 3e d4 45 14 3e 24 9e 9c 3e
       -0.18009964 0.19331305 0.14479762 0.30589402
000310 93 c5 20 be d2 77 8b 3e 83 de 03 3e d3 44 0a 3d
       -0.15700369 0.27239853 0.1287785 0.033757042
000320 cc 8c 0f 3d 6d db a4 34 77 c7 52 3e 8d f5 48 be
       0.035046384 3.0707034e-07 0.20583902 -0.1962492
000330 92 5e a8 3e e3 41 b2 3d 02 15 84 3d 39 8c cc bd
       0.3288465 0.08703973 0.064493194 -0.09987683
000340 8f 15 d6 bd 90 1b 03 be c2 0f 94 3d 15 b8 4c bd
       -0.10453331 -0.12803483 0.07229568 -0.04998024
000350 9c b6 a6 3b d2 ab 66 3d e6 e6 a9 3e ea b2 4f bd
       0.0050876867 0.056316204 0.33183974 -0.050707735
000360 96 f6 f5 2d 07 da 13 bd a9 8c 62 3d 73 55 18 be
       2.7962781e-11 -0.0360966 0.055309925 -0.14876346
000370 ea ca 39 be 5a 30 44 3e ac 96 42 3d a7 dc 3a b8
       -0.18143812 0.1915907 0.047506973 -4.4551354e-05
000380 63 68 5e be ec 82 1a 3e 49 d3 32 3b 40 96 98 3d
       -0.21719508 0.15089005 0.002728658 0.07450533
000390 25 78 0a be c0 14 ae 39 5c 62 aa 3c 55 22 06 3e
       -0.13522394 0.00033203326 0.020798855 0.13099034
0003a0 aa b0 6c 3d 48 e5 9a 34 06 eb 32 3e b5 fa 05 be
       0.057785667 2.885156e-07 0.17472467 -0.13083918
0003b0 1e dc 98 3e a7 9f 81 3e 65 51 17 bc 65 e5 91 3d
       0.29855436 0.25317118 -0.009235715 0.07123832
0003c0 1c 39 cd bd fc aa 61 3d 19 1a ef bd df 8c 77 3e
       -0.100206584 0.055094704 -0.116748996 0.24174832
0003d0 c8 d2 d1 3a 03 8e 18 bd a8 7b 4d 3e 5b 4f 09 be
       0.0016008252 -0.037244808 0.20066702 -0.13409178
0003e0 47 9f 49 2f 81 bb 52 bd b8 d4 2d 3e ea 53 b9 bd
       1.833743e-10 -0.05144835 0.16975677 -0.090492085
0003f0 8d a4 6c 3d be 8c 80 3d 4f 0a fd 3d f2 43 6a 34
       0.057774115 0.062768444 0.12355482 2.1817667e-07

mlp3.bias f4 [32]
000000 1c 24 4a 3c e7 66 ac 3c 4d f5 bd bd 8c a2 f3 bb
       0.012337711 0.021045161 -0.09275303 -0.0074351486
000010 64 68 29 bc c5 35 54 bd 7c 65 d4 3d 35 21 0f 3d
       -0.01033983 -0.05180909 0.10370919 0.034943778
000020 45 76 09 3e af 29 2b bc fe 9c 9f bd 7f 41 d9 3d
       0.13424022 -0.01044695 -0.07793616 0.106081955
000030 fe a7 8d 3d ab c1 26 3d bb fc 10 3e 13 ec ae 3d
       0.069168076 0.04071204 0.14158909 0.08541121
000040 f0 b5 b1 bd ac 8e 04 3e 6a 58 44 3e 5f 9e 09 bd
       -0.0867728 0.1294505 0.19174352 -0.0335983
000050 f8 79 14 b9 b6 67 5c 3c 8a 38 92 3c 28 2f e3 3b
       -0.00014159817 0.013452461 0.017849226 0.0069331117
000060 73 c4 36 3e ea 00 44 bd 85 f2 88 3d 52 21 cc 3d
       0.17848377 -0.047852434 0.06686882 0.09967293
000070 db 71 f4 3d cd 40 04 3d 32 58 8f 3d 16 bb 94 3d
       0.11935779 0.03228836 0.06999244 0.07262246

conv3.nn.weight f4 [32, 32]
000000 30 d0 0e 3f 08 39 38 bc 1a d8 9c 3d 85 8b 05 be
       0.5578642 -0.011244066 0.076584056 -0.13041504
000010 52 bc 29 3e 55 e7 5d bd b8 46 f8 bd ca 4c cb bd
       0.16575745 -0.054175694 -0.121228635 -0.09926756
000020 80 4c 7a 3e b5 61 02 b7 49 8a 6d be 73 6c 4f 3d
       0.24443245 -7.771353e-06 -0.23197283 0.050640535
000030 c2 6e 77 be 37 c6 20 be f0 eb c0 bd 00 e8 6c 3d
       -0.24163345 -0.15700613 -0.094200015 0.05783844
000040 9e e1 92 3e 4f a3 86 3d 0a c7 e2 bc b0 e6 c4 bd
       0.28687757 0.065741174 -0.0276828 -0.09614313
000050 bb 3a 51 bb ab a3 ac 3c ca 27 13 be 52 fd a1 3d
       -0.0031925875 0.021074137 -0.14370647 0.07909645
000060 11 f2 91 38 b9 27 11 3d 20 82 1f be c2 77 f4 3d
       6.959227e-05 0.035438273 -0.15576982 0.119369045
000070 2e ff 84 3e c7 c1 11 3c 75 3d 4d 3e fe eb bb b7
       0.25975937 0.008896298 0.20042975 -2.240203e-05
000080 9c 34 0e bc 0c fc 84 3d ee 52 89 3d f0 38 bd bc
       -0.008679535 0.064933866 0.06705271 -0.023098439
000090 fa 47 49 bc bb 3f 3f bc f3 8b e0 3c 3b 5e 3e bd
       -0.012285227 -0.011672909 0.027410483 -0.046476584
0000a0 82 05 53 3d cd d6 46 b4 3a 03 7c 3c 2f 05 4e 3c
       0.051518925 -1.8518331e-07 0.015381629 0.012574478
0000b0 ab a0 7a bc 85 b8 b6 3d ea 4c bc bd 5d 6a ee 3a
       -0.015297095 0.08921913 -0.09194358 0.0018189658
0000c0 f9 a4 23 3c 27 af 0c 3e 00 11 fa 3c 67 44 96 3d
       0.009988063 0.1373869 0.030525684 0.073372655
0000d0 37 69 5e ab e3 40 13 bc b4 d6 a9 b8 c6 4a 83 bc
       -7.901626e-13 -0.008987638 -8.0985395e-05 -0.016026866
0000e0 35 77 21 28 62 bf 9c bc 0e 92 fa bb 8d e1 32 bd
       8.963144e-15 -0.019134227 -0.0076468056 -0.043672133
0000f0 a2 c7 e9 bd a6 75 c7 bd 14 c4 0a ba 8b 79 af 37
       -0.1141503 -0.097392365 -0.00052935 2.0918224e-05
000100 67 9b a1 be c0 f8 49 bd b8 b0 c3 bc b4 de a4 3e
       -0.31563875 -0.049309492 -0.023887977 0.3220116
000110 10 60 ea bc 1c ca e6 3d 0b a7 3d 3e b5 2e 68 3e
       -0.02861026 0.11269018 0.18520753 0.22674067
000120 5a db 4d 3d 64 9b 98 35 bd 14 59 3e f9 a1 95 bd
       0.050258018 1.1370107e-06 0.21199317 -0.073062845
000130 5b b0 70 3e fe dc 05 3e 6e fc e5 3d 5d 97 95 bc
       0.23504774 0.13072583 0.11229788 -0.018260652
000140 f1 dc 84 bd 82 44 0b be bb b0 50 3e e4 85 01 3e
       -0.06487454 -0.13600352 0.20379917 0.12648731
000150 78 64 86 3b 38 20 e8 3d 6c 4c 10 3e 5a 34 c9 bd
       0.0041013323 0.1133427 0.14091653 -0.098244384
000160 30 46 23 29 7a 86 9e 3b 79 52 71 3e f9 bc 02 3e
       3.625415e-14 0.004837808 0.23566617 0.127674
000170 ef 1f 5e be 69 59 3f 3d 86 61 ef bc 13 45 08 35
       -0.21691869 0.046716128 -0.029221307 5.0764464e-07
000180 fa 5e 05 3f 00 5e 9f bd 7c 14 54 3e 53 cd 5f be
       0.5209805 -0.07781601 0.20710939 -0.21855669
000190 b8 d5 5c 3e fd c3 74 be f6 b1 32 be 2b 05 91 be
       0.21565902 -0.23902889 -0.17450699 -0.28324255
0001a0 60 80 63 3e 1e 18 08 b7 9a 55 79 bd fe 78 d7 3d
       0.2221694 -8.111847e-06 -0.06087265 0.10521124
0001b0 9e 16 8d be 10 c7 9a be 22 42 a4 bd a0 07 53 3e
       -0.27556318 -0.30229998 -0.08020426 0.20608377
0001c0 0b eb 45 3e 51 b4 88 bd 33 95 ce bd a9 cf fe bd
       0.19327943 -0.066750176 -0.10087051 -0.12441952
0001d0 5b 2d c3 bc 1f 73 45 be 06 e1 11 be 4d dc 59 3e
       -0.023825338 -0.19282196 -0.14245996 0.21275444
0001e0 e3 36 3d 38 b0 d6 27 3e 5f b5 79 be ee 41 e0 3d
       4.511223e-05 0.1639049 -0.24385594 0.10950075
0001f0 dd 3c 5d 3e 63 c3 17 3e 02 73 08 bd f1 2e d7 b5
       0.21605249 0.14820628 -0.033312805 -1.603241e-06
000200 d9 96 16 34 df 1d 30 bb c1 77 db bb fc af a1 bb
       1.4024717e-07 -0.0026873273 -0.0066976254 -0.004934309
000210 79 cf 84 bb 5e 8a 2e bb ba 82 ab bb 74 69 3f 3b
       -0.004053053 -0.0026632766 -0.0052340897 0.0029207142
000220 8b 49 a5 bc 11 74 60 36 1b f3 0b 39 a4 75 d8 bb
       -0.02017667 3.344616e-06 0.00013346637 -0.0066058207
000230 8e ed 38 3a c0 b7 de 3a 2c 15 67 bc 8b 16 1e 3b
       0.00070544414 0.0016992018 -0.014104169 0.0024122323
000240 07 69 6b ba 61 6b 21 bc 7f 48 ac bc 5f 2c 0d bb
       -0.0008980189 -0.009852261 -0.021030663 -0.002154134
000250 96 99 c8 ac 3b 3a fc bb 98 ac 01 bc fa 5e 29 bb
       -5.7013934e-12 -0.0076973713 -0.007914685 -0.0025843964
000260 ea 98 1e a8 80 82 43 39 b4 d2 4d 3a 08 df bf bb
       -8.80392e-15 0.00018645264 0.00078515266 -0.005855445
000270 9a 60 95 3b b9 d2 b4 bc cf 42 c1 bb 71 67 a6 2f
       0.004558635 -0.022073137 -0.005897857 3.0268724e-10
000280 4a 34 0b 3f 69 7f 89 3d 53 d0 33 3e f7 52 7e be
       0.5437666 0.06713755 0.17559938 -0.24836336
000290 ad e0 84 3e c6 0b 94 bd 92 3b 12 be 21 75 27 be
       0.25952664 -0.07228808 -0.14280537 -0.16353275
0002a0 c3 ed 3a 3e d5 f1 d2 35 6a 1f 19 be 42 91 63 3e
       0.18254761 1.5716602e-06 -0.1495339 0.2222338
0002b0 fe b7 6d be 7b 54 40 bd 1d ee b5 3d 73 72 bd 3d
       -0.23214719 -0.046955567 0.08883307 0.09250345
0002c0 eb 99 af 3d 41 23 0d be 96 88 e3 3d 23 3b 4a be
       0.085742794 -0.1378298 0.11110036 -0.19749121
0002d0 76 7e 34 3c 67 fd a0 bd 55 d3 70 be ea d2 a5 3e
       0.011016479 -0.07860833 -0.23518117 0.32387477
0002e0 61 3c c0 29 d6 cd 3b 3e eb 60 4b be b5 8f 51 3e
       8.536987e-14 0.18340239 -0.1986119 0.20464976
0002f0 a6 e1 5a bd c8 03 ac 3d 03 18 70 3e 27 62 2f b6
       -0.05343785 0.08399159 0.2344666 -2.6134164e-06
000300 0a 6c 38 be db f3 45 3e d4 45 14 3e 24 9e 9c 3e
       -0.18009964 0.19331305 0.14479762 0.30589402
000310 93 c5 20 be d2 77 8b 3e 83 de 03 3e d3 44 0a 3d
       -0.15700369 0.27239853 0.1287785 0.033757042
000320 cc 8c 0f 3d 6d db a4 34 77 c7 52 3e 8d f5 48 be
       0.035046384 3.0707034e-07 0.20583902 -0.1962492
000330 92 5e a8 3e e3 41 b2 3d 02 15 84 3d 39 8c cc bd
       0.3288465 0.08703973 0.064493194 -0.09987683
000340 8f 15 d6 bd 90 1b 03 be c2 0f 94 3d 15 b8 4c bd
       -0.10453331 -0.12803483 0.07229568 -0.04998024
000350 9c b6 a6 3b d2 ab 66 3d e6 e6 a9 3e ea b2 4f bd
       0.0050876867 0.056316204 0.33183974 -0.050707735
000360 96 f6 f5 2d 07 da 13 bd a9 8c 62 3d 73 55 18 be
       2.7962781e-11 -0.0360966 0.055309925 -0.14876346
000370 ea ca 39 be 5a 30 44 3e ac 96 42 3d a7 dc 3a b8
       -0.18143812 0.1915907 0.047506973 -4.4551354e-05
000380 63 68 5e be ec 82 1a 3e 49 d3 32 3b 40 96 98 3d
       -0.21719508 0.15089005 0.002728658 0.07450533
000390 25 78 0a be c0 14 ae 39 5c 62 aa 3c 55 22 06 3e
       -0.13522394 0.00033203326 0.020798855 0.13099034
0003a0 aa b0 6c 3d 48 e5 9a 34 06 eb 32 3e b5 fa 05 be
       0.057785667 2.885156e-07 0.17472467 -0.13083918
0003b0 1e dc 98 3e a7 9f 81 3e 65 51 17 bc 65 e5 91 3d
       0.29855436 0.25317118 -0.009235715 0.07123832
0003c0 1c 39 cd bd fc aa 61 3d 19 1a ef bd df 8c 77 3e
       -0.100206584 0.055094704 -0.116748996 0.24174832
0003d0 c8 d2 d1 3a 03 8e 18 bd a8 7b 4d 3e 5b 4f 09 be
       0.0016008252 -0.037244808 0.20066702 -0.13409178
0003e0 47 9f 49 2f 81 bb 52 bd b8 d4 2d 3e ea 53 b9 bd
       1.833743e-10 -0.05144835 0.16975677 -0.090492085
0003f0 8d a4 6c 3d be 8c 80 3d 4f 0a fd 3d f2 43 6a 34
       0.057774115 0.062768444 0.12355482 2.1817667e-07

conv3.nn.bias f4 [32]
000000 1c 24 4a 3c e7 66 ac 3c 4d f5 bd bd 8c a2 f3 bb
       0.012337711 0.021045161 -0.09275303 -0.0074351486
000010 64 68 29 bc c5 35 54 bd 7c 65 d4 3d 35 21 0f 3d
       -0.01033983 -0.05180909 0.10370919 0.034943778
000020 45 76 09 3e af 29 2b bc fe 9c 9f bd 7f 41 d9 3d
       0.13424022 -0.01044695 -0.07793616 0.106081955
000030 fe a7 8d 3d ab c1 26 3d bb fc 10 3e 13 ec ae 3d
       0.069168076 0.04071204 0.14158909 0.08541121
000040 f0 b5 b1 bd ac 8e 04 3e 6a 58 44 3e 5f 9e 09 bd
       -0.0867728 0.1294505 0.19174352 -0.0335983
000050 f8 79 14 b9 b6 67 5c 3c 8a 38 92 3c 28 2f e3 3b
       -0.00014159817 0.013452461 0.017849226 0.0069331117
000060 73 c4 36 3e ea 00 44 bd 85 f2 88 3d 52 21 cc 3d
       0.17848377 -0.047852434 0.06686882 0.09967293
000070 db 71 f4 3d cd 40 04 3d 32 58 8f 3d 16 bb 94 3d
       0.11935779 0.03228836 0.06999244 0.07262246

lin.weight f4 [2, 32]
000000 ec 8e be be 19 88 fa bd 12 f4 5e 3e fc 1e c3 be
       -0.37218416 -0.1223299 0.21772793 -0.38109577
000010 be d1 2f bc 8d 81 92 be 16 56 09 3e 1f 60 61 3d
       -0.010731159 -0.28614464 0.13411745 0.05502331
000020 fe 30 da bb ff 50 b8 be c7 19 91 be 90 d2 2a 3e
       -0.0066586724 -0.35999295 -0.2833998 0.16681886
000030 fa 79 39 3e d1 4d ec 3d 3f 03 42 3e 08 82 25 3e
       0.18112937 0.1153828 0.18946551 0.16162884
000040 85 37 8b bd a3 7e 2e bd 23 33 9b be 43 18 62 3d
       -0.06797699 -0.04260124 -0.30312452 0.05519892
000050 57 34 82 36 04 ce 22 3e 4d 5f c3 bd 17 57 80 be
       3.880395e-06 0.15898901 -0.095396616 -0.25066444
000060 04 ed 0b 3d 49 e3 9c be 5d 75 a8 be 26 7e 70 be
       0.034161583 -0.30642155 -0.3290204 -0.23485622
000070 26 f6 70 3e e4 77 a5 be 3f f2 80 3d 1c 15 05 3e
       0.23531398 -0.32318032 0.06296205 0.12996334
000080 e4 5b e5 3d 59 64 90 bd 65 99 69 be bc 18 03 3e
       0.11199167 -0.0705039 -0.22812422 0.12802404
000090 16 00 3b 3c bf 95 9b 3e b5 10 48 be 69 53 24 be
       0.011413595 0.30387685 -0.19537623 -0.16047443
0000a0 07 8b 81 3e 82 ba bd 3e a3 62 d5 3d 95 70 05 be
       0.25301382 0.37056357 0.10419204 -0.13031228
0000b0 fa 2c fa 3c c2 aa f1 bd 1c 18 36 be ce f3 70 be
       0.030539025 -0.118001476 -0.17782634 -0.23530504
0000c0 a6 bd 89 be 89 8a 29 3e f8 e6 a8 3d 01 5f 52 be
       -0.26902503 0.16556753 0.08247179 -0.20544054
0000d0 9a 55 1b 38 27 20 91 be 87 38 86 3e d1 e2 9a 3e
       3.7034602e-05 -0.28344843 0.26215002 0.30251172
0000e0 38 00 5e be 83 3a 36 3e 5b 27 9f 3e 55 10 4b 3e
       -0.21679771 0.17795758 0.31084713 0.19830449
0000f0 b0 9a ef bd 1f c0 89 3e 04 1e 19 be c0 59 c6 ba
       -0.11699426 0.2690439 -0.14952856 -0.0015132949

lin.bias f4 [2]
000000 b0 cc f8 bd 2e 85 52 bd
       -0.12148416 -0.05139654
