formal/realworld/JKNET_mutag.pth (torch, 44040 bytes, 25 tensors)

jknet.module_0.lin_l.weight f4 [32, 14]
0	0x3e101b8b	0.14073007
1	0xbe07e3bd	-0.13270469
2	0xbe5b98c4	-0.21444994
3	0x3c26ff78	0.010192744
4	0xbe4d0736	-0.20022282
5	0x3d89c31e	0.06726669
6	0xbdb8fda6	-0.090327546
7	0x3d2cb3e3	0.04216374
8	0xbdba75df	-0.091045134
9	0x3d12272b	0.035681885
10	0xbe0eed5b	-0.13957731
11	0x392814ce	0.00016029479
12	0x3c947bc4	0.018125422
13	0xbe214c34	-0.15751725
14	0xbe6499cb	-0.22324292
15	0xbbb6e39c	-0.0055813324
16	0x3e76a6a8	0.24087012
17	0x3d6ca7c7	0.057777192
18	0x3e72cd82	0.23711208
19	0xbdd33227	-0.103123
20	0xbe19a535	-0.15004428
21	0xbddd3ace	-0.10802232
22	0x3de4a298	0.11163825
23	0x3cf5f3e9	0.030023532
24	0x3c84d4b5	0.016214708
25	0x3d07caf7	0.033152547
26	0xbdb00312	-0.085943356
27	0xbd113f7f	-0.035460945
28	0x3dfc4850	0.1231848
29	0x3e2ccfa2	0.1687608
30	0x3e77d4ef	0.24202321
31	0xbb9cfbb9	-0.00479075
32	0xbe1325df	-0.14369915
33	0x3e15ec8b	0.14641015
34	0xbc3ee312	-0.0116508175
35	0x3dcef0de	0.101045355
36	0xbe3f043d	-0.1865396
37	0xbd67e550	-0.056615174
38	0x39833052	0.00025022269
39	0x3d8fc978	0.07020849
40	0xbbb5bc0c	-0.0055460986
41	0xbbc283fc	-0.005936144
42	0xbdbcef07	-0.09225278
43	0x3e018183	0.12647061
44	0xbc9d461a	-0.019198466
45	0x3d64e4e6	0.055882357
46	0xbd9c0193	-0.07617488
47	0xbd69d428	-0.057087094
48	0x3c55737d	0.013028023
49	0xbdd73316	-0.10507791
50	0x3e549ad4	0.20762187
51	0xbdd4758c	-0.10373983
52	0xbd8d7ded	-0.06908784
53	0x3d15d1db	0.036577087
54	0x3d8953ca	0.067054346
55	0x378f1a3c	1.7059145e-05
56	0x3e026ab8	0.12736022
57	0x3e1acc39	0.15116967
58	0x3e141994	0.14462882
59	0xbd8c6abf	-0.06856298
60	0xbd687b75	-0.056758363
61	0x3e375b0e	0.17905828
62	0xbe6a49dd	-0.22879739
63	0xbd8d54d0	-0.06900942
64	0xbb2d77bb	-0.002646907
65	0xbe0b4a96	-0.13602671
66	0x39184f34	0.00014525355
67	0x3dc63529	0.09678108
68	0x3da4d455	0.080483116
69	0x3da4d383	0.08048155
70	0xbea4ed82	-0.32212454
71	0x3d33ef8e	0.04392963
72	0x3d341ac6	0.043970846
73	0xb9e4d4bd	-0.0004364605
74	0xbdc12410	-0.094307065
75	0xbcd31956	-0.025768917
76	0x3e0f5148	0.1399585
77	0xbe40b4cf	-0.18818973
78	0xbe061597	-0.13094173
79	0x3cd1f2c3	0.025628453
80	0x3d6d7641	0.057974104
81	0xbde709af	-0.11281144
82	0xbcb02216	-0.021500628
83	0xbdb02804	-0.086013824
84	0xbe5e2758	-0.21694696
85	0x3e03f333	0.12885742
86	0x3d5196da	0.051169254
87	0x3e7b5fa7	0.24548207
88	0xbdf12f3b	-0.117765866
89	0xbd79b9dc	-0.060968265
90	0xbe7ea52c	-0.24867696
91	0x3e02c28d	0.12769528
92	0x3dd771cb	0.10519751
93	0xbe77a43a	-0.24183741
94	0xbcf4d3ec	-0.029886208
95	0x3b494595	0.003071164
96	0xbdce0d73	-0.10061159
97	0x3d6c6429	0.057712708
98	0xbd8144a2	-0.06311919
99	0xbe24f7d8	-0.1611017
100	0x3d120043	0.03564478
101	0xbe4fe239	-0.20301141
102	0xbe71be72	-0.23607805
103	0x3b5ff430	0.0034172647
104	0x3dbfcdc9	0.09365422
105	0x3dbe0fda	0.09280367
106	0x3c1659a9	0.00917665
107	0x3d55821a	0.052126028
108	0x37f44b5d	2.912216e-05
109	0xbc062a41	-0.008188785
110	0xbd36b83b	-0.04460929
111	0x3d8b62ed	0.06805978
112	0xbe561940	-0.2090807
113	0xbe08cbde	-0.13359019
114	0xbddc2287	-0.10748773
115	0x3e83da4f	0.25752494
116	0x3d3ae2f0	0.04562658
117	0x3d8c2dc8	0.068446696
118	0x3d324aea	0.043528475
119	0xbe5be11e	-0.21472594
120	0x3e0d79a0	0.13815928
121	0x3cf49d1b	0.02986007
122	0x37d584c4	2.5453402e-05
123	0xb71fc61a	-9.523263e-06
124	0xbdbd2175	-0.09234897
125	0x3da3a743	0.07990887
126	0xbd0e1bef	-0.03469461
127	0xbe68e359	-0.22742976
128	0x3e841114	0.2579428
129	0x3c589fb8	0.013221674
130	0xbe397049	-0.1810924
131	0xbdb441c9	-0.0880161
132	0xbe3c42a3	-0.18384795
133	0xbde5735a	-0.11203642
134	0xbe11924c	-0.14215964
135	0xbc8b9cc3	-0.017042523
136	0xbd9ffc7d	-0.0781183
137	0xb9872f06	-0.00025784242
138	0x3e179c2d	0.1480567
139	0x3bbfd970	0.005854778
140	0x3e3a4ff0	0.18194556
141	0x3ccbdc6e	0.024885383
142	0x3e1aea0d	0.15128346
143	0xbdb9a68e	-0.09064971
144	0xbe759289	-0.2398168
145	0xbe373e0c	-0.17894763
146	0x3d80a21a	0.062809184
147	0x3e30b44c	0.17256278
148	0x3e729c12	0.23692349
149	0x3e08bb09	0.13352598
150	0xb49b9940	-2.8982504e-07
151	0xb88e08a6	-6.7726985e-05
152	0x3da269ff	0.079303734
153	0x3ad7ee8a	0.0016474288
154	0x3e28610c	0.1644327
155	0x3ddf2355	0.10895411
156	0xbe8a1c8e	-0.2697491
157	0xbcb85f56	-0.022506397
158	0xbd6f8002	-0.058471687
159	0x3df9ddb4	0.1220049
160	0xbe894cd8	-0.2681644
161	0xbcca20fe	-0.024673935
162	0xbe0fa601	-0.14028169
163	0xbdac8910	-0.0842458
164	0x35a690a6	1.2410062e-06
165	0x3d82aa90	0.063801885
166	0x3d285dbb	0.041105013
167	0xbd384a3f	-0.04499268
168	0xbea38411	-0.31936696
169	0x3dafa799	0.085768886
170	0xbb89a25c	-0.004200263
171	0x3cf2abd3	0.029622948
172	0x3e760852	0.24026611
173	0xbe24dbee	-0.16099522
174	0x3e37bdf4	0.17943555
175	0x3d86aab1	0.065755256
176	0xbd452476	-0.048130475
177	0xbd049863	-0.03237189
178	0xb97c9b91	-0.00024090546
179	0x3e15fd8e	0.14647505
180	0x3d478309	0.04870895
181	0xb8358daf	-4.3285716e-05
182	0xbdf1991e	-0.11796783
183	0x3e5f21f2	0.21790293
184	0xbe7bda32	-0.24594954
185	0xbdd3f4dd	-0.10349438
186	0xbd9cc751	-0.07655204
187	0x3dc14c2a	0.09438355
188	0x3e0db901	0.13840105
189	0xbe3373bd	-0.1752462
190	0x3e4021a3	0.18762831
191	0xbe39ec68	-0.18156588
192	0xbd44a525	-0.048009057
193	0x3d9dfd50	0.07714331
194	0xb78328ff	-1.5635507e-05
195	0x3c35e123	0.01110104
196	0x3d6b6ed6	0.05747875
197	0xbe700331	-0.23438717
198	0x3e6f9fa9	0.2340075
199	0x3e68c0d1	0.22729804
200	0xbd625439	-0.055256102
201	0xbdc1ac62	-0.094567075
202	0x3d52b9d6	0.05144676
203	0x3da3a3ff	0.07990264
204	0xbe46b216	-0.19403872
205	0x3e30d73b	0.17269604
206	0xb90e96d1	-0.00013598359
207	0xbd76cc7c	-0.060253605
208	0x3682e74c	3.9012284e-06
209	0xb700e135	-7.68183e-06
210	0x3e919534	0.28434145
211	0xbd4568d0	-0.04819566
212	0x3cd7c01d	0.026336724
213	0x3d8b7148	0.06808716
214	0xbe2f9526	-0.1714674
215	0x3d34e655	0.044164974
216	0x3e0954d4	0.13411266
217	0xbe38f9fe	-0.18064114
218	0xbdb92390	-0.09039986
219	0x3dc9134c	0.09818134
220	0xbe081add	-0.13291498
221	0xbe183349	-0.14863314
222	0xb83f7945	-4.565089e-05
223	0x3d36f280	0.04466486
224	0xbdafde9e	-0.08587383
225	0x3e17ba67	0.148172
226	0xbdb4fe9a	-0.08837624
227	0x3e39adda	0.18132725
228	0xbe7a73db	-0.24458258
229	0xbdb6fa84	-0.08934501
230	0x3a178bba	0.0005781014
231	0xbe29ddd3	-0.16588525
232	0x3d442b5c	0.047892913
233	0x3dad2b80	0.084555626
234	0x3cceccac	0.02524408
235	0xbcf53e36	-0.029936891
236	0xba462025	-0.00075578905
237	0x3b5d7b9b	0.0033795598
238	0x3da629c9	0.08113439
239	0xbe4a8489	-0.1977712
240	0x3e4e00ca	0.20117489
241	0xbe737b5f	-0.23777531
242	0xbcfd4562	-0.030916873
243	0x3e1a515c	0.15070099
244	0xbd214b5e	-0.039378516
245	0x3d224371	0.0396151
246	0x3e0430d8	0.12909257
247	0x3d2abfaa	0.04168669
248	0x3b9655a0	0.004587844
249	0xbd334e1e	-0.04377567
250	0x3da1d2d2	0.07901539
251	0x3da3261c	0.07966253
252	0x3e67b325	0.22626932
253	0xbdba274c	-0.090895265
254	0x3dae9608	0.0852471
255	0xbe2fea20	-0.17179155

jknet.module_0.lin_l.bias f4 [32]
0	0xbde8bb72	-0.11363877
1	0xb9ad2433	-0.00033024102
2	0x3828a1cd	4.020501e-05
3	0xbd82c50c	-0.0638524
4	0xbdf63a29	-0.12022812
5	0xb9a4008e	-0.0003128093
6	0xba9668f9	-0.0011475376
7	0xbc5dea9b	-0.013544704
8	0xbe1d2fc7	-0.15350257
9	0xbda925a5	-0.08259133
10	0xbd66703d	-0.056259383
11	0xbd538baa	-0.051646866
12	0xbe17ae86	-0.14812669
13	0xbc0ff605	-0.008786683
14	0x3d86374d	0.065535165
15	0x383f92db	4.567472e-05
16	0x3e1617bf	0.14657496
17	0xbbb07864	-0.0053854454
18	0x3cfd60cc	0.030929945
19	0x3dc75264	0.09732512
20	0xb827ef9c	-4.0039056e-05
21	0x3894f9f3	7.1037466e-05
22	0xbb760bbd	-0.0037543618
23	0x3ad17cf5	0.0015982675
24	0xbccf385b	-0.025295427
25	0x3d964260	0.07336879
26	0xba06c5ef	-0.0005141189
27	0x3e1be844	0.15225321
28	0x3dd45d94	0.10369411
29	0x3c5bf520	0.013425142
30	0x3be9acc5	0.0071311914
31	0x3bcccf57	0.006250303

jknet.module_0.lin_r.weight f4 [32, 14]
0	0x3e1b6d33	0.15178375
1	0xbddea1f6	-0.10870735
2	0xbdc768d8	-0.09736794
3	0xbe32dc59	-0.17466868
4	0x3e4868e4	0.19571263
5	0x3e4821db	0.19544165
6	0x3d57dc9a	0.052700616
7	0x3e13c324	0.14429909
8	0x3e1938c7	0.14963065
9	0x3cd5fa95	0.026120463
10	0xbb2ccbdb	-0.0026366625
11	0x3baf7327	0.0053543034
12	0x391bf199	0.00014871954
13	0x37a7756b	1.9962628e-05
14	0xbe42d73f	-0.19027422
15	0x3e088135	0.13330539
16	0xbd666454	-0.056248024
17	0x3e468d2a	0.19389787
18	0x3e27b179	0.16376294
19	0x3e7fa88f	0.24966644
20	0xbd9be217	-0.076114826
21	0x3e4353bb	0.1907491
22	0x3e1c0dda	0.15239659
23	0x3d41d5ce	0.04732304
24	0x3d6c1993	0.057641577
25	0x3dea9ff8	0.11456293
26	0x3dac7bb3	0.08422031
27	0x3e154905	0.14578636
28	0x3e4d4423	0.20045523
29	0xbd1c4058	-0.0381473
30	0x3e1c099f	0.15238045
31	0xbe480537	-0.1953324
32	0x3ddfa44c	0.10920009
33	0x3cb69ec4	0.022292502
34	0x3d367be2	0.044551738
35	0x3e3dc215	0.18531068
36	0x3e0dd42e	0.13850471
37	0x3e3d3449	0.18476976
38	0xb7ac6d54	-2.0554908e-05
39	0x3de43078	0.11142057
40	0xbd76bff7	-0.060241666
41	0xbb37f330	-0.0028068535
42	0xbe0b6b95	-0.13615258
43	0xbe2d6f29	-0.16936935
44	0xbd05740d	-0.032581378
45	0xbc84a141	-0.016190173
46	0x3d6b783d	0.057487715
47	0xbdce09cc	-0.10060462
48	0x3d988834	0.07447854
49	0xbe84fc18	-0.25973582
50	0xbe4d41f9	-0.20044698
51	0x3e563a66	0.20920715
52	0x3d453f8a	0.0481563
53	0x3d358b65	0.04432239
54	0xbdcce074	-0.100037485
55	0xbdc84e18	-0.0978052
56	0x3e2b30c4	0.16717821
57	0x3d05d8d2	0.03267748
58	0x3dbd2507	0.09235578
59	0x3cbb8b97	0.02289371
60	0x3dd9ac13	0.10628524
61	0x3e5ed2ea	0.21760145
62	0xbd802a19	-0.062580295
63	0x3e322e64	0.17400509
64	0xbe16a441	-0.14711095
65	0xbdcb8138	-0.09936756
66	0x3dbd9b02	0.09258081
67	0xbbf2a6ad	-0.007405123
68	0x3d208ba5	0.039195675
69	0x3e153ce8	0.14574015
70	0xbd4ea4fe	-0.050450318
71	0x3e1cdd78	0.15318859
72	0xbe380fe5	-0.17974813
73	0xbd994d1e	-0.07485412
74	0x3e273d76	0.16332039
75	0x3d9f4ad7	0.077779464
76	0x3e9e7ddf	0.30955407
77	0xbe012aea	-0.12614027
78	0x3e0b447d	0.13600345
79	0xbc8ddbcf	-0.017316727
80	0x3e0fb3b6	0.14033398
81	0x3d87802c	0.06616244
82	0x3dc7ffba	0.09765573
83	0xbdb0fa07	-0.08641439
84	0x3e37d2cf	0.17951511
85	0x3cc9916d	0.024605477
86	0xbe1e991c	-0.15488094
87	0xbde08e66	-0.1096466
88	0x3e7eed57	0.24895225
89	0xbbdc8a91	-0.0067303856
90	0xbe1de75f	-0.15420292
91	0xbb27cc42	-0.0025603925
92	0x3e04cbf6	0.1296843
93	0x3cfc06b3	0.030764913
94	0xbd5fe8da	-0.054665424
95	0x3dc1cd59	0.09462995
96	0x392e88be	0.00016644874
97	0x3d82b205	0.06381611
98	0xbd4a7184	-0.049424663
99	0x3dfaa86a	0.12239154
100	0x3e82923b	0.2550219
101	0x3e12e82f	0.14346384
102	0xbd970efe	-0.073759064
103	0xbd59108f	-0.052994307
104	0x3e10194d	0.14072151
105	0xbe17d384	-0.1482678
106	0xbe30a784	-0.17251402
107	0xbdbb979d	-0.09159777
108	0x37b9bd0a	2.2141747e-05
109	0xbdc732eb	-0.09726509
110	0xb81d209c	-3.7462087e-05
111	0xbd22554a	-0.03963212
112	0xbdad57b7	-0.08463996
113	0xbde1c51e	-0.11023925
114	0x3db1d41f	0.08683037
115	0xbe75a71d	-0.2398953
116	0x3e38b638	0.18038261
117	0x3e1986ed	0.14992876
118	0x3daf925c	0.08572838
119	0xbd91cfdf	-0.071197264
120	0xba85716b	-0.0010180896
121	0xbcba69b0	-0.022755474
122	0xbe0a3142	-0.13495353
123	0x36f9723c	7.434077e-06
124	0xbdf2b57f	-0.11851024
125	0xbc3ab336	-0.011395266
126	0x3d6e295c	0.058144912
127	0x3dd054a9	0.10172398
128	0x3e17540d	0.14778157
129	0xbe80c874	-0.25152934
130	0x3e679646	0.22615919
131	0x3d8601e6	0.06543331
132	0xbceca912	-0.028889213
133	0x3e39aee7	0.18133126
134	0xbd7a882c	-0.06116502
135	0xbe057663	-0.13033442
136	0x38a601d0	7.9158344e-05
137	0x3d9a031c	0.07520124
138	0x3d93e006	0.072204635
139	0x37939722	1.7594142e-05
140	0xbe62fbad	-0.22166319
141	0x3cd4bddd	0.02596944
142	0xbdb008d7	-0.08595436
143	0xbe5acc50	-0.21367002
144	0xbdf57b9b	-0.119864665
145	0x3dd99afd	0.10625265
146	0x3d88da98	0.066823184
147	0x3d79eed5	0.061018784
148	0x3d187b3d	0.037226904
149	0xbe48978e	-0.19589064
150	0xbdfe2a58	-0.1241042
151	0xbe12fe7a	-0.14354888
152	0xbd20dd20	-0.03927338
153	0xbdbf3a3f	-0.093372814
154	0x3dd2c7a3	0.10291984
155	0x3d56cbea	0.05244056
156	0xbe5c8ecd	-0.21538849
157	0xbd18b483	-0.037281524
158	0xbe3bdaef	-0.18345235
159	0xbdbd4f14	-0.092435986
160	0xbe91e852	-0.2849756
161	0x3db6b3e0	0.08921027
162	0xbdba12eb	-0.090856396
163	0xbdc3fda7	-0.09569865
164	0xba8e5738	-0.0010859733
165	0xb8ffb88d	-0.00012193723
166	0x3bba66cf	0.0056885253
167	0xb88af3de	-6.6257766e-05
168	0x3ca42183	0.02003551
169	0x3e1200e0	0.14258146
170	0x3db25fef	0.08709704
171	0x3bf2f1ac	0.0074140634
172	0x3d4f4ddf	0.050611373
173	0xbe2d46a5	-0.1692148
174	0xbde65343	-0.1124635
175	0xbe302d28	-0.17204726
176	0x3e27d35c	0.16389221
177	0x3c5b36f5	0.013379802
178	0x3d896e02	0.067104355
179	0xbc2f666b	-0.010705571
180	0xbda353ac	-0.079749435
181	0x38aa5c1c	8.1233884e-05
182	0x3d372b82	0.044719227
183	0xbe15667f	-0.1458988
184	0xbc2caa6e	-0.0105386805
185	0xbdc2a09b	-0.09503289
186	0x3e551c38	0.20811546
187	0xbc557300	-0.013027906
188	0x3e62f232	0.22162703
189	0x3d8c7412	0.06858076
190	0x3e141711	0.14461924
191	0x3e426cc2	0.189868
192	0x3db0886b	0.0861977
193	0x38b7380f	8.736562e-05
194	0x37ce38c7	2.4583553e-05
195	0x3dbfa2ad	0.093572
196	0x3df9f316	0.12204568
197	0xbc809c06	-0.015699398
198	0xbe34f5b2	-0.1767185
199	0x3d6e4627	0.05817237
200	0x3ddaeced	0.10689721
201	0xbd81da07	-0.063404135
202	0x3e0e32ca	0.13886562
203	0xbdc1558f	-0.09440147
204	0x3db3de0f	0.08782589
205	0x3d993026	0.07479887
206	0xb73066a1	-1.0514313e-05
207	0xbe1878a7	-0.14889775
208	0xb87803f1	-5.913148e-05
209	0x3cd5b8f7	0.026089175
210	0xbe638e8f	-0.2222235
211	0x3d60db30	0.054896533
212	0xbcf2d162	-0.029640857
213	0xbd933e1b	-0.0718958
214	0xbe53874d	-0.20657082
215	0x3da72b41	0.08162547
216	0xbe0be3ca	-0.13661113
217	0xbd589da4	-0.052884713
218	0x3df26df0	0.11837375
219	0xbd4bcb62	-0.049754508
220	0x3d324a24	0.043527737
221	0xb8ea2687	-0.00011165166
222	0xb936e398	-0.00017441658
223	0x3d0c3e07	0.03423884
224	0x3e8cd75e	0.27508062
225	0xbc7b0687	-0.01532138
226	0xbd3f5173	-0.046708535
227	0x3e1bac10	0.15202355
228	0x3d0cc4e1	0.034367446
229	0xbd3236ec	-0.04350941
230	0xbe2bbe5d	-0.16771837
231	0x3d88f26f	0.066868655
232	0xbd5a1189	-0.05323938
233	0xbe29b239	-0.16571893
234	0xbe1238c6	-0.1427947
235	0xbd9bda9a	-0.07610054
236	0x379d1f85	1.8730536e-05
237	0x3db90538	0.090341985
238	0x3e34af2a	0.17644945
239	0xbe10745e	-0.1410689
240	0xbb079193	-0.0020686134
241	0xbdb40086	-0.08789162
242	0xbdce9d8f	-0.10088646
243	0x3e506800	0.20352173
244	0x3d1e3d9b	0.03863297
245	0xbdfba72d	-0.122877456
246	0xbe30eb90	-0.1727736
247	0xbd99b13b	-0.07504507
248	0xb72e40ec	-1.0386324e-05
249	0xbe1ee02d	-0.15515204
250	0xbe085c36	-0.13316426
251	0xb8b8a100	-8.803792e-05
252	0x3e63838e	0.22218153
253	0xbe40675a	-0.18789425
254	0xbe3a5ed3	-0.18200235
255	0xbda4ccc9	-0.08046872

jknet.module_1.module.weight f4 [32]
0	0x3f86ab49	1.0521022
1	0x3f83a935	1.0286013
2	0x3f81273f	1.0090102
3	0x3f768f7d	0.96312696
4	0x3f78924e	0.97098243
5	0x3f7acee2	0.9797193
6	0x3f7e6870	0.9937811
7	0x3f824687	1.0177773
8	0x3f733ec9	0.9501768
9	0x3f7ff36a	0.99980795
10	0x3f7010f1	0.9377585
11	0x3f821a3d	1.0164257
12	0x3f811ae6	1.0086334
13	0x3f752fff	0.9577636
14	0x3f7f6cd0	0.9977541
15	0x3f799afa	0.975021
16	0x3f805291	1.0025197
17	0x3f8089a5	1.0042006
18	0x3f79b2c1	0.9753838
19	0x3f8021b2	1.0010283
20	0x3f7551ee	0.9582814
21	0x3f8066d8	1.0031385
22	0x3f81de9c	1.014606
23	0x3f7a2054	0.9770558
24	0x3f729c1c	0.94769454
25	0x3f824af7	1.0179127
26	0x3f7cb207	0.9870915
27	0x3f801e68	1.0009279
28	0x3f7fd9cc	0.99941707
29	0x3f8415e9	1.0319186
30	0x3f83c570	1.0294628
31	0x3f7125ae	0.9419812

jknet.module_1.module.bias f4 [32]
0	0x3d87a65e	0.06623529
1	0xbc582f9e	-0.013194947
2	0x3d088b91	0.033336226
3	0xbd5d5642	-0.05403734
4	0xbd157740	-0.03649068
5	0xbd550a5a	-0.052011825
6	0x3caef203	0.021355635
7	0x3d12f7f5	0.035881
8	0x3c2ec6b7	0.0106674945
9	0x3d11d70f	0.035605486
10	0x3b8825e9	0.00415491
11	0x3bd1f077	0.0064068395
12	0x3cb4c17e	0.02206492
13	0x3cebf33c	0.028802507
14	0xbc437542	-0.011929812
15	0xbc1f6166	-0.009727811
16	0x3c4dc9e8	0.012560345
17	0x3d0bfc93	0.03417642
18	0xbb581693	-0.003297244
19	0x3ba8658c	0.0051390585
20	0xbcde4d67	-0.027136518
21	0xbcf74b66	-0.03018732
22	0x3d8ac5c4	0.06776002
23	0x3b9153c0	0.0044350326
24	0xbc01812d	-0.007904333
25	0xb9e2e131	-0.0004327386
26	0x3ce5af1b	0.028037598
27	0xbcb7906c	-0.022407733
28	0x3cd30c1f	0.025762616
29	0x3d22cb89	0.039744888
30	0x3d1ce563	0.038304698
31	0xbd8e04af	-0.06934487

jknet.module_1.module.running_mean f4 [32]
0	0xbd292217	-0.041292276
1	0xbe087e73	-0.13329487
2	0x3ddc7924	0.10765293
3	0xbe59bd62	-0.2126365
4	0x3d68f689	0.05687574
5	0xbe90b880	-0.28265762
6	0xbdb9f2a5	-0.09079484
7	0xbd81babd	-0.063344456
8	0xbeda80bd	-0.42676345
9	0xbe423725	-0.18966348
10	0xbe0668a3	-0.13125853
11	0x3dabeb5f	0.08394503
12	0xbeb22f64	-0.3480178
13	0xbe03fd50	-0.128896
14	0x3e57d03c	0.21075529
15	0x3d978717	0.07398813
16	0x3e93b7fa	0.288513
17	0x3d1c7416	0.038196646
18	0x3e6c8ac8	0.23099816
19	0x3ee774e2	0.45206362
20	0x3cbacad6	0.022801798
21	0xbd33f7c3	-0.043937456
22	0xbe2159ff	-0.15756987
23	0xbd6a98c8	-0.05727461
24	0x3da32602	0.07966234
25	0xbda398dc	-0.0798814
26	0xbe863585	-0.26212707
27	0x3ec80176	0.39063615
28	0x3dab7442	0.08371784
29	0x3e364946	0.17801389
30	0xbe560490	-0.20900178
31	0x3d99f755	0.07517878

jknet.module_1.module.running_var f4 [32]
0	0x3cd006c8	0.025393859
1	0x3d08ff08	0.03344634
2	0x3d05fbac	0.032710716
3	0x3ba6039c	0.0050663482
4	0x3ba5c233	0.0050585507
5	0x3c8bc0fc	0.017059796
6	0x3d47bf15	0.048766214
7	0x3c830406	0.01599313
8	0x3ce67ecb	0.028136631
9	0x3cfbfb48	0.030759469
10	0x3c7758a0	0.015096813
11	0x3bf3f564	0.0074450243
12	0x3cb59ff0	0.02217099
13	0x3c4c5250	0.012470797
14	0x3c1485da	0.009065116
15	0x3cbc56b4	0.022990562
16	0x3c9f94d5	0.019480148
17	0x3c8241f3	0.015900588
18	0x3cb5eb05	0.022206793
19	0x3c75e72b	0.015008728
20	0x3cb03cf0	0.021513432
21	0x3c8110c9	0.015755074
22	0x3d0bbc01	0.03411484
23	0x3c3432d0	0.010998443
24	0x3c99c170	0.018768996
25	0x3c8fbc1d	0.017545754
26	0x3d051eae	0.03249996
27	0x3c695f77	0.014243952
28	0x3d23c5e0	0.03998363
29	0x3cceb6de	0.025233682
30	0x3c0d270b	0.008615266
31	0x3c86be43	0.016448146

jknet.module_3.lin_l.weight f4 [32, 32]
0	0x3dae528c	0.08511838
1	0x3da688a4	0.08131531
2	0xbe03295b	-0.12808745
3	0xbdb1dbe7	-0.08684521
4	0x3de3d67e	0.111248955
5	0xbd94f945	-0.07274107
6	0xbddc76af	-0.107648246
7	0xbde772d7	-0.11301201
8	0xbd5e6b82	-0.054301746
9	0x3d8b8167	0.06811791
10	0xbe05f542	-0.1308184
11	0x3dccb109	0.09994704
12	0xbcfae53b	-0.030626884
13	0xbdc88114	-0.09790245
14	0x3d3effb4	0.046630576
15	0x3c3b70dc	0.011440482
16	0xbda44fea	-0.08023055
17	0xbd89f1fb	-0.06735607
18	0x3b67e73d	0.0035385631
19	0x3e35b654	0.17745334
20	0x3e4dfe13	0.20116453
21	0xbd851172	-0.06497468
22	0x3d8d89d6	0.06911056
23	0xbda2567c	-0.07926652
24	0x3ccf03b6	0.025270324
25	0xbd18227a	-0.037142254
26	0xbb91ee6f	-0.0044534723
27	0x3d0b6161	0.034028415
28	0x3e0ccf15	0.1375087
29	0x3decbe8d	0.11559782
30	0xbdceb85d	-0.10093758
31	0xbe037935	-0.12839206
32	0xbe2ebf58	-0.1706518
33	0x3da59075	0.080841936
34	0x3dbec160	0.09314227
35	0xbb195054	-0.0023393827
36	0x3dfb2282	0.12262441
37	0xbd063e2d	-0.03277414
38	0x3cf7b834	0.030239202
39	0x3c9bdc38	0.019025907
40	0x3ddbfec4	0.10741952
41	0x3d66ddd6	0.056363903
42	0x3d2a2233	0.04153652
43	0xbe2a4edd	-0.16631646
44	0x3de1b5bd	0.11020992
45	0xbda8b337	-0.082373075
46	0xbd613b1a	-0.054988004
47	0xbda99596	-0.082804844
48	0x3afe5ebd	0.0019406896
49	0xbd2d7b60	-0.042353988
50	0x3d818ccc	0.06325683
51	0xbe129dbe	-0.14317986
52	0xbdf5efcb	-0.120086275
53	0x3e10c042	0.1413584
54	0x3dd5eaff	0.104452126
55	0xbe09ca0d	-0.13455983
56	0x3d481206	0.048845313
57	0xbdf9eec1	-0.12203742
58	0xbda05e48	-0.07830483
59	0x3d8843e8	0.06653577
60	0x3d5f4bb0	0.05451554
61	0xbc934fb4	-0.017982341
62	0x3e44a502	0.1920357
63	0x3d22d38a	0.03975252
64	0x3dddb5da	0.10825701
65	0xbcd9e121	-0.026596608
66	0xbccdeee6	-0.02513833
67	0x3e0234f9	0.1271552
68	0x3e3258f5	0.17416747
69	0xbcf3aa8a	-0.029744405
70	0x3d969e3a	0.07354398
71	0x3dc0d7cb	0.09416159
72	0x3e14f535	0.14546664
73	0xbdd0b34b	-0.101904474
74	0xbe1d8e48	-0.15386307
75	0x3d99ddef	0.075130336
76	0xbd81f44e	-0.063454255
77	0x3d1ffd56	0.03905996
78	0x3df60f67	0.120146565
79	0x3e1bdeec	0.15221757
80	0x3b145418	0.0022633132
81	0x3df60bbf	0.12013959
82	0x3e25bac9	0.16184534
83	0xbc0c9a00	-0.008581638
84	0xbe1c6e86	-0.15276536
85	0xbda2f421	-0.0795672
86	0xbe09e1c2	-0.13465026
87	0x3d9b8ea8	0.07595569
88	0x3d8856f9	0.06657214
89	0x3e37b784	0.179411
90	0xbca08496	-0.019594472
91	0xbe38a1da	-0.18030491
92	0xbd3195ab	-0.043355625
93	0x3d77bf2f	0.06048506
94	0xbd000fc0	-0.03126502
95	0x3e0327b8	0.1280812
96	0xbe5edd25	-0.21764047
97	0xbd9ebc30	-0.07750738
98	0xbd67cf6b	-0.056594294
99	0xbe238e7e	-0.15972325
100	0xbdeec3c4	-0.11658433
101	0x3c8f947c	0.017526858
102	0x3e2675a0	0.16255808
103	0x3cad35aa	0.021143753
104	0x3e2f3ac2	0.17112258
105	0x3e02606e	0.12732098
106	0xbd01b378	-0.031665295
107	0x3da8fc2c	0.08251223
108	0x3e6ccc18	0.2312473
109	0xbe21578b	-0.15756051
110	0xbb9d45b8	-0.004799571
111	0xbd8a30e2	-0.06747605
112	0x3de2a703	0.11067011
113	0xbdc7abfe	-0.09749602
114	0xbb4112f0	-0.002946075
115	0xbda0acb6	-0.07845442
116	0x3d81361a	0.06309147
117	0x3c8b5072	0.017006133
118	0xbcfefc5e	-0.031126197
119	0xbda933ae	-0.0826181
120	0x3dd53b00	0.10411644
121	0xbdab7b51	-0.0837313
122	0x3dc76cc5	0.09737543
123	0xbd5d95a3	-0.054097783
124	0x3e2022e4	0.1563831
125	0xbc2b37a3	-0.010450277
126	0x3df2cfc7	0.11856037
127	0x3e02c4ad	0.12770338
128	0x3d446700	0.04794979
129	0xbdcc1b00	-0.09966087
130	0x3dc81120	0.09768891
131	0xbe189b85	-0.14903076
132	0xbe05e906	-0.13077173
133	0x3d987c99	0.0744564
134	0xbe0c2846	-0.13687238
135	0x3dd58644	0.10426
136	0xbd8c9faf	-0.06866395
137	0x3c688f81	0.01419437
138	0xbda77057	-0.08175724
139	0x3e47d265	0.19513853
140	0xbaeaeefc	-0.0017924006
141	0x3db899aa	0.09013684
142	0x3decaa80	0.11555958
143	0xbdec1968	-0.11528283
144	0x3d47549f	0.048664685
145	0x3d8389c9	0.06422765
146	0xbd006b96	-0.031352602
147	0x3e252139	0.16125955
148	0x3e0231e1	0.1271434
149	0x3e3fb6ec	0.18722123
150	0x3d80429c	0.06262705
151	0x3df47fee	0.11938463
152	0x3e2f6be4	0.17131001
153	0xbdb71694	-0.08939853
154	0x3d604d01	0.054760937
155	0x3d19df8b	0.037566703
156	0x3dd9f859	0.10643072
157	0xbcc0973b	-0.023509612
158	0xbd4937b0	-0.049125373
159	0x3e27e9d8	0.16397798
160	0x3d2e7d3d	0.042599905
161	0xbbf0ea12	-0.007352122
162	0xbdbcb3ae	-0.09213959
163	0x3d828c53	0.06374421
164	0x3dfce2d8	0.123479545
165	0x3d447c1b	0.04796992
166	0xbdaf39bf	-0.08555936
167	0xbe13896b	-0.1440789
168	0xbdf112c1	-0.11771155
169	0xbd2dbd2e	-0.042416744
170	0xbe1896d4	-0.14901286
171	0xbc5cfff9	-0.013488763
172	0x3d37bc7e	0.044857495
173	0xbe0c6651	-0.13710906
174	0xbe37cf9f	-0.17950295
175	0x3dc459b3	0.09587421
176	0x3df82f1e	0.12118362
177	0x3ca1fd72	0.019774172
178	0x3d9690ba	0.07351823
179	0xbdae7b26	-0.085195825
180	0x3e125779	0.1429118
181	0x3e2102fa	0.15723792
182	0x3e2aef78	0.16692913
183	0xbdc5d332	-0.09659423
184	0xbdb4956a	-0.08817561
185	0xbdda24c5	-0.106515445
186	0xbdd332f2	-0.103124514
187	0x3b8c494f	0.0042812
188	0x3d80f44f	0.06296598
189	0xbe21e80d	-0.15811177
190	0xbe35f4d7	-0.1776918
191	0xbdc8d28f	-0.09805786
192	0x3de5e499	0.11225242
193	0xbe266660	-0.1624999
194	0xbcc20420	-0.023683608
195	0xbd21b64a	-0.039480485
196	0x3d9c76a1	0.07639814
197	0xbe0ed48a	-0.13948265
198	0xbcd674d7	-0.02617876
199	0x3d9d869d	0.07691691
200	0x3d25b4cb	0.04045562
201	0x3dcc16e4	0.099653035
202	0x3cc09ff4	0.023513772
203	0x3e15c31b	0.14625208
204	0xbe137438	-0.14399803
205	0x3dbe62e9	0.09296209
206	0xbddc968e	-0.107709035
207	0xbd898639	-0.06715054
208	0x3d3fd90e	0.04683786
209	0x3dbc97ee	0.09208666
210	0x3dd8dc7d	0.1058893
211	0x3dd58afc	0.104269
212	0xbdc47860	-0.09593272
213	0xbdb40bbe	-0.08791302
214	0x3e32e4c3	0.17470078
215	0xbd24dbe9	-0.040248785
216	0x3d965bc4	0.07341722
217	0x3cb8787e	0.022518393
218	0xbe224926	-0.15848216
219	0xbd308aa4	-0.043100968
220	0xbdefd6f6	-0.117109224
221	0x3c941449	0.018076079
222	0xbce69f8b	-0.028152248
223	0x3d979153	0.07400765
224	0x3de88881	0.11354161
225	0x3aa63762	0.00126813
226	0x3d908e4f	0.07058393
227	0xbe12f7a1	-0.14352275
228	0xbc389421	-0.011265785
229	0xbe0784a5	-0.13234194
230	0xbae57ec4	-0.0017509093
231	0xbdba38db	-0.090928756
232	0x3d959d43	0.07305386
233	0x3df7bd25	0.12096623
234	0xbdfb8e32	-0.12282981
235	0x3e49fb3b	0.19724743
236	0xbd568ae1	-0.05237854
237	0xbe265bba	-0.16245928
238	0xbd9f1790	-0.07768166
239	0x3d4c1901	0.049828533
240	0x3cb044b9	0.021517145
241	0x3deb377c	0.11485192
242	0x3de7f08f	0.1132518
243	0x3e2eec99	0.17082442
244	0x3e40ccbf	0.18828104
245	0x3d79bdf3	0.060972165
246	0xbe1a1d33	-0.15050201
247	0x3d77d8a4	0.06050934
248	0x3e0af7d8	0.13571107
249	0x3c787af8	0.015166037
250	0x3df4179a	0.11918564
251	0xbc58440b	-0.013199816
252	0x3e0deefa	0.13860694
253	0xbe08aecc	-0.1334793
254	0x3d9ac26c	0.07556614
255	0xbd5a61d2	-0.053315945

jknet.module_3.lin_l.bias f4 [32]
0	0xbcefe3b6	-0.029283386
1	0x3c0b604c	0.008506846
2	0x3b89fb87	0.0042108926
3	0x38c95fe0	9.602285e-05
4	0xb985bd35	-0.00025508707
5	0x3d4e1bc4	0.050319448
6	0xb96af243	-0.00022406229
7	0x3d24db97	0.04024848
8	0x3d894a33	0.067036055
9	0xbd51f376	-0.051257573
10	0xb6287a18	-2.5105019e-06
11	0xbd72f9d8	-0.0593203
12	0x3ba31fad	0.0049781413
13	0xbd8369d5	-0.0641667
14	0xbd86603d	-0.06561325
15	0xbccdf4d0	-0.02514115
16	0xb751d3e8	-1.2506709e-05
17	0xbb1ec23e	-0.0024224664
18	0xbd886ea5	-0.06661729
19	0xbcbf2fed	-0.023338282
20	0x392f8bec	0.00016741425
21	0xb845e35e	-4.7180212e-05
22	0xbd0f1810	-0.034935057
23	0x37c4e0aa	2.3469638e-05
24	0xbd08d0b8	-0.033402175
25	0xbb8adc67	-0.0042377
26	0x394c843f	0.00019504222
27	0xbd751b60	-0.05984056
28	0xbd8cb943	-0.06871273
29	0xb9768cd2	-0.00023512848
30	0xbcadfffb	-0.021240225
31	0x3c218d59	0.00986036

jknet.module_3.lin_r.weight f4 [32, 32]
0	0x3da64141	0.08117915
1	0x3da68648	0.08131081
2	0x3d2e88d9	0.042610977
3	0xbe0df54f	-0.13863109
4	0x3e268d48	0.16264832
5	0x3e0a3bc5	0.13499363
6	0x3c4b0552	0.012391405
7	0x3d813f5e	0.063109145
8	0x3dddda5e	0.10832666
9	0xbd29d08a	-0.041458644
10	0x3de8b156	0.11361949
11	0x3cc9c1b6	0.024628501
12	0x3e2224bb	0.15834324
13	0xbe267b90	-0.16258073
14	0xbbea7bf8	-0.0071558915
15	0x3cf51f4f	0.029922156
16	0xbe0b8478	-0.13624752
17	0xbdf8519c	-0.12124941
18	0x3ab3005f	0.0013656727
19	0x3d8a9a23	0.067676805
20	0x3daf93cc	0.08573112
21	0x3e1f2f29	0.15545334
22	0x3d191e28	0.037382275
23	0x3ded5adf	0.11589598
24	0x3d9688dc	0.073503226
25	0xbdfb27eb	-0.12263473
26	0x3ca68059	0.020324873
27	0x3e0d9a60	0.1382842
28	0x3d2b52da	0.04182706
29	0xbd044b46	-0.03229835
30	0xbdfa2abc	-0.12215182
31	0xbc95a103	-0.018265253
32	0xbdb4e0ba	-0.08831926
33	0x3dcd6e05	0.1003075
34	0xbe0ddccf	-0.13853763
35	0xbcf460ad	-0.029831255
36	0x3ba2e82c	0.0049715247
37	0x3deccdb6	0.11562674
38	0xbe050183	-0.12988858
39	0x3c32c933	0.010912227
40	0xbdbd353c	-0.09238669
41	0x3d46e67e	0.04855966
42	0xbd72c928	-0.05927387
43	0xbe372b02	-0.178875
44	0x3cb0b395	0.021570006
45	0xbd96666e	-0.07343756
46	0xbd484ac5	-0.04889943
47	0x3dd6d4de	0.1048982
48	0x3add3e0b	0.0016879452
49	0x3dac8709	0.084241934
50	0x3dc89658	0.09794301
51	0x3dc0f166	0.09421043
52	0x3d060bea	0.032726206
53	0x3d8b8a79	0.06813521
54	0x3d871339	0.06595463
55	0xbbb7bf1e	-0.0056074997
56	0x3d6794c7	0.05653837
57	0xbe1caab1	-0.15299489
58	0x3ddaa298	0.106755435
59	0x3e06cbf8	0.13163745
60	0x3df64621	0.12025095
61	0xbe23976e	-0.15975735
62	0xbd5cf4e5	-0.053944487
63	0x3ceff3dc	0.029291086
64	0x3e2b3727	0.16720258
65	0x3e09af9a	0.13445893
66	0x3e178486	0.14796647
67	0x3e140297	0.14454113
68	0xbdabf20f	-0.083957784
69	0xbe093727	-0.13399945
70	0xbd117067	-0.035507586
71	0x3d79a85b	0.060951572
72	0x3e010e2d	0.12603064
73	0x3e172923	0.14761786
74	0xbdef7340	-0.11691904
75	0xbc07eb16	-0.008295795
76	0x3ae20e6c	0.001724673
77	0xbdfe3d0c	-0.124139875
78	0xbdbb1809	-0.09135444
79	0x3d093cf3	0.03350539
80	0xbd1ef7e5	-0.03881063
81	0xbdf1847f	-0.1179285
82	0xbe01b280	-0.12665749
83	0x3e01bee6	0.12670478
84	0x3b24dd3a	0.0025156275
85	0x3dc8d4d0	0.09806216
86	0xbd0fd3df	-0.035114165
87	0x3d93a77f	0.07209682
88	0x3c82153d	0.015879268
89	0xbdb4a92e	-0.08821331
90	0xbd2286b7	-0.039679255
91	0xbdef1bf7	-0.11675256
92	0x3d0dc5d0	0.034612477
93	0x3d0bb764	0.03411044
94	0x3e43f4e5	0.19136389
95	0x3e16206f	0.1466081
96	0xbd5d42b6	-0.0540187
97	0xbc5206ca	-0.012819001
98	0x3d56c0af	0.05242985
99	0x3d0eff16	0.034911238
100	0x3d61d03c	0.05513023
101	0x3e17378b	0.14767282
102	0xbe1436ca	-0.14474025
103	0xbde6406a	-0.11242755
104	0x3d86903f	0.065704815
105	0x3cc56e75	0.024100522
106	0x3e1e50fa	0.15460578
107	0xbdc92758	-0.09821957
108	0x3d822ae3	0.06355836
109	0xbcab9336	-0.02094422
110	0x3d7dc2b4	0.06195326
111	0x3cea9b3b	0.028638473
112	0x3dd6b263	0.10483243
113	0xbdee152e	-0.116251335
114	0x3d9c4bf5	0.07631675
115	0xbe06c27f	-0.13160132
116	0xbc5f22b8	-0.013619117
117	0xbdec7ef6	-0.115476534
118	0xbdb341c7	-0.087527804
119	0xbd8c17dd	-0.06840489
120	0xbe249d7a	-0.16075698
121	0x3dcf1abe	0.101125225
122	0xbdf57b44	-0.11986402
123	0xbd9d1c1d	-0.07671378
124	0xbdf80701	-0.12110711
125	0xbbd32278	-0.006443318
126	0xbd3d4ea5	-0.04621758
127	0xbd512732	-0.05106277
128	0x3e1f0afc	0.15531534
129	0xbd863324	-0.06552723
130	0x3dcd6030	0.10028112
131	0xbdd02ae4	-0.10164431
132	0x3e09205b	0.13391249
133	0xbd824220	-0.063602686
134	0xbe11f123	-0.14252143
135	0x3e21a6bd	0.15786262
136	0x3df94a03	0.1217232
137	0x3dd78c10	0.10524762
138	0xbda34089	-0.079712935
139	0x3d8c0c65	0.068383016
140	0x3d226c18	0.039653867
141	0x3d40dc3e	0.04708504
142	0x3df95a3e	0.121754155
143	0xbc6d7c3e	-0.014494954
144	0x3e13514d	0.14386483
145	0x3df6f176	0.12057774
146	0xbd07aff6	-0.033126794
147	0xbd2204bb	-0.039555293
148	0x3deb1856	0.11479251
149	0xbdde4898	-0.1085369
150	0x3d9930c9	0.07480008
151	0xbcc0e337	-0.023545844
152	0x3d1f5304	0.03889753
153	0x3db68270	0.08911598
154	0xbdf9fab7	-0.12206023
155	0xbdd48906	-0.10377698
156	0x3dd6f821	0.104965456
157	0xbdccf464	-0.10007551
158	0xbc12827f	-0.0089422455
159	0xbd060734	-0.032721713
160	0x3d021c2f	0.03176516
161	0x3da39bd3	0.079887055
162	0x3e0a07d8	0.13479555
163	0xbdd4a35b	-0.1038272
164	0x3e275045	0.16339214
165	0xbe01743d	-0.12641998
166	0xbcd1b0d9	-0.025597023
167	0x3e082b8b	0.1329786
168	0x3d3de1e1	0.046357993
169	0x3de51016	0.11184709
170	0x3c8687e1	0.016422214
171	0x3d02a51e	0.03189575
172	0x3d1f00ba	0.038819052
173	0x3e2d571a	0.16927758
174	0xbdedec2c	-0.11617312
175	0x3cf1c964	0.029514976
176	0x3c4e4966	0.012590742
177	0xbc998aae	-0.018742885
178	0xbca9c9aa	-0.020726044
179	0x3e289e4c	0.16466635
180	0xbd084f84	-0.033278957
181	0xbdc92593	-0.0982162
182	0x3db44f1c	0.088041514
183	0xbcaf48af	-0.021396963
184	0xbe1b35ef	-0.15157293
185	0xbc061d1f	-0.008185654
186	0x3db36e30	0.08761251
187	0x3d3d9ead	0.046293903
188	0xbddfaefd	-0.10922048
189	0x3d84634a	0.064642504
190	0xbe318ca6	-0.1733881
191	0x3e14b692	0.1452277
192	0xbdfe4da9	-0.12417156
193	0x3df14f90	0.117827535
194	0x3befe6b9	0.0073212055
195	0xbdb63b4c	-0.08898029
196	0x3b75293b	0.0037408608
197	0x3df6ecfa	0.120569184
198	0xbcd9f36f	-0.026605336
199	0xbe01b632	-0.12667158
200	0xbdaea6ce	-0.08527909
201	0xbd8e79c2	-0.06956817
202	0xbd8a056c	-0.067393154
203	0x39de83e2	0.000424414
204	0xbe06c73d	-0.13161941
205	0xbe13bda2	-0.14427808
206	0x3d766e10	0.060163558
207	0xbe21ae7e	-0.1578922
208	0x3d9b87fa	0.07594295
209	0xbe1275a2	-0.14302686
210	0x3da8a3a1	0.08234335
211	0x3cf91776	0.030406695
212	0x3e0cb72e	0.13741753
213	0x3e15d160	0.14630651
214	0xbd144630	-0.03619975
215	0x3d94d19e	0.07266544
216	0xbde83dc9	-0.113399096
217	0x3db6c4ad	0.08924232
218	0x3df2d339	0.11856694
219	0xbcb0684b	-0.021534106
220	0xbdec1fef	-0.11529528
221	0x3df580b9	0.119874425
222	0xbc3ad3ec	-0.011403065
223	0x3dea6e65	0.11446837
224	0xbce993d0	-0.028512865
225	0xbdf737ab	-0.12071165
226	0xbc952f44	-0.018211015
227	0x3e3dc742	0.18533042
228	0x3d82b9ff	0.06383132
229	0xbcd9d3ee	-0.026590314
230	0xbdaaae49	-0.083340235
231	0xbdfd0ec6	-0.123563334
232	0xbdeafd42	-0.11474086
233	0xbe260067	-0.16211091
234	0xbd03a163	-0.032136332
235	0x3cdae093	0.026718413
236	0x3c9d6455	0.019212881
237	0xbd111496	-0.035420023
238	0xbd48237c	-0.048861966
239	0xbdafdab0	-0.08586633
240	0xbe12a588	-0.14320958
241	0x3cb62245	0.022233138
242	0x3d92f722	0.07176043
243	0xbdafcb52	-0.08583702
244	0x3da67c5f	0.08129191
245	0xbd97e495	-0.074166454
246	0xbe3032cc	-0.17206877
247	0x3dec4375	0.11536304
248	0x3de3bc3f	0.111198895
249	0xbe068274	-0.13135701
250	0xbdec914f	-0.11551153
251	0x3e419536	0.18904576
252	0x3d43ead8	0.047831386
253	0x3d8b0b38	0.06789249
254	0xbc9405ec	-0.01806923
255	0x3debde71	0.11517037

jknet.module_4.module.weight f4 [32]
0	0x3f7e95d1	0.9944735
1	0x3f84884e	1.0354097
2	0x3f82509e	1.0180852
3	0x3f7d1cc5	0.98872024
4	0x3f814cea	1.0101597
5	0x3f80a04e	1.0048921
6	0x3f77b835	0.9676545
7	0x3f793340	0.97343826
8	0x3f6fd673	0.936866
9	0x3f7d29b1	0.9889174
10	0x3f8056be	1.0026472
11	0x3f77ce0d	0.96798784
12	0x3f7377f7	0.95104927
13	0x3f83a6ca	1.0285275
14	0x3f788e17	0.9709181
15	0x3f82131b	1.016208
16	0x3f814594	1.0099359
17	0x3f871d2a	1.0555775
18	0x3f832a91	1.0247365
19	0x3f73263f	0.94980234
20	0x3f7c29cf	0.98501295
21	0x3f870dca	1.0551083
22	0x3f7a2122	0.97706807
23	0x3f7c6ec2	0.98606503
24	0x3f6e038e	0.92974174
25	0x3f7f8c69	0.99823624
26	0x3f80d9c9	1.0066463
27	0x3f810f30	1.008276
28	0x3f702906	0.93812597
29	0x3f7c5adf	0.9857616
30	0x3f8083e0	1.0040245
31	0x3f86c8fb	1.0530084

jknet.module_4.module.bias f4 [32]
0	0x3997d2c4	0.00028957997
1	0x3b86a12f	0.00410857
2	0x3d5f951d	0.054585565
3	0x3ce24145	0.027619014
4	0x3c992cf3	0.018698191
5	0x3bf6e08e	0.007534093
6	0xbbc2a8cd	-0.005940533
7	0x3c821973	0.015881276
8	0xbd02f5b7	-0.031972613
9	0x3c4948e3	0.012285444
10	0xbceca9e0	-0.028889596
11	0x3c8f3d1d	0.017485196
12	0xbd417c89	-0.047237907
13	0x3c3cb3d0	0.01151748
14	0x3b17de3b	0.0023173231
15	0xbd092a17	-0.033487406
16	0x3d34fec3	0.044188272
17	0x3bf17065	0.007368135
18	0x3c971afb	0.018445482
19	0xbc5c9443	-0.013463083
20	0x3cee21df	0.029068885
21	0x3c25f662	0.010129543
22	0x3c0a8945	0.008455579
23	0x3c98ff1f	0.018676339
24	0xbcd3a1f8	-0.025834069
25	0x3a907c59	0.0011023387
26	0x3d500541	0.05078626
27	0x3bc3ad69	0.0059716
28	0xbc80ad4e	-0.015707638
29	0x3c9edee3	0.01939339
30	0x3b934827	0.004494685
31	0x3b521155	0.0032053788

jknet.module_4.module.running_mean f4 [32]
0	0x3e84b5e4	0.25920022
1	0x3dc2870e	0.09498416
2	0x3f0af82c	0.5428493
3	0x3e9b009d	0.30273905
4	0x3f7e7949	0.99403816
5	0x3dc70be1	0.097190626
6	0x3a46f2e9	0.0007589297
7	0x3ea66e75	0.32506147
8	0x3d8f2840	0.06990099
9	0xbe82d87a	-0.25555784
10	0x3ec0283f	0.37530705
11	0x3d80fac6	0.06297831
12	0x3cd2e47b	0.025743714
13	0xbf049be2	-0.5180036
14	0xbe258e54	-0.16167575
15	0x3edaa142	0.42701155
16	0x3ee5af52	0.4486032
17	0x3ecc908c	0.3995403
18	0xbd444713	-0.047919344
19	0x3e17be47	0.14818679
20	0x3f8d6bb3	1.1048492
21	0x3eea1862	0.45721728
22	0xbf3798ca	-0.7171751
23	0xbe3b50f5	-0.18292601
24	0x3e1be9ce	0.15225908
25	0x3ece301a	0.40271074
26	0xbe6970ac	-0.22796887
27	0x3eb9a3b3	0.36257705
28	0xbdedcdb4	-0.116115004
29	0x3d04d49a	0.032429315
30	0xbeffacfc	-0.49936664
31	0xbdedcf0a	-0.11611755

jknet.module_4.module.running_var f4 [32]
0	0x3dea3fa4	0.1143792
1	0x3d3b9fa7	0.045806553
2	0x3e0c81dd	0.13721414
3	0x3f1f9ff9	0.62353474
4	0x3eaa1c06	0.33224505
5	0x3e28be29	0.1647879
6	0x3e63007f	0.22168158
7	0x3ef56d65	0.47935024
8	0x3ddf040c	0.10889444
9	0x3ebe39f2	0.37153584
10	0x3e59900b	0.21246354
11	0x3e083aab	0.1330363
12	0x3e7c6c81	0.24650766
13	0x3e8de257	0.27711746
14	0x3e0d0b93	0.13773946
15	0x3d6e46cc	0.058172986
16	0x3eb3e176	0.3513295
17	0x3de84a7b	0.11342331
18	0x3df4528b	0.11929806
19	0x3e5966b6	0.21230587
20	0x3e2a0242	0.16602424
21	0x3dee0bbd	0.11623333
22	0x3e7012ff	0.23444746
23	0x3f226832	0.6344024
24	0x3e1abccd	0.15111084
25	0x3e49a038	0.19690025
26	0x3e2dcdb3	0.16973
27	0x3e977bb9	0.2958658
28	0x3e3514a8	0.17683661
29	0x3dc14008	0.09436041
30	0x3e0191a7	0.12653218
31	0x3d9212c0	0.071324825

jknet.module_6.lin_l.weight f4 [32, 32]
0	0x3e076044	0.13220316
1	0x3d9086c7	0.07056957
2	0xbc1e5a88	-0.009665139
3	0xbdd71ce2	-0.10503556
4	0xbe07e8a6	-0.13272342
5	0x3bff9a76	0.0078003956
6	0x3e252967	0.16129075
7	0xbd8e2b35	-0.06941835
8	0x3dc2fbd5	0.095206894
9	0xbdd962fb	-0.10614582
10	0x3de83e14	0.113399655
11	0x3d82fbea	0.06395705
12	0x3d8591c1	0.06521941
13	0x3e2d276c	0.1690957
14	0xbd00f96a	-0.03148786
15	0xbdcb491d	-0.099260546
16	0x3e10e57c	0.14150041
17	0xbd1cd1ef	-0.038286146
18	0x3bb1dfb0	0.005428277
19	0xbd203492	-0.039112635
20	0x3bcc74c9	0.006239508
21	0xbd3ff0a9	-0.04686037
22	0xbe01957a	-0.12654677
23	0xbe0463fd	-0.12928768
24	0x3dd5e65b	0.104443274
25	0x3da55955	0.08073679
26	0xbe2a04ae	-0.16603348
27	0x3e4f676b	0.20254295
28	0x3dd86584	0.105662376
29	0x3e2df7db	0.1698908
30	0x3e073030	0.13201976
31	0x3c88615a	0.016647983
32	0xbddbf872	-0.107407466
33	0x3e0c1023	0.1367803
34	0xbdde5219	-0.10855503
35	0xbc8cd32f	-0.017190544
36	0xbc56cecf	-0.01311083
37	0x3d7b2b9b	0.061320882
38	0x3dc16e29	0.094448395
39	0x3e1262c0	0.14295483
40	0xbe1fa91a	-0.15591851
41	0xbdaf9048	-0.08572441
42	0x3e19bb98	0.15012968
43	0x3de39c69	0.11113817
44	0xbcc994c7	-0.024607075
45	0xbd260f63	-0.040542018
46	0x3cb091dc	0.021553926
47	0x3e1bc29f	0.15210961
48	0x3e132752	0.14370468
49	0xbdec92a0	-0.11551404
50	0xbe4724ce	-0.19447634
51	0x3d606cd7	0.054791298
52	0xbd0d870c	-0.03455262
53	0xbe2e1d16	-0.17003283
54	0x3e29acf3	0.16569881
55	0x3cfbee9d	0.030753428
56	0x3e49855a	0.19679776
57	0x3d5f80ab	0.054566067
58	0x3dc3796e	0.09544645
59	0xbe1143ab	-0.1418597
60	0x3d7cb06b	0.061691683
61	0xbe41b2b2	-0.18915823
62	0xbdf95e95	-0.12176243
63	0x3db42f74	0.087981135
64	0xbc623f17	-0.013808987
65	0xbe029dc3	-0.12755494
66	0xbdc3c2ec	-0.09558663
67	0x3d9fd18c	0.0780364
68	0x3da5201f	0.08062767
69	0x3e30120d	0.17194386
70	0xbdc1469a	-0.09437294
71	0xb8a430d1	-7.829222e-05
72	0x3d50817c	0.050904736
73	0x3e0a805e	0.1352553
74	0xbddd5d36	-0.10808794
75	0x3e026d1f	0.12736939
76	0xbde0d4e3	-0.10978105
77	0x3e15c5d9	0.14626254
78	0xbe527696	-0.2055305
79	0xbe4c4aa5	-0.1995035
80	0xbdaac8df	-0.08339094
81	0xbd75354b	-0.059865277
82	0x3e541938	0.20712745
83	0x3e49520d	0.19660206
84	0x3dbe685c	0.09297249
85	0xbda82bab	-0.08211454
86	0xbbf2190b	-0.0073882393
87	0x3e0e3db2	0.13890722
88	0x3dd2ade6	0.10287075
89	0xbe289ef1	-0.16466881
90	0xbddc28e9	-0.107499905
91	0xbdb8ef4b	-0.090300165
92	0xbda4b4bd	-0.080422856
93	0x3cb659b8	0.022259578
94	0xbdbcd60b	-0.09220513
95	0xbd864a12	-0.065570965
96	0xbd6a6b89	-0.05723146
97	0xbd5a921a	-0.05336199
98	0xbd3a1045	-0.045425672
99	0xbd841aa0	-0.06450391
100	0x3dc1e3e1	0.094672926
101	0xb99fca4f	-0.00030477575
102	0xbd6f38cc	-0.058403775
103	0xbddb06c4	-0.1069465
104	0xbdbe5df3	-0.09295263
105	0xbd4a2c02	-0.049358375
106	0x3bf82832	0.007573151
107	0xbd060847	-0.032722738
108	0x3d07371b	0.033011537
109	0xbde17fea	-0.11010726
110	0x3d859b43	0.065237544
111	0x3e1d76cf	0.15377353
112	0xbd98da18	-0.07463473
113	0x3d05734b	0.032580655
114	0xbe3c63e9	-0.18397488
115	0xbd1ffd24	-0.039059773
116	0x3daa9b4f	0.08330404
117	0x3bab0084	0.0052185673
118	0x3dc05d58	0.09392804
119	0xbdc72af2	-0.09724988
120	0xbdfa9251	-0.12234939
121	0x3dec2496	0.11530416
122	0xbe205cb5	-0.15660365
123	0xbca33762	-0.01992387
124	0x3b121083	0.0022287674
125	0xbce4adbd	-0.027914876
126	0xbd6ca4ec	-0.05777447
127	0x3e4d68c8	0.20059502
128	0xbe38e3fe	-0.18055722
129	0x3de31d7a	0.110896066
130	0xbcfef122	-0.03112084
131	0xbdef8da4	-0.11696938
132	0x3e0a62e0	0.1351428
133	0xbb2942e5	-0.0025827226
134	0x3dec84fd	0.11548803
135	0x3a948e2d	0.0011333876
136	0x3d1ec7a3	0.038764607
137	0x3da9217d	0.082583405
138	0x3dd20a2f	0.102558486
139	0x3e1efc19	0.15525855
140	0xbdfd408e	-0.123658285
141	0xbe10f9af	-0.14157747
142	0x3c4be9da	0.012445891
143	0x3cebb9ee	0.028775182
144	0xbe176d65	-0.14787824
145	0xbc07f051	-0.008297042
146	0xbcf135d4	-0.029444613
147	0x3d327112	0.043564864
148	0x3cfc50a6	0.030800175
149	0x3cacd670	0.021098346
150	0x3dda80a7	0.1066907
151	0x3e06d57d	0.13167377
152	0x3da8841b	0.08228322
153	0xbd7fb14f	-0.062424954
154	0xbdfa39be	-0.12218045
155	0xbe19a97c	-0.1500606
156	0xbd093b11	-0.033503596
157	0xbd9b43b1	-0.075812705
158	0xbca2858a	-0.019839067
159	0x3d8f4413	0.06995406
160	0x3c678968	0.014131881
161	0xbc437d0d	-0.01193167
162	0xbe1ffe93	-0.15624456
163	0xbc4eecbf	-0.012629687
164	0xbe0d3b16	-0.13792071
165	0x3d5cb78a	0.053885974
166	0x3e3af93a	0.18259135
167	0xbd3c5426	-0.045978688
168	0x3da0123e	0.078159794
169	0x3dc7f793	0.09764018
170	0x3d537ef6	0.05163475
171	0x3dcc73f4	0.09983054
172	0x3e191c6c	0.14952248
173	0xbc6606f7	-0.0140397465
174	0x3d33e10c	0.043915793
175	0x3dc5a2ca	0.0965019
176	0xbe249d71	-0.16075684
177	0x3df20ad8	0.118184745
178	0xbd80c3b6	-0.06287329
179	0x3d9d1ed6	0.07671897
180	0x3d207ac0	0.039179564
181	0xbe2e5233	-0.17023544
182	0xbe05494d	-0.13016243
183	0x3d9d75c9	0.07688481
184	0xbe0438c9	-0.12912287
185	0xbd1594d9	-0.036518905
186	0x3d964429	0.07337219
187	0xbd540012	-0.05175788
188	0x3d8fafe3	0.070159696
189	0xbde6f11f	-0.11276459
190	0x3e36e47c	0.17860597
191	0x3d2ef2ce	0.042712025
192	0x3d876cb2	0.06612529
193	0xbc029f0a	-0.007972488
194	0xbca16d25	-0.019705364
195	0x3d575fa3	0.05258144
196	0x3bc6ea0f	0.0060703824
197	0xbe3ef0a5	-0.18646486
198	0xbd8e1f13	-0.06939521
199	0xbd01265a	-0.031530716
200	0xbe296509	-0.16542448
201	0xbd7e3267	-0.062059786
202	0x3e0feeaa	0.14055887
203	0x3d7f846d	0.06238215
204	0xbcbe8f55	-0.023261705
205	0x3d68f096	0.056870066
206	0x3e181a80	0.14853859
207	0x3e385857	0.18002449
208	0xba48fab2	-0.0007666751
209	0xbcd9cdbd	-0.026587361
210	0xbc53501a	-0.012897516
211	0x3c94acb4	0.018148758
212	0x3df5e2e8	0.120061696
213	0xbd25ea81	-0.040506843
214	0xbd8eb931	-0.06968916
215	0x3e1fac3f	0.1559305
216	0xbdac2591	-0.08405603
217	0x3e1a0b4f	0.15043376
218	0xbe1962cf	-0.14979099
219	0x3dff26ea	0.12458594
220	0x3ddeb02e	0.10873447
221	0xbe424ea3	-0.1897531
222	0xbde733d7	-0.112891845
223	0x3c640da7	0.013919271
224	0x3ab38afa	0.0013698034
225	0x3d3d6405	0.046237964
226	0x3c82b1e4	0.015953965
227	0xbe32b8ac	-0.17453259
228	0xbd96b5d7	-0.07358902
229	0xbd3d352b	-0.046193283
230	0xbd8a17fd	-0.06742857
231	0x3deccfe0	0.115630865
232	0xbc5f0365	-0.013611649
233	0xbc8e3f4c	-0.017364167
234	0x3dedcc60	0.11611247
235	0x3e06ba28	0.1315695
236	0x3adcc868	0.0016844394
237	0xbe048d11	-0.12944438
238	0x3e10a2ef	0.14124654
239	0x3e163fce	0.14672777
240	0xbdb9313d	-0.090425946
241	0xbe51bf88	-0.2048322
242	0xbdef1b41	-0.1167512
243	0xbc4b8ba6	-0.0124234315
244	0xbdf887c3	-0.121352695
245	0xbc09ab4b	-0.008402656
246	0xbd2eb1bf	-0.04264998
247	0x3d8af89b	0.06785699
248	0x3ad8669f	0.0016510076
249	0xbda979a9	-0.08275158
250	0xbbeb76cf	-0.007185794
251	0xbe17c65f	-0.14821766
252	0xbd100213	-0.035158228
253	0xbe43eb0c	-0.19132632
254	0xbdcc74a6	-0.099831864
255	0x3e01d654	0.12679416

jknet.module_6.lin_l.bias f4 [32]
0	0x3cd8df89	0.026473777
1	0x3d1921d7	0.037385788
2	0x3975eb98	0.00023452786
3	0x3c0c5d6c	0.008567195
4	0xbd8573b5	-0.0651621
5	0xb83d8259	-4.5182507e-05
6	0x3c7ba83a	0.015359933
7	0x3d5d692c	0.054055378
8	0x3d4c6aae	0.049906425
9	0x39070cd2	0.00012879379
10	0x3b40af46	0.0029401346
11	0xbb118ce9	-0.0022209233
12	0xbd9518ee	-0.072801456
13	0xbd11ff36	-0.03564378
14	0xbc590afc	-0.013247248
15	0xb73c4caa	-1.1223523e-05
16	0xbcb4e7f0	-0.022083253
17	0x3c9bae48	0.019004002
18	0x3673fe64	3.6357897e-06
19	0xbbcd9b50	-0.006274618
20	0x3c66f9fa	0.014097685
21	0xbd960f12	-0.07327093
22	0xbd3ecc4f	-0.046581563
23	0xbd45034e	-0.048098855
24	0xbc4ec221	-0.012619526
25	0x3d852f4f	0.06503164
26	0x3cd79206	0.026314747
27	0xb7bfd490	-2.2867956e-05
28	0xb8116bef	-3.4671215e-05
29	0x3c6bfdaa	0.01440374
30	0x3d36a277	0.044588532
31	0x3d83ce79	0.06435866

jknet.module_6.lin_r.weight f4 [32, 32]
0	0x3e080077	0.13281427
1	0xbd9e19d1	-0.07719768
2	0xbe16fa1c	-0.14743847
3	0x3d8ab13c	0.06772086
4	0xbde2b940	-0.1107049
5	0x3d819a2b	0.06328233
6	0x3e443b4c	0.19163245
7	0xbd0d33ad	-0.03447311
8	0xbdcc45dc	-0.09974262
9	0xbd96cc0a	-0.07363136
10	0xbd714613	-0.05890472
11	0xbe37ee6d	-0.17962046
12	0x3e046232	0.12928084
13	0x3da59301	0.080846794
14	0x3def6171	0.11688507
15	0xbe1868d3	-0.14883737
16	0xbd6a6d47	-0.05723312
17	0xbded29fb	-0.11580273
18	0x3cc34396	0.023835938
19	0xbdbd5dde	-0.09246419
20	0xbe039ee3	-0.12853579
21	0x3e1ef1b5	0.15521891
22	0x3dbf5482	0.093422905
23	0xbd4e9789	-0.050437484
24	0x3d7f1b4b	0.062281888
25	0x3da76a24	0.081745416
26	0x3c2abf6c	0.010421615
27	0xbcf5324b	-0.029931208
28	0x3d979c8a	0.07402904
29	0xbd302c64	-0.043011084
30	0x3e5bf9e8	0.2148205
31	0xbdb229b5	-0.08699361
32	0xbdf5d07a	-0.120026544
33	0xbd42566e	-0.047445707
34	0xbd9ada45	-0.07561163
35	0xbe3d77e1	-0.18502761
36	0xbda0d3e1	-0.07852913
37	0xbdfa1a7d	-0.122120835
38	0xbd918d83	-0.07107069
39	0x3dbe26e5	0.09284762
40	0x3d73adc0	0.059491873
41	0xbe0483b4	-0.12940866
42	0x3dddf4cb	0.10837706
43	0xbe446b49	-0.19181551
44	0x3cc9afd8	0.024619982
45	0xbd8b86e8	-0.06812841
46	0x3e1abcb7	0.15111051
47	0x3e0c74a3	0.13716368
48	0xbdb787e0	-0.08961463
49	0xbd082ee4	-0.033247843
50	0x3d2c7475	0.04210325
51	0xbe32ab6c	-0.17448205
52	0xbd727eeb	-0.05920307
53	0xbcc99f2a	-0.024612028
54	0xbe0c4d03	-0.13701253
55	0x3dc7eec4	0.09762338
56	0xbd54be7e	-0.05193948
57	0x3cd326fb	0.025775423
58	0xbdc384dd	-0.09546826
59	0x3d87606b	0.06610187
60	0x3b7da118	0.0038700756
61	0x3d7a03ae	0.061038665
62	0xbda86af7	-0.08223527
63	0x3d723d01	0.05914021
64	0x3d3d851e	0.04626953
65	0xbdc44c06	-0.09584813
66	0x3cbd7d15	0.023130933
67	0xbca5d124	-0.020241328
68	0x3d693ee0	0.056944728
69	0xbc3e1ca4	-0.011603508
70	0x3dd42799	0.10359115
71	0x3dc1b2c5	0.09457926
72	0xbda65492	-0.08121599
73	0x3d1c295c	0.03812538
74	0xbe2f2484	-0.17103773
75	0x3d7eac8e	0.06217628
76	0xbda2e84d	-0.07954464
77	0xbda8e705	-0.082471885
78	0x3d99f444	0.07517293
79	0xbd69c66f	-0.057074007
80	0x3e26d310	0.16291451
81	0x3e0feaa5	0.14054354
82	0xbd1a8f67	-0.037734415
83	0xbdc1c5a9	-0.09461529
84	0x3de9a2f0	0.11408031
85	0x3d0384cd	0.03210907
86	0x3ded3a0a	0.11583336
87	0xbd6cde8d	-0.05782943
88	0x3e153df8	0.1457442
89	0x3dc65888	0.09684855
90	0x3d96c94d	0.07362614
91	0x3e43a563	0.19106059
92	0x3ce750f5	0.028236846
93	0xbdf5695e	-0.11982988
94	0x3e146dd2	0.14495018
95	0xbe32b8f9	-0.17453374
96	0x3c424375	0.011856903
97	0xbdebcf76	-0.115141794
98	0xbd9868f0	-0.0744189
99	0x3e0f121e	0.13971755
100	0x3bbe6c22	0.0058112303
101	0x3c799794	0.015233893
102	0xbe019552	-0.12654617
103	0x3e0ba88d	0.13638516
104	0x3de3741b	0.1110613
105	0x3d54c923	0.05194963
106	0x3dee0bf6	0.11623375
107	0xbe17d8ae	-0.1482875
108	0xbd13c727	-0.0360786
109	0xbe05eb17	-0.13077961
110	0x3e171072	0.14752367
111	0x3cbbc234	0.022919752
112	0x3d92daf4	0.07170668
113	0xbd7306be	-0.0593326
114	0xbe175ea6	-0.147822
115	0xbe1faca5	-0.15593202
116	0xbcc703ae	-0.024293747
117	0xbc5c57b1	-0.013448642
118	0x3cfe9d70	0.031080931
119	0x3d9cd628	0.076580346
120	0x3da98041	0.082764156
121	0x3d3411d6	0.043962322
122	0x3d670830	0.056404293
123	0x3e105d23	0.14098029
124	0x3dc2835b	0.0949771
125	0xbd8e2063	-0.06939771
126	0xbd67316d	-0.05644362
127	0xbcddd98a	-0.02708127
128	0x3dc0af71	0.09408463
129	0xbde52457	-0.11188572
130	0x3cc53045	0.024070868
131	0xbb53004c	-0.0032196222
132	0xbdcd29e0	-0.10017753
133	0x3ddcf07f	0.107880585
134	0xbd2435e6	-0.040090464
135	0xbdbbcdfd	-0.091701485
136	0xbe32eb52	-0.1747258
137	0xbdb10e26	-0.08645277
138	0x3e2b9047	0.16754256
139	0xbd791650	-0.060812294
140	0xbbc683bd	-0.006058185
141	0xbdbe171e	-0.09281753
142	0x3d0685ed	0.032842565
143	0x3dd776c6	0.10520701
144	0x3e0f4cb3	0.13994102
145	0x3dc80611	0.09766782
146	0xbd099bac	-0.033595726
147	0xbd225ea4	-0.039641038
148	0x3d708417	0.05871972
149	0xbe23a7ee	-0.15982029
150	0xbd1e14fc	-0.03859423
151	0xbc9d7cb5	-0.019224504
152	0xbd858af4	-0.06520644
153	0xbdc9132b	-0.09818109
154	0xbe29a6a7	-0.16567479
155	0xbe027864	-0.12741238
156	0xbda6b180	-0.08139324
157	0x3d8e96a1	0.06962324
158	0xbde3a555	-0.11115519
159	0x3dc829ed	0.09773622
160	0xbe0b6afc	-0.1361503
161	0x3e51463c	0.20436949
162	0x3b142e6f	0.0022610684
163	0x3e36e59e	0.1786103
164	0x3e4de1a8	0.20105612
165	0x3a2dd8f3	0.0006631754
166	0x3dde2f86	0.10848908
167	0x3d74e4a2	0.059788354
168	0x3e137723	0.14400916
169	0x3dfe94e0	0.124307394
170	0xbdcc33d0	-0.0997082
171	0xbd20727f	-0.039171692
172	0xbc3c74af	-0.011502429
173	0xbe061f8c	-0.13097972
174	0xbd268070	-0.04064983
175	0x3ba083dc	0.0048985314
176	0xbdf4227b	-0.11920639
177	0x3dd0561f	0.10172676
178	0xbaa9ace8	-0.0012945207
179	0x3d761686	0.060080074
180	0x3d4631bf	0.048387285
181	0x3da1fb12	0.07909216
182	0xbaef6308	-0.0018263767
183	0xbdf65d20	-0.12029481
184	0x3d66d388	0.056354076
185	0x3d6b5302	0.05745221
186	0xbcd45483	-0.025919205
187	0x3e11782c	0.14205998
188	0x3d920dd6	0.07131545
189	0xbd896792	-0.067092076
190	0x3dff1705	0.124555625
191	0x3dc2df37	0.09515231
192	0x3dbcf45b	0.092262946
193	0xbb90ead5	-0.0044225254
194	0x3d2f5790	0.042808115
195	0xbd8abafa	-0.06773944
196	0x3d543bc0	0.051814795
197	0x3d635836	0.055504046
198	0xbd1846ba	-0.037176825
199	0xbdde6781	-0.108595856
200	0xbe08025c	-0.1328215
201	0xbd9f3d1f	-0.0777533
202	0x3e163d34	0.14671785
203	0xbd8abd93	-0.0677444
204	0xbc9a0400	-0.018800735
205	0xbe474960	-0.19461584
206	0xbd2634d2	-0.040577717
207	0x3dd9088c	0.10597333
208	0x3d641026	0.055679463
209	0xbd1db55f	-0.038503047
210	0xbe426377	-0.18983255
211	0x3dccbedf	0.09997343
212	0xbd97de7d	-0.07415483
213	0xbe1c339b	-0.15254061
214	0xbc1d0ab3	-0.00958507
215	0x3dd8bddc	0.10583088
216	0xbe0cde30	-0.13756633
217	0x3e2ac3fd	0.16676326
218	0xbda6e9ba	-0.081500486
219	0x3e119fbc	0.1422109
220	0x3de88bda	0.113547996
221	0xbe4f622c	-0.20252293
222	0x3de1ce46	0.11025672
223	0x3df887d4	0.12135282
224	0xbd67f759	-0.056632373
225	0x3dec4abe	0.115376934
226	0xbdb8562d	-0.09000812
227	0xbe3093bf	-0.1724386
228	0x3e069912	0.13144329
229	0x3d1abae1	0.037775878
230	0x3c9a637d	0.018846268
231	0x3e117177	0.1420344
232	0xbd45cd13	-0.048291277
233	0x3daabfd8	0.083373725
234	0x3e135508	0.14387906
235	0xbc3d79d2	-0.011564689
236	0xbe154c6d	-0.14579935
237	0x3db75434	0.08951607
238	0x3e4112b4	0.18854791
239	0x3c82374a	0.015895505
240	0x3d4e4fd6	0.050369106
241	0xbe3cbde7	-0.18431817
242	0x3bc23a17	0.005927335
243	0xbcf501a8	-0.029908016
244	0x3c890b4f	0.016729025
245	0xbc3c451e	-0.011491088
246	0x3dfc06ce	0.123059854
247	0xbd2fa9b0	-0.042886436
248	0xbd8212b8	-0.063512266
249	0x3d835515	0.064127125
250	0xbbdd34b8	-0.0067506693
251	0xbdca2937	-0.09871142
252	0x3c1257c1	0.008932055
253	0xbd0095e5	-0.03139295
254	0xbddf82ba	-0.10913606
255	0x3dbc58a8	0.09196597
