formal/realworld/SAGE_mutag.pth (torch, 23812 bytes, 11 tensors)

conv1.lin_l.weight f4 [32, 14]
00000000: e4fc 7cbe ba94 bb3d 6836 2fbe d574 af3d
00000010: a459 a43e 33f3 9f3e e687 523c 0a3b 21bd
00000020: 99f3 27bb 55ae bc33 00c1 aa19 e584 4897
00000030: 8ca3 26b0 8517 e727 5721 61be d1b6 1b3d
00000040: 0924 8f3e 0789 603d 9322 993e 5cac 9322
00000050: b9ce 80bd a5a2 84bd 54bd abba 2e86 9e9e
00000060: b9c7 822c 34b0 32b6 df9d d017 0d97 e731
00000070: 7db3 a03e dce0 60bb 3589 b3be f7ae bbbe
00000080: b9f7 18bf 8186 b7be e264 9fbe 8c42 00bd
00000090: 9c3f 523d 9838 95be 6a93 a52a e758 e627
000000a0: 7afb d31a 8a6f e298 fd54 b83e 500c 143e
000000b0: 201f fdbc 0a36 89be f87e 50be 2704 bcbc
000000c0: e51f 183e 2060 1fbd ab96 80bd a2f0 473e
000000d0: 534e fdb0 219e d098 d85d 979a bd63 00b1
000000e0: a6e7 2fbe 0c60 93bd e364 d23e c79b d3be
000000f0: 407e 353e ce17 8a3e df81 2c3e 0243 b5bd
00000100: b550 8b3d 537e a13d 14f6 8e31 404c b615
00000110: bd7b 9aa0 e556 8ca7 c8c4 cfb4 f2bc c038
00000120: 6478 842f dc04 152e 0cab beb3 7de8 84a9
00000130: 7b0c 9cb7 554d 9a34 baa0 22b5 ba43 6a34
00000140: 97d1 9baa 1af2 b89f 5b5e 0d19 add5 fd1c
00000150: 1a3d 9d3e c2ed 203d 94cd e33d 13bb 68be
00000160: 54a9 1a3e f0cf 133e f963 053e 27cf 52be
00000170: 6b2a 5b3c b938 af3d 0df0 86b7 021c b2b7
00000180: 4f96 9028 48ed de25 6a63 6c3e 2bc1 7fbd
00000190: b530 77bd d6cc 313d c1e0 dc3d 7d08 94be
000001a0: f4bf 28be d876 d7bd b9b8 4abd 5fdd 85bd
000001b0: a7dd 6527 07ec dd36 28c6 2833 b0f3 0435
000001c0: 6672 e6b3 36a9 4c29 897b 6532 ece5 b0b7
000001d0: 0336 f1a4 c9bd 999c 48a1 2ab4 ccbd 2c23
000001e0: cdb4 1838 c784 b019 13e9 b599 4103 539a
000001f0: e1c1 3c35 3363 caa7 36f5 84be 2241 0a3e
00000200: 4eb6 8a3d 4464 65bc 4c69 c23d da82 8425
00000210: f202 3222 901f bfbd 5e46 1cbe 0079 73b0
00000220: ee2f cb22 a800 93a7 ae72 9b19 a705 1c98
00000230: 93f1 5d3e 65b3 003e 51ab c2bd d1dd a73d
00000240: fab8 64be 33e5 51bb b542 953d 5e55 46bd
00000250: 7474 fa3b e847 cf3c 9c01 e836 ff1f ec1a
00000260: 2eca bf97 b201 77af 6410 bdbd 774e 72be
00000270: fb47 a7bd e5a2 a3be 8195 c53d 3d3a 7f3e
00000280: 1ef3 13bc c739 9fbe 4d48 81bb 33fe 283e
00000290: 04c3 ba18 7020 ec30 3cc7 021b bee0 2d2f
000002a0: 0802 19be cd10 b13c 74ca 38be 67e3 503e
000002b0: 1b88 863e db93 313e 4934 973e 4c3f cebd
000002c0: 271a 993d 00f9 e03d cc1a fd36 2345 8b97
000002d0: 1e16 d425 5d78 0326 0268 3f3e 00fb a9bc
000002e0: d55d b8be bdf7 403e bb86 52bd fa25 6bbe
000002f0: ccc9 533b 0264 2dbe 9c8a 683b e621 87bd
00000300: d6df d616 740b 1197 e8b8 2218 3c2c aa9c
00000310: 52d8 923c 3353 533e b435 c7be 1c8e babd
00000320: ed14 843e 469a bebe bc55 7ebe fc52 c4bd
00000330: 91e0 2f3d 33a1 3abe 24a8 14a5 fe49 9f98
00000340: d86a 8c99 c06e 8098 b839 543e 5dfb 6fbe
00000350: a427 1e3d 9c6d 6cbe 681c be3d 3eb4 6f19
00000360: f83e ee99 0e31 8bbd 7282 f3bc 7371 df29
00000370: 2512 a130 a81c 70b3 ba79 9098 9909 8436
00000380: aa5b 6a3e 23b6 7e3e 02db c8bc 9177 263e
00000390: 6982 c4bc e3dd 67be 10d9 bcbd 9b49 56bd
000003a0: 42b5 5c3d a9c4 6cbd 6cc7 6fad 95df 9b31
000003b0: e001 ab32 ad68 3cb6 8a9c 62be 1106 75be
000003c0: 2ba0 d33e 5414 10bf 32d0 083f ecfd 8337
000003d0: f2e1 8dbd b956 67bd 2dcc a4bc b0b0 c52f
000003e0: bcc0 d7b5 67b6 3218 8062 2bb6 fd32 d1a2
000003f0: f1d8 6bbe 10ac 0cbe 14e4 893d 854d f93d
-0.24705845 0.09159227 -0.17110598 0.08567206 0.3209964 0.31240234 0.0128497835 -0.039362945
-0.0025627373 8.786143e-08 1.765554e-23 -6.479122e-25 -6.062286e-10 6.414088e-15 -0.21985374 0.038016144
0.2795718 0.05481818 0.2990919 4.0026922e-18 -0.06289429 -0.064763345 -0.0013102689 -1.6784396e-20
3.716996e-12 -2.662663e-06 1.3481537e-24 6.7401573e-09 0.3138694 -0.0034313714 -0.35065618 -0.36656925
-0.59752995 -0.35844806 -0.31131655 -0.031313464 0.051330194 -0.2914474 2.9412177e-13 6.393421e-15
8.767384e-23 -5.8532256e-24 0.3600234 0.14457822 -0.03089863 -0.2679904 -0.20360935 -0.022951199
0.14855917 -0.03891003 -0.06278738 0.19525388 -1.8430434e-09 -5.392641e-24 -6.260375e-23 -1.8683146e-09
-0.1717821 -0.07196054 0.41092595 -0.41329786 0.17723942 0.26971287 0.16846417 -0.08850671
0.06802503 0.078854226 4.1607198e-09 7.3629516e-26 -2.6170498e-19 -3.8952017e-15 -3.8699932e-07 9.190467e-05
2.4096203e-10 3.3882994e-11 -8.878678e-08 -5.902308e-14 -1.860246e-05 2.8741002e-07 -6.058359e-07 2.1817587e-07
-2.7678963e-13 -7.8327555e-20 7.308584e-24 1.6797369e-21 0.3071068 0.039289244 0.11123195 -0.22727613
0.15103656 0.1443479 0.13026418 -0.20586835 0.013376812 0.08555741 -1.6085827e-05 -2.1232296e-05
1.6052398e-14 3.867165e-16 0.23084798 -0.06244008 -0.060349185 0.043408237 0.10785056 -0.28912726
-0.16479474 -0.105207145 -0.04949257 -0.06536364 3.1900292e-15 6.6137904e-06 3.929577e-08 4.9528444e-07
-1.07310186e-07 4.5443866e-14 1.3357643e-08 -2.10879e-05 -1.0460859e-16 -1.0173749e-21 -1.5891158e-07 9.36433e-18
3.6408008e-05 1.8251602e-23 -1.88091e-23 -4.3636406e-23 7.031759e-07 -5.6173815e-15 -0.2596833 0.13501409
0.06773053 -0.014000956 0.0949274 2.2987018e-16 2.4125058e-18 -0.09332192 -0.15261218 -8.8574836e-10
5.5074008e-18 -4.0801408e-15 1.6072943e-23 -2.0165381e-24 0.21674185 0.12568434 -0.09505332 0.08196605
-0.22336188 -0.0032027483 0.07288114 -0.048421256 0.007643277 0.025302842 6.914326e-06 9.7659005e-23
-1.2394123e-24 -2.2465121e-10 -0.09231642 -0.23662744 -0.08168026 -0.31960216 0.09647656 0.2492456
-0.009030132 -0.31098768 -0.0039453865 0.1650322 4.827679e-24 1.7180479e-09 1.0817724e-22 1.5814103e-10
-0.14942181 0.021614457 -0.1804598 0.20399247 0.26275715 0.17341559 0.29532078 -0.10070667
0.07475691 0.10984993 7.543107e-06 -9.000117e-25 3.6791125e-16 4.561288e-16 0.1869202 -0.020749569
-0.36009088 0.18844505 -0.05139802 -0.22963706 0.0032316325 -0.16932681 0.0035483008 -0.065982625
3.4714825e-25 -4.6866483e-25 2.1031363e-24 -1.1261091e-21 0.017925415 0.20637207 -0.3890816 -0.091091365
0.25797215 -0.37227076 -0.24837393 -0.095861405 0.042938773 -0.18225555 -1.2893922e-16 -4.117525e-24
-1.4518815e-23 -3.3199053e-24 0.20725143 -0.23435731 0.038612023 -0.23088688 0.09282762 1.239241e-23
-2.4634056e-23 -0.06796466 -0.029725287 9.92287e-14 1.1719449e-09 -5.5905417e-08 -3.734604e-24 3.935024e-06
0.2288653 0.24874167 -0.024518494 0.16256548 -0.023987966 -0.22643237 -0.09221089 -0.05231629
0.0538838 -0.057804737 -1.3629858e-11 4.536512e-09 1.9907873e-08 -2.8075112e-06 -0.22130027 -0.23928095
0.41333136 -0.5628102 0.5344268 1.5734659e-05 -0.06927861 -0.05647919 -0.02011689 3.5959635e-10
-1.6074841e-06 2.309805e-24 -2.553832e-06 -5.670355e-18 -0.23031975 -0.13737512 0.067329556 0.12172989

conv1.lin_l.bias f4 [32]
00000000: 0862 773d b0ed dfbd 46a4 313b 7612 16be
00000010: 28d3 db3d f507 77ba af0c 173e 9f9a a53b
00000020: 2749 05b9 bc94 b13d 4046 4db7 0eb1 6e3e
00000030: 2c54 333e ae15 163e e47e 15bd df11 03be
00000040: a25a 4f3e a778 c3bd 9e62 613e 54f7 7b3e
00000050: b63e 85bd 820f 423e ea3f 303c b225 693e
00000060: 9e57 753e 2b31 b23c f97a f53c 4936 c9bd
00000070: 05ac 773e 246a 733d 942c 423e 0348 debd
0.060396224 -0.10934007 0.0027105971 -0.1465548 0.10733634 -0.0009423488 0.14750932 0.0050538327
-0.0001271112 0.08670947 -1.22353085e-05 0.23309729 0.17512578 0.14656708 -0.036497965 -0.12799786
0.20249417 -0.09544497 0.22010276 0.24606067 -0.06506102 0.18951228 0.010757426 0.22768286
0.23959205 0.02175196 0.029965864 -0.09824807 0.24186714 0.059427395 0.18962318 -0.10853579

conv1.lin_r.weight f4 [32, 14]
00000000: d48e a9bd 8d5b 283e d4f2 d73c 4180 0fbd
00000010: 7cab 03bd b5a4 4618 b8e6 0019 603d 713d
00000020: a12e c5bd 2281 349b 8634 64b6 8586 822c
00000030: 2dd1 9632 6210 6a36 86db 56bd b390 89bd
00000040: 4db5 3dbd 8bf6 de3d a75b 723e 1466 949c
00000050: 007d 2aae 1011 37bc 5b0c b5bd ff8e 0b17
00000060: 5f5f 0518 6216 f218 9aaa 0719 99fe 8db3
00000070: e504 d1bd 0291 893c 36c0 57be 2dd0 8b3e
00000080: e8af 0b3e c8fe 91be 91e2 89be a4d8 acbd
00000090: 3d90 3a3c 2420 a3be d981 4237 583c 2620
000000a0: 6dca 9cb3 93b4 5617 5f9a 7d3e b994 36be
000000b0: f160 cb3d 28e6 20bb 06ed a43b 12a4 463e
000000c0: e0a0 0d3e 5785 aa3d c242 43bd cb03 713e
000000d0: c656 2bb3 08fc a12a 7c45 9c98 ce50 b524
000000e0: b215 963e 3f28 80bc 8b7d cc3d 5adb b33c
000000f0: a994 813d e0ad 8bb2 b66f 881b a1db 03be
00000100: 9ee2 28bd 72a6 07af 8a95 f736 fa5f 0b1f
00000110: c6f8 6c19 8692 9016 5f75 2cb8 c2d3 3b2e
00000120: 104b c6b7 bbff 95b6 87a9 b533 de89 9b17
00000130: 2720 7418 8bb0 a2b6 a054 503a 203e 099e
00000140: 9928 34b7 262b 2833 d8b0 eb1e 2871 87b7
00000150: d2f6 3b3e 0601 e3bd 0f67 c4bd f311 043e
00000160: 8d6b 853e 091a af3c b59e dc3d 4f0f 603d
00000170: 4ed1 023d dede 623d 578a c41a 8988 9eae
00000180: 509c 5d99 e167 5536 859d 113e 7560 95bd
00000190: 5485 42be 2281 8c3e a61a a03d b5ed 6abd
000001a0: 91a0 42be fbde 3a3e 137c 603d f4bb 14be
000001b0: 3f4f 7a9b f0a8 1eb6 2406 af1b 4407 65b1
000001c0: 63e7 f018 b878 29b6 bdd3 c5ad 9047 6f9a
000001d0: f252 cd30 6c72 6aa3 e82f e237 6257 2137
000001e0: 0702 c817 8657 d9b3 8653 081b 216f a21d
000001f0: 8b89 8cb6 e56b 26b5 f7ac 7fbe 19c6 7f3d
00000200: f7d9 f73c 7335 f2bc 455e 933e 4575 9b9f
00000210: bcb9 933e fc7a a93d 030a 65bb 8b07 833e
00000220: eaa5 08b6 684f 521a 9683 6a21 bc0d 5518
00000230: ae38 983c ab1b eb3d 2cbb 02bc 2317 1ebe
00000240: 4af0 1dbd 4731 14be 0d38 c4bd f649 8fbb
00000250: 2d98 5bb9 0708 9fbc 397b 0518 8284 8117
00000260: b83b 551d bd82 b637 4028 c2bb 819b f6bd
00000270: f352 183d c072 aa3d 803a 863e 32e1 7f3e
00000280: a35a 773d ac97 afbd 7372 afbd 7d62 483e
00000290: b614 1520 dc80 9c9b 6ed9 e826 e18f 3234
000002a0: 633c b0bd fc01 943d 73f0 8e3e 1967 b6bd
000002b0: f79b adbd 2066 303e 51c3 d33d 37fe 5d3b
000002c0: 4243 c6bd 3922 273e dd17 2e9f deda 1cb7
000002d0: 0dcd 199f 5bc4 9b27 f934 27be 0e58 913d
000002e0: 79e3 49be db1b b53d 87e2 1abd 57be 80be
000002f0: 1397 863d 3358 173e cbde 713d fe52 f0bd
00000300: 0480 af9f 3e91 1a19 078e 602a 69c2 8f25
00000310: 272c 0b3e 2457 65be d4db 383d 8be0 a13e
00000320: 70f1 e5bd 2295 4fb7 2774 faa6 3094 01be
00000330: a054 823c 1c70 1520 76b4 1b18 0a52 fd19
00000340: b5ef ce97 1e79 8eb5 e6a8 c6bd ed4e b3bd
00000350: 8833 c5bd 1d8c af3d 5d42 903d 10e3 bf3e
00000360: 6deb 703e 4d46 aabd 958b bfb7 39b8 773e
00000370: 953b 76b4 9196 9732 55a9 91b5 82fa e61c
00000380: e103 acbb 75c7 5c3e 636e 8fbe a72d 813e
00000390: 26b4 683e 5ec0 42be 9439 37bd ef5d f03d
000003a0: 15e5 40bd 2374 cbbd c357 f01e 2689 02b1
000003b0: b5b6 841b 6ec3 d6ab 3b17 26be d6fe db3d
000003c0: ed28 4abd 3f4a 5e3e e3fe e1be c9f5 2622
000003d0: 6250 90b5 11ac 98bd c4df 20be 3b96 4a36
000003e0: d0d5 909c 68fa fdb6 2f4a 66b6 6425 4db5
000003f0: 5363 c8be 2db1 4b3c fab2 8d3e 47ad 00be
-0.082791954 0.16441174 0.026360907 -0.03503442 -0.032145962 2.5674056e-24 6.664038e-24 0.058896422
-0.096280344 -1.4930976e-22 -3.400522e-06 3.709757e-12 1.755742e-08 3.4878253e-06 -0.052455448 -0.06717052
-0.04631548 0.10886868 0.23667775 -9.820205e-22 -3.8764547e-11 -0.011173502 -0.08840247 4.509381e-25
1.7237997e-24 6.2578135e-24 7.013789e-24 -6.612135e-08 -0.10206012 0.016792778 -0.21069416 0.27307263
0.13641322 -0.28514695 -0.2693067 -0.084397584 0.011386928 -0.3186046 1.1593534e-05 1.4080713e-19
-7.301137e-08 6.9375046e-25 0.24765919 -0.1783017 0.099305995 -0.0024551246 0.005033138 0.19398525
0.138309 0.08326214 -0.047671087 0.23536603 -3.989296e-08 2.8774227e-13 -4.0395216e-24 7.8633126e-17
0.29313427 -0.01564419 0.09984883 0.02195518 0.06327183 -1.6260799e-08 2.2571504e-22 -0.1287675
-0.041231744 -1.2337312e-10 7.3785823e-06 2.9513785e-20 1.22511534e-23 2.3356924e-25 -4.1117306e-05 4.2706956e-11
-2.3638393e-05 -4.470317e-06 8.459306e-08 1.0051443e-24 3.1552494e-24 -4.8485285e-06 0.00079471804 -7.265567e-21
-1.0738288e-05 3.915479e-08 2.4954734e-20 -1.6145947e-05 0.18355873 -0.110841796 -0.09589969 0.12897472
0.26058617 0.02137472 0.107724585 0.0547021 0.03193789 0.055388324 8.12872e-23 -7.209262e-11
-1.1456999e-23 3.1799939e-06 0.14220245 -0.07293788 -0.18996173 0.2744227 0.07817583 -0.0573556
-0.19006564 0.18249123 0.054805826 -0.14524823 -2.0705121e-22 -2.364217e-06 2.895529e-22 -3.3328016e-09
6.2272187e-24 -2.525323e-06 -2.2490338e-11 -4.948185e-23 1.4939288e-09 -1.2709395e-17 2.6963608e-05 9.616693e-06
1.2925209e-24 -1.012077e-07 1.1276644e-22 4.2995948e-21 -4.1883372e-06 -6.1996826e-07 -0.24968325 0.06244478
0.0302553 -0.029566502 0.2878286 -6.583906e-20 0.28852642 0.082754105 -0.0034948594 0.25591692
-2.0362154e-06 4.3491126e-23 7.9456436e-19 2.7536539e-24 0.018581714 0.114798866 -0.007979196 -0.15438513
-0.038559236 -0.14471923 -0.09581003 -0.0043728305 -0.00020942157 -0.019413007 1.7252059e-24 8.369879e-25
2.822119e-21 2.175697e-05 -0.0059252083 -0.12041379 0.03718848 0.08322668 0.26216507 0.24988249
0.060389172 -0.08573851 -0.08566751 0.1956882 1.2627644e-19 -2.5891309e-22 1.6157168e-15 1.6629885e-07
-0.08605268 0.07226941 0.27917823 -0.08906383 -0.084770136 0.17226458 0.10339988 0.0033873448
-0.09680797 0.16321649 -3.6865672e-20 -9.349284e-06 -3.2568624e-20 4.323403e-15 -0.16328801 0.07096873
-0.1971568 0.08843204 -0.03781369 -0.25145218 0.06571784 0.14779739 0.059050363 -0.117345795
-7.432717e-20 7.990945e-24 1.9944472e-13 2.4938283e-16 0.13591062 -0.22396523 0.04513152 0.31616625
-0.11227691 -1.2372884e-05 -1.7378718e-15 -0.12654185 0.015909493 1.2657885e-19 2.012439e-24 2.6192722e-23
-1.3372949e-24 -1.0615074e-06 -0.097001836 -0.08755288 -0.096289694 0.08571646 0.07043908 0.37477922
0.23527308 -0.0831419 -2.2833972e-05 0.24191369 -2.2932211e-07 1.7647183e-08 -1.0852624e-06 1.5284878e-21
-0.005249486 0.21560462 -0.28013906 0.25230142 0.22724971 -0.19018695 -0.044732645 0.117366664
-0.04709347 -0.09934261 2.5447286e-20 -1.899545e-09 2.195564e-22 -1.5259857e-12 -0.16219799 0.107419655
-0.049355436 0.2170801 -0.44139776 2.2627313e-18 -1.075223e-06 -0.07454694 -0.1571036 3.0187791e-06
-9.58439e-22 -7.5691387e-06 -3.4315851e-06 -7.642286e-07 -0.39138278 0.012432379 0.2767561 -0.125661

conv2.lin_l.weight f4 [32, 32]
00000000: 64dd 133d 74b1 abbd 0c9a a33e 0380 9c3d
00000010: 6b59 553d cc1a 96b2 32cd c63d 136e 25bd
00000020: 2e63 2fa7 9468 48bd c509 d63d 454a eb3d
00000030: 6d36 ff3d 9d54 c63d 457b f63d 4c76 b5bd
00000040: a088 2a3e 31b8 7bbe b98d 993d 720b 103e
00000050: 8f22 3c3e c59e 18be 44d0 fbbd da50 013e
00000060: bc1d c1bc 91de 383d 6b42 ea3c 7d1d 95be
00000070: 9614 f8bd c7ce 763e cd67 26bc befd 643e
00000080: 3238 963d 56b4 1bbc 2e2e 8c3b 604d 6dbb
00000090: 4ed0 78bd 56fe 08b3 1189 a2bd 2a84 85bd
000000a0: aee4 bbac c631 f73d 2d85 08bc 6873 1cbd
000000b0: 28fd bb3d b856 053e 3d9b b2bd abab 6bbd
000000c0: 585a 2f3e 4e40 d2bd edeb 533e 2556 0f3e
000000d0: 4045 e5bd 3087 073e 3fbf 95bc 124e 833c
000000e0: 81e4 413d 8ae4 753d c821 ca3c 2619 24be
000000f0: 66af 803e 6378 313d 38bc 7a3d ee9e 2c3e
00000100: c60c 9ca1 e9e2 dc1b fe01 e31b 22d0 731b
00000110: 8562 eca3 65ae 12a1 0548 1925 b6ba b920
00000120: 504d bb9a 1a6f 8e9f 0032 c49e 14fc 44a4
00000130: cd67 cc33 6790 b122 803a b126 767e 6fa3
00000140: 7a2b efb1 edce ad9d 13d1 66a1 bde2 022b
00000150: 7932 c323 f603 cb23 6e75 f41e dd43 6fb4
00000160: e6f0 13a4 d630 a61f ae53 04ab ba2c 7d2c
00000170: 1627 80b0 2952 5132 6fc7 fc1f e834 a99a
00000180: 0da6 7ea7 9b83 a0a0 47c8 c2a0 e558 9f18
00000190: 794d 181c 0fc1 3527 5a3f a823 eb1a a521
000001a0: e229 4a2d 14ce 0096 afb4 2924 6446 1ca8
000001b0: 9197 d318 6ecb 8b99 b248 699a 3c27 5799
000001c0: 28cd 5d1f bbe9 911b bf33 4d18 8add 7919
000001d0: c09d 3925 b1c0 551c 06de 6d1c b918 4fae
000001e0: e744 d127 5b27 62a9 090c 6fac 98fd 7a19
000001f0: 3656 851a 823b df16 9245 8218 de9e 8c17
00000200: eac3 7fbd 829d 823e 8601 1ebe 73e6 a93d
00000210: f210 913d f5df 4833 6d4e 083e d088 273e
00000220: 6894 422b c716 e33c a038 fa3d b50c 0e3d
00000230: 3113 023e 2eea d8bd 15b7 f93c 636a db3d
00000240: b186 6bbd 4869 ff3e 10f7 fd3c 57d5 c93c
00000250: 3810 9bbc d3ea dcbd 54ff 243e a943 103c
00000260: e5ff f63d d00d 1cbe 0d64 273d 94ae b43e
00000270: 4565 2c3e 15d7 16bf ec86 413c 6617 c3be
00000280: 3a2b 0cbe a868 303e b67b 67be f435 043e
00000290: 5cb7 d3bb 88b2 5932 017c 363e f6f0 e5bc
000002a0: d8c1 50a5 bb43 0f3e 14bf 6d3d 886d 433e
000002b0: 74ad 88bd 81eb 883c d908 16be 803e 733d
000002c0: ad99 393e e4aa 843e 5cb3 843e 38ab 093a
000002d0: e443 2bbe 9080 713e 741b 4c3e 2b04 c53d
000002e0: 5b64 b03d 8c37 433d 079e 5dbd d14c 933e
000002f0: 54a6 143e ffba 14bf e5fa 493e a57b 9fbe
00000300: e4c8 d09d 70ca ac1d b98e 6425 79a6 3eb2
00000310: fea8 9eb0 1b8c 0c1c 4625 adb8 2ad2 06b8
00000320: 6d30 8d9c c634 d729 effe 93b2 2d0c 1aaf
00000330: 78d9 63a7 7da4 61b8 b09e 20b3 4a21 9c29
00000340: 90e7 83b9 7ccd 0d9c bc6f 861e 2301 07b9
00000350: f8c1 a336 0d4c 9f34 c34c f31d eceb d9ba
00000360: 4196 23b5 788a 89b3 c613 fa21 b86d ac98
00000370: 52c2 1e2e ec94 30b3 47fe e41d 5d23 d39f
00000380: e904 8e3d d48c dabd e6e2 f03d 09ce 393d
00000390: 6d1e 59bc c694 8434 ba1f 4fbd c0a7 1cbe
000003a0: 6089 02a6 8d94 5a3d ad30 b1bd f5ac fcbc
000003b0: 026b 603d bfd4 c13d c97d cf3b 6db2 95bd
000003c0: 9a0d 013e 239e 8fbe 02fc ba3d 6b81 c53d
000003d0: 9ad9 a63d 57b6 a2bd d196 9dbc f216 e2bd
000003e0: e87d 82bd 94d0 163e 551c b53d 1ef8 a2be
000003f0: e54a 59bd cbb8 c83e a8bc a0bc 76cc 193e
0.036099806 -0.08383456 0.31953466 0.07641604 0.05208723 -1.7474484e-08 0.09707107 -0.040388178
-2.4339894e-15 -0.04892786 0.10451082 0.11488775 0.12461553 0.096841075 0.120352305 -0.08860454
0.16653681 -0.24581982 0.074977346 0.14066866 0.18372558 -0.14904316 -0.12295583 0.12628499
-0.023573749 0.04513413 0.028596124 -0.2912406 -0.121133015 0.24102317 -0.010156584 0.2236242
0.07334937 -0.009503445 0.004277966 -0.003620945 -0.06074553 -3.1896285e-08 -0.079362996 -0.06519349
-5.340248e-12 0.120700404 -0.008332533 -0.038195997 0.09179145 0.13021362 -0.087210156 -0.057536762
0.17124307 -0.102661714 0.20695467 0.13997705 -0.11194849 0.13235164 -0.01827967 0.016028438
0.04733706 0.060032405 0.024674311 -0.16025218 0.25133818 0.0433277 0.061214656 0.16857502
-1.0574352e-18 3.6542584e-22 3.7555287e-22 2.016774e-22 -2.5628896e-17 -4.9697533e-19 1.3295036e-16 3.1463774e-19
-7.746629e-23 -6.032314e-20 -2.0772987e-20 -4.2714244e-17 9.5183715e-08 4.812884e-18 1.2297699e-15 -1.2982995e-17
-6.960758e-09 -4.6006675e-21 -7.820374e-19 4.649994e-13 2.1163318e-17 2.2010982e-17 2.5883073e-20 -2.2283298e-07
-3.2079593e-17 7.038453e-20 -4.701195e-13 3.597829e-12 -9.324335e-10 1.2184082e-08 1.07056087e-19 -6.9982236e-23
-3.5339597e-15 -2.7192144e-19 -3.299741e-19 4.1190297e-24 5.039271e-22 2.5223453e-15 1.8241427e-17 1.118796e-18
1.14916705e-11 -1.0404784e-25 3.679908e-17 -8.675003e-15 5.4695265e-24 -1.4454428e-23 -4.8241993e-23 -1.1123163e-23
4.696827e-20 2.4139283e-22 2.6521754e-24 1.2917738e-23 1.609964e-16 7.0724836e-22 7.870368e-22 -4.708831e-11
5.8083857e-15 -5.0216216e-14 -3.3970624e-12 1.297591e-23 5.514679e-23 3.6065148e-25 3.367446e-24 9.087392e-25
-0.062442698 0.25510794 -0.15430269 0.08295908 0.0708331 4.6769816e-08 0.13311167 0.16360784
6.91286e-13 0.027720822 0.122178316 0.034680087 0.12702633 -0.10591541 0.030482808 0.10713651
-0.0575015 0.4988501 0.031001598 0.024637861 -0.018928632 -0.10786977 0.16113025 0.008805194
0.12060527 -0.15239644 0.0408669 0.35289443 0.16835506 -0.5892194 0.011811953 -0.3810379
-0.13688365 0.17227423 -0.22605786 0.12911206 -0.006461067 1.2671656e-08 0.17820741 -0.028069
-1.8106801e-16 0.13990681 0.058043554 0.19084752 -0.066737086 0.01671386 -0.14651813 0.059385777
0.18125029 0.2591163 0.2591809 0.0005251649 -0.16725117 0.23584199 0.19932348 0.096199356
0.08612891 0.047660396 -0.054105785 0.28769544 0.14516574 -0.58097833 0.19724615 -0.3114902
-5.5264858e-21 4.5737336e-21 1.9824204e-16 -1.1097307e-08 -1.1544043e-09 4.6503196e-22 -8.2562256e-05 -3.214382e-05
-9.343115e-22 9.557073e-14 -1.7228983e-08 -1.4010544e-10 -3.1620468e-15 -5.3797372e-05 -3.739723e-08 6.9335664e-14
-0.00025158795 -4.691857e-22 1.4234014e-20 -0.00012875027 4.8803595e-06 2.9671392e-07 6.4400934e-21 -0.0016626096
-6.094088e-07 -6.404747e-08 1.6945893e-18 -4.4571746e-24 3.6097632e-11 -4.1113637e-08 6.0614014e-21 -8.942048e-20
0.0693453 -0.10671392 0.117620274 0.045362506 -0.013251883 2.4695163e-07 -0.050567366 -0.15298367
-4.528899e-16 0.053364325 -0.08651862 -0.030844191 0.05478955 0.09464406 0.0063321334 -0.07309423
0.12602845 -0.28050336 0.09130098 0.09643825 0.08146973 -0.07944935 -0.019236954 -0.11039533
-0.06371671 0.14728004 0.088432945 -0.31829923 -0.05304994 0.39203486 -0.019621208 0.15019402

conv2.lin_l.bias f4 [32]
00000000: 6840 0d3d 938e a23d 156a 3db9 4c25 229d
00000010: 89e8 623d 567a 323e f1ba 76bb a526 173e
00000020: 39f1 223c 5eea c9ba ad83 093b 145d 113d
00000030: cf8b 023d 1dfa 3d3e 9438 b8bd 7127 94bc
00000040: 69b4 9abb e3cb 3f3b 48ad eaba 0096 093e
00000050: 7496 79b8 9c98 5eaf f414 9bb9 c6bd 9b3d
00000060: fa8a 033e 15d4 d43d 5e2b 633d 94d6 6f3d
00000070: a476 baac 7b86 0c3e 5a66 243d 25e4 0dbd
0.03448525 0.0793735 -0.00018063963 -2.1459804e-21 0.055397544 0.1742948 -0.0037648047 0.14760835
0.009945207 -0.001540493 0.0020983026 0.035489157 0.031871613 0.18552442 -0.089951664 -0.018085213
-0.0047212136 0.0029265813 -0.0017904425 0.13436127 -5.9506347e-05 -2.0245e-10 -0.00029579515 0.07604556
0.12845984 0.10392014 0.05546128 0.058554247 -5.2996097e-12 0.13723175 0.040136673 -0.034641404

conv2.lin_r.weight f4 [32, 32]
00000000: 0893 9a3d 5623 7fbc 6450 df3d 7e9f 3bbe
00000010: 7da2 41bc 85ad 3435 d5ee b33c 2448 fabd
00000020: b207 0126 1e7b f93d 52ea 003e 1e46 4fbc
00000030: 33f0 253c dd43 efbd 2e88 b13c 8929 16be
00000040: fa9d a63d 8f23 83bd 9f1b 0abe ff36 07be
00000050: 603d 37bd 28aa dc3c cf16 05be 87cf 7a3d
00000060: 781c 2a3d 16ca 313e 08fb 2a3d ac6a dcbd
00000070: 3f8c c8bc 26a4 b33e 74ed cebd 77a7 373e
00000080: 4079 c43d ff27 c4bc f601 e13b e5ac c73d
00000090: 0d3d f43d fc60 54b2 9df7 8cbd 3510 c9bb
000000a0: 709b df24 7a07 b33d ef5d f8bc c50e 5a3c
000000b0: 5c99 4b3d 7ae8 03bc cd2e ae3d 0277 cbbd
000000c0: 30bc 973d 057e 54bd 674b 8cbd 56dd 123e
000000d0: 3e00 1e3e 4d0f 763d 1d70 cabd ad55 d4bc
000000e0: 567b 2a3e cc32 c13b b3a2 f53c 5d0f fabd
000000f0: 54fd 9b3d 8eaa b33e 9ac5 df3d b3c5 3e3e
00000100: e8a6 dc9c 1433 122b 469d fe9f f5d7 5a1f
00000110: 5594 1e9f 4e7d 1d9c 2b20 db33 03d6 8fad
00000120: 28ae 1319 eaf7 2c9f 92c1 072f ddcb 6733
00000130: 259e 9c27 a4dd f032 434c 641f 2e17 bf9d
00000140: 8c9d 4837 b62d 3d20 268d 0b28 71f7 b420
00000150: 5e34 c21d 4e96 0333 7a4c 04a0 0511 d8b3
00000160: 423e 671e 1419 0422 0b96 e9ae bfea 432a
00000170: f2d2 0531 04f1 b921 8d80 04a0 0f4b 941e
00000180: 752c f1a6 9b71 9f18 3a44 4aa7 e7e9 af29
00000190: f1d6 411e 0f4e 3924 c691 0098 f173 ae9f
000001a0: 4cc4 9197 9244 429a 3c22 141d c0c1 bca5
000001b0: 5e20 d5ac fb89 9d2a ee7b 9820 40c4 621f
000001c0: 3e4e c9a9 41d5 f72b 8720 a7aa ff73 4b99
000001d0: c2b2 83ae de67 d09b c09a 8f9b 50c7 5196
000001e0: 3e7f a72a 9fea 5f9a 6b4d a621 2141 a1a0
000001f0: 9c77 8e27 e242 8b26 17f0 b99d c728 f69c
00000200: f9fa c4bd df62 973d 030f 32be 7924 973d
00000210: d47b 8ebd 38bb 8033 f07b 1f3d 8bdb a2bc
00000220: bb6f 85a5 aa51 483e da80 253d a715 66bd
00000230: 4b75 e93d 054c 9cbd 60bb d0bd 7e4c 073e
00000240: d9d0 7ebd bd7a aa3e 7430 533e 0840 653c
00000250: 77a5 31be a2ae 403e 220e 1d3e 3ab5 083e
00000260: fac6 c33d 4403 053d 023f 243e 825a 983e
00000270: 2b14 a73c 45ac 00bf 93a9 423e 84ad a0be
00000280: 3427 ac3d 771c 8a3d 4faf 5ebe be2d 343d
00000290: f399 ba3b f1e5 7db4 b9cc c0bc 80b7 ffbd
000002a0: e416 80a6 8465 493e ada7 93bc 08eb 123e
000002b0: 2910 093e 20cb 713d 77d2 22be 4a24 e23d
000002c0: 38fa 1abe 060c 983e 7330 2f3e 1a0b e73d
000002d0: 6ded 46be f859 21bd 5829 713e e814 f83d
000002e0: a339 7e3d bd3a 76bd ea94 2d3e c9d3 993e
000002f0: ec01 08bd ff56 aebe e431 293e 4da2 b5be
00000300: 9ddb 62a9 e1c4 8aa0 0c1f ef36 8a7d d1af
00000310: 7241 672a 2bcf 4998 4484 f7b8 b568 84b8
00000320: 3bc5 d21b f40c 131e 8a22 96b5 3580 9e28
00000330: 92ec 3329 d007 99b8 9142 46b2 7334 b119
00000340: 37d6 70ba d8d1 029c 2223 8ca3 47c7 1a3a
00000350: 0469 6f2f ed65 f1b6 fe20 aa9c 2106 78b9
00000360: a73b 95b0 ef5d 72b7 6bdd d220 26c9 209b
00000370: 7515 53b6 eb18 0833 2108 bba1 882e 88b3
00000380: 9f87 103e c992 58be 7239 b93d 0f20 40bc
00000390: da8a 98bd 33b7 06b3 2f8b abbd ef47 25be
000003a0: 6fcc 0026 b66a 433c 9452 29bd 2cac b6bd
000003b0: df86 9abc e285 d03d b4eb 883c 8ea4 4cbd
000003c0: de79 163e fbc9 acbe 5d38 253c f648 0b3e
000003d0: 3ae0 113e 9918 8ebd 688d 50be b58f 0e3e
000003e0: 1779 c6b9 20ab 7e3d 5333 acbc 015a d9be
000003f0: 4901 96bd 59fb 083f 2b1e b8bd 1c4b 923e
0.07547575 -0.01557239 0.10904005 -0.1832256 -0.011818525 6.730773e-07 0.02196447 -0.12220791
4.4766295e-16 0.12181686 0.12589386 -0.012650995 0.010128069 -0.11682866 0.02167138 -0.14664282
0.081356004 -0.06403267 -0.13487099 -0.13204573 -0.044736266 0.026936606 -0.12996982 0.06123307
0.041531056 0.17362246 0.04174331 -0.107625335 -0.024480937 0.35086173 -0.10103884 0.17934977
0.09593439 -0.023944853 0.006866689 0.09749774 0.11925707 -1.2362076e-08 -0.06883166 -0.006135965
9.6974155e-17 0.087416604 -0.030318229 0.013309185 0.0497068 -0.008051032 0.0850502 -0.09934808
0.07408941 -0.051877994 -0.06850319 0.14342245 0.1542978 0.060073186 -0.09884665 -0.02591976
0.16648611 0.005895948 0.029984808 -0.122099616 0.07616678 0.3509106 0.109263614 0.18630104
-1.4601523e-21 5.1940505e-13 -1.0783337e-19 4.634193e-20 -3.35805e-20 -5.2108895e-22 1.02038335e-07 -1.6352258e-11
7.6348925e-24 -3.6627486e-20 1.2346948e-10 5.396929e-08 4.347016e-15 2.8040468e-08 4.834396e-20 -5.0581246e-21
1.1957611e-05 1.6024047e-19 7.746657e-15 3.065693e-19 5.140552e-21 3.0637516e-08 -1.1206139e-19 -1.00613796e-07
1.2241913e-20 1.7902612e-18 -1.0622266e-10 1.7400923e-13 1.9473956e-09 1.2599884e-18 -1.1223369e-19 1.5701153e-20
-1.6734784e-15 4.121525e-24 -2.8070117e-15 7.812137e-14 1.0261784e-20 4.01816e-17 -1.661721e-24 -7.3883675e-20
-9.419958e-25 -4.017365e-23 1.9605336e-21 -3.2744091e-16 -6.0574176e-12 2.7984546e-13 2.5831811e-19 4.8019696e-20
-8.939766e-14 1.7609595e-12 -2.968773e-13 -1.0518279e-23 -5.988944e-11 -3.4477836e-22 -2.375737e-22 -1.6945777e-25
2.975345e-13 -4.6304845e-23 1.126909e-18 -2.731756e-19 3.95426e-15 9.663191e-16 -4.921734e-21 -1.6289455e-21
-0.09618182 0.07391905 -0.17388539 0.073800035 -0.06957212 5.9945194e-08 0.038936555 -0.019880077
-2.3147534e-16 0.19562402 0.040406086 -0.056172993 0.11399325 -0.07631687 -0.10191989 0.13212773
-0.06221089 0.33296767 0.20623952 0.013992317 -0.17348276 0.18816617 0.15337422 0.13350382
0.09559436 0.032473817 0.1603966 0.29756552 0.020395359 -0.5026286 0.1901 -0.31382382
0.08405915 0.067437105 -0.21746562 0.043988936 0.0056946217 -2.3646113e-07 -0.02353512 -0.12486172
-8.887989e-16 0.19667631 -0.01802429 0.1434747 0.13385071 0.059031606 -0.15900598 0.11042078
-0.15134513 0.29696673 0.17108326 0.11281414 -0.19426508 -0.03939244 0.23550928 0.121133626
0.062066685 -0.06011461 0.16951337 0.30044392 -0.033204958 -0.34050748 0.16522938 -0.35475388
-5.0372565e-14 -2.3508393e-19 7.1263694e-06 -3.810608e-10 2.0539627e-13 -2.6083234e-24 -0.00011802514 -6.313754e-05
3.4869043e-22 7.784794e-21 -1.1185923e-06 1.7597125e-14 3.9951176e-14 -7.297064e-05 -1.1540252e-08 1.8322555e-23
-0.0009187194 -4.328461e-22 -1.519371e-17 0.00059043284 2.1774232e-10 -7.1942254e-06 -1.1258185e-21 -0.00023653406
-1.0858131e-09 -1.4446195e-05 3.5721906e-19 -1.3299884e-22 -3.145394e-06 3.168763e-08 -1.2673765e-18 -6.3414575e-08
0.14114235 -0.21149744 0.0904416 -0.011726393 -0.07448359 -3.1365925e-08 -0.083761565 -0.16140722
4.468598e-16 0.011927297 -0.04133852 -0.08919558 -0.01886314 0.10181786 0.016713955 -0.04996162
0.14694926 -0.3374785 0.010084239 0.13602051 0.14245692 -0.069382854 -0.20366442 0.13922007
-0.00037855722 0.062174916 -0.021020567 -0.4245148 -0.07324464 0.53508526 -0.08990129 0.2857293

conv3.lin_l.weight f4 [32, 32]
00000000: a28c 66be e282 a6bc 0d5e 79ae 84b6 ac16
00000010: a6c4 803e f5da 62bd 134c f09c f81f 8fbe
00000020: d4f6 8a3e b3b2 1a32 58b4 bebe f341 e93e
00000030: 31fd 093e 9471 96bb e0f5 753e 93a4 58be
00000040: 8428 c53e 9e23 6e3c b991 e7ab d942 0a3e
00000050: 7d1d 16b6 a22b 82a7 ed1d 813e 4a86 143e
00000060: 80c9 983e 885f 413d b09d e23e fc39 543e
00000070: 7ce8 d12c 96b0 273d 0ce6 8c3e ad28 05be
00000080: f8a4 35be 3723 f1bc 3d20 13a1 e834 2a9a
00000090: 63fe 853d 4bd7 093d d257 739d 566b 6ebe
000000a0: e492 6c3e 54c9 8d1a 6edd b2be a3ef e73e
000000b0: 4250 923d 7a6d 62bd 453d 5e3e 5a5e 52be
000000c0: ac17 983e cddb 6c3e bb69 d533 8b7b 873d
000000d0: 12e7 70b6 3bb2 90a0 6966 1e3e d5e4 1d3d
000000e0: a75f 483e 7dfc aa3c 18f3 c03e 5318 803e
000000f0: 88a4 0ea9 b374 71be b383 b03e a885 453d
00000100: 97fb 4a3e 4154 fc3d 8c20 349e 8073 87ae
00000110: 40fa c1bd cfdc e3bc ad9b 049e adc6 45bd
00000120: 678f e8bd 8048 bf1a 20fc 3d3e a34d f7bd
00000130: 09f0 86bd a5ca 483e c574 91bd 4784 233e
00000140: ee7e 3ebe 245f 843b 9ad0 6cae fa9e e23d
00000150: 765b e6b7 335b 871a af80 cebc d6d5 1e3d
00000160: 8cc0 bd3d 7c37 933c 8435 3abe 736d 723c
00000170: d2f9 83ab 8f67 51bd 53ed 34bd 94e3 0a3d
00000180: c8c5 913c a7f1 2d3e 4fc5 e9a7 22ff 8d9a
00000190: 20cd 24bd 7e1f 90bd 1007 781e 603e 01ba
000001a0: fa0f acbd 3066 3db5 1d9f 203e 5ae5 38be
000001b0: bf71 dd3d 5454 e83d bfc8 c13c fa92 2e3e
000001c0: c41a 5cbe 7988 2bbc 5487 8ab6 cbdc 823d
000001d0: 50e3 1337 90ee 531f 792b 05be 1267 ee3c
000001e0: 2ba2 0a3e d114 093d 2ad0 31be 8efa 233d
000001f0: 302a 2dac 91af 2f3e 7a3c 96bd f75b b6bd
00000200: c1bc debc 0159 3c3e 0633 b39b 4927 3f1c
00000210: a9bd bb3c 1873 8d3d 43c0 901f 03f5 1d3d
00000220: 6e9a eebd 61d8 37aa 1037 083e 7fe2 f8bd
00000230: baac 0d3e 35c8 98bd 3903 7b3d c971 c63d
00000240: e952 3fbe 4cc1 073e 8286 76b6 5ce5 383e
00000250: f4c8 f8b7 6af6 da27 d51e aebd 288c c63d
00000260: 4855 52ba c99a 493e 31e6 cabd 468a 46bd
00000270: 9d80 e323 6916 ca3d d5c1 adbd 3d20 b93d
00000280: f73b c93d 5048 2c3d b668 7b1b 92a4 a69f
00000290: 019a f53d 799b 4bbd e53f b122 34c8 293e
000002a0: 9c7a 89bd 577c 98aa c0f5 103e 8b34 9bbd
000002b0: 8c86 aa3d 983b bf3c 002b 0bbd d2d3 cc3d
000002c0: 13ec a2bd 6be7 283e d2bd 52a5 9a87 5cbd
000002d0: adec 5a36 1951 cd19 7c8c 1cbd ab70 9fbd
000002e0: fec4 f23d 7328 8bbc 11ea babd a3be bbbc
000002f0: 7ef7 20ab 3053 8a3c 87ba 91bd 5953 b8bc
00000300: d27d e63d 3110 483e 6886 aa1a c0e1 4897
00000310: 9b79 8bbd e640 423e 0f51 1d1d 6f0a d23c
00000320: 8ac0 a6bd 6aab 6529 eda2 b13d 53fd a8bd
00000330: 3178 9fbd e7e8 a5bd 976d 5ebd 7102 ba3c
00000340: b02a cfbd 157c 9dbd d844 f5b2 6fbd 1f3e
00000350: 805f 1237 c845 131c c14e 023d 9260 aabd
00000360: 7df5 043d bd67 243e dbbe 093b 9276 0ebd
00000370: 1c0f 7bab 1df2 b63d 1bd8 d1bd d238 4dbd
00000380: 383a d7ad 74b4 b528 06d0 cd97 1346 a29a
00000390: 5209 7a27 f17e 27aa 66c5 57aa 159a 5326
000003a0: e862 c4a8 3a75 5519 67bb 0a29 1527 96aa
000003b0: a509 a9a8 cb2b 0c2c 4b3e 07a5 d5a1 cfa5
000003c0: a696 95a4 b532 3428 fe2b 8c29 ec6a 26aa
000003d0: 1a48 7a1d 7c1f 0c99 d07b 8d25 ba8b b9a3
000003e0: c11c cf25 7c2e 8326 5d26 e028 8d22 b6a4
000003f0: df45 c29e b150 cfb2 ea41 87a5 5766 f4a6
-0.22514585 -0.020326082 -5.669958e-11 2.7903282e-25 0.2515003 -0.055384595 -1.5901532e-21 -0.27954078
0.2714144 9.004611e-09 -0.37246966 0.45558128 0.13475491 -0.0045911763 0.24019575 -0.2115653
0.38507473 0.014534859 -1.6453983e-12 0.13502063 -2.2368906e-06 -3.6129555e-15 0.25218144 0.14504352
0.29841232 0.047210246 0.4426093 0.20725244 5.9659482e-12 0.04093989 0.27519262 -0.13003798
-0.17738712 -0.029435737 -4.9848204e-19 -3.5197913e-23 0.06542661 0.033652585 -3.2206184e-21 -0.23283133
0.2310291 5.8641496e-23 -0.34934562 0.45300016 0.07144214 -0.055280186 0.2170306 -0.20543805
0.2970556 0.23130722 9.937818e-08 0.06615361 -3.5897287e-06 -2.4512492e-19 0.15468754 0.03854831
0.19567738 0.020872349 0.37685466 0.25018558 -3.1673042e-14 -0.23579673 0.3447548 0.048223168
0.19822536 0.12320758 -9.535851e-21 -6.159606e-11 -0.094715595 -0.02781525 -7.020215e-21 -0.048285175
-0.11355477 7.911288e-23 0.1855321 -0.12075355 -0.06588752 0.19608553 -0.0710235 0.15968429
-0.18603107 0.004039662 -5.3845463e-11 0.110654786 -2.7460726e-05 5.598203e-23 -0.025207845 0.03877815
0.09265241 0.017970793 -0.18184477 0.014796603 -9.377449e-13 -0.05112415 -0.044171643 0.03390844
0.017794505 0.16986714 -6.4884414e-15 -5.872842e-23 -0.040234685 -0.07037257 1.3130471e-20 -0.0004930254
-0.08401485 -7.055669e-07 0.15685697 -0.1805624 0.10812711 0.11344209 0.023655294 0.17048255
-0.21494585 -0.010469549 -4.1284748e-06 0.06389769 8.814808e-06 4.4878322e-20 -0.13004865 0.029101882
0.13538425 0.033467118 -0.17364565 0.04003387 -2.4608197e-12 0.17156817 -0.07335754 -0.0890426
-0.027189614 0.18393327 -2.964604e-22 6.3247374e-22 0.022917585 0.06906718 6.130444e-20 0.03856374
-0.11650549 -1.6328737e-13 0.13302255 -0.12152576 0.13835421 -0.074600615 0.06128237 0.096896715
-0.18683971 0.1325733 -3.673515e-06 0.18056244 -2.965748e-05 6.0774318e-15 -0.085019745 0.096947014
-0.0008023572 0.19687952 -0.09907187 -0.04847171 2.4665859e-17 0.09867556 -0.08484236 0.09039352
0.098258905 0.04206115 2.0796067e-22 -7.0575993e-20 0.119922645 -0.049708817 4.8043597e-18 0.16580278
-0.06712839 -2.7086902e-13 0.14156246 -0.07578381 0.08326444 0.023343846 -0.033976555 0.10001339
-0.07955184 0.16494529 -1.827891e-16 -0.053840257 3.2622295e-06 2.1229258e-23 -0.038219914 -0.077851616
0.118539795 -0.016987061 -0.09126676 -0.022918051 -5.7186883e-13 0.01688537 -0.071156554 -0.02250068
0.11254467 0.19537427 7.05275e-23 -6.490842e-25 -0.06810304 0.1897007 2.0820683e-21 0.02563974
-0.08142193 5.0996893e-14 0.08673654 -0.08251443 -0.077865966 -0.08101063 -0.05430373 0.022706242
-0.10115564 -0.076896824 -2.855306e-08 0.15599607 8.7245135e-06 4.872841e-22 0.031813387 -0.083192006
0.03246068 0.16055198 0.00210183 -0.034781046 -8.919408e-13 0.08932898 -0.10246297 -0.050103016
-2.4468524e-11 2.0173296e-14 -1.3300327e-24 -6.711484e-23 3.4699522e-15 -1.4876621e-13 -1.9164322e-13 7.341415e-16
-2.1803265e-14 1.1035516e-23 3.08047e-14 -2.667247e-13 -1.8766952e-14 1.9919507e-12 -1.1730489e-16 -3.6018438e-16
-6.487366e-17 1.00030026e-14 6.2248804e-14 -1.4780858e-13 3.31245e-21 -7.2441886e-24 2.45435e-16 -2.0116917e-17
3.592826e-16 9.102551e-16 2.4885633e-14 -7.898845e-17 -2.0569447e-20 -2.4134666e-08 -2.3463432e-16 -1.695864e-15

conv3.lin_l.bias f4 [32]
00000000: b179 d63d 5e46 94bd fd1a 3e3e 4778 463e
00000010: 5d09 0fbe 88c1 433e 3cca 0e3e cfc4 77b4
00000020: 404a 90bc 16a3 05a7 8305 c23d a3f0 da3c
00000030: a9f3 353d 26bd b7bd faed d7ab cb9d 203d
00000040: 18fd 85ba 61eb 503d 85c6 ccb7 f4fa 263d
00000050: 7c45 88bd 05cb 5fbb a483 b9bd 9bf3 11bc
00000060: 7899 443e 5288 ddbd 7838 a13d d890 c53d
00000070: a5d1 f63d 7fb6 38bd c355 b73d 150f 543d
0.104724295 -0.07239984 0.18564983 0.1938182 -0.13968416 0.19116795 0.13944334 -2.3075266e-07
-0.01761353 -1.8545867e-15 0.094737075 0.026726073 0.044421826 -0.08971624 -1.5342721e-12 0.039212983
-0.0010222523 0.051005725 -2.4411138e-05 0.04076667 -0.06653878 -0.0034148109 -0.090583116 -0.008908178
0.19199169 -0.10817017 0.07872099 0.096467674 0.12051705 -0.045095917 0.089519046 0.051772196

conv3.lin_r.weight f4 [32, 32]
00000000: bfce 00be 4c30 10be e923 7c1f 421a cd18
00000010: 248c 673e 8035 603e 356b dd9d de4e 9abd
00000020: e85e d53e 6006 4199 f0ff c8be 4cb5 b93e
00000030: c7ad a7bd b434 9ebd 6438 833e 12b0 d4be
00000040: 8516 f73e 9802 7c3e 9d23 2232 ccf4 733d
00000050: dc57 f5b5 f454 3026 7ffb 693e 5137 25bd
00000060: 3745 bf3d 63cf 13be c7d0 2a3e b9be 983d
00000070: 6bab 5b2c 6aff d2bd 60e6 bf3e 9c95 e0bd
00000080: 0322 263c bd68 9e3d 307e 7c9e f045 5a17
00000090: 8efa a03e c4f3 923e cb2c b8ae c1b8 b4bd
000000a0: 8401 c33e d295 5da1 4ea5 f2be 4b39 b43e
000000b0: 4e3e c73d 65cb 3abe b077 893e a410 c3be
000000c0: 1529 e63e a00f 6f3e 9960 a632 1fd3 243c
000000d0: 787a f3b4 950b a6a1 cc46 be3e f2be be3d
000000e0: e6da ec3d 35d7 163d b2f0 773e 3c97 46bd
000000f0: f98d 5aad 757a 67bd 48e3 c13e 9a9f 82bd
00000100: cc4d a0bd 3a55 2c3e a471 371d 3082 9f20
00000110: 032b d23c a57a e23d f9ae 84a3 4cfb 0dbb
00000120: caca a3bd df3e ae1b 96e6 423d a8b6 11be
00000130: 06d7 1b3e 4bfc 2d3e 2e40 24be e22e 053e
00000140: c6b5 45be 134e e2bd ff86 f0b1 b364 0d3e
00000150: d0c6 2a37 7285 0a1b 858b c7bd 778d d73d
00000160: 9956 a1ba 4196 dd3d 9bc7 80bd 48b4 c7bb
00000170: 1e77 5cab e983 88bd 199d 8fbd 587b 523e
00000180: 1364 453e abab 243d 2220 0c1e 19d6 5c9a
00000190: 42db 4ebd b71c 343d b8a6 d3a8 e391 673d
000001a0: 8598 e8bd 430b ad9b 7bed 193e 5252 0fbe
000001b0: 6e9c fa3d fa12 813d 9bdd 90bd b5c1 3f3e
000001c0: 1a93 5cbe 68cb 853d e3f2 9ab6 3d29 a93d
000001d0: b20a 6836 8432 a01d b04d 04be 189b 183e
000001e0: 2a1b a5bd b752 55bd d3fd b43d 4fed ca3d
000001f0: a087 85ab 0ccb d7bd de22 d9bd eaa2 453d
00000200: dae6 17bd 52d0 afbd 2013 529f 75c5 2ba7
00000210: eb41 f93d e335 24be 242d cb20 ae0e 4cbd
00000220: f183 61be 5e80 0322 5a72 dd3d 3701 86be
00000230: 5a3e 223e 67ab 2d3e ac41 9fbd a570 a93d
00000240: e3cf 3ebe fcef abbc 016e 32b7 d4f8 86bc
00000250: 6a2d 3937 cca9 d7a3 4690 d0bd f8a2 493e
00000260: 8552 9ebd 1086 ffbd 2fdd 6fbc fec7 f13d
00000270: aaa4 b523 f566 a13d 3235 47be c376 073c
00000280: d102 983d c297 74bd f14b 7ead 7308 2f18
00000290: 5fa2 cfbc ffee 3abc 4b34 e920 6801 e23d
000002a0: 9abe a5bd ff75 b99a 6d31 8f3d eca2 bebd
000002b0: d892 c83d 6e8b 8739 abe7 2cbd 43f6 7e3d
000002c0: 6927 afbd e38d 52bd c9d6 1827 5c30 a33a
000002d0: 46d4 0637 d26a 6a9b 0ac6 08bd c858 cd3d
000002e0: 459c 213d 196c 1c3e 9c33 86bd 90b0 073e
000002f0: 35a6 10ac 48c4 dbbb fce4 cbbc 4958 6dbd
00000300: f9ae b23d 4d2e bebd 50fe cda9 898e a21b
00000310: 2b25 81bc 33e7 e8bd b977 ee1e b5d8 76bc
00000320: 8848 27be 6561 a3af 4c10 ea3d 6c0e 4fbe
00000330: 126e 37bb b0c3 433e c119 afbc b81c 923d
00000340: 1697 68be 48d0 8eba 5e11 0bb2 5f46 af3d
00000350: e8c8 62b7 d32d 521a 5d4b 3fbe c144 3b3e
00000360: 02c1 fabd 11c4 2b3e b5e9 403d d5bd a13d
00000370: 5329 05a5 0814 e2bd b4b3 56bd 2e5e 8d3d
00000380: 6a94 1a2c 0200 4aae 759c ba27 074f 4fa1
00000390: d2dd c8a6 c0fd 9627 8aa2 851a b1c7 e426
000003a0: af7d b4a4 3592 8697 535c dca5 e471 6624
000003b0: 3fd0 b4b2 7e0e 0ca7 2e38 8ba7 f038 152a
000003c0: 316c bba4 4ffe 8d25 d534 a423 6e02 11a9
000003d0: 7941 8f20 9b17 1f2f 9971 d123 f4db 33b2
000003e0: 3c4d 9125 34fe 46a6 e887 8d24 b669 dfa5
000003f0: 97bf 2c9d 2a22 632c a2fb 9124 0edc 26a7
-0.12578867 -0.14080924 5.339278e-20 5.301777e-24 0.22612053 0.21895409 -5.8609062e-21 -0.07534574
0.4167397 -9.9791536e-24 -0.39257765 0.3627113 -0.08187442 -0.07724896 0.2562896 -0.4154058
0.4825937 0.24610364 9.437739e-09 0.05955963 -1.8279493e-06 6.11774e-16 0.22849844 -0.040335957
0.093393736 -0.1443458 0.16681205 0.074582525 3.1216928e-12 -0.103026226 0.3748045 -0.10966036
0.010139945 0.07734821 -1.3366864e-20 7.0527873e-25 0.31441158 0.28701603 -8.375308e-11 -0.088243015
0.38087094 -7.5076e-19 -0.47391742 0.3519996 0.097286806 -0.18241651 0.26849127 -0.38098633
0.44953218 0.23345804 1.9368871e-08 0.010060101 -4.5351385e-07 -1.1251663e-18 0.3716339 0.09313764
0.11565189 0.03682633 0.24212912 -0.048484072 -1.242339e-11 -0.05651327 0.37868714 -0.06378098
-0.078273386 0.16829386 2.42786e-21 2.7021799e-19 0.025655275 0.11058549 -1.4385572e-17 -0.0021664677
-0.07997663 2.8826515e-22 0.047583185 -0.14229834 0.15218744 0.16990773 -0.16040108 0.13006166
-0.19307622 -0.11050048 -7.0002666e-09 0.13807945 1.0179079e-05 1.1458211e-22 -0.09743408 0.10525029
-0.0012309133 0.10819674 -0.06288072 -0.0060944892 -7.832501e-13 -0.06665785 -0.07012386 0.20554864
0.19276457 0.040202778 7.418183e-21 -4.566788e-23 -0.05050207 0.043972697 -2.3498009e-14 0.056535613
-0.11357216 -2.8627727e-22 0.15031998 -0.13996246 0.12236868 0.063024476 -0.07073518 0.18726237
-0.2154049 0.06532937 -4.6178334e-06 0.08259819 3.457692e-06 4.240388e-21 -0.1292026 0.14902914
-0.08061822 -0.052080836 0.08837476 0.09908544 -9.487862e-13 -0.10536775 -0.106023535 0.04825107
-0.03708539 -0.08584656 -4.448505e-20 -2.3838059e-15 0.12170776 -0.16036181 3.441941e-19 -0.049818687
-0.22022988 1.7821768e-18 0.108128265 -0.26172802 0.15844098 0.16959916 -0.07776198 0.08273438
-0.1863399 -0.020988457 -1.0635239e-05 -0.016476072 1.1037433e-05 -2.3382258e-17 -0.10183768 0.19691074
-0.07730583 -0.12476742 -0.014640137 0.118057236 1.9693797e-17 0.078809656 -0.19453886 0.008268061
0.07422412 -0.05971504 -1.4455091e-11 2.2622486e-24 -0.02534598 -0.01140952 3.950634e-19 0.110354245
-0.08092995 -7.670484e-23 0.06991849 -0.09308419 0.09793633 0.0002585309 -0.042213123 0.062246572
-0.08552439 -0.051404845 2.1210673e-15 0.0012450325 8.036446e-06 -1.9390542e-22 -0.03339199 0.10026699
0.03945567 0.15275611 -0.065528125 0.13250947 -2.0555894e-12 -0.006706748 -0.024889462 -0.057945523
0.0872478 -0.09286175 -9.147945e-14 2.6892763e-22 -0.015764793 -0.11372223 2.5248746e-20 -0.015066315
-0.16336262 -2.971873e-10 0.1142889 -0.20220345 -0.002798919 0.19117618 -0.021374585 0.07134384
-0.22713885 -0.0010895813 -8.094814e-09 0.08558344 -1.3517427e-05 4.3464e-23 -0.18681093 0.18287946
-0.122438446 0.16774012 0.04709788 0.07897536 -1.1549912e-16 -0.11038977 -0.052417472 0.06902729
2.1967103e-12 -4.592949e-11 5.1795e-15 -7.023892e-19 -1.3937912e-15 4.190848e-15 5.5270107e-23 1.5874805e-15
-7.827547e-17 -8.696455e-25 -3.8226478e-16 4.996977e-17 -2.1049457e-08 -1.943676e-15 -3.864116e-15 1.3253613e-13
-8.1281606e-17 2.4631927e-16 1.7803291e-17 -3.2198575e-14 2.4268468e-19 1.4469352e-10 2.2707936e-17 -1.0469183e-08
2.5205826e-16 -6.903956e-16 6.1379237e-17 -3.8755966e-16 -2.286306e-21 3.2277605e-12 6.331001e-17 -2.315642e-15

lin.weight f4 [2, 32]
00000000: d675 a9be 47ff e2be 84ff 293c 2222 d13d
00000010: ff99 363e 97e1 e83a 56aa 653d eb59 5933
00000020: 98f4 cf3c 4325 a128 8673 d2be 224a 03bf
00000030: 35bf d7be fddf febb e00c aeab eacd 133e
00000040: 43d0 b2a5 ee76 a8be 4b5a bc38 8e31 10bf
00000050: 5a65 18bc 0c3e dcbc 2f58 aebe 6714 1038
00000060: 10e5 af3d e5a5 d8be 21b2 663e 70c1 f73d
00000070: 1ade f33d 6a4e fcbe 9bee 433e b52b 6b3e
00000080: 3bc7 e33e 71ed ec3e a1a6 46be 4d16 6fbe
00000090: 6ed4 2ebe ce62 01be 7277 20be 3c45 56b4
000000a0: 6afa 36bd 50d2 7928 213f e13e 82e0 bb3e
000000b0: 879d 8f3e 9a11 82be 7f94 552b bb88 11be
000000c0: c812 2bb3 025d 063f cd4c b538 62b0 0f3f
000000d0: 014e 37be 80de 553d 14d3 ed3e c12c fab7
000000e0: b94c 2bbe 2611 e53e 7f79 8abc 0ec1 45be
000000f0: af6b f7bc 0485 f03e fd9e 83bb 77b4 00be
-0.33097714 -0.44335386 0.010375861 0.102115884 0.17832182 0.0017767426 0.056070648 5.060603e-08
0.025385186 1.789075e-14 -0.41103762 -0.5128499 -0.42138067 -0.0077781663 -1.2367017e-12 0.14434019
-3.1019202e-16 -0.32903236 8.981357e-05 -0.56325614 -0.009301508 -0.026885055 -0.34051654 3.4351277e-05
0.08588612 -0.42314067 0.22528888 0.12097442 0.11907597 -0.49278575 0.1913399 0.22965892
0.44487938 0.46274903 -0.19399501 -0.23348351 -0.17073223 -0.12635347 -0.15670565 -1.995549e-07
-0.044672407 1.3867881e-14 0.43993476 0.36694723 0.2804987 -0.25404054 7.587888e-13 -0.14212315
-3.983112e-08 0.5248567 8.645058e-05 0.56128514 -0.1790085 0.052214146 0.46450102 -2.9823163e-05
-0.16728486 0.44739646 -0.016903637 -0.19311926 -0.030202715 0.46976483 -0.0040167556 -0.12568842

lin.bias f4 [2]
00000000: 8083 003e 0c1d adbd
0.12550163 -0.08452806
