test_scripts/metrics/model.pth (torch, 24064 bytes, 12 tensors)

mlp_gin1.weight f4 [64, 11]
000000 8b 62 2a be d5 d9 1e 3b be 67 d7 3d e4 0b 16 3e
       -0.16639154 0.0024238725 0.10517834 0.14652973
000010 39 13 2a be 75 b7 c6 3d 3f 73 97 be 8d 21 bf 3c
       -0.16608895 0.097029604 -0.29580113 0.023331428
000020 aa 94 62 3e ca bb d2 3c 3d 80 07 3d c2 0a b4 3e
       0.22127023 0.02572431 0.033081282 0.35164458
000030 8c 5a 2e be 7e f5 20 3d 50 78 36 be 59 73 16 3d
       -0.17026728 0.03929662 -0.17819333 0.036731098
000040 60 fe 35 3e 05 7e 20 be fb c4 38 3e 98 7b 49 bd
       0.17772818 -0.15673073 0.18043892 -0.049190134
000050 2f c7 1d 3e 37 3a 27 3c 4e 19 77 be 12 41 06 3e
       0.15408014 0.010206751 -0.24130747 0.1311076
000060 49 bf 8f bd a4 d4 d7 bd e8 b1 dc 3c 38 4d 37 3a
       -0.070189066 -0.10538605 0.026940301 0.00069924025
000070 ca 6c ea bd 64 f4 f0 bd 43 ce 5b 3e 36 82 84 be
       -0.11446531 -0.11765364 0.21465401 -0.25880593
000080 ec 63 b9 bd c2 fc ae 3c 5a f2 2c bc dc 7e 0b be
       -0.09052262 0.021360759 -0.010555828 -0.13622612
000090 2d ce 55 3e 3a 57 c0 bc 60 ff 82 3e 81 2f ad bd
       0.20879431 -0.023479093 0.2558546 -0.08456326
0000a0 a9 ba 7b be 2a 61 10 3e bc 22 1c 3b a5 d2 20 be
       -0.24582924 0.14099565 0.0023824414 -0.15705355
0000b0 7d 42 d4 bd 60 d4 01 3e d9 d7 3a 3c b6 e0 cc bc
       -0.10364244 0.12678671 0.011404001 -0.025009494
0000c0 a0 0b 92 bd 97 d6 e1 bd 74 48 a6 bd 20 82 b2 bc
       -0.071311235 -0.11027258 -0.08119288 -0.021790564
0000d0 9e 65 73 3e 96 e2 6e bc 68 69 47 be d4 19 04 3e
       0.23769233 -0.0145803895 -0.19473803 0.12900478
0000e0 ec ed c8 3d a7 c5 d4 3c 69 57 08 3d dc df 11 3d
       0.09811005 0.025973154 0.033286486 0.03561388
0000f0 32 a7 d1 bc 22 3e 28 bd 57 43 df 3c cc 19 95 3c
       -0.02559242 -0.04107488 0.02725379 0.018200777
000100 f7 3c cf bd 3e 56 79 be 02 82 8c be e6 0b ab bd
       -0.1011905 -0.24349305 -0.27442938 -0.08351879
000110 06 72 ff bd 24 21 a2 be 39 e3 75 bd 80 a1 51 3d
       -0.1247292 -0.3166591 -0.06003115 0.05117941
000120 99 b0 23 be fa 82 e6 3d 8d f6 39 3e 0f 3d 7e 3c
       -0.15985335 0.112554505 0.18160458 0.015517487
000130 ee f2 f7 3d ff 24 2f be 3b a3 41 3e 2c c5 22 3d
       0.12106882 -0.17103957 0.18909924 0.03973882
000140 1c da 9a be c8 ef 94 bd 8f 16 8a bd 78 08 93 3c
       -0.3024453 -0.07272297 -0.06742584 0.017948374
000150 df 2d 11 3e 0d 91 2d be db 98 50 3d 44 48 39 be
       0.14177655 -0.16949864 0.050927024 -0.18093973
000160 7f 06 51 be 79 ca 76 3e 3c 70 95 be bd 51 7e 3e
       -0.20412634 0.24100675 -0.2918719 0.24835868
000170 44 1c 31 be b4 a8 42 be 2d 6d 78 be 47 7d 3b be
       -0.17295939 -0.19009668 -0.24260397 -0.18309508
000180 3e 40 9f bd 54 f6 51 be fe 49 3d be 26 9c 0d be
       -0.07775925 -0.20504123 -0.18485257 -0.13829097
000190 6a e5 a0 3d ee 2e ca 3d 86 3e ee 3c e3 35 9d 3d
       0.07856257 0.098722324 0.029082548 0.07676294
0001a0 a4 1b 9c 3d 1c fc a7 3b 89 bd 49 3e f6 99 a7 3d
       0.076224595 0.0051264893 0.19701208 0.081836626
0001b0 03 9e 25 3d 82 d7 e8 bc 79 0d f5 3b be a1 29 bd
       0.040433895 -0.028423075 0.0074784127 -0.041414015
0001c0 af dd 36 be d4 3b ca 3c e8 9c 18 3e 30 5c 9d 3d
       -0.17858003 0.024686731 0.14903605 0.07683599
0001d0 f6 f4 20 be fd e5 7d 3e ed 22 3d 3d 61 6b 8b 3d
       -0.15718445 0.24794765 0.046175886 0.0680759
0001e0 e6 e4 d8 bd 99 b5 8a bd 3d 36 81 bd 12 da 01 be
       -0.10590534 -0.06772918 -0.06309173 -0.12680843
0001f0 f4 a0 f9 bd ed 1d 1d 3e ab 69 71 bd df 6a 5d be
       -0.121889025 0.15343447 -0.058938663 -0.216228
000200 be d8 0e bb 87 16 6a 3e 46 8a dc 3d 57 ac 98 be
       -0.002179667 0.22860156 0.10768561 -0.29818985
000210 c8 e1 83 ba 83 d7 5f 3e 86 6a 8e 3c 87 bc 22 be
       -0.0010061795 0.21859555 0.017384779 -0.1589223
000220 3d cb 69 3e 04 5d 59 3e b7 18 cf bd 65 c3 b0 3d
       0.22831436 0.21226889 -0.10112136 0.086310185
000230 6e 90 4a be b2 07 fb 3d bf 4e e3 3d 8a 9e 7f bc
       -0.19781658 0.12257327 0.11099004 -0.0156017635
000240 1c 4d d0 3b 94 72 33 bd f7 e5 80 be 39 d9 3b 3e
       0.0063568484 -0.043810442 -0.2517545 0.18344583
000250 25 c2 3c be 05 8d 30 3e 8d dd 98 be 44 b2 88 3c
       -0.18433435 0.17241295 -0.2985653 0.016686566
000260 08 e5 1b 3e 77 91 ab be 1c 38 84 3d 38 94 0d 3e
       0.15224087 -0.33509418 0.064560145 0.13826072
000270 17 05 d0 3e 70 af 50 be d9 73 1a 3e c1 c3 7e 3c
       0.40628883 -0.20379424 0.15083255 0.015549601
000280 b7 83 39 be 73 4e fd bd 5e 43 3b be 23 17 3f 3e
       -0.18116651 -0.123684786 -0.18287417 0.1866117
000290 2e 01 3e 3e b1 4b 66 3c c1 f3 27 3d b1 6f a3 bd
       0.18555138 0.014056132 0.041003946 -0.07980288
0002a0 8a 38 df be f8 d0 ab bc 8e d8 04 be 93 dd e8 3c
       -0.43597823 -0.020973668 -0.12973234 0.028425967
0002b0 89 a8 62 3d d3 9a 2f bd 94 cc 1c 3e 18 29 53 be
       0.05533651 -0.04287226 0.15312415 -0.20621145
0002c0 5b 80 1c 3c 05 03 c4 3b b0 c1 03 bb 33 7d 6b 3d
       0.009552087 0.0059818053 -0.002010446 0.057492446
0002d0 77 f8 08 bd 81 db c0 3d b4 a3 3e 3e 03 a7 03 be
       -0.03344008 0.09416867 0.18617135 -0.12856679
0002e0 1a 0b 9f bd b4 aa e2 3d 06 66 0a bb 3e 05 0f 3e
       -0.07765789 0.11067715 -0.002111794 0.13966843
0002f0 0d 0e 2f bd c9 1d 81 be 45 ff 45 3e 1a 2b 2f 3c
       -0.04273801 -0.25218037 0.19335659 0.010691429
000300 93 e8 38 3d a5 af b7 bc 23 65 99 3d 52 60 3f 3d
       0.045143675 -0.022422621 0.074899934 0.046722718
000310 55 c1 fb bd 34 be 5a 3e 10 ee 93 bd 69 fe 83 3e
       -0.122927345 0.21361619 -0.07223141 0.25780037
000320 ec 8c e9 3d e0 dc 87 be b2 39 39 be f1 30 84 bd
       0.11403832 -0.26535702 -0.18088415 -0.06454647
000330 76 c3 f9 3d f3 34 20 be af c8 22 3d 27 a2 8c 3e
       0.12195484 -0.15645199 0.039742168 0.27467462
000340 52 21 2b be b2 9b 52 be 57 38 ba bc 7d 66 9f 3e
       -0.1671193 -0.20567206 -0.022731943 0.3113288
000350 25 0a 15 3e 52 c1 7a bd 0e 83 a9 3d 81 5b 3a 3e
       0.14554651 -0.06121952 0.0827695 0.18198968
000360 2a a3 1c 3d 1e 40 1c bd c8 04 45 be 88 64 9f bc
       0.038241543 -0.038147084 -0.19240105 -0.019457117
000370 30 1f 32 be 80 42 67 bd d5 b5 14 3e cb 8b 23 3e
       -0.1739471 -0.056459904 0.14522488 0.15971296
000380 8c e5 4d bc f6 2c 09 be a7 96 8c 3d c5 eb 4e be
       -0.012566935 -0.13396057 0.06864672 -0.20207126
000390 1c b9 ed bb 24 1c ca bd 23 e7 ff bd 11 bf 71 bd
       -0.007254733 -0.09868649 -0.12495258 -0.059020106
0003a0 d4 97 97 be 9c d7 ed bb 6b 7f 74 be 1a 33 01 3e
       -0.29608023 -0.0072583687 -0.23876731 0.1261715
0003b0 79 87 e7 3c bb d2 43 bd 8d 8d f3 3d 89 e5 26 3e
       0.02826284 -0.04780839 0.11892233 0.16298498
0003c0 2a 55 8c bd ee 24 bd 3d e0 88 86 be 34 66 29 3b
       -0.06852181 0.092355594 -0.26276302 0.0025848271
0003d0 93 0e 28 bd c6 26 74 be 43 0a ec bd 3e 57 1f 3e
       -0.041029524 -0.23842916 -0.11525395 0.15560624
0003e0 2a 27 52 3e a7 d0 f6 3d 0e ff a2 be db a3 a1 3d
       0.20522752 0.12051516 -0.31835216 0.07892581
0003f0 7c 0f e7 ba f2 ee 6a 3e 1c 97 25 3e 6f b1 97 be
       -0.0017628516 0.22942713 0.16170925 -0.2962756

mlp_gin1.bias f4 [64]
000000 57 4e a0 be 2e 1a 79 be e1 db 29 be 54 85 bc bc
       -0.3130977 -0.24326393 -0.16587783 -0.023012795
000010 41 45 10 3d 02 ab b6 be 06 0a 2d 3e a0 d8 98 be
       0.035222296 -0.35677344 0.16898355 -0.29852772
000020 46 1c 6b 3e 93 62 48 3e 1a ba 73 be 2f c8 0b bd
       0.22960004 0.19568853 -0.23801461 -0.034126457
000030 7e 04 71 bd bb e2 de bd f1 f1 12 be d6 7a 81 3d
       -0.058842175 -0.10883089 -0.14350106 0.06322257
000040 d5 ad b5 be 64 13 43 3e d6 96 b6 3d e5 5a 71 bd
       -0.35484186 0.19050366 0.089154884 -0.058924574
000050 a4 6b ac be 15 f5 fe 3d 3f 57 12 be 4b 8e 31 3e
       -0.33675873 0.124490894 -0.14291094 0.17339437
000060 ae f8 84 be ac 72 70 be 5d 66 c7 3d 30 fa ed 3d
       -0.25970978 -0.23481244 0.09736321 0.11619985
000070 87 de 0d 3e d9 bb e7 bd 2e dc e7 3d ae 31 61 3d
       0.13854419 -0.11315126 0.11321293 0.05497902
000080 aa f9 52 3d ac c2 ca 3d e1 99 0f 3e de 0c 50 3e
       0.05150763 0.09900412 0.14023544 0.20317408
000090 16 56 d7 3d f5 ae 17 be 1d 49 b1 bd 25 51 77 be
       0.105144665 -0.14812835 -0.086565234 -0.24152048
0000a0 ce f4 69 be 9e 6e 2e be 69 0b 29 3e 17 e3 c8 be
       -0.22847292 -0.17034385 0.16508259 -0.39235756
0000b0 e6 9a c1 3d b2 a3 c6 bc f5 fb 44 3d 36 9a 32 3e
       0.09453373 -0.024247978 0.048091847 0.1744164
0000c0 43 c4 e0 bd 11 08 8b be c5 37 3e be 50 47 84 3b
       -0.10974934 -0.27154592 -0.18575962 0.0040368214
0000d0 b8 59 96 3d 50 fb 0c 3e 5b ba a4 bd 66 b0 de bd
       0.07341331 0.13767743 -0.08043357 -0.10873489
0000e0 35 75 c8 bc 03 a5 ec bd 72 ae ca be fb 98 64 3e
       -0.024469951 -0.11554911 -0.39586216 0.22323982
0000f0 f4 67 58 be 3d 3a 1c be 2a 35 22 3e ef 45 dd 3d
       -0.21133405 -0.15256591 0.15840593 0.108043544

gin1.nn.weight f4 [64, 11]
000000 8b 62 2a be d5 d9 1e 3b be 67 d7 3d e4 0b 16 3e
       -0.16639154 0.0024238725 0.10517834 0.14652973
000010 39 13 2a be 75 b7 c6 3d 3f 73 97 be 8d 21 bf 3c
       -0.16608895 0.097029604 -0.29580113 0.023331428
000020 aa 94 62 3e ca bb d2 3c 3d 80 07 3d c2 0a b4 3e
       0.22127023 0.02572431 0.033081282 0.35164458
000030 8c 5a 2e be 7e f5 20 3d 50 78 36 be 59 73 16 3d
       -0.17026728 0.03929662 -0.17819333 0.036731098
000040 60 fe 35 3e 05 7e 20 be fb c4 38 3e 98 7b 49 bd
       0.17772818 -0.15673073 0.18043892 -0.049190134
000050 2f c7 1d 3e 37 3a 27 3c 4e 19 77 be 12 41 06 3e
       0.15408014 0.010206751 -0.24130747 0.1311076
000060 49 bf 8f bd a4 d4 d7 bd e8 b1 dc 3c 38 4d 37 3a
       -0.070189066 -0.10538605 0.026940301 0.00069924025
000070 ca 6c ea bd 64 f4 f0 bd 43 ce 5b 3e 36 82 84 be
       -0.11446531 -0.11765364 0.21465401 -0.25880593
000080 ec 63 b9 bd c2 fc ae 3c 5a f2 2c bc dc 7e 0b be
       -0.09052262 0.021360759 -0.010555828 -0.13622612
000090 2d ce 55 3e 3a 57 c0 bc 60 ff 82 3e 81 2f ad bd
       0.20879431 -0.023479093 0.2558546 -0.08456326
0000a0 a9 ba 7b be 2a 61 10 3e bc 22 1c 3b a5 d2 20 be
       -0.24582924 0.14099565 0.0023824414 -0.15705355
0000b0 7d 42 d4 bd 60 d4 01 3e d9 d7 3a 3c b6 e0 cc bc
       -0.10364244 0.12678671 0.011404001 -0.025009494
0000c0 a0 0b 92 bd 97 d6 e1 bd 74 48 a6 bd 20 82 b2 bc
       -0.071311235 -0.11027258 -0.08119288 -0.021790564
0000d0 9e 65 73 3e 96 e2 6e bc 68 69 47 be d4 19 04 3e
       0.23769233 -0.0145803895 -0.19473803 0.12900478
0000e0 ec ed c8 3d a7 c5 d4 3c 69 57 08 3d dc df 11 3d
       0.09811005 0.025973154 0.033286486 0.03561388
0000f0 32 a7 d1 bc 22 3e 28 bd 57 43 df 3c cc 19 95 3c
       -0.02559242 -0.04107488 0.02725379 0.018200777
000100 f7 3c cf bd 3e 56 79 be 02 82 8c be e6 0b ab bd
       -0.1011905 -0.24349305 -0.27442938 -0.08351879
000110 06 72 ff bd 24 21 a2 be 39 e3 75 bd 80 a1 51 3d
       -0.1247292 -0.3166591 -0.06003115 0.05117941
000120 99 b0 23 be fa 82 e6 3d 8d f6 39 3e 0f 3d 7e 3c
       -0.15985335 0.112554505 0.18160458 0.015517487
000130 ee f2 f7 3d ff 24 2f be 3b a3 41 3e 2c c5 22 3d
       0.12106882 -0.17103957 0.18909924 0.03973882
000140 1c da 9a be c8 ef 94 bd 8f 16 8a bd 78 08 93 3c
       -0.3024453 -0.07272297 -0.06742584 0.017948374
000150 df 2d 11 3e 0d 91 2d be db 98 50 3d 44 48 39 be
       0.14177655 -0.16949864 0.050927024 -0.18093973
000160 7f 06 51 be 79 ca 76 3e 3c 70 95 be bd 51 7e 3e
       -0.20412634 0.24100675 -0.2918719 0.24835868
000170 44 1c 31 be b4 a8 42 be 2d 6d 78 be 47 7d 3b be
       -0.17295939 -0.19009668 -0.24260397 -0.18309508
000180 3e 40 9f bd 54 f6 51 be fe 49 3d be 26 9c 0d be
       -0.07775925 -0.20504123 -0.18485257 -0.13829097
000190 6a e5 a0 3d ee 2e ca 3d 86 3e ee 3c e3 35 9d 3d
       0.07856257 0.098722324 0.029082548 0.07676294
0001a0 a4 1b 9c 3d 1c fc a7 3b 89 bd 49 3e f6 99 a7 3d
       0.076224595 0.0051264893 0.19701208 0.081836626
0001b0 03 9e 25 3d 82 d7 e8 bc 79 0d f5 3b be a1 29 bd
       0.040433895 -0.028423075 0.0074784127 -0.041414015
0001c0 af dd 36 be d4 3b ca 3c e8 9c 18 3e 30 5c 9d 3d
       -0.17858003 0.024686731 0.14903605 0.07683599
0001d0 f6 f4 20 be fd e5 7d 3e ed 22 3d 3d 61 6b 8b 3d
       -0.15718445 0.24794765 0.046175886 0.0680759
0001e0 e6 e4 d8 bd 99 b5 8a bd 3d 36 81 bd 12 da 01 be
       -0.10590534 -0.06772918 -0.06309173 -0.12680843
0001f0 f4 a0 f9 bd ed 1d 1d 3e ab 69 71 bd df 6a 5d be
       -0.121889025 0.15343447 -0.058938663 -0.216228
000200 be d8 0e bb 87 16 6a 3e 46 8a dc 3d 57 ac 98 be
       -0.002179667 0.22860156 0.10768561 -0.29818985
000210 c8 e1 83 ba 83 d7 5f 3e 86 6a 8e 3c 87 bc 22 be
       -0.0010061795 0.21859555 0.017384779 -0.1589223
000220 3d cb 69 3e 04 5d 59 3e b7 18 cf bd 65 c3 b0 3d
       0.22831436 0.21226889 -0.10112136 0.086310185
000230 6e 90 4a be b2 07 fb 3d bf 4e e3 3d 8a 9e 7f bc
       -0.19781658 0.12257327 0.11099004 -0.0156017635
000240 1c 4d d0 3b 94 72 33 bd f7 e5 80 be 39 d9 3b 3e
       0.0063568484 -0.043810442 -0.2517545 0.18344583
000250 25 c2 3c be 05 8d 30 3e 8d dd 98 be 44 b2 88 3c
       -0.18433435 0.17241295 -0.2985653 0.016686566
000260 08 e5 1b 3e 77 91 ab be 1c 38 84 3d 38 94 0d 3e
       0.15224087 -0.33509418 0.064560145 0.13826072
000270 17 05 d0 3e 70 af 50 be d9 73 1a 3e c1 c3 7e 3c
       0.40628883 -0.20379424 0.15083255 0.015549601
000280 b7 83 39 be 73 4e fd bd 5e 43 3b be 23 17 3f 3e
       -0.18116651 -0.123684786 -0.18287417 0.1866117
000290 2e 01 3e 3e b1 4b 66 3c c1 f3 27 3d b1 6f a3 bd
       0.18555138 0.014056132 0.041003946 -0.07980288
0002a0 8a 38 df be f8 d0 ab bc 8e d8 04 be 93 dd e8 3c
       -0.43597823 -0.020973668 -0.12973234 0.028425967
0002b0 89 a8 62 3d d3 9a 2f bd 94 cc 1c 3e 18 29 53 be
       0.05533651 -0.04287226 0.15312415 -0.20621145
0002c0 5b 80 1c 3c 05 03 c4 3b b0 c1 03 bb 33 7d 6b 3d
       0.009552087 0.0059818053 -0.002010446 0.057492446
0002d0 77 f8 08 bd 81 db c0 3d b4 a3 3e 3e 03 a7 03 be
       -0.03344008 0.09416867 0.18617135 -0.12856679
0002e0 1a 0b 9f bd b4 aa e2 3d 06 66 0a bb 3e 05 0f 3e
       -0.07765789 0.11067715 -0.002111794 0.13966843
0002f0 0d 0e 2f bd c9 1d 81 be 45 ff 45 3e 1a 2b 2f 3c
       -0.04273801 -0.25218037 0.19335659 0.010691429
000300 93 e8 38 3d a5 af b7 bc 23 65 99 3d 52 60 3f 3d
       0.045143675 -0.022422621 0.074899934 0.046722718
000310 55 c1 fb bd 34 be 5a 3e 10 ee 93 bd 69 fe 83 3e
       -0.122927345 0.21361619 -0.07223141 0.25780037
000320 ec 8c e9 3d e0 dc 87 be b2 39 39 be f1 30 84 bd
       0.11403832 -0.26535702 -0.18088415 -0.06454647
000330 76 c3 f9 3d f3 34 20 be af c8 22 3d 27 a2 8c 3e
       0.12195484 -0.15645199 0.039742168 0.27467462
000340 52 21 2b be b2 9b 52 be 57 38 ba bc 7d 66 9f 3e
       -0.1671193 -0.20567206 -0.022731943 0.3113288
000350 25 0a 15 3e 52 c1 7a bd 0e 83 a9 3d 81 5b 3a 3e
       0.14554651 -0.06121952 0.0827695 0.18198968
000360 2a a3 1c 3d 1e 40 1c bd c8 04 45 be 88 64 9f bc
       0.038241543 -0.038147084 -0.19240105 -0.019457117
000370 30 1f 32 be 80 42 67 bd d5 b5 14 3e cb 8b 23 3e
       -0.1739471 -0.056459904 0.14522488 0.15971296
000380 8c e5 4d bc f6 2c 09 be a7 96 8c 3d c5 eb 4e be
       -0.012566935 -0.13396057 0.06864672 -0.20207126
000390 1c b9 ed bb 24 1c ca bd 23 e7 ff bd 11 bf 71 bd
       -0.007254733 -0.09868649 -0.12495258 -0.059020106
0003a0 d4 97 97 be 9c d7 ed bb 6b 7f 74 be 1a 33 01 3e
       -0.29608023 -0.0072583687 -0.23876731 0.1261715
0003b0 79 87 e7 3c bb d2 43 bd 8d 8d f3 3d 89 e5 26 3e
       0.02826284 -0.04780839 0.11892233 0.16298498
0003c0 2a 55 8c bd ee 24 bd 3d e0 88 86 be 34 66 29 3b
       -0.06852181 0.092355594 -0.26276302 0.0025848271
0003d0 93 0e 28 bd c6 26 74 be 43 0a ec bd 3e 57 1f 3e
       -0.041029524 -0.23842916 -0.11525395 0.15560624
0003e0 2a 27 52 3e a7 d0 f6 3d 0e ff a2 be db a3 a1 3d
       0.20522752 0.12051516 -0.31835216 0.07892581
0003f0 7c 0f e7 ba f2 ee 6a 3e 1c 97 25 3e 6f b1 97 be
       -0.0017628516 0.22942713 0.16170925 -0.2962756

gin1.nn.bias f4 [64]
000000 57 4e a0 be 2e 1a 79 be e1 db 29 be 54 85 bc bc
       -0.3130977 -0.24326393 -0.16587783 -0.023012795
000010 41 45 10 3d 02 ab b6 be 06 0a 2d 3e a0 d8 98 be
       0.035222296 -0.35677344 0.16898355 -0.29852772
000020 46 1c 6b 3e 93 62 48 3e 1a ba 73 be 2f c8 0b bd
       0.22960004 0.19568853 -0.23801461 -0.034126457
000030 7e 04 71 bd bb e2 de bd f1 f1 12 be d6 7a 81 3d
       -0.058842175 -0.10883089 -0.14350106 0.06322257
000040 d5 ad b5 be 64 13 43 3e d6 96 b6 3d e5 5a 71 bd
       -0.35484186 0.19050366 0.089154884 -0.058924574
000050 a4 6b ac be 15 f5 fe 3d 3f 57 12 be 4b 8e 31 3e
       -0.33675873 0.124490894 -0.14291094 0.17339437
000060 ae f8 84 be ac 72 70 be 5d 66 c7 3d 30 fa ed 3d
       -0.25970978 -0.23481244 0.09736321 0.11619985
000070 87 de 0d 3e d9 bb e7 bd 2e dc e7 3d ae 31 61 3d
       0.13854419 -0.11315126 0.11321293 0.05497902
000080 aa f9 52 3d ac c2 ca 3d e1 99 0f 3e de 0c 50 3e
       0.05150763 0.09900412 0.14023544 0.20317408
000090 16 56 d7 3d f5 ae 17 be 1d 49 b1 bd 25 51 77 be
       0.105144665 -0.14812835 -0.086565234 -0.24152048
0000a0 ce f4 69 be 9e 6e 2e be 69 0b 29 3e 17 e3 c8 be
       -0.22847292 -0.17034385 0.16508259 -0.39235756
0000b0 e6 9a c1 3d b2 a3 c6 bc f5 fb 44 3d 36 9a 32 3e
       0.09453373 -0.024247978 0.048091847 0.1744164
0000c0 43 c4 e0 bd 11 08 8b be c5 37 3e be 50 47 84 3b
       -0.10974934 -0.27154592 -0.18575962 0.0040368214
0000d0 b8 59 96 3d 50 fb 0c 3e 5b ba a4 bd 66 b0 de bd
       0.07341331 0.13767743 -0.08043357 -0.10873489
0000e0 35 75 c8 bc 03 a5 ec bd 72 ae ca be fb 98 64 3e
       -0.024469951 -0.11554911 -0.39586216 0.22323982
0000f0 f4 67 58 be 3d 3a 1c be 2a 35 22 3e ef 45 dd 3d
       -0.21133405 -0.15256591 0.15840593 0.108043544

mlp_gin2.weight f4 [64, 64]
000000 c6 ba ba bb b9 db d3 bb 64 be 6e 34 f0 f1 f4 bd
       -0.0056985347 -0.006465402 2.2234741e-07 -0.119602084
000010 b8 40 f1 bc dd 98 f5 bc 68 45 7a 35 61 69 89 3c
       -0.029449806 -0.029980117 9.3233257e-07 0.016773881
000020 dd 56 07 bd b9 8b 5b 3c 48 60 ae bc f6 80 6b bc
       -0.033041824 0.013400012 -0.021286145 -0.014374008
000030 ba 5c 62 bd f0 e6 00 37 a5 2d 06 3d ad 71 e0 bc
       -0.055264212 7.683164e-06 0.032758374 -0.027397955
000040 1d 52 6f bd 01 df 9e bd 7b 08 ad bc 14 d1 52 bc
       -0.05842792 -0.07757378 -0.021122208 -0.012867231
000050 72 e5 40 bc 49 d6 25 bb d2 5f 39 bc 91 13 4c bd
       -0.011773454 -0.0025304726 -0.011314349 -0.049823347
000060 00 b6 ea bc 3e f8 a7 bd 02 77 ae ba 4e 60 83 bb
       -0.028651237 -0.08201645 -0.0013310614 -0.004009283
000070 58 69 e6 3b d2 6c 0c 3c c3 f0 f1 bc c1 54 3d bd
       0.007031601 0.008570867 -0.02953375 -0.046223406
000080 88 e2 a3 bc df 0a 93 bd c6 40 aa bc ea 5f df 3c
       -0.02000548 -0.07179808 -0.02078284 0.027267415
000090 f5 82 74 3c 6e 9a 4c bc 57 ff fa 3b c4 3d 12 bc
       0.014923801 -0.012487991 0.0076598334 -0.008925859
0000a0 7c 4d 14 bd 37 bb 92 bc 64 f8 85 3c 13 d5 1a b7
       -0.036206707 -0.017911537 0.016353793 -9.2287255e-06
0000b0 0b 7c 1a 3b eb 8f 26 bd 15 f8 63 b5 87 b3 56 bb
       0.002357247 -0.040664595 -8.4925097e-07 -0.0032760815
0000c0 d5 33 c8 bb bd d1 47 bd 51 8c 89 bd df c6 fc 3c
       -0.0061096945 -0.048784006 -0.06716216 0.030856548
0000d0 bc 23 12 be 56 31 73 bd b1 7f ac bb 68 fe 3f bd
       -0.14271444 -0.059373222 -0.0052642454 -0.04687348
0000e0 7a b2 0f 3b 0f 5f b1 bc b3 1c 90 bd c8 66 ab bd
       0.0021926449 -0.021651773 -0.07036724 -0.08369213
0000f0 3e fc 50 bc a0 16 37 bd 74 55 19 bc 71 34 cd bb
       -0.012755452 -0.04469931 -0.0093587525 -0.006262355
000100 bb ee 0d bc 1f cb 8a bd 97 e2 13 3d c0 9a 9c bd
       -0.008662875 -0.067770235 0.036104765 -0.07646704
000110 58 09 ef 3b c8 9a b2 3d 62 8a 3c 3c 8c 43 d0 bb
       0.007294815 0.087209284 0.011507602 -0.0063557085
000120 89 63 c9 3d ca c4 09 be 1b 97 cd bd ec 57 6a 3d
       0.09833438 -0.13453975 -0.10038587 0.057212755
000130 a8 0c 8c 3d 06 db 1c 3d f1 21 07 bd 1e 0a 4f 3d
       0.068383515 0.038294815 -0.032991353 0.050546758
000140 f8 5f cd 3d e5 ea 00 be 56 4a 6e 3d a6 0a 91 bc
       0.1002807 -0.12589605 0.05817636 -0.017705273
000150 91 64 0e bd b4 0d fb bd d5 ec 5c 3c be f3 d9 3d
       -0.034763876 -0.12258473 0.0134841995 0.10642193
000160 de 37 ff bd 4e 28 9f 3d da 77 cb bd f6 65 8e bd
       -0.12461828 0.077713594 -0.09934969 -0.06953041
000170 b0 ac 38 bd 2a bc dc bd 07 45 26 3d 6d db 09 be
       -0.045086563 -0.10778077 0.040593173 -0.1346261
000180 9c e5 18 b8 c8 0d de bd ec 50 01 3e 00 5e 41 bb
       -3.6453464e-05 -0.10842472 0.12628525 -0.0029505491
000190 30 80 05 be 00 f6 a8 bd 5c 6d 7b 3c 17 0d 90 bd
       -0.13037181 -0.08250046 0.0153458975 -0.07033747
0001a0 05 5f 61 3d 84 d0 43 bd 99 8d db bc 17 12 52 bd
       0.05502226 -0.047806278 -0.026800917 -0.051286783
0001b0 ad e2 85 bd 0b 9b 98 bc a1 3a e9 bd 68 f0 01 3d
       -0.065373756 -0.018628618 -0.11388136 0.03172341
0001c0 fc 32 c7 bd 39 fb c8 bd 52 14 c9 3d ae af 71 3d
       -0.097265214 -0.09813542 0.09818329 0.05900543
0001d0 94 d3 bd 3d b9 37 df 3d 5c 01 84 3d 93 b6 1d bd
       0.09268871 0.108993 0.06445572 -0.038504194
0001e0 27 b6 0d be 3f 2a fa bd 4d 93 9a bd eb f3 6d bd
       -0.13839017 -0.12215089 -0.07547627 -0.058093946
0001f0 1f 00 38 3d 9b 65 8f 3d e7 52 b5 3d a2 8b a1 3c
       0.04492199 0.070018016 0.08853703 0.019719902
000200 d8 71 80 bc 8d da e5 bd b7 02 b8 bd b8 21 82 bd
       -0.015679285 -0.11223326 -0.08984893 -0.063540876
000210 f1 78 0b be 3c ab e5 bd af bd 1a 3d ee 97 e6 3c
       -0.13620354 -0.11214301 0.037778553 0.028148618
000220 f9 67 1e bd ad 76 b3 3a 41 93 9c 3d 8e 18 9f 3d
       -0.038673375 0.0013691984 0.07645274 0.07768355
000230 2d 0c 55 bd 7c 71 26 bd 99 2e 31 be 4d 64 f0 bd
       -0.052013565 -0.04063557 -0.17302932 -0.11737881
000240 b5 68 7c 3d d7 87 a7 3d b5 79 0f 3a 12 bf cc bc
       0.061623294 0.08180206 0.0005473153 -0.024993453
000250 e2 36 f7 bc e1 41 0f 3d e9 05 1f be c9 74 25 3d
       -0.030177537 0.034974936 -0.15529598 0.040394578
000260 7a 81 30 be 2d 2c df bd c0 66 25 bc 60 71 42 bc
       -0.17236891 -0.10897098 -0.010095298 -0.011867851
000270 de 0c 1d be 16 e5 82 3b 9a 2d 34 be ad 8b 83 3c
       -0.1533694 0.0039945943 -0.1759552 0.016057814
000280 78 88 95 3c b1 81 b0 bd 47 29 34 3d a3 e3 79 bd
       0.01825355 -0.08618487 0.043984678 -0.061008107
000290 97 0e 2a 3d fb 63 08 bd 83 fa 61 bd 7a 7e 12 3c
       0.04151782 -0.033298474 -0.055170547 0.008941287
0002a0 dd be c2 3c 09 29 1f bd 3b 58 5a 3d 09 2f 8a bd
       0.023772651 -0.038857494 0.0533068 -0.067472525
0002b0 81 d6 e5 bd 57 7b be bd 43 95 c2 3d 40 bf ec 3a
       -0.11222554 -0.09300869 0.09501126 0.0018062368
0002c0 5e 3c fd bd 6a 7c 15 3c 84 04 38 3c e2 4a 1c bd
       -0.1236503 0.009123901 0.011231545 -0.03815735
0002d0 a1 6d a6 bd 17 7f 8f 3d cb 63 ed ba 1d 71 0f be
       -0.08126379 0.07006662 -0.0018111406 -0.14007993
0002e0 2a d6 dc bd 51 9a 94 bd 54 29 74 3d cb dd 23 bd
       -0.10783036 -0.07255996 0.059609726 -0.04000644
0002f0 f4 2e 4e bd 00 ba a7 3d 84 53 57 bc f6 7d b9 bc
       -0.050337747 0.081897736 -0.01314247 -0.02264307
000300 af c6 ee bd 74 ab f3 bd 9f a1 b4 bd 58 cb a2 bd
       -0.1165899 -0.118979365 -0.08819889 -0.07948941
000310 ab 21 be bd 23 87 3d bc c1 dc 9c 3c e8 58 47 3d
       -0.092837654 -0.011567864 0.019148232 0.048668772
000320 83 26 40 bd 65 ee 82 3c 60 49 53 bc 29 6e 02 be
       -0.046911728 0.015982816 -0.012895912 -0.12737335
000330 f8 e1 5b bd 9e 42 19 3d 5e b5 ed bd 15 e9 e7 bc
       -0.053682297 0.037417047 -0.11606859 -0.028309384
000340 23 71 4d bd b3 be 65 bd f3 07 ff 3c 21 ce bb bd
       -0.050156724 -0.056090068 0.03113172 -0.09170175
000350 71 49 57 3d d8 33 8b bd c2 11 5b bc 97 72 c3 3c
       0.052560274 -0.06796998 -0.013370933 0.023858352
000360 3e 07 07 be d0 e6 2b 3d ef 1d 4c 3d cd fa 35 bc
       -0.13186356 0.041968167 0.049833234 -0.011107159
000370 8d 7f 0d be 0b 11 8f bc d8 19 37 3d 05 bf 09 bd
       -0.13818188 -0.017464181 0.04470238 -0.033629436
000380 1a 91 72 3d ea 5f 23 3c f0 66 7b bb 3b 78 55 3d
       0.05922041 0.009971598 -0.0038360916 0.052116614
000390 ac 56 a5 bd 95 bd 1f be c4 dc 40 3c 9c 4e 1c be
       -0.08073172 -0.15599664 0.011771385 -0.15264362
0003a0 e8 dd 89 bd f5 73 c0 bd 09 86 58 bd 0a f5 70 bc
       -0.067317784 -0.09397117 -0.0528622 -0.014706859
0003b0 0d a3 29 be 51 9f 15 be ad e5 2e be d0 eb 30 bd
       -0.16566105 -0.14611556 -0.17079802 -0.04319364
0003c0 5b 57 85 bd 0e 32 e0 bd b8 e0 3b bd 6b 76 d5 bc
       -0.06510802 -0.10947047 -0.045868605 -0.026057443
0003d0 dc 46 29 be 77 26 27 3d f9 e5 51 bd 99 a5 78 3d
       -0.16530937 0.040808167 -0.05124471 0.0607048
0003e0 db f2 a2 bd 61 d1 0c 3d f8 d2 87 3d 99 59 62 3d
       -0.07956477 0.034379367 0.06632036 0.05526123
0003f0 4a ca 94 bd 12 6e 0a be 49 3f 19 3d 98 37 be bd
       -0.07265146 -0.13518551 0.03741387 -0.092879474

mlp_gin2.bias f4 [64]
000000 54 f2 00 bc 06 ee 9a bd 09 07 ac bd ee e3 d9 3c
       -0.0078702755 -0.075649306 -0.08399779 0.026597943
000010 7d 8c d3 bd de a4 90 bd a4 e6 a9 bd 1f bc 1d bc
       -0.103295304 -0.07062696 -0.08295944 -0.009627371
000020 94 bd 73 b9 3f bd 32 bc 36 62 cb 3f c3 81 b3 3b
       -0.00023244909 -0.010909378 1.5889347 0.0054781153
000030 0b 32 5f bd 6c 81 0c 34 97 85 36 bd 94 0f 19 3d
       -0.054491084 1.30856e-07 -0.044560995 0.037368372
000040 4c 88 c7 bd af 10 59 bd 14 96 15 be be da c3 3b
       -0.097427934 -0.052994426 -0.14608032 0.005977004
000050 e5 b0 64 bd 1f 35 7c bd 94 40 a5 bc 70 5b 01 39
       -0.055832762 -0.061574098 -0.020172395 0.00012336462
000060 d7 98 1c 3d c3 94 8d 3c 7e 62 fd 3c e1 5a 8c bd
       0.038231697 0.01728285 0.030930754 -0.06853271
000070 8f c4 7f 36 a6 8d 1d be 6c d2 1d 3e e1 c3 7a bd
       3.8112373e-06 -0.15386066 0.15412301 -0.06122196
000080 5f be db bd 3f 9b 05 bd 65 f4 77 3d dc 05 48 bd
       -0.1072967 -0.032618757 0.060535807 -0.048833713
000090 32 84 4d 3d a1 6b 89 bd a5 11 24 3c d6 37 bb bd
       0.0501749 -0.06709982 0.010013972 -0.09141509
0000a0 14 5b 7f 3d ba 97 1f 3b 40 ee 1b be b2 69 1d be
       0.06234272 0.002435191 -0.15227604 -0.15372351
0000b0 27 2e 20 3c f7 55 8e bd 0d 19 c2 bb 5a 2a 16 be
       0.009776629 -0.0694999 -0.0059233964 -0.14664593
0000c0 49 2a 99 3c a4 5e 1e 3c cc eb 2c bd 9b f0 1c bd
       0.018696921 0.009666119 -0.04221706 -0.038315397
0000d0 64 54 07 be 63 3b 50 bb 37 82 31 3d ff 31 c2 bd
       -0.13215786 -0.0031773678 0.043337073 -0.09482192
0000e0 3e c4 06 be e5 21 dc bd 77 56 0d bd 2a 76 be be
       -0.13160798 -0.10748652 -0.034506287 -0.37199527
0000f0 43 b6 8d 3b 34 df 30 bd a6 ba 1d 3d b2 c5 3c 3f
       0.004324706 -0.043181613 0.03850808 0.7373916

gin2.nn.weight f4 [64, 64]
000000 c6 ba ba bb b9 db d3 bb 64 be 6e 34 f0 f1 f4 bd
       -0.0056985347 -0.006465402 2.2234741e-07 -0.119602084
000010 b8 40 f1 bc dd 98 f5 bc 68 45 7a 35 61 69 89 3c
       -0.029449806 -0.029980117 9.3233257e-07 0.016773881
000020 dd 56 07 bd b9 8b 5b 3c 48 60 ae bc f6 80 6b bc
       -0.033041824 0.013400012 -0.021286145 -0.014374008
000030 ba 5c 62 bd f0 e6 00 37 a5 2d 06 3d ad 71 e0 bc
       -0.055264212 7.683164e-06 0.032758374 -0.027397955
000040 1d 52 6f bd 01 df 9e bd 7b 08 ad bc 14 d1 52 bc
       -0.05842792 -0.07757378 -0.021122208 -0.012867231
000050 72 e5 40 bc 49 d6 25 bb d2 5f 39 bc 91 13 4c bd
       -0.011773454 -0.0025304726 -0.011314349 -0.049823347
000060 00 b6 ea bc 3e f8 a7 bd 02 77 ae ba 4e 60 83 bb
       -0.028651237 -0.08201645 -0.0013310614 -0.004009283
000070 58 69 e6 3b d2 6c 0c 3c c3 f0 f1 bc c1 54 3d bd
       0.007031601 0.008570867 -0.02953375 -0.046223406
000080 88 e2 a3 bc df 0a 93 bd c6 40 aa bc ea 5f df 3c
       -0.02000548 -0.07179808 -0.02078284 0.027267415
000090 f5 82 74 3c 6e 9a 4c bc 57 ff fa 3b c4 3d 12 bc
       0.014923801 -0.012487991 0.0076598334 -0.008925859
0000a0 7c 4d 14 bd 37 bb 92 bc 64 f8 85 3c 13 d5 1a b7
       -0.036206707 -0.017911537 0.016353793 -9.2287255e-06
0000b0 0b 7c 1a 3b eb 8f 26 bd 15 f8 63 b5 87 b3 56 bb
       0.002357247 -0.040664595 -8.4925097e-07 -0.0032760815
0000c0 d5 33 c8 bb bd d1 47 bd 51 8c 89 bd df c6 fc 3c
       -0.0061096945 -0.048784006 -0.06716216 0.030856548
0000d0 bc 23 12 be 56 31 73 bd b1 7f ac bb 68 fe 3f bd
       -0.14271444 -0.059373222 -0.0052642454 -0.04687348
0000e0 7a b2 0f 3b 0f 5f b1 bc b3 1c 90 bd c8 66 ab bd
       0.0021926449 -0.021651773 -0.07036724 -0.08369213
0000f0 3e fc 50 bc a0 16 37 bd 74 55 19 bc 71 34 cd bb
       -0.012755452 -0.04469931 -0.0093587525 -0.006262355
000100 bb ee 0d bc 1f cb 8a bd 97 e2 13 3d c0 9a 9c bd
       -0.008662875 -0.067770235 0.036104765 -0.07646704
000110 58 09 ef 3b c8 9a b2 3d 62 8a 3c 3c 8c 43 d0 bb
       0.007294815 0.087209284 0.011507602 -0.0063557085
000120 89 63 c9 3d ca c4 09 be 1b 97 cd bd ec 57 6a 3d
       0.09833438 -0.13453975 -0.10038587 0.057212755
000130 a8 0c 8c 3d 06 db 1c 3d f1 21 07 bd 1e 0a 4f 3d
       0.068383515 0.038294815 -0.032991353 0.050546758
000140 f8 5f cd 3d e5 ea 00 be 56 4a 6e 3d a6 0a 91 bc
       0.1002807 -0.12589605 0.05817636 -0.017705273
000150 91 64 0e bd b4 0d fb bd d5 ec 5c 3c be f3 d9 3d
       -0.034763876 -0.12258473 0.0134841995 0.10642193
000160 de 37 ff bd 4e 28 9f 3d da 77 cb bd f6 65 8e bd
       -0.12461828 0.077713594 -0.09934969 -0.06953041
000170 b0 ac 38 bd 2a bc dc bd 07 45 26 3d 6d db 09 be
       -0.045086563 -0.10778077 0.040593173 -0.1346261
000180 9c e5 18 b8 c8 0d de bd ec 50 01 3e 00 5e 41 bb
       -3.6453464e-05 -0.10842472 0.12628525 -0.0029505491
000190 30 80 05 be 00 f6 a8 bd 5c 6d 7b 3c 17 0d 90 bd
       -0.13037181 -0.08250046 0.0153458975 -0.07033747
0001a0 05 5f 61 3d 84 d0 43 bd 99 8d db bc 17 12 52 bd
       0.05502226 -0.047806278 -0.026800917 -0.051286783
0001b0 ad e2 85 bd 0b 9b 98 bc a1 3a e9 bd 68 f0 01 3d
       -0.065373756 -0.018628618 -0.11388136 0.03172341
0001c0 fc 32 c7 bd 39 fb c8 bd 52 14 c9 3d ae af 71 3d
       -0.097265214 -0.09813542 0.09818329 0.05900543
0001d0 94 d3 bd 3d b9 37 df 3d 5c 01 84 3d 93 b6 1d bd
       0.09268871 0.108993 0.06445572 -0.038504194
0001e0 27 b6 0d be 3f 2a fa bd 4d 93 9a bd eb f3 6d bd
       -0.13839017 -0.12215089 -0.07547627 -0.058093946
0001f0 1f 00 38 3d 9b 65 8f 3d e7 52 b5 3d a2 8b a1 3c
       0.04492199 0.070018016 0.08853703 0.019719902
000200 d8 71 80 bc 8d da e5 bd b7 02 b8 bd b8 21 82 bd
       -0.015679285 -0.11223326 -0.08984893 -0.063540876
000210 f1 78 0b be 3c ab e5 bd af bd 1a 3d ee 97 e6 3c
       -0.13620354 -0.11214301 0.037778553 0.028148618
000220 f9 67 1e bd ad 76 b3 3a 41 93 9c 3d 8e 18 9f 3d
       -0.038673375 0.0013691984 0.07645274 0.07768355
000230 2d 0c 55 bd 7c 71 26 bd 99 2e 31 be 4d 64 f0 bd
       -0.052013565 -0.04063557 -0.17302932 -0.11737881
000240 b5 68 7c 3d d7 87 a7 3d b5 79 0f 3a 12 bf cc bc
       0.061623294 0.08180206 0.0005473153 -0.024993453
000250 e2 36 f7 bc e1 41 0f 3d e9 05 1f be c9 74 25 3d
       -0.030177537 0.034974936 -0.15529598 0.040394578
000260 7a 81 30 be 2d 2c df bd c0 66 25 bc 60 71 42 bc
       -0.17236891 -0.10897098 -0.010095298 -0.011867851
000270 de 0c 1d be 16 e5 82 3b 9a 2d 34 be ad 8b 83 3c
       -0.1533694 0.0039945943 -0.1759552 0.016057814
000280 78 88 95 3c b1 81 b0 bd 47 29 34 3d a3 e3 79 bd
       0.01825355 -0.08618487 0.043984678 -0.061008107
000290 97 0e 2a 3d fb 63 08 bd 83 fa 61 bd 7a 7e 12 3c
       0.04151782 -0.033298474 -0.055170547 0.008941287
0002a0 dd be c2 3c 09 29 1f bd 3b 58 5a 3d 09 2f 8a bd
       0.023772651 -0.038857494 0.0533068 -0.067472525
0002b0 81 d6 e5 bd 57 7b be bd 43 95 c2 3d 40 bf ec 3a
       -0.11222554 -0.09300869 0.09501126 0.0018062368
0002c0 5e 3c fd bd 6a 7c 15 3c 84 04 38 3c e2 4a 1c bd
       -0.1236503 0.009123901 0.011231545 -0.03815735
0002d0 a1 6d a6 bd 17 7f 8f 3d cb 63 ed ba 1d 71 0f be
       -0.08126379 0.07006662 -0.0018111406 -0.14007993
0002e0 2a d6 dc bd 51 9a 94 bd 54 29 74 3d cb dd 23 bd
       -0.10783036 -0.07255996 0.059609726 -0.04000644
0002f0 f4 2e 4e bd 00 ba a7 3d 84 53 57 bc f6 7d b9 bc
       -0.050337747 0.081897736 -0.01314247 -0.02264307
000300 af c6 ee bd 74 ab f3 bd 9f a1 b4 bd 58 cb a2 bd
       -0.1165899 -0.118979365 -0.08819889 -0.07948941
000310 ab 21 be bd 23 87 3d bc c1 dc 9c 3c e8 58 47 3d
       -0.092837654 -0.011567864 0.019148232 0.048668772
000320 83 26 40 bd 65 ee 82 3c 60 49 53 bc 29 6e 02 be
       -0.046911728 0.015982816 -0.012895912 -0.12737335
000330 f8 e1 5b bd 9e 42 19 3d 5e b5 ed bd 15 e9 e7 bc
       -0.053682297 0.037417047 -0.11606859 -0.028309384
000340 23 71 4d bd b3 be 65 bd f3 07 ff 3c 21 ce bb bd
       -0.050156724 -0.056090068 0.03113172 -0.09170175
000350 71 49 57 3d d8 33 8b bd c2 11 5b bc 97 72 c3 3c
       0.052560274 -0.06796998 -0.013370933 0.023858352
000360 3e 07 07 be d0 e6 2b 3d ef 1d 4c 3d cd fa 35 bc
       -0.13186356 0.041968167 0.049833234 -0.011107159
000370 8d 7f 0d be 0b 11 8f bc d8 19 37 3d 05 bf 09 bd
       -0.13818188 -0.017464181 0.04470238 -0.033629436
000380 1a 91 72 3d ea 5f 23 3c f0 66 7b bb 3b 78 55 3d
       0.05922041 0.009971598 -0.0038360916 0.052116614
000390 ac 56 a5 bd 95 bd 1f be c4 dc 40 3c 9c 4e 1c be
       -0.08073172 -0.15599664 0.011771385 -0.15264362
0003a0 e8 dd 89 bd f5 73 c0 bd 09 86 58 bd 0a f5 70 bc
       -0.067317784 -0.09397117 -0.0528622 -0.014706859
0003b0 0d a3 29 be 51 9f 15 be ad e5 2e be d0 eb 30 bd
       -0.16566105 -0.14611556 -0.17079802 -0.04319364
0003c0 5b 57 85 bd 0e 32 e0 bd b8 e0 3b bd 6b 76 d5 bc
       -0.06510802 -0.10947047 -0.045868605 -0.026057443
0003d0 dc 46 29 be 77 26 27 3d f9 e5 51 bd 99 a5 78 3d
       -0.16530937 0.040808167 -0.05124471 0.0607048
0003e0 db f2 a2 bd 61 d1 0c 3d f8 d2 87 3d 99 59 62 3d
       -0.07956477 0.034379367 0.06632036 0.05526123
0003f0 4a ca 94 bd 12 6e 0a be 49 3f 19 3d 98 37 be bd
       -0.07265146 -0.13518551 0.03741387 -0.092879474

gin2.nn.bias f4 [64]
000000 54 f2 00 bc 06 ee 9a bd 09 07 ac bd ee e3 d9 3c
       -0.0078702755 -0.075649306 -0.08399779 0.026597943
000010 7d 8c d3 bd de a4 90 bd a4 e6 a9 bd 1f bc 1d bc
       -0.103295304 -0.07062696 -0.08295944 -0.009627371
000020 94 bd 73 b9 3f bd 32 bc 36 62 cb 3f c3 81 b3 3b
       -0.00023244909 -0.010909378 1.5889347 0.0054781153
000030 0b 32 5f bd 6c 81 0c 34 97 85 36 bd 94 0f 19 3d
       -0.054491084 1.30856e-07 -0.044560995 0.037368372
000040 4c 88 c7 bd af 10 59 bd 14 96 15 be be da c3 3b
       -0.097427934 -0.052994426 -0.14608032 0.005977004
000050 e5 b0 64 bd 1f 35 7c bd 94 40 a5 bc 70 5b 01 39
       -0.055832762 -0.061574098 -0.020172395 0.00012336462
000060 d7 98 1c 3d c3 94 8d 3c 7e 62 fd 3c e1 5a 8c bd
       0.038231697 0.01728285 0.030930754 -0.06853271
000070 8f c4 7f 36 a6 8d 1d be 6c d2 1d 3e e1 c3 7a bd
       3.8112373e-06 -0.15386066 0.15412301 -0.06122196
000080 5f be db bd 3f 9b 05 bd 65 f4 77 3d dc 05 48 bd
       -0.1072967 -0.032618757 0.060535807 -0.048833713
000090 32 84 4d 3d a1 6b 89 bd a5 11 24 3c d6 37 bb bd
       0.0501749 -0.06709982 0.010013972 -0.09141509
0000a0 14 5b 7f 3d ba 97 1f 3b 40 ee 1b be b2 69 1d be
       0.06234272 0.002435191 -0.15227604 -0.15372351
0000b0 27 2e 20 3c f7 55 8e bd 0d 19 c2 bb 5a 2a 16 be
       0.009776629 -0.0694999 -0.0059233964 -0.14664593
0000c0 49 2a 99 3c a4 5e 1e 3c cc eb 2c bd 9b f0 1c bd
       0.018696921 0.009666119 -0.04221706 -0.038315397
0000d0 64 54 07 be 63 3b 50 bb 37 82 31 3d ff 31 c2 bd
       -0.13215786 -0.0031773678 0.043337073 -0.09482192
0000e0 3e c4 06 be e5 21 dc bd 77 56 0d bd 2a 76 be be
       -0.13160798 -0.10748652 -0.034506287 -0.37199527
0000f0 43 b6 8d 3b 34 df 30 bd a6 ba 1d 3d b2 c5 3c 3f
       0.004324706 -0.043181613 0.03850808 0.7373916

mlp_gin3.weight f4 [2, 64]
000000 c6 fe 2d 3d b7 63 1c 3b eb 0f 44 3d ae 38 21 3d
       0.0424793 0.0023863146 0.047866743 0.039360695
000010 59 ac 42 bb 3e 04 81 3d 55 07 b8 3c 70 15 c1 3c
       -0.0029704778 0.06299637 0.022464434 0.023569793
000020 63 8b 9e 3c 30 9a 63 3d 4a a9 1b 3f 74 3d 36 bc
       0.019353574 0.055566967 0.6080519 -0.01112305
000030 c0 be 55 3c 81 a1 2d bd 48 bd be 3d f0 fe 91 bd
       0.013045967 -0.04239035 0.09313446 -0.071287036
000040 ee 82 26 bd c6 5f 13 3d b1 15 e2 bc dc 7e 33 3c
       -0.040652208 0.03598001 -0.027598234 0.010955539
000050 3b 7c 38 bc 54 30 2c 3d 39 7f b5 3c 5b df ef bc
       -0.011260088 0.042038277 0.022155391 -0.029281309
000060 89 73 ba 3d 22 3d 01 bd 29 af 2e 3c e4 0a 80 3c
       0.09104068 -0.03155244 0.010661879 0.015630193
000070 07 71 64 3d 92 0d 3c bd f3 fc ef 3d 10 2d 24 3c
       0.055771854 -0.04591138 0.11718168 0.010020509
000080 84 a0 1d bd 9d 30 1e bb 68 12 4c bd 4c 37 8a bd
       -0.038483158 -0.0024137862 -0.04982224 -0.06748828
000090 88 63 67 bd 92 41 2e 3d f8 0d 1b bc 0f 50 75 bc
       -0.056491405 0.042543 -0.00946378 -0.014972701
0000a0 e3 34 2d bc a5 0f b9 bc 83 ef c5 3d 10 21 97 bc
       -0.010571691 -0.022590468 0.09664824 -0.018448383
0000b0 b7 81 ad 3b 7f 1b 58 bd 9f e3 86 bd ec 60 f4 3d
       0.005295004 -0.052760597 -0.06586384 0.11932549
0000c0 bb c4 0d bb 87 45 11 bd 86 0f 0a bd 65 de 66 3d
       -0.0021632153 -0.035466697 -0.03370621 0.056364436
0000d0 10 22 de 3b 9b ff f0 bc 56 26 56 3d ca 1e 76 bc
       0.006778963 -0.029418757 0.052282654 -0.015021989
0000e0 0a b1 a6 3d d9 f9 73 3d 17 e5 9a 3d 9a c1 11 be
       0.08139236 0.059564445 0.07563227 -0.1423401
0000f0 31 7a 06 bd d4 41 05 3d bf 3b 99 3b 87 53 90 3d
       -0.032831375 0.03253348 0.0046763117 0.070471816
000100 44 22 fa 3d 71 d3 6f bd e7 26 4e 3d 7c 53 9b bc
       0.12213567 -0.058551256 0.05033007 -0.018960707
000110 e9 30 a8 3c f9 1e a5 3c a4 77 86 bc 71 76 64 3a
       0.020531135 0.02015637 -0.016414471 0.0008715159
000120 ab 6e 56 3d b4 03 b9 bb f2 2d 25 bf c0 48 c2 bb
       0.052351635 -0.0056461934 -0.6452323 -0.0059290826
000130 90 77 d4 3d cf 81 41 3d 14 d9 df bd 56 5d ed bd
       0.10374367 0.047242936 -0.10930076 -0.11590068
000140 1f 94 23 3a 56 8c 58 3d 4a 80 15 bd 1a 0d 23 3a
       0.00062400283 0.05286821 -0.0364993 0.0006219909
000150 8a b3 4b ba 25 65 c6 3c f5 55 c7 3d be e7 05 bc
       -0.0007770589 0.024218151 0.09733192 -0.008172927
000160 9d 0f be 3d 62 f2 0d 3d c5 7d 89 3d 52 d7 8d 3d
       0.09280322 0.034654982 0.06713442 0.06925835
000170 79 71 5e 3c 9a 9e ea bd e7 28 07 bd fe 98 b2 bd
       0.013576859 -0.11456032 -0.032997992 -0.08720587
000180 5e 28 fe bb c3 ec b4 3d 53 e7 a3 bd 4d 00 d4 bb
       -0.007756277 0.08834221 -0.08003106 -0.0064697624
000190 83 8f cc bc 1f 96 0d bd 0d f3 08 3d fa b4 55 bb
       -0.024970775 -0.034566995 0.033434916 -0.003260909
0001a0 18 71 33 bd 7a 89 ac ba 53 0a 8b 3d 47 02 2f 3c
       -0.043809026 -0.001316353 0.067890786 0.010681695
0001b0 8e a5 f0 3c 7b ef f5 3c 7b f3 39 3c c6 e3 91 3c
       0.029375818 0.03002142 0.011349554 0.017808806
0001c0 11 23 96 bd 3c 9b ac bd 55 e8 ad bd ea 42 b9 b9
       -0.07330907 -0.08428046 -0.084915794 -0.00035335805
0001d0 0e 17 19 3d b4 d3 52 3d 00 70 f8 bc 34 36 b5 bd
       0.037375502 0.051471427 -0.030326843 -0.08848229
0001e0 48 34 ec 3c 3b ec 3f bd 79 2e df bb e8 41 88 bb
       0.028833523 -0.046856146 -0.00681096 -0.0041582473
0001f0 23 90 91 bd 8b 32 f2 3d 4a 87 3f bc 03 ba b7 bd
       -0.0710757 0.118260466 -0.01168997 -0.08971026

mlp_gin3.bias f4 [2]
000000 e8 ba 53 3f d5 de 57 bf
       0.8270707 -0.8432439

gin3.nn.weight f4 [2, 64]
000000 c6 fe 2d 3d b7 63 1c 3b eb 0f 44 3d ae 38 21 3d
       0.0424793 0.0023863146 0.047866743 0.039360695
000010 59 ac 42 bb 3e 04 81 3d 55 07 b8 3c 70 15 c1 3c
       -0.0029704778 0.06299637 0.022464434 0.023569793
000020 63 8b 9e 3c 30 9a 63 3d 4a a9 1b 3f 74 3d 36 bc
       0.019353574 0.055566967 0.6080519 -0.01112305
000030 c0 be 55 3c 81 a1 2d bd 48 bd be 3d f0 fe 91 bd
       0.013045967 -0.04239035 0.09313446 -0.071287036
000040 ee 82 26 bd c6 5f 13 3d b1 15 e2 bc dc 7e 33 3c
       -0.040652208 0.03598001 -0.027598234 0.010955539
000050 3b 7c 38 bc 54 30 2c 3d 39 7f b5 3c 5b df ef bc
       -0.011260088 0.042038277 0.022155391 -0.029281309
000060 89 73 ba 3d 22 3d 01 bd 29 af 2e 3c e4 0a 80 3c
       0.09104068 -0.03155244 0.010661879 0.015630193
000070 07 71 64 3d 92 0d 3c bd f3 fc ef 3d 10 2d 24 3c
       0.055771854 -0.04591138 0.11718168 0.010020509
000080 84 a0 1d bd 9d 30 1e bb 68 12 4c bd 4c 37 8a bd
       -0.038483158 -0.0024137862 -0.04982224 -0.06748828
000090 88 63 67 bd 92 41 2e 3d f8 0d 1b bc 0f 50 75 bc
       -0.056491405 0.042543 -0.00946378 -0.014972701
0000a0 e3 34 2d bc a5 0f b9 bc 83 ef c5 3d 10 21 97 bc
       -0.010571691 -0.022590468 0.09664824 -0.018448383
0000b0 b7 81 ad 3b 7f 1b 58 bd 9f e3 86 bd ec 60 f4 3d
       0.005295004 -0.052760597 -0.06586384 0.11932549
0000c0 bb c4 0d bb 87 45 11 bd 86 0f 0a bd 65 de 66 3d
       -0.0021632153 -0.035466697 -0.03370621 0.056364436
0000d0 10 22 de 3b 9b ff f0 bc 56 26 56 3d ca 1e 76 bc
       0.006778963 -0.029418757 0.052282654 -0.015021989
0000e0 0a b1 a6 3d d9 f9 73 3d 17 e5 9a 3d 9a c1 11 be
       0.08139236 0.059564445 0.07563227 -0.1423401
0000f0 31 7a 06 bd d4 41 05 3d bf 3b 99 3b 87 53 90 3d
       -0.032831375 0.03253348 0.0046763117 0.070471816
000100 44 22 fa 3d 71 d3 6f bd e7 26 4e 3d 7c 53 9b bc
       0.12213567 -0.058551256 0.05033007 -0.018960707
000110 e9 30 a8 3c f9 1e a5 3c a4 77 86 bc 71 76 64 3a
       0.020531135 0.02015637 -0.016414471 0.0008715159
000120 ab 6e 56 3d b4 03 b9 bb f2 2d 25 bf c0 48 c2 bb
       0.052351635 -0.0056461934 -0.6452323 -0.0059290826
000130 90 77 d4 3d cf 81 41 3d 14 d9 df bd 56 5d ed bd
       0.10374367 0.047242936 -0.10930076 -0.11590068
000140 1f 94 23 3a 56 8c 58 3d 4a 80 15 bd 1a 0d 23 3a
       0.00062400283 0.05286821 -0.0364993 0.0006219909
000150 8a b3 4b ba 25 65 c6 3c f5 55 c7 3d be e7 05 bc
       -0.0007770589 0.024218151 0.09733192 -0.008172927
000160 9d 0f be 3d 62 f2 0d 3d c5 7d 89 3d 52 d7 8d 3d
       0.09280322 0.034654982 0.06713442 0.06925835
000170 79 71 5e 3c 9a 9e ea bd e7 28 07 bd fe 98 b2 bd
       0.013576859 -0.11456032 -0.032997992 -0.08720587
000180 5e 28 fe bb c3 ec b4 3d 53 e7 a3 bd 4d 00 d4 bb
       -0.007756277 0.08834221 -0.08003106 -0.0064697624
000190 83 8f cc bc 1f 96 0d bd 0d f3 08 3d fa b4 55 bb
       -0.024970775 -0.034566995 0.033434916 -0.003260909
0001a0 18 71 33 bd 7a 89 ac ba 53 0a 8b 3d 47 02 2f 3c
       -0.043809026 -0.001316353 0.067890786 0.010681695
0001b0 8e a5 f0 3c 7b ef f5 3c 7b f3 39 3c c6 e3 91 3c
       0.029375818 0.03002142 0.011349554 0.017808806
0001c0 11 23 96 bd 3c 9b ac bd 55 e8 ad bd ea 42 b9 b9
       -0.07330907 -0.08428046 -0.084915794 -0.00035335805
0001d0 0e 17 19 3d b4 d3 52 3d 00 70 f8 bc 34 36 b5 bd
       0.037375502 0.051471427 -0.030326843 -0.08848229
0001e0 48 34 ec 3c 3b ec 3f bd 79 2e df bb e8 41 88 bb
       0.028833523 -0.046856146 -0.00681096 -0.0041582473
0001f0 23 90 91 bd 8b 32 f2 3d 4a 87 3f bc 03 ba b7 bd
       -0.0710757 0.118260466 -0.01168997 -0.08971026

gin3.nn.bias f4 [2]
000000 e8 ba 53 3f d5 de 57 bf
       0.8270707 -0.8432439
